net-fullModel.pth (torch, 681097 bytes, 120 tensors)

weight f4 [2, 1, 1, 1]
0.8041462 0.48274165
00000000: 86dc 4d3f ea29 f73e

bias f4 [2]
0.17318954 0.21453266
00000000: 9958 313e 73ae 5b3e

bias f4 [2]
0.28381073 0.17907555
00000000: a44f 913e 955f 373e

weight_g f4 [2, 1, 1, 1]
0.8898166 0.9909862
00000000: 05cb 633f 46b1 7d3f

weight_v f4 [2, 1, 3, 3]
-0.20370929 -0.04395824 0.06381202 -0.15926503 0.10853593 0.20128363 -0.12000362 0.1300455
0.15296002 0.15329915 -0.18674816 -0.489991 0.354199 0.13177513 -0.09398591 0.14559345
0.032888994 -0.0533552
00000000: 2b99 50be 8e0d 34bd e0af 823d 5f16 23be
00000010: 1648 de3d 4c1d 4e3e 75c4 f5bd a62a 053e
00000020: 8da1 1c3e 74fa 1c3e e93a 3fbe 1ae0 fabe
00000030: 9259 b53e 0ff0 063e af7b c0bd 7316 153e
00000040: 9cb6 063d fb8a 5abd

weight f4 [2, 1, 3, 3]
-0.4292263 -0.093812436 0.13236567 -0.33600822 0.22611536 0.42074844 -0.2538086 0.27105883
0.31923136 0.2192787 -0.26947087 -0.70524126 0.50791335 0.1882252 -0.13621207 0.20822378
0.046123937 -0.07783983
00000000: 8dc3 dbbe bc20 c0bd de8a 073e 4509 acbe
00000010: c98a 673e 576c d73e 33f3 81be 39c8 8a3e
00000020: 4b72 a33e 988a 603e 16f8 89be b18a 34bf
00000030: 9c06 023f 1bbe 403e 2d7b 0bbe 9d38 553e
00000040: 74ec 3c3d 7d6a 9fbd

bias f4 [2]
0.19235557 0.2857169
00000000: dcf8 443e 7c49 923e

weight_g f4 [2, 1, 1, 1]
1.0180552 1.0320837
00000000: a24f 823f 521b 843f

weight_v f4 [2, 2, 3, 3]
0.1860551 0.25524712 0.0135863265 0.3176297 0.29689413 0.05037047 0.29327 0.07318881
0.022115875 0.0591002 0.14498587 0.21031474 -0.051352877 0.06442251 0.10712099 0.046380587
0.16244589 0.233163 0.18869177 0.20782767 0.1351638 0.19876416 0.19299406 0.113009945
0.1395465 0.1352757 0.08972108 0.13604888 0.20272975 0.19998352 0.01600935 0.08665553
0.07525578 0.11132183 0.18164515 0.17710075
00000000: 3a85 3e3e c0af 823e 2f99 5e3c 5ca0 a23e
00000010: 8202 983e 4451 4e3d 7c27 963e 04e4 953d
00000020: 5a2c b53c 0d13 723d 2d77 143e bf5c 573e
00000030: 6557 52bd f3ef 833d 4062 db3d 92f9 3d3d
00000040: 3758 263e 48c2 6e3e 6a38 413e c7d0 543e
00000050: 6168 0a3e d588 4b3e 3ca0 453e c271 e73d
00000060: 47e5 0e3e b785 0a3e b0bf b73d 6650 0b3e
00000070: 6398 4f3e 7bc8 4c3e 0a26 833c 7478 b13d
00000080: b41f 9a3d b3fc e33d 3001 3a3e e659 353e

weight f4 [2, 2, 3, 3]
0.25489256 0.3495594 0.018241035 0.43545577 0.40624356 0.06865606 0.4014776 0.1001274
0.029984029 0.08007174 0.19807029 0.28748658 -0.07070349 0.087854445 0.1463741 0.062376376
0.22196448 0.31868955 0.2994598 0.33013064 0.21483698 0.3155205 0.30629337 0.18006372
0.22123353 0.21490905 0.14309031 0.2160787 0.3219693 0.31742716 0.026205735 0.13834722
0.120345645 0.17732656 0.28886688 0.28144297
00000000: 4781 823e 73f9 b23e 396e 953c 0ff4 de3e
00000010: 28ff cf3e 8c9b 8c3d 798e cd3e 980f cd3d
00000020: 11a1 f53c a7fc a33d f0d2 4a3e 7131 933e
00000030: fecc 90bd 08ed b33d 18e3 153e 5f7e 7f3d
00000040: a84a 633e 472b a33e cb52 993e e206 a93e
00000050: 3afe 5b3e e78b a13e 7cd2 9c3e a062 383e
00000060: 0b8b 623e 1e11 5c3e 4486 123e bc43 5d3e
00000070: 29d9 a43e d085 a23e 69ad d63c e5aa 0d3e
00000080: c777 f63d 1895 353e 5ce6 933e 4b19 903e

weight f4 [4, 2, 1, 1]
-0.24344288 0.064354144 -0.09422705 -0.47439507 0.15525524 0.2788592 0.41914582 0.060891997
00000000: 1749 79be 1bcc 833d 1dfa c0bd e9e3 f2be
00000010: 3bfb 1e3e a2c6 8e3e 489a d63e e369 793d

bias f4 [4]
0.05912511 -0.0068069077 0.016238093 0.030792633
00000000: 2c2d 723d 7b0c dfbb c005 853c d540 fc3c

bias f4 [4]
0.04196323 -0.00031449637 0.1193062 0.10829603
00000000: a3e1 2b3d fde2 a4b9 cf56 f43d 4fca dd3d

weight_g f4 [4, 1, 1, 1]
0.7752953 0.85278606 0.83410823 0.77101576
00000000: c179 463f 3050 5a3f 1e88 553f 4a61 453f

weight_v f4 [4, 2, 3, 3]
0.00995153 -0.02873109 0.06268127 -0.037997674 0.11928463 0.1315425 0.072840825 0.27296615
0.16310821 0.028026069 0.05564454 0.04956463 0.013960132 0.10757281 0.16082701 0.10979432
0.20773622 0.1738812 0.023555141 -0.11978379 0.10659547 0.08879519 0.19225195 -0.12086435
0.20475385 0.018760338 0.1393109 0.09795377 -0.07492306 0.098227315 -0.014792009 0.17343752
-0.17287897 0.35328814 0.009738686 -0.03327647 0.01490856 0.102291316 0.089246884 0.07942981
0.19546114 0.11612355 0.10572275 0.2436594 0.15852065 0.035399713 0.063485876 0.011647495
0.114382975 0.23669402 0.07590093 0.12476991 0.2834495 0.1503468 -0.026530212 0.064812616
0.08443273 0.014770086 0.15237534 0.24047661 -0.019385116 0.15157075 0.11178381 0.011733247
0.035236124 0.07318082 0.030827245 0.14300594 0.30264968 0.07081538 0.12751687 0.1633524
00000000: be0b 233c 765d ebbc 0a5f 803d 73a3 1bbd
00000010: 804b f43d 14b3 063e 922d 953d 38c2 8b3e
00000020: d705 273e ed96 e53c 87eb 633d 4804 4b3d
00000030: 0ab9 643c 224f dc3d d6af 243e d8db e03d
00000040: ceb8 543e ea0d 323e b6f6 c03c 3451 f5bd
00000050: ba4e da3d 41da b53d b2dd 443e ba87 f7bd
00000060: feaa 513e 48af 993c 84a7 0e3e fc9b c83d
00000070: 4371 99bd 672b c93d 2f5a 72bc 9b99 313e
00000080: 2f07 31be 2fe2 b43e 028f 1f3c e84c 08bd
00000090: 0843 743c 1c7e d13d 12c7 b63d 19ac a23d
000000a0: f726 483e 2fd2 ed3d 2b85 d83d da81 793e
000000b0: 3d53 223e 4aff 103d e204 823d 23d5 3e3c
000000c0: 9f41 ea3d eb5f 723e f271 9b3d 5e87 ff3d
000000d0: 4b20 913e 83f4 193e e355 d9bc 7abc 843d
000000e0: 11eb ac3d 3bfe 713c 4808 1c3e 803f 763e
000000f0: 89cd 9ebc 5d35 1b3e e9ee e43d ce3c 403c
00000100: c153 103d d3df 953d 6b89 fc3c 2670 123e
00000110: e6f4 9a3e a707 913d c893 023e da45 273e

weight f4 [4, 2, 3, 3]
0.014666803 -0.04245454 0.0931951 -0.0564458 0.17678337 0.19537772 0.10772524 0.40404606
0.24206512 0.04152794 0.08276984 0.07368085 0.020581968 0.15948485 0.23863766 0.16253951
0.30747187 0.25794506 0.033866458 -0.17040543 0.15204433 0.1263718 0.2741414 -0.17177512
0.29131442 0.026776033 0.19872428 0.13998453 -0.10655029 0.14006433 -0.021170778 0.24725866
-0.24603508 0.5029313 0.013822675 -0.047219273 0.020405546 0.1403336 0.12251214 0.1085711
0.2677089 0.15926552 0.14452158 0.33324033 0.2173841 0.04850046 0.08720194 0.016085986
0.15645878 0.3241512 0.10403504 0.17066902 0.3878579 0.20612082 -0.037583273 0.09210071
0.11974196 0.020597283 0.2152745 0.3406922 -0.027626412 0.21397914 0.15833706 0.016505394
0.050164413 0.10369692 0.043285865 0.20208248 0.4284658 0.10007591 0.1800719 0.23139201
00000000: 084d 703c d0e4 2dbd 13dd be3d b633 67bd
00000010: b306 353e 1911 483e 0d9f dc3d 20df ce3e
00000020: ebdf 773e 3419 2a3d 3c83 a93d fce5 963d
00000030: 849b a83c ff4f 233e 6e5d 743e c270 263e
00000040: f46c 9d3e 6011 843e 8eb7 0a3d c37e 2ebe
00000050: 82b1 1b3e 9c67 013e 435c 8c3e d1e5 2fbe
00000060: 2a27 953e 6959 db3c 617e 4b3e 1b58 0f3e
00000070: 0a37 dabd 066d 0f3e 576e adbc 6031 7d3e
00000080: 9ff0 7bbe 1bc0 003f 8078 623c ff68 41bd
00000090: 8829 a73c 9cb3 0f3e a5e7 fa3d 865a de3d
000000a0: 2411 893e 8016 233e 77fd 133e 7a9e aa3e
000000b0: f099 5e3e 6ba8 463d ee96 b23d c2c6 833c
000000c0: bb36 203e 25f7 a53e 5310 d53d dcc3 2e3e
000000d0: 5095 c63e 5611 533e ebf0 19bd 4c9f bc3d
000000e0: 463b f53d a2bb a83c eb70 5c3e 356f ae3e
000000f0: c950 e2bc 591d 5b3e 1c23 223e 5236 873c
00000100: 3379 4d3d 0d5f d43d 854c 313d b6ee 4e3e
00000110: df5f db3e 99f4 cc3d c564 383e 07f2 6c3e

bias f4 [4]
-0.0573722 0.019739466 -0.02827732 -0.03450373
00000000: 1dff 6abd a9b4 a13c d7a5 e7bc c853 0dbd

weight_g f4 [4, 1, 1, 1]
0.8920918 0.5936171 0.83608925 0.92322665
00000000: 2160 643f 4af7 173f f209 563f 9558 6c3f

weight_v f4 [4, 4, 3, 3]
0.081684075 0.07194076 0.0069691674 0.09635008 0.07963668 0.029850712 -0.09617085 -0.18348773
-0.15145777 0.11965011 0.061145928 0.066446066 0.099770024 -0.047329254 0.14397794 -0.03966041
-0.0072322274 -0.12006239 0.070111506 0.007537459 0.07236053 0.13418163 0.098301336 0.021759558
-0.13288313 0.008539581 -0.19224578 -0.012434529 -0.022552643 -0.008255494 0.048043806 0.06941282
0.07497596 -0.08492018 -0.124364026 0.11329653 0.13539736 -0.0032542672 -0.1365798 -0.14791344
-0.049469642 -0.0007694319 0.10010136 -0.07860281 0.118105434 0.08282895 0.15624006 -0.14434564
0.09944558 -0.10841243 0.13583706 0.14774105 -0.017803846 0.041289095 0.025184922 0.0985018
0.16092545 0.08742713 0.09507756 0.1580613 0.002264073 0.015811041 0.14241026 0.072796166
0.16758569 -0.06812371 -0.105688475 -0.06916381 0.059914507 0.11024389 0.03717426 -0.0753906
-0.044106644 -0.0541697 -0.032717183 -0.25135747 -0.12278997 -0.015631618 -0.24969304 -0.059057407
0.083574705 0.030131256 -0.05670582 -0.05192108 -0.03204692 -0.09257092 -0.16271707 -0.041972544
-0.16485645 -0.0028720945 0.008706856 -0.06910873 -0.108240604 -0.19083525 -0.12135759 -0.0034245348
-0.15091541 -0.063009486 -0.022915727 -0.05833479 0.037712112 0.0035243714 -0.060450427 0.057166237
-0.08119267 -0.23113498 -0.029414207 -0.09903481 -0.03728392 -0.049647357 -0.017896613 -0.2638092
-0.109057926 0.015491777 -0.20022672 -0.052036338 0.059294418 0.04884911 -0.03680626 -0.060332317
-0.027870093 -0.091300264 -0.17026307 -0.044572365 -0.18723354 0.009491326 0.021487324 -0.10992101
-0.022918127 -0.25290293 -0.18228002 0.051792853 -0.26359338 -0.18815881 -0.01349233 -0.04678547
0.012528642 -0.017267875 -0.16009024 -0.021810539 0.016855087 -0.22913505 -0.029671773 0.01901508
00000000: fb49 a73d ad55 933d 9d5d e43b 3153 c53d
00000010: 8e18 a33d 7b89 f43c 39f5 c4bd 35e4 3bbe
00000020: bf17 1bbe 1e0b f53d 2774 7a3d e014 883d
00000030: 3a54 cc3d 52dc 41bd f46e 133e f472 22bd
00000040: 52fc ecbb 45e3 f5bd 9f96 8f3d cafc f63b
00000050: c231 943d e966 093e 3652 c93d 1a41 b23c
00000060: 8412 08be 99e9 0b3c 14dc 44be 32ba 4bbc
00000070: 52c0 b8bc 0d42 07bc 95c9 443d 4f28 8e3d
00000080: ff8c 993d a2ea adbd 91b2 febd 0308 e83d
00000090: 9ba5 0a3e 8b45 55bb 93db 0bbe 9f76 17be
000000a0: aea0 4abd b3b3 49ba f101 cd3d 83fa a0bd
000000b0: 43e1 f13d 39a2 a93d 65fd 1f3e 58cf 13be
000000c0: 20aa cb3d 5607 debd df18 0b3e 6e49 173e
000000d0: 5fd9 91bc c11e 293d 9c50 ce3c 50bb c93d
000000e0: a4c9 243e ff0c b33d 06b8 c23d d2da 213e
000000f0: d760 143b 2886 813c ffd3 113e 2816 953d
00000100: 959b 2b3e 7284 8bbd 3373 d8bd c1a5 8dbd
00000110: ea68 753d 8cc7 e13d 0944 183d 6366 9abd
00000120: 2ba9 34bd 0ce1 5dbd 7402 06bd edb1 80be
00000130: 4f79 fbbd e10d 80bc 88af 7fbe 2ee6 71bd
00000140: 3729 ab3d d3d5 f63c 5d44 68bd 33ab 54bd
00000150: a243 03bd d395 bdbd 4e9f 26be 67eb 2bbd
00000160: 21d0 28be c039 3cbb 33a7 0e3c e188 8dbd
00000170: 40ad ddbd 516a 43be 548a f8bd 296e 60bb
00000180: 9289 1abe 1e0b 81bd c3b9 bbbc 76f0 6ebd
00000190: 0478 1a3d 24f9 663b de9a 77bd 2527 6a3d
000001a0: 5848 a6bd a6ae 6cbe 10f6 f0bc c3d2 cabd
000001b0: 06b7 18bd 075b 4bbd eb9b 92bc 0012 87be
000001c0: c359 dfbd 39d1 7d3c 3c08 4dbe 0e24 55bd
000001d0: b4de 723d 0116 483d 29c2 16bd 051f 77bd
000001e0: d24f e4bc a2fb babd 7159 2ebe 8391 36bd
000001f0: 26ba 3fbe 8281 1b3c 2f06 b03c 441e e1bd
00000200: ccbe bbbc 7e7c 81be 9da7 3abe be24 543d
00000210: b6f5 86be b4ac 40be ef0e 5dbc 1fa2 3fbd
00000220: ef44 4d3c 5c75 8dbc b2ee 23be 04ac b2bc
00000230: ae13 8a3c 61a2 6abe 3812 f3bc 83c5 9b3c

weight f4 [4, 4, 3, 3]
0.13063401 0.1158761 0.010886986 0.15359491 0.12769802 0.04774838 -0.15595682 -0.29593387
-0.24412735 0.18990001 0.09834349 0.107327625 0.1584541 -0.078052565 0.23113379 -0.06466107
-0.012920206 -0.1942044 0.111809395 0.012293249 0.11636877 0.21436965 0.15772 0.03481167
-0.21519585 0.013099447 -0.30980897 -0.020040818 -0.03619997 -0.013708744 0.07631348 0.11158145
0.120388046 -0.13795811 -0.20058824 0.18214796 0.12992209 -0.0031226694 -0.13105671 -0.14193204
-0.047469165 -0.0007383172 0.096053414 -0.07542424 0.113329425 0.07947946 0.14992194 -0.13850851
0.09542415 -0.1040284 0.13034402 0.14176662 -0.017083885 0.039619427 0.024166482 0.094518535
0.15441786 0.08389171 0.09123277 0.15166953 0.0021725171 0.015171667 0.13665141 0.069852404
0.16080877 -0.06536889 -0.10141459 -0.066366926 0.057491653 0.105785795 0.03567099 -0.07234192
-0.05798492 -0.07117946 -0.04301792 -0.32954484 -0.16108917 -0.0206022 -0.32738468 -0.07764806
0.10947491 0.03968866 -0.07464719 -0.06829986 -0.041939218 -0.121036366 -0.21341522 -0.05497493
-0.21589306 -0.003935133 0.011363367 -0.090772055 -0.14209245 -0.25015408 -0.15923214 -0.0045733983
-0.19776514 -0.08270937 -0.030213246 -0.07666753 0.04940633 0.004522107 -0.07928573 0.07493883
-0.10662889 -0.30296314 -0.038726438 -0.13006333 -0.048194848 -0.06403022 -0.02311948 -0.3390603
-0.14032164 0.019819742 -0.25729835 -0.06711805 0.07606879 0.06302373 -0.04770065 -0.0778612
-0.035560176 -0.11709627 -0.21904765 -0.057191245 -0.2403445 0.012024162 0.02750722 -0.1415981
-0.02958823 -0.32510915 -0.23457725 0.066506505 -0.33873382 -0.24214229 -0.017535385 -0.06043204
0.015988076 -0.022311274 -0.20602608 -0.028165976 0.021567982 -0.29449034 -0.038341075 0.024303593
00000000: ecc4 053e 7350 ed3d 545f 323c fc47 1d3e
00000010: 45c3 023e ce93 433d 25b3 1fbe a584 97be
00000020: 85fc 79be 2675 423e 5068 c93d 96ce db3d
00000030: cb41 223e 06da 9fbd 56ae 6c3e 066d 84bd
00000040: 46af 53bc 85dd 46be 53fc e43d a069 493c
00000050: c052 ee3d b883 5b3e 5a81 213e af96 0e3d
00000060: 4d5c 5cbe 109f 563c 489f 9ebe a42c a4bc
00000070: 6b46 14bd a49a 60bc 3e4a 9c3d d184 e43d
00000080: 028e f63d e444 0dbe 0167 4dbe ff84 3a3e
00000090: 4c0a 053e b3a5 4cbb bb33 06be a256 11be
000000a0: 076f 42bd a18b 41ba a7b7 c43d 0678 9abd
000000b0: 4219 e83d 21c6 a23d 2385 193e 2dd5 0dbe
000000c0: bd6d c33d d70c d5bd e778 053e 452b 113e
000000d0: 81f3 8bbc fb47 223d c9f8 c53c ef92 c13d
000000e0: b71f 1e3e 6bcf ab3d 3fd8 ba3d 424f 1b3e
000000f0: ca60 0e3b 9592 783c 59ee 0b3e c70e 8f3d
00000100: 0eab 243e 20e0 85bd 74b2 cfbd 62eb 87bd
00000110: 5e7c 6b3d 39a6 d83d be1b 123d 0028 94bd
00000120: 9881 6dbd 89c6 91bd 8f33 30bd 1aba a8be
00000130: 8ff4 24be f2c5 a8bc f79e a7be f205 9fbd
00000140: 6234 e03d 9490 223d a0e0 98bd cce0 8bbd
00000150: 75c8 2bbd eae1 f7bd 8589 5abe 642d 61bd
00000160: 1213 5dbe 4af2 80bb 6a2d 3a3c b3e6 b9bd
00000170: af80 11be 3214 80be c00d 23be 72dc 95bb
00000180: f282 4abe 8863 a9bd c581 f7bc de03 9dbd
00000190: 4b5e 4a3d 2f2e 943b 8f60 a2bd 8879 993d
000001a0: 3f60 dabd fc1d 9bbe 9d9f 1ebd 522f 05be
000001b0: f667 45bd 4722 83bd 1065 bdbc 5099 adbe
000001c0: 7ab0 0fbe 035d a23c 9cbc 83be 3075 89bd
000001d0: f4c9 9b3d 9612 813d c261 43bd b175 9fbd
000001e0: 8ca7 11bd 2bd0 efbd 074e 60be 5e41 6abd
000001f0: de1c 76be fe00 453c d256 e13c 18ff 10be
00000200: 0463 f2bc b574 a6be 0535 70be 9034 883d
00000210: 856e adbe 26f4 77be 5ea6 8fbc 9687 77bd
00000220: 6df9 823c 22c6 b6bc 80f8 52be 55bc e6bc
00000230: 56af b03c 70c7 96be 880b 1dbd 5418 c73c

weight f4 [8, 4, 1, 1]
-0.38614458 -0.114750095 -0.24822885 -0.2643223 0.20503655 -0.2053309 -0.41311118 0.16899605
-0.18118073 -0.23731017 0.061376076 -0.5342065 -0.33135122 -0.0045755496 0.48744017 0.6634058
-0.39911354 -0.24135405 0.36294007 -0.30528742 -0.054280106 0.021014892 0.104959294 0.49891242
-0.53258187 -0.048438523 0.031060051 0.50994265 -0.1051084 0.3504955 -0.4603531 -0.21435834
00000000: beb4 c5be 1902 ebbd b42f 7ebe 4155 87be
00000010: 1af5 513e 4342 52be 4f83 d3be 4d0d 2d3e
00000020: 7187 39be 7001 73be 7b65 7b3d c2c1 08bf
00000030: dea6 a9be 7eee 95bb c291 f93e f6d4 293f
00000040: 9c58 ccbe 8425 77be 48d3 b93e a24e 9cbe
00000050: d154 5ebd 6c27 ac3c e6f4 d63d 7371 ff3e
00000060: 4957 08bf 7967 46bd a671 fe3c 9a8b 023f
00000070: 1343 d7bd 2574 b33e 67b3 ebbe c180 5bbe

bias f4 [8]
0.006296613 -0.022861231 0.021160843 0.01410762 -0.02120541 0.02431397 0.037002787 0.054005086
00000000: d153 ce3b 7a47 bbbc 8159 ad3c a623 673c
00000010: f8b6 adbc 172e c73c 3c90 173d 7034 5d3d

bias f4 [8]
-0.040070917 0.17369622 0.038293004 0.039478455 0.051784806 0.08910081 0.08634306 -0.046060488
00000000: 6721 24bd 6cdd 313e 20d9 1c3d 29b4 213d
00000010: 4e1c 543d 7c7a b63d a1d4 b03d eca9 3cbd

weight_g f4 [8, 1, 1, 1]
0.576186 0.79831874 0.7120602 0.7674506 0.64072615 0.7740786 0.73720473 0.51413935
00000000: ed80 133f 9e5e 4c3f 9449 363f a477 443f
00000010: a106 243f 042a 463f 73b9 3c3f a39e 033f

weight_v f4 [8, 4, 3, 3]
-0.06294528 0.13268672 -0.12284301 0.017954288 0.15665956 -0.13290152 -0.0672978 0.029861292
-0.10799025 -0.131098 0.06953717 0.10686704 -0.079189025 -0.10884513 -0.1297734 -0.13339461
0.09757095 0.14408158 -0.05842559 -0.036909577 0.07594151 0.092811815 0.06332241 -0.14128028
-0.16835068 0.093367845 -0.12100145 -0.08027947 -0.14367448 -0.07000083 0.010145589 -0.09383883
-0.039191514 -0.025218237 -0.09056783 0.10123698 -0.0058553168 -0.03191439 -0.052439824 0.023041759
-0.05571333 -0.06310904 0.05667136 0.035033416 0.0359134 1.1484067e-09 -7.304429e-10 2.0904264e-10
4.766677e-10 3.8626674e-10 2.6909328e-10 2.6463624e-08 9.3616045e-11 -5.165769e-06 0.018597946 0.11934354
0.0992075 0.07706106 0.2901557 0.115724586 0.060625136 0.06676966 -0.05213847 -0.030953435
0.23241942 0.08985566 0.011366222 0.3338661 0.05482698 0.05495764 0.14627038 -0.08863186
-0.012500213 -0.0064867996 0.026806679 0.02421741 -0.0127334 -0.0066037374 0.05170307 -0.0017358297
0.02352781 2.6981404e-08 -3.3111147e-07 1.3462252e-08 -0.00016645827 0.006217732 -0.012949427 0.0185448
7.7153595e-10 5.6125793e-09 0.111926354 -0.04795299 0.09179879 0.23709424 0.08321541 -0.05701782
-0.023964878 0.013176061 0.07481782 0.21369898 -0.037613347 -0.036755588 0.29106238 0.04542474
0.06454288 0.18624145 -0.15801863 0.14759797 -0.035196748 -0.000483354 -0.013492039 -0.005227291
-0.0038426884 -0.0106368065 -0.012939894 -0.014391291 0.022105224 -0.016763566 2.3492694e-11 -1.1557018e-07
5.436422e-10 2.0116174e-07 -6.433798e-11 3.876247e-06 0.00049678585 -1.8947523e-05 0.1436965 -0.07050046
-0.053734925 0.09242117 -0.04071453 -0.030302394 -0.05523208 0.04686632 0.08777478 0.17030153
-0.11841629 -0.03981397 0.30080777 0.0065664668 -0.14589275 0.065692514 0.019574827 -0.050318267
0.031158252 0.004841042 -0.021375753 0.05524178 0.0053191916 0.0010656897 0.06267399 0.01477882
0.0032152229 0.009802401 0.00010012768 0.018443123 -0.03631491 -0.00017581563 0.045979697 0.03322996
-7.977159e-05 8.26451e-06 0.018338239 0.040609445 0.051455703 0.077163465 0.15505545 -0.09875608
0.18794465 0.18986449 0.03726089 -0.07354426 -0.018081877 0.07057744 0.19891305 0.044487633
-0.013864618 0.031202951 0.17326188 0.024693683 0.003375328 0.016213428 0.030480333 0.01092546
-0.007793571 0.016878141 -0.0019088055 -0.030501474 -0.012242434 -0.00029179303 0.002222514 -2.2183713e-05
-5.448219e-10 -2.0992023e-10 1.7347531e-11 -3.712615e-06 0.0019572931 -6.65178e-08 -0.027796235 -0.08687814
-0.099699974 0.12871969 0.030046422 -0.012911196 0.11128126 0.12596771 -0.100829594 -0.006731541
-0.01939323 -0.043452803 0.2729369 0.08045054 -0.00058477453 0.17022254 0.07982193 0.021330616
-0.067839056 0.09636981 0.018976614 -0.02056985 0.07385513 -0.04024454 0.06530991 0.08447782
0.017347438 -0.008138779 -0.045593906 0.047055874 -0.03708325 0.03660178 0.032255918 -0.044677015
0.03271776 0.0007908036 0.010707296 -0.112351514 0.112110704 0.1581725 -0.046567675 0.1917953
0.055050805 -0.0053411205 0.16409108 0.15165791 -0.028037997 0.15068887 0.14515623 -0.03233231
0.18818676 0.11294286 0.014290173 0.18858379 -0.14875378 0.15470307 -0.022668397 -0.119271845
00000000: 74e9 80bd 07df 073e 1e95 fbbd df14 933c
00000010: 5d6b 203e 5617 08be 6ed3 89bd ab9f f43c
00000020: fe29 ddbd 8e3e 06be 8169 8e3d 1bdd da3d
00000030: db2d a2bd 32ea debd 51e3 04be 9998 08be
00000040: 47d3 c73d 1f8a 133e ac4f 6fbd 7f2e 17bd
00000050: 3987 9b3d 1f14 be3d 2eaf 813d c7ab 10be
00000060: 1f64 2cbe a437 bf3d 9ccf f7bd 9069 a4bd
00000070: 671f 13be 985c 8fbd af39 263c 932e c0bd
00000080: 4887 20bd 7a96 cebc a07b b9bd 5555 cf3d
00000090: f5dd bfbb aab8 02bd 24cb 56bd 12c2 bc3c
000000a0: a933 64bd 503f 81bd 3a20 683d 337f 0f3d
000000b0: ee19 133d f8d5 9d30 59c8 48b0 46d8 652f
000000c0: 8206 0330 365a d42f 83ef 932f 2052 e332
000000d0: 26dd cd2e 9e55 adb6 b85a 983c 636a f43d
000000e0: 4d2d cb3d 30d2 9d3d 4a8f 943e 0301 ed3d
000000f0: 1052 783d 88be 883d 268f 55bd 0f92 fdbc
00000100: 5bff 6d3e 3f06 b83d 6439 3a3c 7ff0 aa3e
00000110: 4192 603d 431b 613d e7c7 153e 9f84 b5bd
00000120: b2cd 4cbc 388f d4bb ae99 db3c 9763 c63c
00000130: c09f 50bc 2a64 d8bb 99c6 533d c884 e3ba
00000140: 65bd c03c bcc4 e732 9dc3 b1b4 9c47 6732
00000150: 4d8b 2eb9 1ebe cb3b d529 54bc 44eb 973c
00000160: 0414 5430 c5d8 c031 a539 e53d 5b6a 44bd
00000170: 0101 bc3d d5c8 723e d76c aa3d 858b 69bd
00000180: fe51 c4bc 68e0 573c 163a 993d e8d3 5a3e
00000190: 7410 1abd 078d 16bd 2106 953e 4b0f 3a3d
000001a0: 0f2f 843d 14b6 3e3e a3cf 21be ec23 173e
000001b0: 772a 10bd ad6a fdb9 b70d 5dbc b249 abbb
000001c0: 9dd5 7bbb 0046 2ebc d901 54bc 73c9 6bbc
000001d0: 0416 b53c bf53 89bc d8a4 ce2d 612f f8b3
000001e0: 6b6f 1530 ebfe 5734 107b 8dae b510 8236
000001f0: bc3a 023a 7ff1 9eb7 2d25 133e 8c62 90bd
00000200: 2719 5cbd 4f47 bd3d 47c4 26bd ba3c f8bc
00000210: 093b 62bd e6f6 3f3d 44c3 b33d 8663 2e3e
00000220: 3d84 f2bd f913 23bd 7a03 9a3e 842b d73b
00000230: e964 15be cc89 863d 635b a03c 871a 4ebd
00000240: 973f ff3c 9ba1 9e3b 341c afbc 3445 623d
00000250: 9d4c ae3b 9dae 8b3a 395b 803d dd22 723c
00000260: 7db6 523b 409a 203c a4fb d138 0816 973c
00000270: f1be 14bd 265b 38b9 3555 3c3d 231c 083d
00000280: 0c4b a7b8 cda7 0a37 133a 963c 1756 263d
00000290: 37c3 523d e107 9e3d dbc6 1e3e a140 cabd
000002a0: 9074 403e d66b 423e e09e 183d 5f9e 96bd
000002b0: 7220 94bc e88a 903d ddaf 4b3e aa38 363d
000002c0: 6c28 63bc 559d ff3c 906b 313e 684a ca3c
000002d0: 9b34 5d3b 06d2 843c e4b1 f93c b300 333c
000002e0: 3661 ffbb 0744 8a3c e230 faba 3ade f9bc
000002f0: 7d94 48bc ccfb 98b9 99a7 113b 2917 bab7
00000300: 6fc2 15b0 4bcf 66af 2b97 982d 3d26 79b6
00000310: ee45 003b 8cd8 8eb3 eeb4 e3bc 2bed b1bd
00000320: 802f ccbd 18cf 033e ea23 f63c 7b89 53bc
00000330: 6ee7 e33d aefd 003e bf7f cebd 4294 dcbb
00000340: 8dde 9ebc 91fb 31bd 63be 8b3e 41c3 a43d
00000350: 8e4b 19ba d14e 2e3e ae79 a33d 8bbd ae3c
00000360: 34ef 8abd 895d c53d d874 9b3c 1a82 a8bc
00000370: 5c41 973d 75d7 24bd 34c1 853d b502 ad3d
00000380: 371c 8e3c 8358 05bc adc0 3abd a9bd 403d
00000390: 9be4 17bd c0eb 153d c81e 043d 3fff 36bd
000003a0: 0f03 063d ee4d 4f3a a86d 2f3c 8d18 e6bd
000003b0: 4c9a e53d f9f7 213e bfbd 3ebd fd65 443e
000003c0: f47c 613d 9104 afbb 7e07 283e 364c 1b3e
000003d0: f1af e5bc 2f4e 1a3e d6a3 143e e26e 04bd
000003e0: 08b4 403e 964e e73d 5421 6a3c 1c1c 413e
000003f0: e952 18be 7b6a 1e3e 13b3 b9bc cc44 f4bd

weight f4 [8, 4, 3, 3]
-0.059700895 0.12584765 -0.11651133 0.017028872 0.14858487 -0.1260514 -0.06382908 0.028322155
-0.102424115 -0.12434083 0.065953024 0.1013588 -0.075107396 -0.10323494 -0.1230845 -0.12651907
0.09254186 0.1366552 -0.055414163 -0.035007145 0.072027266 0.08802802 0.060058586 -0.13399827
-0.15967341 0.088555396 -0.11476468 -0.07614163 -0.13626908 -0.06639278 0.009622656 -0.0890021
-0.03717147 -0.023918416 -0.085899696 0.09601893 -0.0077823396 -0.04183241 -0.069347285 0.03052704
-0.07368021 -0.08354805 0.07537837 0.046531666 0.047494873 1.860966e-09 -1.6488867e-09 3.0522915e-10
1.1381144e-09 5.463831e-10 3.727197e-10 3.6166753e-08 8.1798894e-11 3.326018e-06 0.024278125 0.15707962
0.1309415 0.10158331 0.38291156 0.15285945 0.080245286 0.08831678 -0.06861179 -0.04107
0.3063052 0.11861166 0.014882904 0.4405735 0.072470665 0.07274711 0.19327204 -0.11681902
-0.015323407 -0.007911631 0.033974703 0.030367307 -0.01600882 -0.008385918 0.064691775 -0.0023111661
0.0293901 3.500321e-08 -4.4946157e-07 1.7663641e-08 -0.00021115091 0.007832016 -0.016290672 0.023316914
1.0389054e-09 7.2288655e-09 0.14020991 -0.06009563 0.11511798 0.29736173 0.10450632 -0.071468405
-0.029978465 0.016649643 0.09393407 0.26788926 -0.047092695 -0.04614002 0.36503905 0.05709571
0.08100557 0.23369224 -0.19812441 0.18520454 -0.057831872 -0.0008967781 -0.02225212 -0.008701966
-0.00628397 -0.017751442 -0.021493094 -0.02375683 0.036272552 -0.027662264 4.2674288e-11 -1.9897124e-07
6.7969363e-10 -1.0474205e-06 -1.7437286e-10 6.579233e-06 0.00082915835 -3.198137e-05 0.23528874 -0.11608155
-0.08801018 0.15090853 -0.067271665 -0.04967897 -0.09069417 0.07677526 0.14396304 0.279009
-0.19470268 -0.06520926 0.49309874 0.010365727 -0.2394257 0.10783597 0.032005657 -0.08267948
0.04357195 0.0075605367 -0.028900595 0.076870196 0.007699468 0.0016606088 0.08657045 0.02026336
0.004125101 0.013555015 0.00014857134 0.025497992 -0.05019898 -0.00024385224 0.06355686 0.045935217
-0.000117523006 1.2610061e-05 0.025020499 0.05564888 0.07097531 0.106596544 0.21425912 -0.1363568
0.25994146 0.2624969 0.051555783 -0.10187082 -0.025408404 0.09740062 0.27488014 0.061431583
-0.019029766 0.043243058 0.2395418 0.03417015 0.0072639133 0.029782226 0.054328963 0.020065771
-0.012857008 0.0298833 -0.0037895518 -0.05429084 -0.022137756 -0.00051522773 0.005270942 -3.9334285e-05
-1.0165898e-09 -3.8155198e-10 5.8152285e-11 -4.403554e-06 0.004832253 -1.1884606e-07 -0.04903183 -0.15176006
-0.17390579 0.22457182 0.052869856 -0.022118272 0.19441251 0.22019051 -0.17622347 -0.012244641
-0.033798303 -0.07561025 0.47666034 0.14100944 -0.0006068955 0.2975469 0.13953711 0.037236217
-0.08859083 0.12646925 0.02547615 -0.026924245 0.09674919 -0.052714814 0.08520707 0.11047371
0.022451634 -0.010661241 -0.059733905 0.06165044 -0.04857919 0.047946732 0.042252276 -0.058531776
0.04285654 0.001041434 0.014026956 -0.1472561 0.14685951 0.20748235 -0.06101576 0.25142673
0.07222262 -0.006850512 0.21507747 0.19876441 -0.03672422 0.19740167 0.19042215 -0.042354397
0.2466687 0.14807189 0.018879682 0.24712847 -0.124568656 0.12955122 -0.018982638 -0.09987999
00000000: ed88 74bd 35de 003e 7e9d eebd 2280 8b3c
00000010: a226 183e 9e13 01be d2b8 82bd dd03 e83c
00000020: bcc3 d1bd 68a6 febd 6112 873d 3495 cf3d
00000030: e8d1 99bd d76c d3bd ba13 fcbd 378e 01be
00000040: 9686 bd3d 57ef 0b3e f6f9 62bd a763 0fbd
00000050: 0883 933d 0948 b43d feff 753d d836 09be
00000060: 6d81 23be 885c b53d bf09 ebbd 25f0 9bbd
00000070: 1f8a 0bbe f0f8 87bd 58a8 1d3c bc46 b6bd
00000080: 1c41 18bd 8ef0 c3bc 2eec afbd 93a5 c43d
00000090: ff02 ffbb 7658 2bbd f305 8ebd d813 fa3c
000000a0: a6e5 96bd 3d1b abbd fa5f 9a3d fd97 3e3d
000000b0: fc89 423d ecc4 ff30 0b9f e2b0 2fcd a72f
000000c0: d76b 9c30 4b30 1630 a2e7 cc2f c455 1b33
000000d0: afe0 b32e 8e34 5f36 ebe2 c63c 7bd9 203e
000000e0: 8715 063e e90a d03d fc0c c43e 3087 1c3e
000000f0: a457 a43d 6edf b43d 5784 8cbd 0439 28bd
00000100: 09d4 9c3e acea f23d 6cd7 733c da92 e13e
00000110: 806b 943d 70fc 943d 1be9 453e cf3e efbd
00000120: 070f 7bbc c99f 01bc 0f29 0b3d dcc4 f83c
00000130: ee24 83bc 1765 09bc 1f7d 843d ef76 17bb
00000140: 82c3 f03c 7056 1633 874d f1b4 c2ba 9732
00000150: 6468 5db9 db51 003c 0474 85bc 1d03 bf3c
00000160: 3cc9 8e30 c661 f831 3093 0f3e d626 76bd
00000170: fac2 eb3d cc3f 983e 6907 d63d 075e 92bd
00000180: 6695 f5bc d564 883c 8160 c03d c828 893e
00000190: 45e4 40bd 51fd 3cbd 66e6 ba3e 31dd 693d
000001a0: 40e6 a53d 054d 6f3e 20e1 4abe 42a6 3d3e
000001b0: 1de1 6cbd c215 6bba 144a b6bc b192 0ebc
000001c0: c3e9 cdbb 796b 91bc 4912 b0bc af9d c2bc
000001d0: 8792 143d f99b e2bc faae 3b2e cca4 55b4
000001e0: 30d5 3a30 1895 8cb5 99b9 3faf 2ec3 dc36
000001f0: e05b 593a bc23 06b8 88ef 703e 2abc edbd
00000200: ae3e b4bd c487 1a3e bac5 89bd 2d7c 4bbd
00000210: ddbd b9bd 593c 9d3d 0c6b 133e 45da 8e3e
00000220: 2460 47be 6f8c 85bd 7077 fc3e 03d5 293c
00000230: 032c 75be 1bd9 dc3d 5d18 033d dc53 a9bd
00000240: 8078 323d 61be f73b f1c0 ecbc 1f6e 9d3d
00000250: d24b fc3b c9a8 d93a d94b b13d 59ff a53c
00000260: db2b 873b db15 5e3c d1c9 1b39 2ae1 d03c
00000270: 729d 4dbd 96b2 7fb9 192a 823d 9126 3c3d
00000280: af76 f6b8 cd8f 5337 caf7 cc3c 14f0 633d
00000290: 815b 913d 4a4f da3d be66 5b3e 1ea1 0bbe
000002a0: 0c17 853e fe65 863e 282c 533d a6a1 d0bd
000002b0: 4925 d0bc fa79 c73d 17bd 8c3e af9f 7b3d
000002c0: 50e4 9bbc a21f 313d 724a 753e 00f6 0b3d
000002d0: 1f06 ee3b dbf9 f33c 0c88 5e3d f960 a43c
000002e0: 33a6 52bc d3cd f43c 215a 78bb 1260 5ebd
000002f0: 3d5a b5bc 5910 07ba deb7 ac3b defa 24b8
00000300: 13b8 8bb0 abc2 d1af a7c1 7f2e 3ec2 93b6
00000310: e057 9e3b 5038 ffb3 9ad5 48bd fd66 1bbe
00000320: 5c14 32be 28f6 653e 108e 583d 6131 b5bc
00000330: 1314 473e 9f79 613e ed73 34be bf9d 48bc
00000340: 1770 0abd 8cd9 9abd d30c f43e c764 103e
00000350: 1118 1fba 1158 983e d1e2 0e3e 0185 183d
00000360: 1c6f b5bd 2881 013e 5cb3 d03c 3c90 dcbc
00000370: 7024 c63d 7deb 57bd 0b81 ae3d 0a40 e23d
00000380: 7dec b73c 7cac 2ebc 8aab 74bd 2c85 7c3d
00000390: f9fa 46bd cb63 443d b910 2d3d 04bf 6fbd
000003a0: 578a 2f3d ba80 883a 51d1 653c 4eca 16be
000003b0: 5762 163e 4176 543e a9eb 79bd 01bb 803e
000003c0: 74e9 933d 437a e0bb 453d 5c3e e688 4b3e
000003d0: 236c 16bd aa23 4a3e 06fe 423e ce7b 2dbd
000003e0: b896 7c3e 28a0 173e 90a9 9a3c 3f0f 7d3e
000003f0: da1d ffbd 13a9 043e 7a81 9bbc e18d ccbd

bias f4 [8]
-0.011787338 0.019050596 -0.008010801 -0.018851057 0.021874322 -0.026563456 -0.03344946 -0.06424009
00000000: ae1f 41bc ff0f 9c3c bc3f 03bc 886d 9abc
00000010: c731 b33c 9b9b d9bc 4d02 09bd 4f90 83bd

weight_g f4 [8, 1, 1, 1]
0.6369047 0.54862165 0.6993807 0.68389785 0.5656 0.7173738 0.74225837 0.7665662
00000000: 300c 233f 7872 0c3f 9d0a 333f ee13 2f3f
00000010: 29cb 103f cfa5 373f a504 3e3f af3d 443f

weight_v f4 [8, 8, 3, 3]
0.0174845 0.02670859 -0.012798233 -4.5220307e-07 0.004962583 0.032742966 0.013754927 -0.025422668
0.023657788 -0.11038671 -0.030853294 0.0036792997 -0.11021394 0.08407426 0.030222218 0.01543637
-0.056560747 0.028840778 0.019472055 -0.09491036 0.029279867 -0.0032141411 -0.04257492 0.108322866
0.013911917 0.016148658 0.059883017 0.049909607 -0.15228686 -0.009982207 -0.05158218 -0.09383284
0.07474876 -0.143291 -0.042220056 -0.013142966 0.04431189 -0.10126276 0.022087535 -0.109396756
0.030954054 0.009185407 -0.13696103 0.04002596 -0.15007345 -0.030502595 -0.047018792 0.059336048
-0.0038311258 -0.06567012 -0.034551732 -0.15509763 -0.040983092 -0.1701626 0.09364453 0.061215434
0.01808578 -0.106449105 0.001930191 0.005387249 -0.07078126 -0.04024509 -0.0818413 4.7435103e-07
0.017902695 6.434509e-09 3.214751e-08 -0.018273996 -0.0037443826 -2.5909479e-08 5.407577e-10 0.04086746
-0.07483865 -0.009783098 0.10401697 0.044649746 0.1086244 0.040358365 -0.1048632 0.03590307
-0.055431124 0.11869443 0.12320889 -0.03735998 -0.020619636 0.004323912 0.08832481 -0.025370229
0.11553793 -0.0334518 -0.051536433 0.07327753 0.07157852 0.06253591 0.11741046 0.037916824
0.04210714 0.04472802 0.109381326 0.026289335 -0.056850076 -0.08348563 0.08704181 -0.07154397
0.085717335 0.066904075 -0.02188625 0.012730982 -0.033025477 -0.02472258 -0.097423896 -0.046313263
0.027972749 0.060969934 -0.07696718 0.11460308 -0.09313937 -0.062235605 0.06196554 0.0018510008
-0.077615745 -0.09089084 0.014854917 -0.0631505 0.02616017 -0.0122348815 0.052741203 0.07927158
0.12744828 0.07971686 -0.092814945 0.03427992 -0.05419567 0.12681712 0.029150994 0.003770074
-0.077719145 -0.015547724 0.07702752 -0.015373637 0.017258102 0.017623805 0.08987598 -0.017032273
0.00020219572 2.685407e-07 -3.6003815e-08 0.000100890225 -1.33049525e-05 -5.835725e-07 -3.0634998e-05 0.00023802138
-4.3662847e-05 0.033024 0.043388993 -0.033990573 0.033206332 0.0046327063 -0.1549037 0.047441643
-0.039968014 -0.109000176 0.044792995 -0.024256032 0.10991127 -0.02580544 -0.076773964 0.031746488
-0.0015632949 -0.024544384 -0.001308019 0.002321252 -0.021135679 -0.0053312015 -0.030196667 -0.033054758
-0.010405593 -0.009399916 0.0315474 -0.05166328 0.02805425 -0.021476313 0.026006278 0.017812118
-0.0131833125 -0.0069291927 -0.0051614586 -0.028199552 -0.05327075 0.0032710633 -0.013672508 -0.043567248
0.0095537165 -0.035975873 -0.072713934 -0.01150509 -0.03325277 -0.10389252 0.026459131 -0.106930524
0.07202538 -0.008687243 -0.10456234 0.14547111 0.003297088 -0.11008682 0.13396063 -7.434755e-06
0.00036310725 -3.2870948e-06 7.48013e-07 3.615108e-08 -7.6090197e-07 3.3787483e-06 0.00025524438 5.7155023e-05
9.1073e-09 -8.73983e-07 1.0011224e-06 -2.536948e-07 -4.454263e-09 -2.3076439e-07 3.5343635e-07 2.1471939e-07
-4.9798604e-08 0.043720093 -0.040275797 0.10742636 -0.034408394 -0.3241732 0.059521012 -0.10252904
-0.07878721 0.08967133 -0.034702204 0.010632498 0.0035810529 -0.056654226 -0.0035093867 -0.127649
0.0047188057 -0.047479544 -0.04966507 -0.027424132 -0.053048845 -0.0036799975 -0.001115975 -0.111248046
-0.1599993 0.070183 -0.121766165 -0.06907722 -0.061148368 -0.06507143 -0.046007313 -0.039023537
00000000: a73b 8f3c f9cb da3c aeaf 51bc 51c6 f2b4
00000010: 2a9d a23b 7d1d 063d 585c 613c 3343 d0bc
00000020: facd c13c 6d12 e2bd 0cc0 fcbc 6820 713b
00000030: d9b7 e1bd 202f ac3d 9694 f73c d4e8 7c3c
00000040: 3eac 67bd 7f43 ec3c dc83 9f3c 5d60 c2bd
00000050: 55dc ef3c 57a4 52bb 0a63 2ebd 61d8 dd3d
00000060: cfee 633c 314a 843c e547 753d 046e 4c3d
00000070: 16f1 1bbe 698c 23bc d647 53bd 6f2b c0bd
00000080: e115 993d e0ba 12be f0ee 2cbd 9855 57bc
00000090: 6280 353d da62 cfbd ebf0 b43c 680b e0bd
000000a0: 5b93 fd3c 647e 163c 833f 0cbe 43f2 233d
000000b0: dbac 19be 94e0 f9bc c796 40bd 5b0a 733d
000000c0: a013 7bbb 0e7e 86bd 1e86 0dbd ead1 1ebe
000000d0: e3dd 27bd 1b3f 2ebe b4c8 bf3d 09bd 7a3d
000000e0: a128 943c fd01 dabd 76fe fc3a 8587 b03b
000000f0: c4f5 90bd 09d8 24bd 699c a7bd 4faa fe34
00000100: aca8 923c 8a16 dd31 9012 0a33 59b3 95bc
00000110: 5164 75bb 8c8f deb2 71a4 1430 a364 273d
00000120: 0245 99bd 4949 20bc d906 d53d a7e2 363d
00000130: 7876 de3d d04e 253d 84c2 d6bd 190f 133d
00000140: bf0b 63bd 1116 f33d f154 fc3d c706 19bd
00000150: 83ea a8bc 9aaf 8d3b a3e3 b43d 3ad5 cfbc
00000160: 269f ec3d c104 09bd de17 53bd 8812 963d
00000170: c297 923d d412 803d e574 f03d ac4e 1b3d
00000180: 8978 2c3d ba34 373d 5103 e03d bb5c d73c
00000190: a0db 68bd 84fa aabd fa42 b23d a585 92bd
000001a0: 928c af3d 0105 893d cb4a b3bc 9c95 503c
000001b0: b945 07bd 0287 cabc 2e86 c7bd fab2 3dbd
000001c0: 1b27 e53c 9cbb 793d f8a0 9dbd 05b5 ea3d
000001d0: dbbf bebd c3ea 7ebd 94cf 7d3d 489d f23a
000001e0: 01f5 9ebd fa24 babd 0a62 733c 0d55 81bd
000001f0: da4d d63c d074 48bc 2907 583d 2359 a23d
00000200: cd81 023e 9842 a33d c315 bebd 1a69 0c3d
00000210: 47fc 5dbd 59dc 013e 11ce ee3c 5913 773b
00000220: 372b 9fbd e2bb 7ebc 9bc0 9d3d b5e1 7bbc
00000230: dd60 8d3c cc5f 903c e610 b83d 4487 8bbc
00000240: 8004 5439 f42b 9034 9da2 1ab3 0795 d338
00000250: 5638 5fb7 cca6 1cb5 147e 00b8 6195 7939
00000260: a022 37b8 2c44 073d a8b8 313d b339 0bbd
00000270: 5d03 083d f5cd 973b 139f 1ebe 2b52 423d
00000280: 80b5 23bd 7c3b dfbd dc78 373d 96b4 c6bc
00000290: 2919 e13d ee65 d3bc ab3b 9dbd 9b08 023d
000002a0: 79e7 ccba 4e11 c9bc d671 abba 2520 183b
000002b0: bb24 adbc 5cb1 aebb 005f f7bc 6d64 07bd
000002c0: 387c 2abc 1b02 1abc d937 013d e09c 53bd
000002d0: 07d2 e53c 18ef afbc 1e0b d53c b8ea 913c
000002e0: d2fe 57bc 480e e3bb 7421 a9bb bf02 e7bc
000002f0: 6e32 5abd 565f 563b a802 60bc 9273 32bd
00000300: 3187 1c3c 705b 13bd 0beb 94bd d87f 3cbc
00000310: 0e34 08bd 9ac5 d4bd d2c0 d83c 64fe dabd
00000320: 0b82 933d f054 0ebc c824 d6bd 61f6 143e
00000330: f513 583b 3375 e1bd fa2c 093e 0f78 f9b6
00000340: 6e5f be39 dc97 5cb6 10cb 4835 8844 1b33
00000350: c940 4cb5 74be 6236 52d2 8539 bdb9 6f38
00000360: 5476 1c32 a89b 6ab5 4e5e 8635 8c33 88b4
00000370: 1d0c 99b1 08c8 77b4 ecbf bd34 9e8d 6634
00000380: 25e2 55b3 d713 333d 3cf8 24bd 5a02 dc3d
00000390: d1ef 0cbd 08fa a5be 4ecc 733d bffa d1bd
000003a0: 305b a1bd 9aa5 b73d e623 0ebd ee33 2e3c
000003b0: 19b0 6a3b 430e 68bd bdfd 65bb 6bb6 02be
000003c0: 36a0 9a3b e979 42bd 9a6d 4bbd 93a8 e0bc
000003d0: bf49 59bd 1d2c 71bb e845 92ba 04d6 e3bd
000003e0: dbd6 23be 1bbc 8f3d 8a60 f9bd 5c78 8dbd
000003f0: b676 7abd 2b44 85bd 2a72 3cbd 25d7 1fbd

weight f4 [8, 8, 3, 3]
0.020103645 0.03066959 -0.014732233 -5.413858e-07 0.0057375184 0.03757924 0.015829092 -0.029196948
0.027175646 -0.12597091 -0.035104305 0.0042570126 -0.12570791 0.09634241 0.034685083 0.017829677
-0.064850576 0.0329932 0.022294492 -0.108124904 0.03365201 -0.0036430922 -0.04829529 0.12408307
0.01596776 0.018676026 0.06852144 0.057020865 -0.17353313 -0.011260023 -0.05917815 -0.10668883
0.085675634 -0.1640159 -0.04802734 -0.015083711 0.050824266 -0.11563715 0.02528662 -0.12501547
0.035512377 0.010499063 -0.15678167 0.045761783 -0.17225535 -0.0349124 -0.05351444 0.06795306
-0.004307935 -0.07494272 -0.039621957 -0.17759365 -0.04696738 -0.19546224 0.107183486 0.070225455
0.020769803 -0.12196588 0.0024061743 0.0062138326 -0.08110928 -0.045975544 -0.09383757 6.308045e-07
0.020582838 8.7563805e-09 4.136913e-08 -0.02100827 -0.0043356703 -3.0901283e-08 -1.0249331e-11 0.046880428
-0.07033797 -0.009194758 0.09776156 0.04196458 0.10209191 0.03793128 -0.0985569 0.033743918
-0.05209759 0.111556344 0.11579931 -0.03511321 -0.019379605 0.0040638787 0.083013095 -0.023844505
0.108589664 -0.031440064 -0.04843712 0.068870746 0.0672739 0.05877511 0.11034958 0.035636567
0.039574884 0.042038146 0.10280331 0.024708338 -0.053431205 -0.07846494 0.081807256 -0.06724143
0.08056243 0.062880576 -0.020570047 0.011965362 -0.031039376 -0.023235805 -0.09156498 -0.04352806
0.026290514 0.057303302 -0.0723385 0.10771104 -0.08753812 -0.058492858 0.058239035 0.0017396846
-0.07294806 -0.08542481 0.013961567 -0.059352733 0.024586938 -0.011499096 0.049569435 0.074504316
0.11978375 0.074922815 -0.08723321 0.03221838 -0.05093643 0.119190544 0.027397903 0.0035433478
-0.07304525 -0.014612711 0.07239521 -0.014449092 0.016220229 0.016563937 0.08447098 -0.01600798
0.0004903411 4.985762e-07 3.2945895e-08 0.0002703831 -4.3457214e-05 -6.0614298e-06 -4.402853e-05 -0.00029709926
-7.544571e-05 0.055035274 0.07181618 -0.055624954 0.05563375 0.008193829 -0.25458303 0.07898121
-0.06552272 -0.17924248 0.07433762 -0.039323047 0.1811929 -0.042119198 -0.12528735 0.052743047
-0.0022699754 -0.039528113 -0.0019467411 0.00410493 -0.03478664 -0.008524609 -0.049650397 -0.054011084
-0.01647765 -0.015186206 0.052768588 -0.08475654 0.047107916 -0.034597646 0.043189853 0.030152615
-0.021150013 -0.011034636 -0.007777921 -0.04617039 -0.08760248 0.0060094115 -0.021235788 -0.070755996
0.016247604 -0.05859399 -0.11922383 -0.01843406 -0.05432371 -0.17133673 0.044126056 -0.1755498
0.11853414 -0.013726067 -0.17158216 0.23962475 0.0056202477 -0.18077241 0.22058104 -1.2730225e-05
0.00024311927 -8.366895e-06 9.809414e-07 6.349786e-08 -5.2455957e-06 3.494335e-06 0.00013450005 6.434655e-05
8.967999e-09 -9.0120506e-07 1.0444712e-06 -2.540864e-07 -4.687093e-09 -2.3529344e-07 3.59975e-07 2.1790355e-07
-5.0006335e-08 0.043805722 -0.0402061 0.10732155 -0.03429652 -0.3240487 0.059407193 -0.10250365
-0.07881176 0.08953338 -0.034675412 0.010659389 0.0035569817 -0.056705214 -0.0034585556 -0.12769155
0.004650391 -0.047510307 -0.049759343 -0.027295189 -0.052723177 -0.0036635117 -0.0012130524 -0.11086533
-0.15988919 0.06996761 -0.12173536 -0.06901085 -0.060845777 -0.06491072 -0.04600656 -0.0390616
00000000: 66b0 a43c cb3e fb3c 775f 71bc c053 11b5
00000010: cb01 bc3b b0ec 193d 03ac 813c 702e efbc
00000020: 769f de3c 85fe 00be 88c9 0fbd 697e 8b3b
00000030: 93b9 00be 2b4f c53d f211 0e3d 8b0f 923c
00000040: 61d0 84bd e123 073d f0a2 b63c 9770 ddbd
00000050: b1d6 093d f2c0 6ebb 48d1 45bd 441f fe3d
00000060: d2ce 823c 77fe 983c f854 8c3d b68e 693d
00000070: abb2 31be f67b 38bc ca64 72bd ac7f dabd
00000080: b576 af3d c9f3 27be 51b8 44bd ab21 77bc
00000090: 1b2d 503d 2cd3 ecbd e325 cf3c 0e04 00be
000000a0: 6d75 113d 4304 2c3c 608b 20be b570 3b3d
000000b0: b563 30be 4e00 0fbd f531 5bbd f92a 8b3d
000000c0: 9429 8dbb 927b 99bd a24a 22bd 1cdb 35be
000000d0: de60 40bd 4127 48be 0483 db3d 5dd2 8f3d
000000e0: 6f25 aa3c 3fc9 f9bd e8b0 1d3b 689d cb3b
000000f0: 9f1c a6bd da50 3cbd e92d c0bd 8e54 2935
00000100: 579d a83c f86e 1632 d7ad 3133 8919 acbc
00000110: 3d12 8ebb 52b8 04b3 e24e 34ad b105 403d
00000120: 5b0d 90bd 9ca5 16bc 3637 c83d 0de3 2b3d
00000130: 9015 d13d d45d 1b3d 33d8 c9bd 1037 0a3d
00000140: 4864 55bd a777 e43d 3028 ed3d dfd2 0fbd
00000150: fac1 9ebc 492a 853b c502 aa3d 8d55 c3bc
00000160: 4264 de3d 4cc7 00bd 0066 46bd 1b0c 8d3d
00000170: e6c6 893d 2bbe 703d f6fe e13d a6f7 113d
00000180: 4619 223d 3130 2c3d 8b8a d23d 2469 ca3c
00000190: aeda 5abd 3ab2 a0bd 908a a73d e0b5 89bd
000001a0: eafd a43d 88c7 803d 8482 a8bc 5e0a 443c
000001b0: 4a46 febc 0459 bebc 6c86 bbbd 7b4a 32bd
000001c0: 345f d73c deb6 6a3d 3526 94bd 9b97 dc3d
000001d0: 3047 b3bd 3596 6fbd 0e8c 6e3d 2106 e43a
000001e0: cb65 95bd 34f3 aebd 0ebf 643c da1b 73bd
000001f0: 8c6a c93c b466 3cbc 5209 4b3d b895 983d
00000200: 2f51 f53d 2271 993d 53a7 b2bd 6cf7 033d
00000210: b8a2 50bd 2c1a f43d 9171 e03c 8337 683b
00000220: bf98 95bd 276a 6fbc f143 943d e2bb 6cbc
00000230: 49e0 843c 18b1 873c 1fff ac3d 2b23 83bc
00000240: 3c8a 003a e5d5 0535 6580 0d33 35c2 8d39
00000250: d445 36b8 4963 cbb6 46ab 38b8 fdc3 9bb9
00000260: 9b38 9eb8 ab6c 613d 5d14 933d fed6 63bd
00000270: 37e0 633d 693f 063c b558 82be e7c0 a13d
00000280: c730 86bd 578b 37be 523e 983d 3411 21bd
00000290: a28a 393e 2e85 2cbd 544b 00be 1809 583d
000002a0: dec3 14bb 3be8 21bd cb29 ffba a682 863b
000002b0: 707c 0ebd cdaa 0bbc 375e 4bbd ba3a 5dbd
000002c0: 23fc 86bc 91cf 78bc e023 583d d694 adbd
000002d0: 3bf4 403d 43b6 0dbd d8e7 303d 9e02 f73c
000002e0: cb42 adbc 9eca 34bc eedd febb 2a1d 3dbd
000002f0: ee68 b3bd 99ea c43b adf6 adbc 85e8 90bd
00000300: b219 853c 4000 70bd a02b f4bd 0703 97bc
00000310: 8a82 5ebd e572 2fbe 86bd 343d 54c3 33be
00000320: 07c2 f23d 4ce3 60bc 3cb3 2fbe 3160 753e
00000330: 0e2a b83b 671c 39be ffdf 613e e693 55b7
00000340: d5ed 7e39 8a5f 0cb7 e4a8 8335 515c 8833
00000350: 5303 b0b6 3880 6a36 9508 0d39 caf1 8638
00000360: ad11 1a32 57ea 71b5 c22f 8c35 5e69 88b4
00000370: 1b0c a1b1 f8a4 7cb4 9642 c134 dff8 6934
00000380: 8cc6 56b3 a16d 333d 27af 24bd 67cb db3d
00000390: 827a 0cbd b6e9 a5be f554 733d 6fed d1bd
000003a0: 0f68 a1bd 475d b73d ce07 0ebd b8a4 2e3c
000003b0: 401c 693b ba43 68bd efa8 62bb 93c1 02be
000003c0: 4f62 983b 2b9a 42bd 74d0 4bbd 299a dfbc
000003d0: 42f4 57bd 8717 70bb 49ff 9eba 5d0d e3bd
000003e0: feb9 23be 2e4b 8f3d 6350 f9bd 8f55 8dbd
000003f0: 6c39 79bd e9ef 84bd 6071 3cbd 0eff 1fbd

weight f4 [16, 8, 1, 1]
0.07782237 0.13006203 -0.14686109 -0.104735605 -0.3412266 -0.08873223 -0.07313134 -0.11397764
-0.41159144 -0.24242313 -0.073675506 0.4100377 0.20583871 0.34971026 -0.024849644 0.41113374
-0.062085163 0.1636051 0.013916244 0.31443277 0.27021337 0.17939694 0.27259508 0.44754565
-0.22481711 0.26778215 0.0072437315 -0.25897872 -0.16318299 -0.1464375 -0.0875527 0.010994546
0.2634679 -0.30478114 0.3479128 0.03322726 -0.27818528 0.38077894 -0.0039914334 0.2376199
0.28602883 -0.15180264 0.27333376 -0.08091084 0.25215837 0.09253135 0.3693319 0.13639659
0.26116616 -0.3108879 0.15740222 -0.26652884 -0.10372524 0.10244784 -0.054681532 -0.34688276
0.14543372 -0.018885218 -0.027991144 -0.3111427 -0.049942043 0.2812347 -0.13257763 -0.26765662
0.16508569 -0.07042328 -0.2128317 0.41723627 0.06909445 0.07310905 -0.15584852 0.42072755
0.32063532 0.17064984 -0.28660756 -0.14761478 0.317836 -0.15853639 0.26843864 0.041945726
0.25133786 -0.31787032 0.22229502 0.024110302 -0.33571094 -0.12480569 0.32790974 0.20281991
0.20089278 0.2605414 -0.3740143 0.40946925 0.24118255 0.1255896 0.30967242 0.06852152
0.23157465 0.04229118 0.47936022 -0.03379692 0.064700924 0.049469765 -0.31928122 -0.28502417
-0.035443835 0.20586115 -0.067329206 -0.12754987 -0.06660984 -0.123083785 0.14828956 0.15974998
0.10084477 -0.025689943 -0.19543816 0.36593437 0.09128457 0.43062428 0.48713976 0.5330615
0.33889958 0.28422475 -0.058124878 0.2310256 0.24165937 -0.10323368 -0.029176073 0.28586772
00000000: 5661 9f3d fb2e 053e c162 16be 9f7f d6bd
00000010: 41b5 aebe 3eb9 b5bd e2c5 95bd 1c6d e9bd
00000020: 1dbc d2be c53d 78be 2fe3 96bd 76f0 d13e
00000030: 62c7 523e 390d b33e 7b91 cbbc 1f80 d23e
00000040: 034d 7ebd 1888 273e f500 643c 55fd a03e
00000050: 6859 8a3e d5b3 373e 9591 8b3e b424 e53e
00000060: 7536 66be be1a 893e d35c ed3b dc98 84be
00000070: 7119 27be b6f3 15be d44e b3bd 7822 343c
00000080: 44e5 863e 460c 9cbe a021 b23e 4f19 083d
00000090: 4d6e 8ebe 75f5 c23e 92ca 82bb a252 733e
000000a0: 5f72 923e 2772 1bbe 67f2 8b3e 95b4 a5bd
000000b0: e71a 813e 1481 bd3d 1219 bd3e 8cab 0b3e
000000c0: 92b7 853e b32c 9fbe 0c2e 213e 7876 88be
000000d0: e66d d4bd 2cd0 d13d bef9 5fbd 9e9a b1be
000000e0: 94ec 143e 2cb5 9abc af4d e5bc 194e 9fbe
000000f0: 0790 4cbd fffd 8f3e 6ec2 07be 4a0a 89be
00000100: 390c 293e 153a 90bd 8ef0 59be fe9f d53e
00000110: 6481 8d3d 33ba 953d c196 1fbe 9a69 d73e
00000120: 502a a43e d5be 2e3e 3abe 92be 5428 17be
00000130: 66bb a23e 5d57 22be ca70 893e 48cf 2b3d
00000140: 5baf 803e e6bf a2be 4ea1 633e f882 c53c
00000150: 4ee2 abbe 209a ffbd c9e3 a73e 06b0 4f3e
00000160: d6b6 4d3e af65 853e cd7e bfbe f4a5 d13e
00000170: 8ff8 763e 8f9a 003e 628d 9e3e 0355 8c3d
00000180: e821 6d3e 8439 2d3d b46e f53e a46e 0abd
00000190: eb81 843d cfa0 4a3d d478 a3be b0ee 91be
000001a0: 8e2d 11bd 44cd 523e e5e3 89bd 6f9c 02be
000001b0: bd6a 88bd 5a13 fcbd 38d9 173e 8095 233e
000001c0: b487 ce3d b773 d2bc f120 48be c05b bb3e
000001d0: 68f3 ba3d c97a dc3e 626a f93e b876 083f
000001e0: 3f84 ad3e e885 913e 5a14 6ebd fa91 6c3e
000001f0: 8e75 773e 2e6c d3bd a902 efbc 415d 923e

bias f4 [16]
-0.034542236 -0.004501854 0.053251818 -0.034154374 -0.007606975 0.020783566 0.048910838 0.0027217877
-0.0022494625 -0.01620037 -0.020807827 -0.008911153 0.004815577 -0.013459711 0.04421561 0.042866234
00000000: 297c 0dbd 4a84 93bb 941e 5a3d 75e5 0bbd
00000010: ee43 f9bb 4c42 aa3c bb56 483d 0560 323b
00000020: b86b 13bb a3b6 84bc 2d75 aabc 1600 12bc
00000030: fdcb 9d3b 1f86 5cbc 6d1b 353d 8194 2f3d

bias f4 [16]
-0.037655886 0.08721641 0.040194985 0.11179792 -0.006609463 0.0680849 0.081715934 0.087831765
0.08805682 -0.0016767505 0.09807795 0.06776985 -0.014279898 0.07753223 -0.008684713 0.08798093
00000000: 0f3d 1abd 849e b23d 7fa3 243d 4ff6 e43d
00000010: 3294 d8bb 1970 8b3d af5a a73d 24e1 b33d
00000020: 2257 b43d 69c6 dbba 18dd c83d ebca 8a3d
00000030: 3cf6 69bc 38c9 9e3d 544a 0ebc 592f b43d

weight_g f4 [16, 1, 1, 1]
0.84410197 0.8219091 0.8085299 0.7526233 0.80824995 0.7229618 0.7629339 0.78049576
0.8383769 0.6850528 0.7814094 0.8395014 0.82782024 0.84413636 0.63831204 0.8324715
00000000: 1117 583f a368 523f d1fb 4e3f ecab 403f
00000010: 78e9 4e3f 0614 393f a34f 433f 92ce 473f
00000020: de9f 563f 9f5f 2f3f 720a 483f 90e9 563f
00000030: 07ec 533f 5219 583f 6b68 233f da1c 553f
