net-fullModel.pth (torch, 681097 bytes, 120 tensors)

weight f4 [2, 1, 1, 1]
00000000: 0d0b 2d3f 360f f3be
0.6759499 -0.47472543

bias f4 [2]
00000000: 22dd 2c3d e3d7 d43c
0.042203076 0.025981849

bias f4 [2]
00000000: 03b4 0d3d f22c 9fbc
0.0345955 -0.019430611

weight_g f4 [2, 1, 1, 1]
00000000: 84f2 093f 7b29 093f
0.53885674 0.5357892

weight_v f4 [2, 1, 3, 3]
00000000: 16de a2bc 6be1 87bd 10ab 87be c1aa 5bbd
00000010: f281 51be ec89 00be f2f1 22bd 8877 9f3e
00000020: 04d4 b6bd 65d7 1bbe 9e9e 1ebe e89f 0cbd
00000030: a577 863e 2bcf 323d 1ecb 8b3d 7610 6b3e
00000040: c29e 033d e546 713e
-0.01988129 -0.06634792 -0.26497698 -0.05362964 -0.20459726 -0.12552613 -0.03978152 0.31145883
-0.089271575 -0.15218885 -0.15490195 -0.034332186 0.26263157 0.043654602 0.06825851 0.22955498
0.032133825 0.235622

weight f4 [2, 1, 3, 3]
00000000: 2047 a6bc 5bd0 91bd b4e0 93be f6d1 6abd
00000010: a234 64be f91d 0bbe 27b7 2dbd a279 af3e
00000020: aab6 c4bd 27a8 2cbe 3c1c 2ebe 2756 17bd
00000030: 9a06 953e 8ee8 4a3d 1d4d 993d ac02 833e
00000040: 444a 143d 6a00 853e
-0.020297587 -0.07119819 -0.28882372 -0.05732914 -0.22285703 -0.13585652 -0.042410996 0.34272486
-0.09605153 -0.1686102 -0.17002958 -0.036947396 0.291066 0.049538188 0.07485411 0.25587976
0.036203638 0.25976878

bias f4 [2]
00000000: 3e4b 4a3d 592a c03c
0.049388163 0.023457693

weight_g f4 [2, 1, 1, 1]
00000000: 9dc1 fc3e 0345 2d3f
0.49366465 0.6768343

weight_v f4 [2, 2, 3, 3]
00000000: f4d9 17be 13c5 703d da17 1cbe 62dc 93bd
00000010: c0ca 373c b582 953c 50ef fb3d 4981 5a3e
00000020: 6598 1f3e b275 1bbc 3127 b2bd 0cb6 18be
00000030: c386 b3bb a1ab 49bb eddc 06bd 6f5f 44bd
00000040: 52b2 66bd 0715 1dbe 1361 493e e313 e83d
00000050: 9978 523e 0327 14be 046d 313e 5998 803c
00000060: 76b5 113b 5fcc a43e 6d53 d63d 57a6 92bd
00000070: d2c6 9ebd ec13 75bb fa7e 17be 8948 41be
00000080: 8a6f 203d 8848 a4bd b3f7 44be 6783 363d
-0.14829236 0.058781695 -0.15243474 -0.07219769 0.011217773 0.018250803 0.123015046 0.21338381
0.15585478 -0.00948851 -0.086988814 -0.14913195 -0.0054787113 -0.0030772465 -0.032925535 -0.047942575
-0.056322403 -0.15340053 0.19665937 0.11331918 0.20553817 -0.14468007 0.17326742 0.015697645
0.0022233403 0.32187173 0.10465131 -0.07160633 -0.07752766 -0.0037395908 -0.14794531 -0.18875326
0.039168872 -0.08021647 -0.19235115 0.04455891

weight f4 [2, 2, 3, 3]
00000000: 392e 27be 3a54 873d 76dc 2cbe bb84 a5bd
00000010: b64d 4b3c 7dda 9e3c 840b 0c3e e872 703e
00000020: 17ba 2e3e d15a 47bc 65b8 c7bd e339 28be
00000030: 4be9 d1bb ad1c 35bb 3d46 10bd e690 5abd
00000040: d139 80bd 7477 2cbe 47b5 5c3e 55f9 fc3d
00000050: 192a 673e 7e02 25be 2d8a 423e 0c43 823c
00000060: cd67 733a 5234 b53e ef38 e93d f4eb a3bd
00000070: a0dc b1bd fde1 42bb ae28 28be 2d8c 56be
00000080: f026 373d cf17 b6bd 3084 5abe f754 503d
-0.16326226 0.06607862 -0.16880974 -0.08081957 0.012408664 0.019391293 0.13676268 0.23481333
0.17063175 -0.012167648 -0.09751967 -0.16428332 -0.0064059845 -0.00276355 -0.035223234 -0.053360842
-0.062610276 -0.16842443 0.21553527 0.12352244 0.22574653 -0.16114232 0.18998022 0.015901111
0.0009285182 0.3539148 0.11387812 -0.08003989 -0.08684659 -0.002973675 -0.16421768 -0.2095191
0.044714868 -0.0889126 -0.21339488 0.05086228

weight f4 [4, 2, 1, 1]
00000000: 5475 f93e b782 1f3d e40a e93e f4e1 26bf
00000010: 6bb6 ed3e ac02 c3bd a84d a43e 9967 293f
0.48722327 0.03894302 0.4551612 -0.6518853 0.46428236 -0.09521994 0.32090497 0.661737

bias f4 [4]
00000000: cd35 0a3a c7ac 8d3c 546d ea3c 04f3 b33c
0.0005272299 0.0172943 0.028616585 0.021966465

bias f4 [4]
00000000: e331 4f3c ae75 b83b 5029 f63c 59ba 673d
0.012646171 0.005629263 0.030048996 0.0565742

weight_g f4 [4, 1, 1, 1]
00000000: f9ad 323f 613f 003f 4dc5 1d3f 27eb 3b3f
0.6979671 0.5009671 0.6162918 0.7340569

weight_v f4 [4, 2, 3, 3]
00000000: 1c34 043e c0b7 a43d e854 78bc 892c 3b3e
00000010: fad6 0abe 96ef 5a3e 90e9 8b3e 7a01 13be
00000020: 97c7 15bd c66b 6fbe b3e6 f2bd 90ad cf3d
00000030: 9fe1 fdbd 23bf 553e f556 1c3e 8b13 263c
00000040: 740e da3d 85dd 24be a574 773e ff91 14bd
00000050: c1e5 afbc c86d ddbb eb1b 42be 8792 18be
00000060: 20ab 883d 55df c03d 3c91 cebd 3f81 c93d
00000070: cfd4 eabd ae76 b6bd 00b3 a6bd bc53 173d
00000080: 5b5b 063e 22bf 7c3d 801a 153e 290e c53d
00000090: 681b 66bd f9cf 7abb 38f8 5ebd b7d0 713d
000000a0: ec3e 8bbe 72d6 b1bd 0018 153d c017 bbbd
000000b0: 460f dbbd 37e1 9abd 5533 883e 5f6c 453d
000000c0: c2a2 503d a9e8 e7bd 9a1e 943d f706 6a3e
000000d0: 2917 1abd 8554 843e a43f 83bd 9b53 f03d
000000e0: fa3a 90bd de92 603c eaeb 973e 73df 4cbe
000000f0: 2573 23bd a078 7d3e 56c5 d4bd 3f22 313e
00000100: 87c1 4b3b 74f5 4d3d 0314 cfbd 0037 62be
00000110: 1af5 76bd 69af 373e 822d 83bc 5217 713e
0.12910503 0.0804286 -0.015156962 0.18278708 -0.1355857 0.21380457 0.27326632 -0.14356032
-0.036567297 -0.23380956 -0.11860409 0.10140526 -0.123965494 0.20873694 0.15267546 0.010136495
0.10647288 -0.16100128 0.2416559 -0.036272045 -0.02147186 -0.0067574717 -0.18955962 -0.14899646
0.066732645 0.09417597 -0.10086295 0.09839105 -0.11466371 -0.08909355 -0.0813961 0.03694509
0.13120787 0.061705716 0.1456089 0.096218415 -0.05617848 -0.0038270934 -0.05443594 0.059036937
-0.27196443 -0.0868348 0.03639984 -0.09135389 -0.106962726 -0.075624876 0.26601663 0.048199054
0.050936468 -0.11323673 0.07232399 0.2285422 -0.037619743 0.25845733 -0.06408623 0.117346965
-0.07042499 0.013706891 0.29672176 -0.20007114 -0.039904732 0.24753046 -0.10389201 0.1729822
0.0031090693 0.05028291 -0.10111239 -0.22091293 -0.06029234 0.17938007 -0.01601291 0.23544052

weight f4 [4, 2, 3, 3]
00000000: 20e4 0c3e 610c b13d 2738 89bc 5b32 483e
00000010: 1831 17be b8e0 6d3e c817 963e ff13 20be
00000020: 7530 29bd f7b4 80be 8431 03be 37ba df3d
00000030: 809e 07be 5ff6 673e ae45 293e 43e9 4f3c
00000040: b31f ed3d 1909 33be e792 7f3e 0968 19bd
00000050: d0e9 c5bc f177 17bc f203 4abe 67bf 1fbe
00000060: 6ba3 8b3d 8cda cb3d 4ece d3bd a6ea d03d
00000070: ac5a f7bd 96ac c0bd 4253 adbd fa01 153d
00000080: 8841 093e a86b 823d 545a 183e 8d8a c73d
00000090: d654 7cbd 347b 12bb 6e4a 67bd 1511 823d
000000a0: 89f7 94be 750f bbbd c777 273d ede2 c7bd
000000b0: efed e6bd 6586 a8bd 47fc 903e 34db 4b3d
000000c0: f80d 593d f2a4 fbbd facc 9a3d 67de 783e
000000d0: 00bc 2bbd 4ed8 8c3e 86ea 95bd 6bea 073e
000000e0: 253a a7bd 85fa 6a3c e1cc ad3e efa9 6abe
000000f0: 1ac2 3abd 1b83 913e 19c9 f3bd 3072 4c3e
00000100: 9553 b83b c79c 6d3d 78cc edbd 81a7 81be
00000110: 823c 91bd ba9a 533e 3b35 8dbc 9a74 8a3e
0.13758898 0.08644939 -0.016750408 0.19550459 -0.14764822 0.23230255 0.2931502 -0.15632628
-0.041305978 -0.25138065 -0.12811857 0.109241895 -0.13244057 0.22652577 0.16530487 0.012689891
0.11578312 -0.17483939 0.24958383 -0.03745273 -0.024159342 -0.009244905 -0.19728068 -0.15600358
0.06818279 0.09953794 -0.10342084 0.10201006 -0.12077841 -0.09407918 -0.08463146 0.036378838
0.13403904 0.0636819 0.14878207 0.09743223 -0.061604343 -0.0022351267 -0.056467466 0.063509144
-0.29095104 -0.091338076 0.040885713 -0.097600795 -0.11275851 -0.08228759 0.28317472 0.049769595
0.052991837 -0.1228732 0.075586274 0.2430359 -0.041927338 0.27508777 -0.073201224 0.13273017
-0.08165387 0.014341955 0.33945373 -0.22916387 -0.045595266 0.28420338 -0.11903591 0.19965434
0.005625198 0.058010843 -0.11611265 -0.25323108 -0.07091619 0.20664492 -0.017237296 0.27042085

bias f4 [4]
00000000: d7f7 803a eba8 6a3c 5226 093d 0042 c73c
0.0009839487 0.0143225 0.03348381 0.024323463

weight_g f4 [4, 1, 1, 1]
00000000: e9c1 283f d1ac 2a3f aa57 253f 9269 1b3f
0.65920883 0.66669947 0.6458689 0.6070796

weight_v f4 [4, 4, 3, 3]
00000000: 96a6 efbb 3db4 933d 9414 683e 5cdd a2bc
00000010: 8ef1 f03c 5648 783e 9c24 a5bc 3479 b13d
00000020: 0aff 71bd 7cfb 29bd 81d3 a1bd 219d efbc
00000030: 4081 a5bc 4eb1 43bd e552 eb3d 300a 17bd
00000040: 2c22 8e3d b5b3 df3a 1073 09be cfa8 47be
00000050: 0bbf a13d 7a77 b0bd b21a 16be 54be 88bd
00000060: 1ba9 6a3c ad86 02be def9 b33d 7806 2cbe
00000070: ade3 1dbc 4228 63bd 65d4 de3c 1ec7 5d3d
00000080: 7529 12be a82b 113e 7678 f63c 236e 343d
00000090: d970 acbd d7f3 44bd 1a01 e63d 56f4 203c
000000a0: 7ba2 c43d a571 1a3e 44be 653d 3bb2 843d
000000b0: f6a1 203e 7bdd e5bd c070 e0bc 8a6c 4ebd
000000c0: 8962 bebd faa3 17bc df05 013d 4820 fdbd
000000d0: f351 eebd 6bea c53d e357 24bd b6f6 e8bd
000000e0: b1d9 093e 02a1 9cbd 6ac8 aebd 4545 bebd
000000f0: 39f4 193d 1d19 c9bb 937a b33d 36b2 d6bc
00000100: 484d fe3d 8d42 c4bd cda8 94bd 82bd 273e
00000110: 5996 fdbb 33d6 023e cb99 983d feef c33c
00000120: 46ef 3b3d eff3 0a3d dccc c0bb 78cd 60bd
00000130: 733a c43d 5c99 093e 8573 e9bd 8d6c c23c
00000140: 612d d53d 75cd d2bc 1e13 1bbd 293a 0d3e
00000150: 3787 1f3d 6e96 fa39 4b6b a13c 2ff0 a4bc
00000160: cb83 3d3d f0a3 d03d 11af a53d 59ab 6cbd
00000170: 1d50 fb3d 1760 91bc 373d b8bd 81e2 8b3d
00000180: b5d5 4c3d 7a62 03be 7b62 263e 62fa 42bd
00000190: 6945 143e 3670 bb3d fa64 d73c 1f4d 5e3e
000001a0: ae7d 15be 85a2 d2bd 9cd2 8b3d 565e a4bb
000001b0: 0d86 3c3d cd1b 33bd 991d 35bd bd9f 53bd
000001c0: 0a93 f2bd 050c 7fbc f4ec f03d 82b7 3ebc
000001d0: 913a 503c cc98 dbbd 31da b43d 3e15 233d
000001e0: cb4f c0bd 419a 1c3d 3fe1 983d bb22 193d
000001f0: baf0 3a3d 0489 82bb c4ce 433e 7f61 ed3d
00000200: 395e 53bc 7c04 69bd 2fde ce3d c0f6 c63d
00000210: eb15 fcbd ff9f 8dbd 71ae e03d 3918 643d
00000220: fec0 56bd 6fe7 563d c9c8 27be 6c79 273d
00000230: 2744 9c3d 8413 5fbd ca42 863d 4688 bdbc
-0.0073135598 0.07212112 0.226641 -0.019880943 0.029412057 0.24246344 -0.020159058 0.08665696
-0.059081115 -0.0414996 -0.07901669 -0.02924973 -0.020203233 -0.047776513 0.1149042 -0.03687495
0.069401115 0.0017067107 -0.13422799 -0.19497989 0.07897767 -0.08616538 -0.14658621 -0.06676927
0.014322544 -0.12746687 0.08787893 -0.16799343 -0.009636802 -0.055458315 0.027200887 0.05414497
-0.14273627 0.1417681 0.030086737 0.044050347 -0.084199615 -0.048084106 0.11230679 0.009823879
0.09601303 0.15082414 0.056089655 0.06479307 0.15686783 -0.11223885 -0.027397513 -0.05039648
-0.09296138 -0.009255404 0.03149974 -0.12359673 -0.11636724 0.09663852 -0.040122878 -0.113751814
0.13461949 -0.07647897 -0.0853432 -0.09290556 0.037586424 -0.006137027 0.087636136 -0.026208024
0.12417084 -0.09583006 -0.07258759 0.16380885 -0.00773887 0.12777023 0.07451209 0.023918148
0.045882486 0.03392404 -0.005883796 -0.05488345 0.09581461 0.13437408 -0.11398987 0.023733402
0.10409046 -0.025732735 -0.03786003 0.13791718 0.03894731 0.00047795795 0.019704482 -0.02013406
0.046268266 0.101875186 0.08090032 -0.057780597 0.1227114 -0.017746015 -0.08996051 0.068303116
0.050008494 -0.12830535 0.16248505 -0.047602065 0.14479603 0.09152262 0.026293267 0.21709107
-0.14598724 -0.102849044 0.0682728 -0.0050161285 0.04602628 -0.043727685 -0.04421768 -0.05166601
-0.11844452 -0.0155668305 0.11763945 -0.011640431 0.012709276 -0.10722503 0.08830679 0.03981518
-0.09390219 0.038233045 0.07464837 0.037386637 0.04563973 -0.0039836187 0.19121844 0.115908615
-0.012900882 -0.056889042 0.10100972 0.097150326 -0.12308868 -0.069152825 0.10970772 0.055687163
-0.052430145 0.052466806 -0.16385187 0.04088728 0.076301865 -0.05446197 0.06555708 -0.02313627

weight f4 [4, 4, 3, 3]
00000000: 5d5f dcbb 13da a43d 15f5 7d3e 110e b1bc
00000010: cdc1 f63c f5de 873e 7013 bfbc d1f9 c03d
00000020: c0e1 89bd c54e 38bd 3fe5 b0bd 27b0 0cbd
00000030: 0952 b7bc aaa0 5abd 3fcd 013e 1211 23bd
00000040: 2d3d 9e3d 086a 31b9 da56 17be c446 5bbe
00000050: 9de7 b33d 3d78 c0bd 4212 25be 718c 96bd
00000060: 134e 8a3c c5af 0fbe e80e c73d 52a7 3fbe
00000070: cda7 4cbc e269 7fbd 09f5 f13c bc60 6d3d
00000080: 09fe 21be eaf1 1f3e 3554 003d 42e6 463d
00000090: e69c d3bd 9721 73bd c445 0c3e 7224 5e3c
000000a0: 804c f23d 8a41 3c3e c932 8f3d 7220 a33d
000000b0: ddce 423e 5edb 0ebe 52f3 03bd c5a0 81bd
000000c0: 08e8 ecbd f956 2abc 0d1c 1b3d c6db 1bbe
000000d0: 6f70 13be 125d f13d 9164 49bd eb56 0fbe
000000e0: be0a 2b3e c127 bfbd f453 d9bd 1ab2 ebbd
000000f0: 1333 463d 255c b3bb 36c3 db3d 637b 07bd
00000100: 5142 1b3e 761a f3bd f60d b9bd d0ab 4c3e
00000110: 3ea4 07bc 8955 213e 6812 b83d 4187 fb3c
00000120: e773 683d cf1e 203d d380 10bc 61d3 85bd
00000130: fb89 e53d 43f1 213e f2f2 0cbe 32ef d83c
00000140: 12d5 f93d f01f fabc c903 39bd ac28 273e
00000150: 6352 3e3d 66e3 c1ba 6d16 b03c 5d8a ccbc
00000160: d83e 5c3d 1057 f63d 0853 c93d c66e 8cbd
00000170: 9bce 163e da3b adbc c43b dfbd 56f7 a33d
00000180: 35bb 773d b667 1ebe 2eb0 443e cb95 70bd
00000190: 901b 2f3e 9f10 de3d 8782 ed3c 35c3 833e
000001a0: 599d 33be 9f00 ffbd 24d0 a33d f054 e2bb
000001b0: 4ec7 743d ce87 5dbd 8cfc 5fbd 012f 85bd
000001c0: 76ef 17be a9fc 96bc ff0a 1a3e 2229 65bc
000001d0: a157 6b3c a588 0cbe 9f22 de3d e4b7 443d
000001e0: a4f1 f5bd 9909 3b3d f236 bb3d a3a7 3a3d
000001f0: 532d 653d 86ff f9bb f0a6 733e 05a5 123e
00000200: db0b 99bc 8956 97bd 863d ff3d 7b9c f43d
00000210: 08ce 20be 7aef b6bd 1084 0a3e d1c0 8d3d
00000220: 5666 89bd 6507 843d fa88 54be 497d 4a3d
00000230: 7a90 c03d cf3c 8fbd 4e8f a43d 3425 fdbc
-0.0067252354 0.08049407 0.24800523 -0.021613153 0.030121708 0.2653729 -0.023324698 0.09422649
-0.067325115 -0.044996995 -0.08637475 -0.03434768 -0.022377985 -0.053375877 0.12675951 -0.0398112
0.07726512 -0.00016919535 -0.14779225 -0.21413714 0.08784411 -0.09397934 -0.16120246 -0.07351006
0.016882932 -0.14031895 0.0971964 -0.18716171 -0.012491179 -0.062356837 0.029535787 0.05795358
-0.15819563 0.15619627 0.031330306 0.048559435 -0.103326604 -0.059358206 0.13698488 0.013558494
0.118309975 0.18384376 0.069921084 0.07965173 0.19024225 -0.1395087 -0.03221447 -0.063294925
-0.11567694 -0.010396712 0.03786855 -0.15220556 -0.14398359 0.1178533 -0.049168173 -0.13998
0.16703317 -0.09333754 -0.10611716 -0.115085796 0.048388552 -0.005473631 0.10730593 -0.033076655
0.15162016 -0.118702814 -0.09035866 0.19987416 -0.0082789045 0.15755285 0.08987886 0.030704143
0.056751158 0.03909188 -0.008819777 -0.06534458 0.11207958 0.1581469 -0.13764551 0.026481245
0.12198843 -0.030532807 -0.045169625 0.16324109 0.04646529 -0.0014792501 0.021495068 -0.02496832
0.05377087 0.120283246 0.0983029 -0.06857066 0.14727251 -0.021146704 -0.10900071 0.0800616
0.06048127 -0.1546925 0.19207832 -0.058736604 0.17100358 0.10843014 0.028992904 0.2573487
-0.17540492 -0.1245129 0.07998684 -0.006907098 0.059760384 -0.05408459 -0.054684207 -0.06503106
-0.14837441 -0.018431025 0.15043257 -0.013986858 0.014364154 -0.13724001 0.10846447 0.048026934
-0.1200898 0.04566345 0.09141339 0.045570027 0.055951428 -0.0076293377 0.2379415 0.14320762
-0.018682411 -0.07389552 0.124629065 0.11943909 -0.15703595 -0.08932395 0.1352694 0.069215424
-0.06708972 0.06446723 -0.20755377 0.049435887 0.09402557 -0.0699402 0.08035146 -0.030901529

weight f4 [8, 4, 1, 1]
00000000: 8255 373e 0be4 91be 8e37 7bbe a189 e23e
00000010: 6d62 d03e 9127 06bd 3355 a73e b36f 65bc
00000020: 5d99 babe 9518 e0be b483 65be 2d88 d53e
00000030: 5de0 df3e 28ae 0abe cdd5 b1be bde2 02be
00000040: 66b1 a9be 0220 85bc d3f1 05be 11e9 d73e
00000050: d2b2 b23e c308 293e 82dc bfbe c935 063d
00000060: 5e53 4b3e 75d6 9f3e 5629 44be 7855 58be
00000070: e8b6 fa3d 5f55 9fbd 2188 fcbe be12 b4bd
0.17903712 -0.28494295 -0.24532911 0.44245628 0.40700093 -0.032752577 0.3268219 -0.014003682
-0.36445132 -0.43768755 -0.22413522 0.41705456 0.43725863 -0.13542998 -0.3473343 -0.12781806
-0.33143157 -0.016250614 -0.1308053 0.42170003 0.34902054 0.16507249 -0.37472922 0.032766137
0.19856021 0.31218305 -0.19156393 -0.21126354 0.12241918 -0.07779955 -0.49322608 -0.08792637

bias f4 [8]
00000000: e495 ed3c 87c7 703c d259 193c 034d 02bc
00000010: 4cfc cb3c 8f8a 22bc e510 313d d7bf 14bc
0.029002137 0.0146960085 0.009359794 -0.007952931 0.024900578 -0.00992073 0.043229003 -0.009078941

bias f4 [8]
00000000: d382 dc3c 98c9 1b3d 48d2 7e3c 5b0a 013d
00000010: 3102 f53c 8c20 4f3d 6bdf 113d 7d1c 693c
0.02691785 0.03803405 0.015553065 0.031504016 0.029908272 0.05056815 0.03561346 0.014227984

weight_g f4 [8, 1, 1, 1]
00000000: 212c 333f 6f33 283f 4389 213f 7f1b 353f
00000010: 920c 2d3f f427 493f 443d 393f 22db 143f
0.6998921 0.6570348 0.6310007 0.7074508 0.67597306 0.7857659 0.7235911 0.5814687

weight_v f4 [8, 4, 3, 3]
00000000: bd4d 76bd 9f2c d53d 4bca 0f3e 2fc5 433e
00000010: 8ce6 c13d 42b4 913d 5507 9a3b 0685 a53d
00000020: 29c0 073b 800c f4bc 9586 4c3d 80db 823d
00000030: bf54 ed3d b42e 083e 7dd7 613d 33cf 4abd
00000040: 27f9 1e3e 2248 cbbb c39d c7bd 1582 43bd
00000050: 1523 f0bc f2d1 4e3e 6e8b 183e a158 39bd
00000060: 4348 dfbd c224 7f3e 1e7f a7bc e49a 69bd
00000070: d320 f13d 525f 87bd 0d1c bebd 38f6 843d
00000080: 5623 c73d a5c2 56bd 363e 153c b33f c9bc
00000090: 2f9a 993d 6424 aabc 51c2 cebd 79e5 553e
000000a0: 3d72 3a3d eea5 c43c 8489 49bd 3c8d c1bc
000000b0: 8728 ef3d 4a18 fa3d 509b f5bc 11ab 5cbc
000000c0: b4b0 443e 7f77 e4bd 3230 23bb 6689 94bd
000000d0: c7c8 efbd c1b4 ab3d c0bc 073e 0a76 4fbd
000000e0: ea0f 0cbe 979d 28bc 09b8 a7bd 47a7 32be
000000f0: d501 4e3d 3755 9ebc 3cbf 193e ed30 c0bd
00000100: 3f38 da3d 0bec 143d 5966 d8bd 5c12 223e
00000110: e0c9 8a3d d78c 193e 6b26 9c3d 67b8 b83d
00000120: 2634 4e3b 6060 85bd ce05 e93c 5a02 533e
00000130: 0f4a c2bc 9472 86bc 9baf 54bd 5cf9 4e3d
00000140: 9848 a73d 6490 893d 4b1d efbc 5a3b 9ebd
00000150: 2d96 5e3e 5bf5 a13d a642 4a3d 983e aebd
00000160: c286 20bd f23d 333e e994 fb3d c5d2 d63c
00000170: abc2 ddbd 0251 553e 95d8 813d 6604 3ebd
00000180: 9aac 2dbd 5256 e7bc 8041 473d bdff 183d
00000190: 15ac 363d 21c4 b23d 528a e5bd dc7b 9fbd
000001a0: 1470 013e 0f2e 1f3d 8fd3 c93d 395e aabc
000001b0: 92c4 733c d2a8 0a3e 311f b9bc 0e6c 81bd
000001c0: 5abf 463d 76e5 a93d 70f2 793e 69ce 10bd
000001d0: a1ed 463e 79b6 b0bc 3779 f93c 2843 0738
000001e0: 2fb5 513d e110 54bc c4ac a3bd 36ed 3d3d
000001f0: c478 ae3d 4f24 293e b75c 1e3e aa81 cb3d
00000200: b49b e0bc 2d93 11bd b426 29bd 82d7 8b3d
00000210: fb7b 463e 9bd4 543c 845a 623e d5f5 90bc
00000220: fc3c 72bd d850 543d ad90 973d ac99 e4bd
00000230: 798d 183e e0c2 1abe cd49 8a3d eff3 e2bd
00000240: ed50 71bd e13c 503e 4020 50bc 0e07 8e3c
00000250: 956b 3b3e 274a 913d 88b3 453d de82 2f3e
00000260: bdd4 033e 8ea5 f33c 6d52 553e 3995 b3bd
00000270: d688 483d fd41 073e 47e7 003b 7838 cc3d
00000280: 10f4 ea3c c7bf 233e 3ae5 d5bd e440 0e3c
00000290: 5735 b9ba ac3d ab3d 33e6 393e ec06 7ebd
000002a0: 30d1 443d a161 e13d cd10 dc3d 5264 29bc
000002b0: edfb 93bd 9734 e03c 24a6 7a3c bdca a1bd
000002c0: 32cc 2a3d 092f 68bc 673e 2b3d 74dd 4cba
000002d0: 4fe4 c3bc 5425 70bd a69c 2e3e 2f20 3bbd
000002e0: 1ff8 173e feba 1a3e 4d3e 10be c5de 703e
000002f0: faf3 953d 3c88 9ebd f91a 593d a627 bebb
00000300: 924e e73d 4e2b 0a3e 6de9 6e3d 7d65 97bd
00000310: 37a4 503e 7bc6 6f3d 8b99 f7bc 157c 5bbd
00000320: 4041 be3d 0700 483e 884a 373c a9c9 1a3e
00000330: 9133 973d 9a03 7b3e 756c 323e 56cc a63d
00000340: 9cb9 8cbd 93c2 fabd 6448 c4bd c110 753d
00000350: fd3c 023e 7119 973d 983d 1ebe 85c2 9bbc
00000360: 1664 29be 6740 0d3b 7fae 4abd 39d7 c4bc
00000370: d5ed 123e 4e27 b13c 5a05 6fbd ee36 8b3d
00000380: 9ef7 0b3e 99c6 00be e26f a8bd 23e9 9f3d
00000390: 5431 fdbd f7a6 ba3d cb3c 333e 3165 883d
000003a0: 5aed 0cbe a129 023e ebbf 3abe ce6f 3fbd
000003b0: 6f0e bc3d 9c05 963b eec7 103e a9ec 3b3e
000003c0: 1706 ecbb 0f5a 11be b88a 2b3e 9ca6 4c3e
000003d0: 5a37 a23d 847e c83d 2c29 3cbd 922c 313e
000003e0: db87 c33d 5021 413e a4a1 e7bd 98eb a73d
000003f0: 92fc 723c 57b3 ec3d 1bcf bd3d 30ae a5bd
-0.06013273 0.104089014 0.14042012 0.19118188 0.094678015 0.071144596 0.004700581 0.08082013
0.0020713902 -0.029791117 0.049933035 0.063895226 0.1158843 0.13299066 0.055137146 -0.049514007
0.15524732 -0.0062036673 -0.097468875 -0.047731478 -0.029313603 0.20197275 0.14896938 -0.04525054
-0.10902455 0.24916366 -0.020446356 -0.05703248 0.11773839 -0.06609978 -0.09282694 0.06492275
0.09723537 -0.05243172 0.0091090705 -0.024566507 0.07500111 -0.020769306 -0.10095657 0.20888318
0.045519102 0.024004903 -0.04920341 -0.023626916 0.11677652 0.12211664 -0.029981285 -0.01346852
0.19208032 -0.111556046 -0.0024900553 -0.07252769 -0.11708217 0.083840854 0.13255596 -0.05064968
-0.13677946 -0.010291479 -0.08189399 -0.17446624 0.050294716 -0.019327743 0.15014356 -0.09384332
0.10655259 0.03635792 -0.10566396 0.15827316 0.06776786 0.14995132 0.07624515 0.09019547
0.0031464188 -0.06512523 0.02844515 0.20606366 -0.023716955 -0.016412057 -0.051925283 0.050530776
0.08168143 0.067169935 -0.029188773 -0.07726164 0.21736975 0.07908126 0.049379967 -0.085080326
-0.039191015 0.17504099 0.12284262 0.02622355 -0.108281456 0.20831683 0.06340138 -0.046390913
-0.042400934 -0.028239403 0.04864645 0.037353266 0.044597704 0.08728815 -0.11208023 -0.07787296
0.1264041 0.038862284 0.09854805 -0.020796882 0.014878409 0.13540962 -0.022597881 -0.06319438
0.04852233 0.08295719 0.24408889 -0.035353098 0.19426586 -0.021571385 0.030453308 3.2249052e-05
0.05119818 -0.012943477 -0.07991937 0.0463688 0.08519128 0.16517757 0.15465055 0.09936841
-0.027417995 -0.03554075 -0.041296676 0.06828214 0.19383232 0.012990142 0.22104841 -0.017695347
-0.05914019 0.05183491 0.074006416 -0.11162123 0.14897718 -0.15113401 0.06752358 -0.11081683
-0.058915067 0.20335723 -0.0127030015 0.017337348 0.18302758 0.070942216 0.048266917 0.17139766
0.12874122 0.029742029 0.20832224 -0.08768696 0.048958622 0.13208766 0.0019669102 0.09971708
0.028680831 0.15991126 -0.10444112 0.008682463 -0.0014130276 0.08361372 0.1815422 -0.06201832
0.04805106 0.11004949 0.10745392 -0.01033886 -0.072257854 0.027368827 0.0152984 -0.078999974
0.041698642 -0.01417137 0.04180756 -0.00078149815 -0.023912577 -0.05862935 0.17051944 -0.04568499
0.14840744 0.15110394 -0.14086266 0.2352248 0.073219255 -0.077408284 0.05300424 -0.0058030663
0.11294283 0.13493082 0.05832808 -0.07392404 0.20375143 0.058538895 -0.030224582 -0.05358513
0.09289789 0.1953126 0.011187203 0.1511599 0.073828824 0.24513093 0.17424186 0.08144443
-0.0687134 -0.12244143 -0.0958412 0.05983043 0.12718578 0.073778994 -0.15453184 -0.019013653
-0.16542086 0.002155328 -0.04948282 -0.024028407 0.14348538 0.021625187 -0.058354713 0.067975864
0.13668677 -0.12575759 -0.08224465 0.07808139 -0.12362924 0.09113877 0.1750366 0.06659926
-0.13762417 0.12711193 -0.18237273 -0.046737485 0.091824405 0.0045783054 0.14138767 0.18351997
-0.0072028744 -0.14194511 0.16752136 0.19985431 0.07920714 0.09789756 -0.045937702 0.17302158
0.09547397 0.18860364 -0.113101274 0.08199233 0.014830725 0.11557644 0.09268018 -0.08089864

weight f4 [8, 4, 3, 3]
00000000: cea9 91bd 97c7 fa3d 5612 2a3e 602c 643e
00000010: 8e1b de3d 2ae8 ac3d d583 d33b 51ca bb3d
00000020: d156 333a f498 0fbd a5d7 6f3d 4c66 9c3d
00000030: ebb4 083e 10fe 1c3e bc9d 853d c1e3 6bbd
00000040: 68ce 363e 88ad 13bc c88b ebbd e515 68bd
00000050: 4034 0fbd 4d21 713e da21 303e 9486 60bd
00000060: f9e1 02be 9289 933e 7f1a d3bc 873d 8cbd
00000070: df70 0b3e 1164 a0bd a368 e1bd b771 9a3d
00000080: 7ae2 e73d 1452 81bd 5180 3d3c 81df f5bc
00000090: 4527 a43d c4bc a9bc 8c70 dcbd 99f9 663e
000000a0: 88bb 513d 70ab e63c 87d7 5bbd cb1f c6bc
000000b0: 9744 013e dc73 073e 0d58 fabc 2abf 4cbc
000000c0: 5c60 533e ce00 f7bd 0897 d9b9 5f84 a1bd
000000d0: ca21 02be b7b3 b63d a1f7 123e 5a30 5abd
000000e0: 4814 16be d8c9 55bc 47e2 b3bd 9a8b 40be
000000f0: b717 633d 4363 9dbc 204d 263e 0b9b d2bd
00000100: 3f41 e73d 564d 183d 9f1c ecbd ab97 2c3e
00000110: e709 913d 8a47 243e ba0c a43d 6020 c43d
00000120: 6276 e63a ce6d 99bd 733f 073d 7294 6f3e
00000130: d60c eebc 7a65 95bc c0be 75bd 2c06 703d
00000140: e665 ba3d f30f 9b3d 13c2 03bd 8d56 b5bd
00000150: 83c0 7c3e baa0 b73d d726 6d3d a29b c8bd
00000160: 5e05 39bd eece 4b3e 7c7f 103e 4068 023d
00000170: ed33 febd de82 713e 2ae5 913d 3acc 58bd
00000180: 8fc4 45bd 6a77 04bd 1865 593d 20d2 2a3d
00000190: 2861 4a3d 0a43 c73d fd75 03be c651 b9bd
000001a0: f3a7 113e ac3c 303d 6e65 e23d a4f9 cebc
000001b0: 55ac 7f3c cb46 1d3e 132a d7bc a88c 93bd
000001c0: 2865 633d 523f be3d 2f01 8c3e 0d63 2bbd
000001d0: 733c 5f3e 33fa d2bc ad83 083d 13ad cbb9
000001e0: c103 723d 2ccd 6ebc 9ef5 bbbd ab52 4c3d
000001f0: 1af1 c13d 3854 3d3e e8ba 323e dc76 e53d
00000200: c7c6 01bd 85df 24bd 45ea 40bd c726 9c3d
00000210: b27b 5d3e 1bd6 513c 2b34 7e3e 2e9a acbc
00000220: 4280 8abd 031a 6c3d 4aaf a83d 1eeb 01be
00000230: d89a 2b3e 213d 2fbe d192 9b3d 6141 01be
00000240: 2009 8cbd fa5d 723e ce19 81bc 5835 a03c
00000250: 128b 583e 0eac a93d 2a76 653d 4317 4c3e
00000260: a2cb 173e f561 163d e0c7 773e d0b0 d4bd
00000270: eab5 693d 9c48 1b3e c864 c93a d5b3 ef3d
00000280: d894 fe3c 5a4f 3d3e e783 fabd e3ba fa3b
00000290: 3bf5 0fbb 9783 c83d 1cae 563e 27bc 96bd
000002a0: c810 643d 632d 013e 4b27 fc3d 749d 66bc
000002b0: 61c6 aebd 51f7 f83c dd4c 843c 7854 bebd
000002c0: e1ca 403d 717d 94bc ea99 473d 9f17 2abb
000002d0: eb3f e0bc fade 87bd 3060 403e d1cb 55bd
000002e0: 1fa9 273e d3ee 283e 1a69 1fbe a393 833e
000002f0: 9315 a13d d939 b2bd 3a0a 6e3d aa79 06bc
00000300: 1738 fe3d 02e5 173e 8395 7e3d bdd2 a4bd
00000310: bc83 633e f9e5 7f3d a2b6 0cbd 9393 78bd
00000320: 3c09 cf3d d3eb 5c3e 9259 283c 13cb 283e
00000330: 1bd9 aa3d 4521 893e 2d30 433e 5890 b63d
00000340: 37e4 9ebd ed28 0bbe 9045 dcbd 3628 863d
00000350: c25f 103e dfb3 a23d 4d47 2fbe b238 aebc
00000360: 24ad 2dbe 3122 7d3b 956a 56bd b533 c8bc
00000370: e4ec 173e fccd a43c a801 76bd ea98 913d
00000380: 4512 103e 4b47 03be 0519 adbd 64a2 a03d
00000390: 4b88 02be 7063 c13d e8a6 363e 4dcd 8e3d
000003a0: d513 11be e2a6 053e 553a 3fbe 0200 40bd
000003b0: 40d1 bd3d a76c b53b 2da5 153e 345e 3f3e
000003c0: 0e2d e1bb 5f9b 15be 1fcc 303e e038 4f3e
000003d0: a754 a23d dbca c93d 84ee 46bd c859 333e
000003e0: e9ff c43d c57f 433e 09ec efbd 873c a83d
000003f0: 5405 6c3c 9c60 fa3d fb46 c43d 5ad4 adbd
-0.07112466 0.122451 0.16608557 0.22282553 0.108450994 0.08442719 0.0064549246 0.09169448
0.0006841245 -0.035057977 0.058555264 0.07636699 0.13350265 0.15331292 0.06524226 -0.05759025
0.17852175 -0.009013541 -0.115012705 -0.056661505 -0.03496194 0.2354786 0.17200413 -0.054815844
-0.12781514 0.28815895 -0.02576947 -0.06847673 0.13617276 -0.07831586 -0.11006286 0.07541221
0.11322494 -0.06314483 0.011566238 -0.030013802 0.080153026 -0.020719893 -0.10763654 0.22556151
0.051204234 0.02815792 -0.05367234 -0.024185082 0.12623821 0.1322779 -0.030559564 -0.012496749
0.20642227 -0.120607 -0.00041501992 -0.07886576 -0.12708202 0.08920997 0.14352275 -0.053268768
-0.14656174 -0.013048612 -0.08783393 -0.18803254 0.055442538 -0.01921237 0.16240358 -0.10283478
0.112917416 0.03718313 -0.115288965 0.16854732 0.07081967 0.16042915 0.0801024 0.095764875
0.0017582888 -0.07491647 0.033019494 0.23396471 -0.029058855 -0.018236864 -0.059996367 0.058599636
0.09101467 0.075714014 -0.032167505 -0.08854399 0.24682812 0.08966203 0.05789837 -0.097953096
-0.045171134 0.19903156 0.14111131 0.0318377 -0.12412248 0.23585078 0.07123788 -0.05292914
-0.048283156 -0.032340445 0.053074926 0.041704297 0.04940906 0.097295836 -0.12837978 -0.090488
0.14224224 0.04302661 0.110545024 -0.025265522 0.015605052 0.15359037 -0.02626518 -0.072045624
0.055516392 0.09289421 0.27344653 -0.04184251 0.21800403 -0.02575407 0.0333287 -0.00038848128
0.05908561 -0.014575284 -0.09177707 0.049883526 0.094698146 0.18489158 0.17454112 0.11204311
-0.03168371 -0.040252227 -0.047098417 0.07624584 0.21629217 0.012807394 0.24824588 -0.021069612
-0.067627445 0.057641994 0.08236559 -0.12687346 0.16758287 -0.17113163 0.075963624 -0.12622596
-0.06837678 0.23668662 -0.015759375 0.019556686 0.21146801 0.0828477 0.056020893 0.19930749
0.14823774 0.036714513 0.2419734 -0.10385287 0.057058252 0.15164417 0.0015365118 0.11704222
0.031076834 0.18487301 -0.122321896 0.007651673 -0.0021966237 0.09790724 0.20964855 -0.07360106
0.055680066 0.1261497 0.12312182 -0.014075626 -0.085339315 0.030391367 0.016149933 -0.09293455
0.04706848 -0.018126221 0.04873077 -0.002595402 -0.027374228 -0.06634326 0.18786693 -0.052196328
0.16373108 0.16497354 -0.15567437 0.25698575 0.07865443 -0.0870244 0.05811522 -0.008207718
0.12413042 0.14833453 0.062154304 -0.08048008 0.22218221 0.06247518 -0.03435386 -0.060687613
0.10109183 0.21574335 0.0102752615 0.16483717 0.08342191 0.26783195 0.19061346 0.0891425
-0.07758372 -0.1358983 -0.107554555 0.065506384 0.14099029 0.07944464 -0.17117043 -0.021267269
-0.16960579 0.0038625116 -0.05234774 -0.024438718 0.1483646 0.020117752 -0.060060173 0.07109244
0.1406947 -0.12820165 -0.08452038 0.078434736 -0.12747304 0.09442794 0.17837107 0.06972752
-0.14167722 0.13051942 -0.18674596 -0.046875007 0.09268427 0.005536634 0.14613791 0.1868828
-0.006871826 -0.1461005 0.17265366 0.2023654 0.079263024 0.09853145 -0.04856731 0.17514718
0.096191235 0.19091709 -0.11714942 0.0821467 0.014405567 0.12225458 0.09583851 -0.084877685

bias f4 [8]
00000000: a8e3 e43c 8c7c b93c 35e6 823c 95e2 a8bb
00000010: dadb 023d 981a 29bb 68dc 303d bf64 07bb
0.027940586 0.022642396 0.015978912 -0.005153964 0.031947948 -0.0025803205 0.043178946 -0.0020659415

weight_g f4 [8, 1, 1, 1]
00000000: daa6 283f 55bd 2e3f 5c35 3a3f 001c 063f
00000010: 1998 293f 430e 1a3f 476d 303f 840d 143f
0.65879595 0.6825765 0.7273767 0.52386475 0.6624771 0.6017801 0.68916744 0.57833123

weight_v f4 [8, 8, 3, 3]
00000000: ad79 7dbd 9346 883d 51d5 a3bd e347 5bbd
00000010: 32c8 cb3d b94f 153d 72ce 93bc f8f7 a33d
00000020: 7e77 863d f02c 463d 056b 75bd 0933 0bbe
00000030: 0507 d13d 4519 53bb 19ae 193d c9df cf3d
00000040: a064 4a3d 30fb e03d 1752 4a3d ef61 3d3d
00000050: 964d cdbd efeb 853d f297 71bc 666a 58bd
00000060: 013f e03d f296 fe3d 5a7b b13d e1fa 153e
00000070: 3d2e cebd 0abe b93c 2289 203e 4332 dabd
00000080: 8fe0 743c f35c 173c 89de 05be efaf 013e
00000090: 72ba f83d 85b5 89bd af6a eb3c 6a1f f73c
000000a0: 9bb6 b3bc baea 0d3d 3b92 0e3d 36ac 223d
000000b0: 4aa9 52bd 7f16 8e3d d4cf 9d3d 1f44 69bd
000000c0: d6e6 7fbd 61f7 98bd 2126 55bd a25a 80bd
000000d0: a7f4 ea3d b96e a6bc 0b2f aa3d a04c 9dbc
000000e0: 12c8 4a3d 6634 613d 45ad 263d 3c4a 913d
000000f0: f385 a23c 27b7 f93c e091 253d 8cdf b9bc
00000100: b104 95bc 5de4 95bd ab5d 0d3b 4157 e33c
00000110: 3dec 71bc 6846 adbd d707 583d 0004 a53c
00000120: b437 f5bc 1b94 903d 6682 163d db56 aa3c
00000130: 6969 503c 8d65 fcbd e31e 4bbc 8a56 4dbd
00000140: 264c 6cbd 2164 8cbc d050 d3bd a633 0b3d
00000150: ca2a 013d 29dc c8bc 75fa 083e 5d9a d6bd
00000160: 0d53 37bd c7cf de3d 81cc 51bd 896a 8abd
00000170: e11e 31bb b3a8 5dbd a057 7cbc 96b1 313d
00000180: 345d f6bd dc8e 3b3d 4ecd af3d 1c12 bbbd
00000190: e0d1 a7bd 74b0 1dbd 2f80 a6bd e1b9 073c
000001a0: c546 c23c 608a 81bc fbae f7bb f746 e9bd
000001b0: c7f2 9cbd aa68 f63c cd03 0bbd 5684 d0bd
000001c0: 07a8 b73d 5976 efbc da92 4dbd b8a5 d0bb
000001d0: 9e52 b9bd 3116 24ba cb84 6b3c 7495 2ebd
000001e0: 34b0 9c3d 782f 32bd 8525 13be dcb5 763d
000001f0: ce08 c5bd 6125 a1bd 603d 103e 1b09 b23d
00000200: d5b7 34bc bc62 07bc 1f86 93bc 2826 d0bd
00000210: d321 e93c 4892 debc e94a a0bd 27ff eebc
00000220: cc47 7ebc 8b69 e2bd 0d40 9f3c 8daa 473d
00000230: e04c a8bd 0eb3 103d 12e1 09bd fdbb a2bd
00000240: 1ad1 32bd 9bfe b3bd 92cd 68bd 07cd 2d3d
00000250: f07c 5abd e590 ebbc be9e 2b3e ac79 b23d
00000260: 2295 a03d c170 b9bc c668 573d 0df1 5cbc
00000270: 748c bb3c d7d8 d6bd 4af3 47bd 7576 623d
00000280: 245c 043e 81ad ce3c df22 1cbd 3e28 53bd
00000290: c04d a03d 18fe b3bd 7e28 42bd 3438 65bc
000002a0: 5caa 233e 9ab8 983d 2951 303c d070 d7bd
000002b0: cd4f e6bd d226 e63b d67b 2d3d 7442 0d3e
000002c0: 2d82 543d 4012 e4bc 2163 debd 5d9b 833d
000002d0: d7d0 b7bd b8fb 91bd c097 4ebd f011 e83d
000002e0: 0ec3 a13d 5c11 1ebd e1ca 383e 2185 9b3d
000002f0: c1e2 ecbc 8d11 5bbc d69f c5bd e1cc e1bd
00000300: c515 633d 8115 3d3d 4cb6 a3bd e79e 823c
00000310: 7567 2a3e d726 5c3b e372 3fbd e740 81bd
00000320: 51c1 0b3d 8e61 743d d8d0 57bd f4f4 173d
00000330: 8386 a93d 5f56 dd3d da88 96bd 8ccf 0cbd
00000340: 10fd 21bd f63d 87bd be7a 5c3d 46de a73d
00000350: 5ee8 123d d8cd 06bd afd5 993b 104c 86bd
00000360: 5f33 b1bc 6100 9bbd d2f8 0abd 9b65 31bc
00000370: 6005 94bd cb8b 3abd 82af fbbc 7d17 8ebd
00000380: 7547 263d 60b2 b43d 8513 88bd 8baf 9bbc
00000390: a07c 0c3d 2ebe e8bd 2776 39bd 3061 193d
000003a0: d42a c9bc 5cc7 a1bd a03e 923d d6cf b13c
000003b0: 6710 2bbd 304e bf3d cd9e d33c 8432 b6bd
000003c0: 977f 3dbc 87c2 203d 0356 94bd 4368 9ebd
000003d0: 8878 6dbd e211 b93c 65de 32bc 1fc2 8c3d
000003e0: d8b3 223d 9514 c3bd 29e3 a9bd f293 22bd
000003f0: 1c4a eebd 3db2 6d3d 617e 8bbc 1390 92bc
-0.061883617 0.06654086 -0.07999671 -0.053535353 0.099502936 0.036452983 -0.018042777 0.08006281
0.0656576 0.0483827 -0.059916515 -0.13593687 0.10206417 -0.0032211107 0.037519548 0.101501055
0.04941237 0.1098541 0.049394693 0.046235975 -0.10024564 0.065391414 -0.014745699 -0.052835844
0.10949517 0.12431134 0.086661056 0.14646484 -0.10067413 0.022673625 0.15677312 -0.10654118
0.014946117 0.009238469 -0.13073172 0.1266477 0.121449366 -0.06724075 0.028737394 0.030166347
-0.021937659 0.03464768 0.034807425 0.039715014 -0.051430978 0.069378845 0.07705656 -0.05694973
-0.062476 -0.07469059 -0.052038316 -0.06267287 0.11472445 -0.020316469 0.08309754 -0.019201577
0.04950721 0.05498161 0.040692586 0.07094237 0.019839263 0.030482842 0.04042232 -0.022689603
-0.018190714 -0.073189475 0.0021570723 0.027751567 -0.014765796 -0.084606946 0.05274185 0.020143509
-0.029933788 0.07059499 0.03674545 0.020793369 0.012720444 -0.12324057 -0.012397501 -0.05013136
-0.05768981 -0.017137589 -0.10318148 0.033984803 0.031534947 -0.024519043 0.13376792 -0.10478661
-0.044756938 0.10879474 -0.05122042 -0.06758601 -0.0027026462 -0.054115962 -0.015401751 0.04338225
-0.12029496 0.04579054 0.08584081 -0.091343135 -0.08194327 -0.038498357 -0.08129918 0.008284063
0.023715386 -0.015813053 -0.007558701 -0.113904886 -0.076634936 0.030079205 -0.03393917 -0.10181491
0.089675955 -0.029231237 -0.050188877 -0.0063674115 -0.09048961 -0.00062594103 0.014374922 -0.042623
0.076507956 -0.0435023 -0.14369781 0.06023203 -0.0962082 -0.078684576 0.14085913 0.08693143
-0.011030157 -0.008263286 -0.01800829 -0.10163528 0.028458511 -0.027169362 -0.07826788 -0.0291744
-0.015520047 -0.11055287 0.019439721 0.048746634 -0.08217788 0.03532701 -0.03366191 -0.07946012
-0.043656446 -0.087887965 -0.056836672 0.042431857 -0.053341806 -0.028755615 0.16759774 0.08714613
0.07840945 -0.022636773 0.052590154 -0.013485205 0.022894122 -0.10490578 -0.048816003 0.05528875
0.12925774 0.025229217 -0.038119193 -0.05155205 0.0782733 -0.08788699 -0.047401898 -0.013990451
0.15982956 0.07457085 0.010761538 -0.10519564 -0.112456895 0.0070236707 0.042354427 0.13794881
0.051881958 -0.027840734 -0.10858751 0.064261176 -0.0897538 -0.0712809 -0.05043769 0.11331546
0.07898532 -0.038590774 0.18046142 0.07593752 -0.028916718 -0.013370884 -0.09649627 -0.11025406
0.055440683 0.046163086 -0.07993755 0.015944911 0.16641028 0.0033592486 -0.046740424 -0.06311207
0.034119908 0.059663348 -0.052689403 0.03709884 0.08277609 0.108074896 -0.07350321 -0.03437762
-0.03954798 -0.06603615 0.053827994 0.08196692 0.035866134 -0.03291115 0.0046946625 -0.065574765
-0.021630941 -0.07568432 -0.0339287 -0.010827447 -0.07227588 -0.045543473 -0.030723337 -0.06938074
0.04059549 0.08823085 -0.06644348 -0.019004604 0.03429854 -0.11364399 -0.045278694 0.0374462
-0.024556555 -0.07899353 0.07140851 0.02170555 -0.04176369 0.09341085 0.025832558 -0.08896354
-0.011566064 0.039248016 -0.07242968 -0.0773473 -0.057976276 0.022591535 -0.010917281 0.06872963
0.039722294 -0.0952541 -0.082952805 -0.039691873 -0.11635229 0.05803131 -0.017028036 -0.017890966

weight f4 [8, 8, 3, 3]
00000000: a433 8cbd 52a0 903d 4d09 b4bd 3f83 67bd
00000010: 6cdb de3d 7677 233d 32af a9bc f8e2 ac3d
00000020: f59a 943d f99d 4c3d 20ea 87bd e7a7 17be
00000030: 9d96 e03d a9fd 87bb 4987 213d a79a dc3d
00000040: 6197 523d 177c f03d d1d9 503d 7070 4b3d
00000050: 694a dfbd 78ea 933d a5d6 6ebc 381d 6dbd
00000060: 0ea8 ed3d bf31 083e 1e7c bf3d bbe7 213e
00000070: 9762 e0bd 25d3 bf3c 6e02 2d3e 9d42 eebd
00000080: 1559 883c af9e 103c 79e2 10be 9edb 0c3e
00000090: 9dbf 053e a492 96bd 7f39 f63c 0881 063d
000000a0: 2b1e c2bc bf5a 1f3d 80e7 163d 987a 293d
000000b0: 2f38 66bd d15f 993d 300d a73d 48e9 7fbd
000000c0: 0e3f 8cbd 00e3 a6bd cd09 67bd b65d 8dbd
000000d0: 6081 fa3d 3193 b2bc f667 b43d 7945 b2bc
000000e0: 230d 543d 56f1 6d3d 5cbe 2f3d ce3a 9b3d
000000f0: 0af3 9d3c 61b6 fd3c c232 303d 14ab cdbc
00000100: 5107 b2bc c00c a5bd 93b8 d43a ca87 f33c
00000110: 6f55 8bbc d6cb bbbd e0bd 623d d373 af3c
00000120: cccd 0bbd e4f6 ad3d e03e 3a3d 4b2e cf3c
00000130: 42eb 643c 008e 17be 6e4f 79bc 75b2 77bd
00000140: 59db 90bd f905 abbc cfd4 f9bd 1057 1f3d
00000150: 0d1d 193d 3c34 e0bc d466 233e 18a5 01be
00000160: b92e 5bbd 3daa 033e b270 7abd 2cd5 a3bd
00000170: f405 a7bb 6044 89bd 9a95 8bbc ee4a 533d
00000180: a41a 14be 8b84 663d d0a7 ce3d 64f8 e1bd
00000190: 75ce c9bd 08c4 3dbd 6581 c9bd 5fa3 2e3c
000001a0: e9d2 e73c 9132 88bc 7dd7 2bbc f3f7 0cbe
000001b0: 167c b8bd 4ed8 0f3d 6e4e 25bd e8a7 fabd
000001c0: c148 db3d 8f6d 08bd 14b1 72bd 7825 18bc
000001d0: 20c9 e1bd add3 6aba 740e 8b3c 9515 47bd
000001e0: 84a3 bb3d 8304 5ebd 8c0c 2ebe e61c 923d
000001f0: 8263 ecbd 0b3a bfbd ef3c 2c3e b795 d33d
00000200: 3465 3ebc c5e3 3cbc 7689 b8bc 4d09 f7bd
00000210: b388 093d 5e6c 0abd b67e c3bd a6e1 14bd
00000220: 2ef5 9ebc 64ab 07be 1943 be3c 12d5 6b3d
00000230: fe4f cbbd b2d2 2a3d 029f 20bd 0f8d c1bd
00000240: 4fa9 44bd 66e1 cdbd 05f8 83bd 6357 403d
00000250: 335d 7cbd 4082 06bd 8f94 413e c575 c53d
00000260: 781a b53d 647e e1bc a65c 6e3d c0b3 87bc
00000270: b205 c73c a4ff f5bd 4254 69bd 8253 793d
00000280: ee49 143e 6796 db3c 61db 36bd 04d9 73bd
00000290: 381c b73d e37a cfbd 2978 5cbd 00d3 8abc
000002a0: 8b40 373e 7568 a83d a68c 2c3c e82f f7bd
000002b0: c94e 01be 927d 123c 01aa 3c3d 7c1c 203e
000002c0: 48b9 6d3d ea83 07bd d411 febd ef2c 943d
000002d0: 3f95 d0bd a66f a0bd 690a 6cbd 1788 023e
000002e0: 5645 b83d 9871 38bd 0889 503e 840e ac3d
000002f0: 24c7 0bbd 7581 4fbc a4ae e0bd 533f 00be
00000300: 37cb 793d 18af 553d b4ca babd 9035 833c
00000310: 0622 3f3e ac57 2f3b 7adc 5ebd 2f8b 95bd
00000320: 1a11 173d 78c7 873d 348c 7abd e687 253d
00000330: 1f2c bc3d e485 f73d 4b93 adbd 35d1 16bd
00000340: d00f 36bd 61fc 9abd 26b2 713d 7b3c bc3d
00000350: 4d50 283d 81b2 17bd 341f 743b 541a 9cbd
00000360: 8ee3 b0bc c1bc 9abd 0db4 0abd 8b15 31bc
00000370: dcc3 93bd d735 3abd 633c fbbc e5d7 8dbd
00000380: 0206 263d 7465 b43d 4ad6 87bd b267 9bbc
00000390: 2444 0c3d e258 e8bd e322 39bd 4f21 193d
000003a0: a4d3 c8bc 027f a1bd a300 923d bb8b b13c
000003b0: 55c1 2abd fbfb be3d e348 d33c 85e1 b5bd
000003c0: 3325 3dbc 6e7e 203d 0313 94bd e421 9ebd
000003d0: fc0c 6dbd 89cb b83c 0284 32bc 7788 8c3d
000003e0: 4d73 223d 84be c2bd 1098 a9bd 2a49 22bd
000003f0: 19e2 edbd e64d 6d3d 1c36 8bbc 9c4d 92bc
-0.06845787 0.07061829 -0.087908365 -0.05652165 0.10881695 0.03990885 -0.020713422 0.08441728
0.07256118 0.049955342 -0.06636453 -0.14810143 0.10966227 -0.0041501117 0.03943566 0.10771685
0.051413897 0.11742418 0.050988976 0.049667776 -0.109028645 0.07222456 -0.014577542 -0.057889193
0.116043195 0.13300227 0.09349845 0.15811054 -0.109563045 0.023416111 0.16895458 -0.11633799
0.01664404 0.008826896 -0.14148892 0.13755652 0.13061376 -0.07352188 0.030056713 0.032837898
-0.023696026 0.0389049 0.03684187 0.04137668 -0.056205925 0.07488979 0.08156812 -0.062478334
-0.06847964 -0.081487656 -0.05640583 -0.069026396 0.122317076 -0.021798702 0.088088915 -0.021761643
0.05177034 0.058091484 0.04290615 0.075795755 0.01928093 0.030970754 0.043017156 -0.02510599
-0.021732004 -0.080590725 0.0016229324 0.029727835 -0.017008511 -0.09169738 0.05535686 0.021417534
-0.03413181 0.08494356 0.04547012 0.025290629 0.013972105 -0.14800262 -0.015216691 -0.060472924
-0.07073087 -0.020876871 -0.12198793 0.03890139 0.03738122 -0.027368657 0.15957195 -0.12660635
-0.053511355 0.1285791 -0.06114263 -0.07999644 -0.005097145 -0.067024946 -0.017039109 0.05158513
-0.14463288 0.056278747 0.100906014 -0.11033705 -0.09853832 -0.046329528 -0.09839133 0.010659068
0.028298812 -0.016625674 -0.010488388 -0.1376646 -0.090080425 0.035118394 -0.040358 -0.12239057
0.10707236 -0.03330761 -0.059250906 -0.009286277 -0.1102469 -0.0008957934 0.016974665 -0.048604567
0.091620475 -0.05420352 -0.16996974 0.07134418 -0.11542417 -0.09337243 0.1682012 0.1033129
-0.011620808 -0.011528914 -0.022526484 -0.12062321 0.033577632 -0.033794753 -0.095456526 -0.036348008
-0.01940402 -0.13248974 0.023225354 0.057576247 -0.09927367 0.04170484 -0.03921414 -0.09450733
-0.048013028 -0.10052757 -0.0644379 0.04695834 -0.06161232 -0.03283906 0.18904327 0.096416034
0.08842939 -0.027526088 0.058193825 -0.016565204 0.024294708 -0.1201165 -0.05696512 0.060870655
0.14481327 0.026805116 -0.04464281 -0.059533134 0.08940929 -0.10130861 -0.05382553 -0.016946316
0.17895715 0.082230486 0.01053158 -0.12069684 -0.1262771 0.008941071 0.046060566 0.15635866
0.058038026 -0.033084787 -0.12405744 0.07235133 -0.101847164 -0.07833795 -0.057627115 0.12747227
0.089976 -0.045030206 0.20364773 0.08401206 -0.034125462 -0.012665142 -0.1097081 -0.12524156
0.060984816 0.052168936 -0.09120694 0.016016752 0.18665323 0.0026755137 -0.05440948 -0.07301938
0.036881544 0.066298425 -0.061168864 0.040412806 0.09188103 0.120860845 -0.084753595 -0.03682061
-0.044448674 -0.07567669 0.059007786 0.09191223 0.041092206 -0.03703547 0.0037250044 -0.07622209
-0.021592882 -0.07555533 -0.033863116 -0.010808359 -0.072150916 -0.045461502 -0.030668443 -0.06925944
0.040533073 0.08808413 -0.06632669 -0.018970344 0.03424467 -0.11345078 -0.045199286 0.03738528
-0.02451498 -0.07885553 0.07129028 0.021673074 -0.041688282 0.09325405 0.025791591 -0.08880905
-0.0115445135 0.039183073 -0.07230189 -0.07721308 -0.05787371 0.02255799 -0.010895731 0.06861966
0.03966074 -0.09508994 -0.08280957 -0.039620556 -0.1161539 0.057935618 -0.016993575 -0.017859273

weight f4 [16, 8, 1, 1]
00000000: cb44 ab3e 75ad 1abe 49c3 33be b791 03be
00000010: 6567 943e dbd6 b53d 62d8 66be c86a 12be
00000020: 888d a9be f5b3 4fbe 629b db3c 9e98 803e
00000030: a081 ec3d 02e6 4b3e 06a6 cdbd 2f4f 1ebe
00000040: ff13 75be b2d8 b73e 88de 713e da06 a13d
00000050: eefe 483e dc51 35be a3a3 913c 198b b1bc
00000060: f2f6 763e bdf9 05be 5eb0 bd3e 6677 793e
00000070: dbc1 f43d 1036 a03e a6bf e53d ecce 92be
00000080: c9f1 8cbe 32a6 7dbe da0b b03e b6de 6e3d
00000090: f0d5 d8bd 0c4d 953e 572d 633e e1c9 a7bd
000000a0: 4bc5 ac3e a716 94bd 6638 36be 4e25 29be
000000b0: fb42 003e 7bcc 6cbe 5a04 fdbd e420 92be
000000c0: 3b43 383e b10a a7be 0dcc 033d 52a5 713e
000000d0: 746e 87be eaa4 413d 3807 66be f5c2 8d3e
000000e0: bd11 b6be 2251 9b3e b10f 9a3e 8641 233d
000000f0: 50e9 4abc a930 953e 3fb1 4e3e b667 7b3e
00000100: c4a2 a7be 8786 943e 0582 32be a723 bc3d
00000110: 0a8b 57bd ae61 5b3d 6b01 153e d9c6 253d
00000120: a3d5 493c 1d08 793e 81bf 953e 875b 2a3e
00000130: a29c 44be 7f16 f3bd c15b 413e 01f6 603e
00000140: 6961 533e 7220 133e 73d4 963e 95b6 6d3e
00000150: 36cc 0e3e 5be0 eabd 1958 6ebd e536 56bd
00000160: b772 b2be d426 993c 4c0a 4c3e 0c38 98be
00000170: fe5d 8b3d c81f 7abe d35b 5ebe eaa5 bc3b
00000180: e5d7 aebe 4dd5 96be 3e29 753e dc6f 30bd
00000190: 0dea fc3d 72dc 5fbe 67f2 26bb a5d5 df3d
000001a0: 8b84 82be 9b03 89be 2d0a 3cbd 283d 96bd
000001b0: a1e3 9abe c42b 0dbe 78ff 373d bbcb a13e
000001c0: c6df 29be 9b8e f63d e64f 0ebd 2f82 8f3e
000001d0: 72b4 333e 22f6 01be 49c8 b83c bee9 a6be
000001e0: 2ef7 6fbe 55aa 5bbe 5645 b63e 13d2 fb3d
000001f0: fe12 a23e 6b0b 013e c889 063e 0ea3 133d
0.33450922 -0.15105231 -0.17554964 -0.12848555 0.28985134 0.08878871 -0.22543481 -0.14298546
-0.33115792 -0.20283492 0.02680749 0.25116438 0.115481615 0.1991196 -0.10041432 -0.15459894
-0.23933409 0.35907513 0.23620045 0.07862635 0.19628498 -0.17707008 0.017778223 -0.021672772
0.2411764 -0.13083549 0.3704862 0.24361953 0.119510375 0.31291246 0.11218195 -0.28673494
-0.27528217 -0.2477043 0.34384042 0.058317862 -0.1058768 0.29160345 0.22185265 -0.08192802
0.33744273 -0.07230883 -0.17794952 -0.16518137 0.12525551 -0.23124878 -0.123543456 -0.2854072
0.17994396 -0.32625344 0.03217702 0.23598221 -0.26451457 0.047276415 -0.22463691 0.27687803
-0.35560408 0.30335337 0.30090097 0.03985741 -0.012384728 0.29138687 0.20184802 0.24551281
-0.32741368 0.29008886 -0.17432411 0.09186488 -0.052622832 0.05355995 0.14551322 0.04047284
0.012319001 0.24319501 0.29247668 0.16636477 -0.19200376 -0.11869525 0.18882658 0.21968843
0.20642628 0.14367846 0.2945896 0.23214181 0.13945088 -0.11468574 -0.058189485 -0.052298445
-0.34853145 0.018695273 0.19925803 -0.2973026 0.06805037 -0.24426186 -0.21714716 0.005757083
-0.3414909 -0.2945961 0.23941514 -0.043075427 0.12349329 -0.21861437 -0.0025474073 0.10929421
-0.25491747 -0.26760563 -0.045908142 -0.073358834 -0.30251792 -0.13786227 0.04492137 0.31600747
-0.16589269 0.120389186 -0.034744166 0.2802901 0.17549303 -0.12691548 0.02255644 -0.32600206
-0.23434135 -0.21451695 0.35599774 0.12295928 0.31655115 0.12602012 0.13138497 0.036044173

bias f4 [16]
00000000: 4bb6 923c 0000 0000 62ec 123c 64d9 3d3c
00000010: 8584 c9b9 be45 db3c 8928 b4ba 8386 2e3c
00000020: 6bcc d43c ca79 bf3b 38fe a23b 0000 0000
00000030: 0c50 aabb 0e0f 593b dcd9 2b3c cb1c 2f3c
0.01790919 0.0 0.008967491 0.0115874745 -0.00038436442 0.026766654 -0.001374499 0.010652187
0.02597638 0.005843376 0.004974153 0.0 -0.0051975306 0.0033120546 0.010488953 0.010688017

bias f4 [16]
00000000: 50ef 323d fcf4 bb3c 0b35 d23c 0ef0 113d
00000010: 2133 f43b 481e 1d3d 6ced b63c e3f0 b13c
00000020: 1f8f 473d da04 173d 46ec 963c 8fbe 483d
00000030: a575 aebc 16e0 5b3c adfb a33c 93a7 8fbb
0.043685257 0.022943966 0.025660058 0.035629325 0.007452384 0.038358957 0.022330008 0.021721309
0.048720475 0.03686986 0.01842321 0.049009856 -0.021296332 0.0134201255 0.02001747 -0.00438399

weight_g f4 [16, 1, 1, 1]
00000000: 5cca 3b3f 2f37 233f c737 353f f95c 1e3f
00000010: bef2 263f f119 203f 9f88 183f a2b5 1e3f
00000020: 34ce 343f 7f55 333f 8110 283f ba4a 283f
00000030: ff89 1a3f 3c67 313f 7cde 1d3f dbd6 103f
0.7335565 0.6375608 0.70788234 0.61860615 0.65214145 0.62539583 0.5958347 0.619959
0.7062714 0.7005233 0.6565018 0.65739024 0.60366815 0.6929815 0.6166761 0.56577843
