net.pth (torch, 361081 bytes, 54 tensors)

layers.0.conv1.weight f4 [2, 1, 1, 1]
0	0x3f4ddc86	0.8041462
1	0x3ef729ea	0.48274165

layers.0.conv1.bias f4 [2]
0	0x3e315899	0.17318954
1	0x3e5bae73	0.21453266

layers.0.conv2.bias f4 [2]
0	0x3e914fa4	0.28381073
1	0x3e375f95	0.17907555

layers.0.conv2.weight_g f4 [2, 1, 1, 1]
0	0x3f63cb05	0.8898166
1	0x3f7db146	0.9909862

layers.0.conv2.weight_v f4 [2, 1, 3, 3]
0	0xbe50992b	-0.20370929
1	0xbd340d8e	-0.04395824
2	0x3d82afe0	0.06381202
3	0xbe23165f	-0.15926503
4	0x3dde4816	0.10853593
5	0x3e4e1d4c	0.20128363
6	0xbdf5c475	-0.12000362
7	0x3e052aa6	0.1300455
8	0x3e1ca18d	0.15296002
9	0x3e1cfa74	0.15329915
10	0xbe3f3ae9	-0.18674816
11	0xbefae01a	-0.489991
12	0x3eb55992	0.354199
13	0x3e06f00f	0.13177513
14	0xbdc07baf	-0.09398591
15	0x3e151673	0.14559345
16	0x3d06b69c	0.032888994
17	0xbd5a8afb	-0.0533552

layers.0.conv3.bias f4 [2]
0	0x3e44f8dc	0.19235557
1	0x3e92497c	0.2857169

layers.0.conv3.weight_g f4 [2, 1, 1, 1]
0	0x3f824fa2	1.0180552
1	0x3f841b52	1.0320837

layers.0.conv3.weight_v f4 [2, 2, 3, 3]
0	0x3e3e853a	0.1860551
1	0x3e82afc0	0.25524712
2	0x3c5e992f	0.0135863265
3	0x3ea2a05c	0.3176297
4	0x3e980282	0.29689413
5	0x3d4e5144	0.05037047
6	0x3e96277c	0.29327
7	0x3d95e404	0.07318881
8	0x3cb52c5a	0.022115875
9	0x3d72130d	0.0591002
10	0x3e14772d	0.14498587
11	0x3e575cbf	0.21031474
12	0xbd525765	-0.051352877
13	0x3d83eff3	0.06442251
14	0x3ddb6240	0.10712099
15	0x3d3df992	0.046380587
16	0x3e265837	0.16244589
17	0x3e6ec248	0.233163
18	0x3e41386a	0.18869177
19	0x3e54d0c7	0.20782767
20	0x3e0a6861	0.1351638
21	0x3e4b88d5	0.19876416
22	0x3e45a03c	0.19299406
23	0x3de771c2	0.113009945
24	0x3e0ee547	0.1395465
25	0x3e0a85b7	0.1352757
26	0x3db7bfb0	0.08972108
27	0x3e0b5066	0.13604888
28	0x3e4f9863	0.20272975
29	0x3e4cc87b	0.19998352
30	0x3c83260a	0.01600935
31	0x3db17874	0.08665553
32	0x3d9a1fb4	0.07525578
33	0x3de3fcb3	0.11132183
34	0x3e3a0130	0.18164515
35	0x3e3559e6	0.17710075

layers.1.conv1.weight f4 [4, 2, 1, 1]
0	0xbe794917	-0.24344288
1	0x3d83cc1b	0.064354144
2	0xbdc0fa1d	-0.09422705
3	0xbef2e3e9	-0.47439507
4	0x3e1efb3b	0.15525524
5	0x3e8ec6a2	0.2788592
6	0x3ed69a48	0.41914582
7	0x3d7969e3	0.060891997

layers.1.conv1.bias f4 [4]
0	0x3d722d2c	0.05912511
1	0xbbdf0c7b	-0.0068069077
2	0x3c8505c0	0.016238093
3	0x3cfc40d5	0.030792633

layers.1.conv2.bias f4 [4]
0	0x3d2be1a3	0.04196323
1	0xb9a4e2fd	-0.00031449637
2	0x3df456cf	0.1193062
3	0x3dddca4f	0.10829603

layers.1.conv2.weight_g f4 [4, 1, 1, 1]
0	0x3f4679c1	0.7752953
1	0x3f5a5030	0.85278606
2	0x3f55881e	0.83410823
3	0x3f45614a	0.77101576

layers.1.conv2.weight_v f4 [4, 2, 3, 3]
0	0x3c230bbe	0.00995153
1	0xbceb5d76	-0.02873109
2	0x3d805f0a	0.06268127
3	0xbd1ba373	-0.037997674
4	0x3df44b80	0.11928463
5	0x3e06b314	0.1315425
6	0x3d952d92	0.072840825
7	0x3e8bc238	0.27296615
8	0x3e2705d7	0.16310821
9	0x3ce596ed	0.028026069
10	0x3d63eb87	0.05564454
11	0x3d4b0448	0.04956463
12	0x3c64b90a	0.013960132
13	0x3ddc4f22	0.10757281
14	0x3e24afd6	0.16082701
15	0x3de0dbd8	0.10979432
16	0x3e54b8ce	0.20773622
17	0x3e320dea	0.1738812
18	0x3cc0f6b6	0.023555141
19	0xbdf55134	-0.11978379
20	0x3dda4eba	0.10659547
21	0x3db5da41	0.08879519
22	0x3e44ddb2	0.19225195
23	0xbdf787ba	-0.12086435
24	0x3e51aafe	0.20475385
25	0x3c99af48	0.018760338
26	0x3e0ea784	0.1393109
27	0x3dc89bfc	0.09795377
28	0xbd997143	-0.07492306
29	0x3dc92b67	0.098227315
30	0xbc725a2f	-0.014792009
31	0x3e31999b	0.17343752
32	0xbe31072f	-0.17287897
33	0x3eb4e22f	0.35328814
34	0x3c1f8f02	0.009738686
35	0xbd084ce8	-0.03327647
36	0x3c744308	0.01490856
37	0x3dd17e1c	0.102291316
38	0x3db6c712	0.089246884
39	0x3da2ac19	0.07942981
40	0x3e4826f7	0.19546114
41	0x3dedd22f	0.11612355
42	0x3dd8852b	0.10572275
43	0x3e7981da	0.2436594
44	0x3e22533d	0.15852065
45	0x3d10ff4a	0.035399713
46	0x3d8204e2	0.063485876
47	0x3c3ed523	0.011647495
48	0x3dea419f	0.114382975
49	0x3e725feb	0.23669402
50	0x3d9b71f2	0.07590093
51	0x3dff875e	0.12476991
52	0x3e91204b	0.2834495
53	0x3e19f483	0.1503468
54	0xbcd955e3	-0.026530212
55	0x3d84bc7a	0.064812616
56	0x3daceb11	0.08443273
57	0x3c71fe3b	0.014770086
58	0x3e1c0848	0.15237534
59	0x3e763f80	0.24047661
60	0xbc9ecd89	-0.019385116
61	0x3e1b355d	0.15157075
62	0x3de4eee9	0.11178381
63	0x3c403cce	0.011733247
64	0x3d1053c1	0.035236124
65	0x3d95dfd3	0.07318082
66	0x3cfc896b	0.030827245
67	0x3e127026	0.14300594
68	0x3e9af4e6	0.30264968
69	0x3d9107a7	0.07081538
70	0x3e0293c8	0.12751687
71	0x3e2745da	0.1633524

layers.1.conv3.bias f4 [4]
0	0xbd6aff1d	-0.0573722
1	0x3ca1b4a9	0.019739466
2	0xbce7a5d7	-0.02827732
3	0xbd0d53c8	-0.03450373

layers.1.conv3.weight_g f4 [4, 1, 1, 1]
0	0x3f646021	0.8920918
1	0x3f17f74a	0.5936171
2	0x3f5609f2	0.83608925
3	0x3f6c5895	0.92322665

layers.1.conv3.weight_v f4 [4, 4, 3, 3]
0	0x3da749fb	0.081684075
1	0x3d9355ad	0.07194076
2	0x3be45d9d	0.0069691674
3	0x3dc55331	0.09635008
4	0x3da3188e	0.07963668
5	0x3cf4897b	0.029850712
6	0xbdc4f539	-0.09617085
7	0xbe3be435	-0.18348773
8	0xbe1b17bf	-0.15145777
9	0x3df50b1e	0.11965011
10	0x3d7a7427	0.061145928
11	0x3d8814e0	0.066446066
12	0x3dcc543a	0.099770024
13	0xbd41dc52	-0.047329254
14	0x3e136ef4	0.14397794
15	0xbd2272f4	-0.03966041
16	0xbbecfc52	-0.0072322274
17	0xbdf5e345	-0.12006239
18	0x3d8f969f	0.070111506
19	0x3bf6fcca	0.007537459
20	0x3d9431c2	0.07236053
21	0x3e0966e9	0.13418163
22	0x3dc95236	0.098301336
23	0x3cb2411a	0.021759558
24	0xbe081284	-0.13288313
25	0x3c0be999	0.008539581
26	0xbe44dc14	-0.19224578
27	0xbc4bba32	-0.012434529
28	0xbcb8c052	-0.022552643
29	0xbc07420d	-0.008255494
30	0x3d44c995	0.048043806
31	0x3d8e284f	0.06941282
32	0x3d998cff	0.07497596
33	0xbdadeaa2	-0.08492018
34	0xbdfeb291	-0.124364026
35	0x3de80803	0.11329653
36	0x3e0aa59b	0.13539736
37	0xbb55458b	-0.0032542672
38	0xbe0bdb93	-0.1365798
39	0xbe17769f	-0.14791344
40	0xbd4aa0ae	-0.049469642
41	0xba49b3b3	-0.0007694319
42	0x3dcd01f1	0.10010136
43	0xbda0fa83	-0.07860281
44	0x3df1e143	0.118105434
45	0x3da9a239	0.08282895
46	0x3e1ffd65	0.15624006
47	0xbe13cf58	-0.14434564
48	0x3dcbaa20	0.09944558
49	0xbdde0756	-0.10841243
50	0x3e0b18df	0.13583706
51	0x3e17496e	0.14774105
52	0xbc91d95f	-0.017803846
53	0x3d291ec1	0.041289095
54	0x3cce509c	0.025184922
55	0x3dc9bb50	0.0985018
56	0x3e24c9a4	0.16092545
57	0x3db30cff	0.08742713
58	0x3dc2b806	0.09507756
59	0x3e21dad2	0.1580613
60	0x3b1460d7	0.002264073
61	0x3c818628	0.015811041
62	0x3e11d3ff	0.14241026
63	0x3d951628	0.072796166
64	0x3e2b9b95	0.16758569
65	0xbd8b8472	-0.06812371
66	0xbdd87333	-0.105688475
67	0xbd8da5c1	-0.06916381
68	0x3d7568ea	0.059914507
69	0x3de1c78c	0.11024389
70	0x3d184409	0.03717426
71	0xbd9a6663	-0.0753906
72	0xbd34a92b	-0.044106644
73	0xbd5de10c	-0.0541697
74	0xbd060274	-0.032717183
75	0xbe80b1ed	-0.25135747
76	0xbdfb794f	-0.12278997
77	0xbc800de1	-0.015631618
78	0xbe7faf88	-0.24969304
79	0xbd71e62e	-0.059057407
80	0x3dab2937	0.083574705
81	0x3cf6d5d3	0.030131256
82	0xbd68445d	-0.05670582
83	0xbd54ab33	-0.05192108
84	0xbd0343a2	-0.03204692
85	0xbdbd95d3	-0.09257092
86	0xbe269f4e	-0.16271707
87	0xbd2beb67	-0.041972544
88	0xbe28d021	-0.16485645
89	0xbb3c39c0	-0.0028720945
90	0x3c0ea733	0.008706856
91	0xbd8d88e1	-0.06910873
92	0xbdddad40	-0.108240604
93	0xbe436a51	-0.19083525
94	0xbdf88a54	-0.12135759
95	0xbb606e29	-0.0034245348
96	0xbe1a8992	-0.15091541
97	0xbd810b1e	-0.063009486
98	0xbcbbb9c3	-0.022915727
99	0xbd6ef076	-0.05833479
100	0x3d1a7804	0.037712112
101	0x3b66f924	0.0035243714
102	0xbd779ade	-0.060450427
103	0x3d6a2725	0.057166237
104	0xbda64858	-0.08119267
105	0xbe6caea6	-0.23113498
106	0xbcf0f610	-0.029414207
107	0xbdcad2c3	-0.09903481
108	0xbd18b706	-0.03728392
109	0xbd4b5b07	-0.049647357
110	0xbc929beb	-0.017896613
111	0xbe871200	-0.2638092
112	0xbddf59c3	-0.109057926
113	0x3c7dd139	0.015491777
114	0xbe4d083c	-0.20022672
115	0xbd55240e	-0.052036338
116	0x3d72deb4	0.059294418
117	0x3d481601	0.04884911
118	0xbd16c229	-0.03680626
119	0xbd771f05	-0.060332317
120	0xbce44fd2	-0.027870093
121	0xbdbafba2	-0.091300264
122	0xbe2e5971	-0.17026307
123	0xbd369183	-0.044572365
124	0xbe3fba26	-0.18723354
125	0x3c1b8182	0.009491326
126	0x3cb0062f	0.021487324
127	0xbde11e44	-0.10992101
128	0xbcbbbecc	-0.022918127
129	0xbe817c7e	-0.25290293
130	0xbe3aa79d	-0.18228002
131	0x3d5424be	0.051792853
132	0xbe86f5b6	-0.26359338
133	0xbe40acb4	-0.18815881
134	0xbc5d0eef	-0.01349233
135	0xbd3fa21f	-0.04678547
136	0x3c4d44ef	0.012528642
137	0xbc8d755c	-0.017267875
138	0xbe23eeb2	-0.16009024
139	0xbcb2ac04	-0.021810539
140	0x3c8a13ae	0.016855087
141	0xbe6aa261	-0.22913505
142	0xbcf31238	-0.029671773
143	0x3c9bc583	0.01901508

layers.2.conv1.weight f4 [8, 4, 1, 1]
0	0xbec5b4be	-0.38614458
1	0xbdeb0219	-0.114750095
2	0xbe7e2fb4	-0.24822885
3	0xbe875541	-0.2643223
4	0x3e51f51a	0.20503655
5	0xbe524243	-0.2053309
6	0xbed3834f	-0.41311118
7	0x3e2d0d4d	0.16899605
8	0xbe398771	-0.18118073
9	0xbe730170	-0.23731017
10	0x3d7b657b	0.061376076
11	0xbf08c1c2	-0.5342065
12	0xbea9a6de	-0.33135122
13	0xbb95ee7e	-0.0045755496
14	0x3ef991c2	0.48744017
15	0x3f29d4f6	0.6634058
16	0xbecc589c	-0.39911354
17	0xbe772584	-0.24135405
18	0x3eb9d348	0.36294007
19	0xbe9c4ea2	-0.30528742
20	0xbd5e54d1	-0.054280106
21	0x3cac276c	0.021014892
22	0x3dd6f4e6	0.104959294
23	0x3eff7173	0.49891242
24	0xbf085749	-0.53258187
25	0xbd466779	-0.048438523
26	0x3cfe71a6	0.031060051
27	0x3f028b9a	0.50994265
28	0xbdd74313	-0.1051084
29	0x3eb37425	0.3504955
30	0xbeebb367	-0.4603531
31	0xbe5b80c1	-0.21435834

layers.2.conv1.bias f4 [8]
0	0x3bce53d1	0.006296613
1	0xbcbb477a	-0.022861231
2	0x3cad5981	0.021160843
3	0x3c6723a6	0.01410762
4	0xbcadb6f8	-0.02120541
5	0x3cc72e17	0.02431397
6	0x3d17903c	0.037002787
7	0x3d5d3470	0.054005086

layers.2.conv2.bias f4 [8]
0	0xbd242167	-0.040070917
1	0x3e31dd6c	0.17369622
2	0x3d1cd920	0.038293004
3	0x3d21b429	0.039478455
4	0x3d541c4e	0.051784806
5	0x3db67a7c	0.08910081
6	0x3db0d4a1	0.08634306
7	0xbd3ca9ec	-0.046060488

layers.2.conv2.weight_g f4 [8, 1, 1, 1]
0	0x3f1380ed	0.576186
1	0x3f4c5e9e	0.79831874
2	0x3f364994	0.7120602
3	0x3f4477a4	0.7674506
4	0x3f2406a1	0.64072615
5	0x3f462a04	0.7740786
6	0x3f3cb973	0.73720473
7	0x3f039ea3	0.51413935

layers.2.conv2.weight_v f4 [8, 4, 3, 3]
0	0xbd80e974	-0.06294528
1	0x3e07df07	0.13268672
2	0xbdfb951e	-0.12284301
3	0x3c9314df	0.017954288
4	0x3e206b5d	0.15665956
5	0xbe081756	-0.13290152
6	0xbd89d36e	-0.0672978
7	0x3cf49fab	0.029861292
8	0xbddd29fe	-0.10799025
9	0xbe063e8e	-0.131098
10	0x3d8e6981	0.06953717
11	0x3ddadd1b	0.10686704
12	0xbda22ddb	-0.079189025
13	0xbddeea32	-0.10884513
14	0xbe04e351	-0.1297734
15	0xbe089899	-0.13339461
16	0x3dc7d347	0.09757095
17	0x3e138a1f	0.14408158
18	0xbd6f4fac	-0.05842559
19	0xbd172e7f	-0.036909577
20	0x3d9b8739	0.07594151
21	0x3dbe141f	0.092811815
22	0x3d81af2e	0.06332241
23	0xbe10abc7	-0.14128028
24	0xbe2c641f	-0.16835068
25	0x3dbf37a4	0.093367845
26	0xbdf7cf9c	-0.12100145
27	0xbda46990	-0.08027947
28	0xbe131f67	-0.14367448
29	0xbd8f5c98	-0.07000083
30	0x3c2639af	0.010145589
31	0xbdc02e93	-0.09383883
32	0xbd208748	-0.039191514
33	0xbcce967a	-0.025218237
34	0xbdb97ba0	-0.09056783
35	0x3dcf5555	0.10123698
36	0xbbbfddf5	-0.0058553168
37	0xbd02b8aa	-0.03191439
38	0xbd56cb24	-0.052439824
39	0x3cbcc212	0.023041759
40	0xbd6433a9	-0.05571333
41	0xbd813f50	-0.06310904
42	0x3d68203a	0.05667136
43	0x3d0f7f33	0.035033416
44	0x3d1319ee	0.0359134
45	0x309dd5f8	1.1484067e-09
46	0xb048c859	-7.304429e-10
47	0x2f65d846	2.0904264e-10
48	0x30030682	4.766677e-10
49	0x2fd45a36	3.8626674e-10
50	0x2f93ef83	2.6909328e-10
51	0x32e35220	2.6463624e-08
52	0x2ecddd26	9.3616045e-11
53	0xb6ad559e	-5.165769e-06
54	0x3c985ab8	0.018597946
55	0x3df46a63	0.11934354
56	0x3dcb2d4d	0.0992075
57	0x3d9dd230	0.07706106
58	0x3e948f4a	0.2901557
59	0x3ded0103	0.115724586
60	0x3d785210	0.060625136
61	0x3d88be88	0.06676966
62	0xbd558f26	-0.05213847
63	0xbcfd920f	-0.030953435
64	0x3e6dff5b	0.23241942
65	0x3db8063f	0.08985566
66	0x3c3a3964	0.011366222
67	0x3eaaf07f	0.3338661
68	0x3d609241	0.05482698
69	0x3d611b43	0.05495764
70	0x3e15c7e7	0.14627038
71	0xbdb5849f	-0.08863186
72	0xbc4ccdb2	-0.012500213
73	0xbbd48f38	-0.0064867996
74	0x3cdb99ae	0.026806679
75	0x3cc66397	0.02421741
76	0xbc509fc0	-0.0127334
77	0xbbd8642a	-0.0066037374
78	0x3d53c699	0.05170307
79	0xbae384c8	-0.0017358297
80	0x3cc0bd65	0.02352781
81	0x32e7c4bc	2.6981404e-08
82	0xb4b1c39d	-3.3111147e-07
83	0x3267479c	1.3462252e-08
84	0xb92e8b4d	-0.00016645827
85	0x3bcbbe1e	0.006217732
86	0xbc5429d5	-0.012949427
87	0x3c97eb44	0.0185448
88	0x30541404	7.7153595e-10
89	0x31c0d8c5	5.6125793e-09
90	0x3de539a5	0.111926354
91	0xbd446a5b	-0.04795299
92	0x3dbc0101	0.09179879
93	0x3e72c8d5	0.23709424
94	0x3daa6cd7	0.08321541
95	0xbd698b85	-0.05701782
96	0xbcc451fe	-0.023964878
97	0x3c57e068	0.013176061
98	0x3d993a16	0.07481782
99	0x3e5ad3e8	0.21369898
100	0xbd1a1074	-0.037613347
101	0xbd168d07	-0.036755588
102	0x3e950621	0.29106238
103	0x3d3a0f4b	0.04542474
104	0x3d842f0f	0.06454288
105	0x3e3eb614	0.18624145
106	0xbe21cfa3	-0.15801863
107	0x3e1723ec	0.14759797
108	0xbd102a77	-0.035196748
109	0xb9fd6aad	-0.000483354
110	0xbc5d0db7	-0.013492039
111	0xbbab49b2	-0.005227291
112	0xbb7bd59d	-0.0038426884
113	0xbc2e4600	-0.0106368065
114	0xbc5401d9	-0.012939894
115	0xbc6bc973	-0.014391291
116	0x3cb51604	0.022105224
117	0xbc8953bf	-0.016763566
118	0x2dcea4d8	2.3492694e-11
119	0xb3f82f61	-1.1557018e-07
120	0x30156f6b	5.436422e-10
121	0x3457feeb	2.0116174e-07
122	0xae8d7b10	-6.433798e-11
123	0x368210b5	3.876247e-06
124	0x3a023abc	0.00049678585
125	0xb79ef17f	-1.8947523e-05
126	0x3e13252d	0.1436965
127	0xbd90628c	-0.07050046
128	0xbd5c1927	-0.053734925
129	0x3dbd474f	0.09242117
130	0xbd26c447	-0.04071453
131	0xbcf83cba	-0.030302394
132	0xbd623b09	-0.05523208
133	0x3d3ff6e6	0.04686632
134	0x3db3c344	0.08777478
135	0x3e2e6386	0.17030153
136	0xbdf2843d	-0.11841629
137	0xbd2313f9	-0.03981397
138	0x3e9a037a	0.30080777
139	0x3bd72b84	0.0065664668
140	0xbe1564e9	-0.14589275
141	0x3d8689cc	0.065692514
142	0x3ca05b63	0.019574827
143	0xbd4e1a87	-0.050318267
144	0x3cff3f97	0.031158252
145	0x3b9ea19b	0.004841042
146	0xbcaf1c34	-0.021375753
147	0x3d624534	0.05524178
148	0x3bae4c9d	0.0053191916
149	0x3a8bae9d	0.0010656897
150	0x3d805b39	0.06267399
151	0x3c7222dd	0.01477882
152	0x3b52b67d	0.0032152229
153	0x3c209a40	0.009802401
154	0x38d1fba4	0.00010012768
155	0x3c971608	0.018443123
156	0xbd14bef1	-0.03631491
157	0xb9385b26	-0.00017581563
158	0x3d3c5535	0.045979697
159	0x3d081c23	0.03322996
160	0xb8a74b0c	-7.977159e-05
161	0x370aa7cd	8.26451e-06
162	0x3c963a13	0.018338239
163	0x3d265617	0.040609445
164	0x3d52c337	0.051455703
165	0x3d9e07e1	0.077163465
166	0x3e1ec6db	0.15505545
167	0xbdca40a1	-0.09875608
168	0x3e407490	0.18794465
169	0x3e426bd6	0.18986449
170	0x3d189ee0	0.03726089
171	0xbd969e5f	-0.07354426
172	0xbc942072	-0.018081877
173	0x3d908ae8	0.07057744
174	0x3e4bafdd	0.19891305
175	0x3d3638aa	0.044487633
176	0xbc63286c	-0.013864618
177	0x3cff9d55	0.031202951
178	0x3e316b90	0.17326188
179	0x3cca4a68	0.024693683
180	0x3b5d349b	0.003375328
181	0x3c84d206	0.016213428
182	0x3cf9b1e4	0.030480333
183	0x3c3300b3	0.01092546
184	0xbbff6136	-0.007793571
185	0x3c8a4407	0.016878141
186	0xbafa30e2	-0.0019088055
187	0xbcf9de3a	-0.030501474
188	0xbc48947d	-0.012242434
189	0xb998fbcc	-0.00029179303
190	0x3b11a799	0.002222514
191	0xb7ba1729	-2.2183713e-05
192	0xb015c26f	-5.448219e-10
193	0xaf66cf4b	-2.0992023e-10
194	0x2d98972b	1.7347531e-11
195	0xb679263d	-3.712615e-06
196	0x3b0045ee	0.0019572931
197	0xb38ed88c	-6.65178e-08
198	0xbce3b4ee	-0.027796235
199	0xbdb1ed2b	-0.08687814
200	0xbdcc2f80	-0.099699974
201	0x3e03cf18	0.12871969
202	0x3cf623ea	0.030046422
203	0xbc53897b	-0.012911196
204	0x3de3e76e	0.11128126
205	0x3e00fdae	0.12596771
206	0xbdce7fbf	-0.100829594
207	0xbbdc9442	-0.006731541
208	0xbc9ede8d	-0.01939323
209	0xbd31fb91	-0.043452803
210	0x3e8bbe63	0.2729369
211	0x3da4c341	0.08045054
212	0xba194b8e	-0.00058477453
213	0x3e2e4ed1	0.17022254
214	0x3da379ae	0.07982193
215	0x3caebd8b	0.021330616
216	0xbd8aef34	-0.067839056
217	0x3dc55d89	0.09636981
218	0x3c9b74d8	0.018976614
219	0xbca8821a	-0.02056985
220	0x3d97415c	0.07385513
221	0xbd24d775	-0.04024454
222	0x3d85c134	0.06530991
223	0x3dad02b5	0.08447782
224	0x3c8e1c37	0.017347438
225	0xbc055883	-0.008138779
226	0xbd3ac0ad	-0.045593906
227	0x3d40bda9	0.047055874
228	0xbd17e49b	-0.03708325
229	0x3d15ebc0	0.03660178
230	0x3d041ec8	0.032255918
231	0xbd36ff3f	-0.044677015
232	0x3d06030f	0.03271776
233	0x3a4f4dee	0.0007908036
234	0x3c2f6da8	0.010707296
235	0xbde6188d	-0.112351514
236	0x3de59a4c	0.112110704
237	0x3e21f7f9	0.1581725
238	0xbd3ebdbf	-0.046567675
239	0x3e4465fd	0.1917953
240	0x3d617cf4	0.055050805
241	0xbbaf0491	-0.0053411205
242	0x3e28077e	0.16409108
243	0x3e1b4c36	0.15165791
244	0xbce5aff1	-0.028037997
245	0x3e1a4e2f	0.15068887
246	0x3e14a3d6	0.14515623
247	0xbd046ee2	-0.03233231
248	0x3e40b408	0.18818676
249	0x3de74e96	0.11294286
250	0x3c6a2154	0.014290173
251	0x3e411c1c	0.18858379
252	0xbe1852e9	-0.14875378
253	0x3e1e6a7b	0.15470307
254	0xbcb9b313	-0.022668397
255	0xbdf444cc	-0.119271845

layers.2.conv3.bias f4 [8]
0	0xbc411fae	-0.011787338
1	0x3c9c0fff	0.019050596
2	0xbc033fbc	-0.008010801
3	0xbc9a6d88	-0.018851057
4	0x3cb331c7	0.021874322
5	0xbcd99b9b	-0.026563456
6	0xbd09024d	-0.03344946
7	0xbd83904f	-0.06424009

layers.2.conv3.weight_g f4 [8, 1, 1, 1]
0	0x3f230c30	0.6369047
1	0x3f0c7278	0.54862165
2	0x3f330a9d	0.6993807
3	0x3f2f13ee	0.68389785
4	0x3f10cb29	0.5656
5	0x3f37a5cf	0.7173738
6	0x3f3e04a5	0.74225837
7	0x3f443daf	0.7665662

layers.2.conv3.weight_v f4 [8, 8, 3, 3]
0	0x3c8f3ba7	0.0174845
1	0x3cdacbf9	0.02670859
2	0xbc51afae	-0.012798233
3	0xb4f2c651	-4.5220307e-07
4	0x3ba29d2a	0.004962583
5	0x3d061d7d	0.032742966
6	0x3c615c58	0.013754927
7	0xbcd04333	-0.025422668
8	0x3cc1cdfa	0.023657788
9	0xbde2126d	-0.11038671
10	0xbcfcc00c	-0.030853294
11	0x3b712068	0.0036792997
12	0xbde1b7d9	-0.11021394
13	0x3dac2f20	0.08407426
14	0x3cf79496	0.030222218
15	0x3c7ce8d4	0.01543637
16	0xbd67ac3e	-0.056560747
17	0x3cec437f	0.028840778
18	0x3c9f83dc	0.019472055
19	0xbdc2605d	-0.09491036
20	0x3cefdc55	0.029279867
21	0xbb52a457	-0.0032141411
22	0xbd2e630a	-0.04257492
23	0x3dddd861	0.108322866
24	0x3c63eecf	0.013911917
25	0x3c844a31	0.016148658
26	0x3d7547e5	0.059883017
27	0x3d4c6e04	0.049909607
28	0xbe1bf116	-0.15228686
29	0xbc238c69	-0.009982207
30	0xbd5347d6	-0.05158218
31	0xbdc02b6f	-0.09383284
32	0x3d9915e1	0.07474876
33	0xbe12bae0	-0.143291
34	0xbd2ceef0	-0.042220056
35	0xbc575598	-0.013142966
36	0x3d358062	0.04431189
37	0xbdcf62da	-0.10126276
38	0x3cb4f0eb	0.022087535
39	0xbde00b68	-0.109396756
40	0x3cfd935b	0.030954054
41	0x3c167e64	0.009185407
42	0xbe0c3f83	-0.13696103
43	0x3d23f243	0.04002596
44	0xbe19acdb	-0.15007345
45	0xbcf9e094	-0.030502595
46	0xbd4096c7	-0.047018792
47	0x3d730a5b	0.059336048
48	0xbb7b13a0	-0.0038311258
49	0xbd867e0e	-0.06567012
50	0xbd0d861e	-0.034551732
51	0xbe1ed1ea	-0.15509763
52	0xbd27dde3	-0.040983092
53	0xbe2e3f1b	-0.1701626
54	0x3dbfc8b4	0.09364453
55	0x3d7abd09	0.061215434
56	0x3c9428a1	0.01808578
57	0xbdda01fd	-0.106449105
58	0x3afcfe76	0.001930191
59	0x3bb08785	0.005387249
60	0xbd90f5c4	-0.07078126
61	0xbd24d809	-0.04024509
62	0xbda79c69	-0.0818413
63	0x34feaa4f	4.7435103e-07
64	0x3c92a8ac	0.017902695
65	0x31dd168a	6.434509e-09
66	0x330a1290	3.214751e-08
67	0xbc95b359	-0.018273996
68	0xbb756451	-0.0037443826
69	0xb2de8f8c	-2.5909479e-08
70	0x3014a471	5.407577e-10
71	0x3d2764a3	0.04086746
72	0xbd994502	-0.07483865
73	0xbc204949	-0.009783098
74	0x3dd506d9	0.10401697
75	0x3d36e2a7	0.044649746
76	0x3dde7678	0.1086244
77	0x3d254ed0	0.040358365
78	0xbdd6c284	-0.1048632
79	0x3d130f19	0.03590307
80	0xbd630bbf	-0.055431124
81	0x3df31611	0.11869443
82	0x3dfc54f1	0.12320889
83	0xbd1906c7	-0.03735998
84	0xbca8ea83	-0.020619636
85	0x3b8daf9a	0.004323912
86	0x3db4e3a3	0.08832481
87	0xbccfd53a	-0.025370229
88	0x3dec9f26	0.11553793
89	0xbd0904c1	-0.0334518
90	0xbd5317de	-0.051536433
91	0x3d961288	0.07327753
92	0x3d9297c2	0.07157852
93	0x3d8012d4	0.06253591
94	0x3df074e5	0.11741046
95	0x3d1b4eac	0.037916824
96	0x3d2c7889	0.04210714
97	0x3d3734ba	0.04472802
98	0x3de00351	0.109381326
99	0x3cd75cbb	0.026289335
100	0xbd68dba0	-0.056850076
101	0xbdaafa84	-0.08348563
102	0x3db242fa	0.08704181
103	0xbd9285a5	-0.07154397
104	0x3daf8c92	0.085717335
105	0x3d890501	0.066904075
106	0xbcb34acb	-0.02188625
107	0x3c50959c	0.012730982
108	0xbd0745b9	-0.033025477
109	0xbcca8702	-0.02472258
110	0xbdc7862e	-0.097423896
111	0xbd3db2fa	-0.046313263
112	0x3ce5271b	0.027972749
113	0x3d79bb9c	0.060969934
114	0xbd9da0f8	-0.07696718
115	0x3deab505	0.11460308
116	0xbdbebfdb	-0.09313937
117	0xbd7eeac3	-0.062235605
118	0x3d7dcf94	0.06196554
119	0x3af29d48	0.0018510008
120	0xbd9ef501	-0.077615745
121	0xbdba24fa	-0.09089084
122	0x3c73620a	0.014854917
123	0xbd81550d	-0.0631505
124	0x3cd64dda	0.02616017
125	0xbc4874d0	-0.0122348815
126	0x3d580729	0.052741203
127	0x3da25923	0.07927158
128	0x3e0281cd	0.12744828
129	0x3da34298	0.07971686
130	0xbdbe15c3	-0.092814945
131	0x3d0c691a	0.03427992
132	0xbd5dfc47	-0.05419567
133	0x3e01dc59	0.12681712
134	0x3ceece11	0.029150994
135	0x3b771359	0.003770074
136	0xbd9f2b37	-0.077719145
137	0xbc7ebbe2	-0.015547724
138	0x3d9dc09b	0.07702752
139	0xbc7be1b5	-0.015373637
140	0x3c8d60dd	0.017258102
141	0x3c905fcc	0.017623805
142	0x3db810e6	0.08987598
143	0xbc8b8744	-0.017032273
144	0x39540480	0.00020219572
145	0x34902bf4	2.685407e-07
146	0xb31aa29d	-3.6003815e-08
147	0x38d39507	0.000100890225
148	0xb75f3856	-1.33049525e-05
149	0xb51ca6cc	-5.835725e-07
150	0xb8007e14	-3.0634998e-05
151	0x39799561	0.00023802138
152	0xb83722a0	-4.3662847e-05
153	0x3d07442c	0.033024
154	0x3d31b8a8	0.043388993
155	0xbd0b39b3	-0.033990573
156	0x3d08035d	0.033206332
157	0x3b97cdf5	0.0046327063
158	0xbe1e9f13	-0.1549037
159	0x3d42522b	0.047441643
160	0xbd23b580	-0.039968014
161	0xbddf3b7c	-0.109000176
162	0x3d3778dc	0.044792995
163	0xbcc6b496	-0.024256032
164	0x3de11929	0.10991127
165	0xbcd365ee	-0.02580544
166	0xbd9d3bab	-0.076773964
167	0x3d02089b	0.031746488
168	0xbacce779	-0.0015632949
169	0xbcc9114e	-0.024544384
170	0xbaab71d6	-0.001308019
171	0x3b182025	0.002321252
172	0xbcad24bb	-0.021135679
173	0xbbaeb15c	-0.0053312015
174	0xbcf75f00	-0.030196667
175	0xbd07646d	-0.033054758
176	0xbc2a7c38	-0.010405593
177	0xbc1a021b	-0.009399916
178	0x3d0137d9	0.0315474
179	0xbd539ce0	-0.05166328
180	0x3ce5d207	0.02805425
181	0xbcafef18	-0.021476313
182	0x3cd50b1e	0.026006278
183	0x3c91eab8	0.017812118
184	0xbc57fed2	-0.0131833125
185	0xbbe30e48	-0.0069291927
186	0xbba92174	-0.0051614586
187	0xbce702bf	-0.028199552
188	0xbd5a326e	-0.05327075
189	0x3b565f56	0.0032710633
190	0xbc6002a8	-0.013672508
191	0xbd327392	-0.043567248
192	0x3c1c8731	0.0095537165
193	0xbd135b70	-0.035975873
194	0xbd94eb0b	-0.072713934
195	0xbc3c7fd8	-0.01150509
196	0xbd08340e	-0.03325277
197	0xbdd4c59a	-0.10389252
198	0x3cd8c0d2	0.026459131
199	0xbddafe64	-0.106930524
200	0x3d93820b	0.07202538
201	0xbc0e54f0	-0.008687243
202	0xbdd624c8	-0.10456234
203	0x3e14f661	0.14547111
204	0x3b5813f5	0.003297088
205	0xbde17533	-0.11008682
206	0x3e092cfa	0.13396063
207	0xb6f9780f	-7.434755e-06
208	0x39be5f6e	0.00036310725
209	0xb65c97dc	-3.2870948e-06
210	0x3548cb10	7.48013e-07
211	0x331b4488	3.615108e-08
212	0xb54c40c9	-7.6090197e-07
213	0x3662be74	3.3787483e-06
214	0x3985d252	0.00025524438
215	0x386fb9bd	5.7155023e-05
216	0x321c7654	9.1073e-09
217	0xb56a9ba8	-8.73983e-07
218	0x35865e4e	1.0011224e-06
219	0xb488338c	-2.536948e-07
220	0xb1990c1d	-4.454263e-09
221	0xb477c808	-2.3076439e-07
222	0x34bdbfec	3.5343635e-07
223	0x34668d9e	2.1471939e-07
224	0xb355e225	-4.9798604e-08
225	0x3d3313d7	0.043720093
226	0xbd24f83c	-0.040275797
227	0x3ddc025a	0.10742636
228	0xbd0cefd1	-0.034408394
229	0xbea5fa08	-0.3241732
230	0x3d73cc4e	0.059521012
231	0xbdd1fabf	-0.10252904
232	0xbda15b30	-0.07878721
233	0x3db7a59a	0.08967133
234	0xbd0e23e6	-0.034702204
235	0x3c2e33ee	0.010632498
236	0x3b6ab019	0.0035810529
237	0xbd680e43	-0.056654226
238	0xbb65fdbd	-0.0035093867
239	0xbe02b66b	-0.127649
240	0x3b9aa036	0.0047188057
241	0xbd4279e9	-0.047479544
242	0xbd4b6d9a	-0.04966507
243	0xbce0a893	-0.027424132
244	0xbd5949bf	-0.053048845
245	0xbb712c1d	-0.0036799975
246	0xba9245e8	-0.001115975
247	0xbde3d604	-0.111248046
248	0xbe23d6db	-0.1599993
249	0x3d8fbc1b	0.070183
250	0xbdf9608a	-0.121766165
251	0xbd8d785c	-0.06907722
252	0xbd7a76b6	-0.061148368
253	0xbd85442b	-0.06507143
254	0xbd3c722a	-0.046007313
255	0xbd1fd725	-0.039023537

layers.3.conv1.weight f4 [16, 8, 1, 1]
0	0x3d9f6156	0.07782237
1	0x3e052efb	0.13006203
2	0xbe1662c1	-0.14686109
3	0xbdd67f9f	-0.104735605
4	0xbeaeb541	-0.3412266
5	0xbdb5b93e	-0.08873223
6	0xbd95c5e2	-0.07313134
7	0xbde96d1c	-0.11397764
8	0xbed2bc1d	-0.41159144
9	0xbe783dc5	-0.24242313
10	0xbd96e32f	-0.073675506
11	0x3ed1f076	0.4100377
12	0x3e52c762	0.20583871
13	0x3eb30d39	0.34971026
14	0xbccb917b	-0.024849644
15	0x3ed2801f	0.41113374
16	0xbd7e4d03	-0.062085163
17	0x3e278818	0.1636051
18	0x3c6400f5	0.013916244
19	0x3ea0fd55	0.31443277
20	0x3e8a5968	0.27021337
21	0x3e37b3d5	0.17939694
22	0x3e8b9195	0.27259508
23	0x3ee524b4	0.44754565
24	0xbe663675	-0.22481711
25	0x3e891abe	0.26778215
26	0x3bed5cd3	0.0072437315
27	0xbe8498dc	-0.25897872
28	0xbe271971	-0.16318299
29	0xbe15f3b6	-0.1464375
30	0xbdb34ed4	-0.0875527
31	0x3c342278	0.010994546
32	0x3e86e544	0.2634679
33	0xbe9c0c46	-0.30478114
34	0x3eb221a0	0.3479128
35	0x3d08194f	0.03322726
36	0xbe8e6e4d	-0.27818528
37	0x3ec2f575	0.38077894
38	0xbb82ca92	-0.0039914334
39	0x3e7352a2	0.2376199
40	0x3e92725f	0.28602883
41	0xbe1b7227	-0.15180264
42	0x3e8bf267	0.27333376
43	0xbda5b495	-0.08091084
44	0x3e811ae7	0.25215837
45	0x3dbd8114	0.09253135
46	0x3ebd1912	0.3693319
47	0x3e0bab8c	0.13639659
48	0x3e85b792	0.26116616
49	0xbe9f2cb3	-0.3108879
50	0x3e212e0c	0.15740222
51	0xbe887678	-0.26652884
52	0xbdd46de6	-0.10372524
53	0x3dd1d02c	0.10244784
54	0xbd5ff9be	-0.054681532
55	0xbeb19a9e	-0.34688276
56	0x3e14ec94	0.14543372
57	0xbc9ab52c	-0.018885218
58	0xbce54daf	-0.027991144
59	0xbe9f4e19	-0.3111427
60	0xbd4c9007	-0.049942043
61	0x3e8ffdff	0.2812347
62	0xbe07c26e	-0.13257763
63	0xbe890a4a	-0.26765662
64	0x3e290c39	0.16508569
65	0xbd903a15	-0.07042328
66	0xbe59f08e	-0.2128317
67	0x3ed59ffe	0.41723627
68	0x3d8d8164	0.06909445
69	0x3d95ba33	0.07310905
70	0xbe1f96c1	-0.15584852
71	0x3ed7699a	0.42072755
72	0x3ea42a50	0.32063532
73	0x3e2ebed5	0.17064984
74	0xbe92be3a	-0.28660756
75	0xbe172854	-0.14761478
76	0x3ea2bb66	0.317836
77	0xbe22575d	-0.15853639
78	0x3e8970ca	0.26843864
79	0x3d2bcf48	0.041945726
80	0x3e80af5b	0.25133786
81	0xbea2bfe6	-0.31787032
82	0x3e63a14e	0.22229502
83	0x3cc582f8	0.024110302
84	0xbeabe24e	-0.33571094
85	0xbdff9a20	-0.12480569
86	0x3ea7e3c9	0.32790974
87	0x3e4fb006	0.20281991
88	0x3e4db6d6	0.20089278
89	0x3e8565af	0.2605414
90	0xbebf7ecd	-0.3740143
91	0x3ed1a5f4	0.40946925
92	0x3e76f88f	0.24118255
93	0x3e009a8f	0.1255896
94	0x3e9e8d62	0.30967242
95	0x3d8c5503	0.06852152
96	0x3e6d21e8	0.23157465
97	0x3d2d3984	0.04229118
98	0x3ef56eb4	0.47936022
99	0xbd0a6ea4	-0.03379692
100	0x3d8481eb	0.064700924
101	0x3d4aa0cf	0.049469765
102	0xbea378d4	-0.31928122
103	0xbe91eeb0	-0.28502417
104	0xbd112d8e	-0.035443835
105	0x3e52cd44	0.20586115
106	0xbd89e3e5	-0.067329206
107	0xbe029c6f	-0.12754987
108	0xbd886abd	-0.06660984
109	0xbdfc135a	-0.123083785
110	0x3e17d938	0.14828956
111	0x3e239580	0.15974998
112	0x3dce87b4	0.10084477
113	0xbcd273b7	-0.025689943
114	0xbe4820f1	-0.19543816
115	0x3ebb5bc0	0.36593437
116	0x3dbaf368	0.09128457
117	0x3edc7ac9	0.43062428
118	0x3ef96a62	0.48713976
119	0x3f0876b8	0.5330615
120	0x3ead843f	0.33889958
121	0x3e9185e8	0.28422475
122	0xbd6e145a	-0.058124878
123	0x3e6c91fa	0.2310256
124	0x3e77758e	0.24165937
125	0xbdd36c2e	-0.10323368
126	0xbcef02a9	-0.029176073
127	0x3e925d41	0.28586772

layers.3.conv1.bias f4 [16]
0	0xbd0d7c29	-0.034542236
1	0xbb93844a	-0.004501854
2	0x3d5a1e94	0.053251818
3	0xbd0be575	-0.034154374
4	0xbbf943ee	-0.007606975
5	0x3caa424c	0.020783566
6	0x3d4856bb	0.048910838
7	0x3b326005	0.0027217877
8	0xbb136bb8	-0.0022494625
9	0xbc84b6a3	-0.01620037
10	0xbcaa752d	-0.020807827
11	0xbc120016	-0.008911153
12	0x3b9dcbfd	0.004815577
13	0xbc5c861f	-0.013459711
14	0x3d351b6d	0.04421561
15	0x3d2f9481	0.042866234

layers.3.conv2.bias f4 [16]
0	0xbd1a3d0f	-0.037655886
1	0x3db29e84	0.08721641
2	0x3d24a37f	0.040194985
3	0x3de4f64f	0.11179792
4	0xbbd89432	-0.006609463
5	0x3d8b7019	0.0680849
6	0x3da75aaf	0.081715934
7	0x3db3e124	0.087831765
8	0x3db45722	0.08805682
9	0xbadbc669	-0.0016767505
10	0x3dc8dd18	0.09807795
11	0x3d8acaeb	0.06776985
12	0xbc69f63c	-0.014279898
13	0x3d9ec938	0.07753223
14	0xbc0e4a54	-0.008684713
15	0x3db42f59	0.08798093

layers.3.conv2.weight_g f4 [16, 1, 1, 1]
0	0x3f581711	0.84410197
1	0x3f5268a3	0.8219091
2	0x3f4efbd1	0.8085299
3	0x3f40abec	0.7526233
4	0x3f4ee978	0.80824995
5	0x3f391406	0.7229618
6	0x3f434fa3	0.7629339
7	0x3f47ce92	0.78049576
8	0x3f569fde	0.8383769
9	0x3f2f5f9f	0.6850528
10	0x3f480a72	0.7814094
11	0x3f56e990	0.8395014
12	0x3f53ec07	0.82782024
13	0x3f581952	0.84413636
14	0x3f23686b	0.63831204
15	0x3f551cda	0.8324715

layers.3.conv2.weight_v f4 [16, 8, 3, 3]
0	0x3cd34099	0.025787639
1	0x3cf6e1ec	0.030137025
2	0xbc813e4b	-0.015776774
3	0x3ba192be	0.004930823
4	0xbcb366e9	-0.021899657
5	0xbc8ca2b5	-0.017167429
6	0x3c785562	0.015157076
7	0xbbffc90b	-0.0078059486
8	0x3b220cd5	0.0024726887
9	0x38a254a1	7.740525e-05
10	0xb668e639	-3.4704701e-06
11	0x365caf3f	3.2884561e-06
12	0x3555bbbc	7.962187e-07
13	0xb8a54adc	-7.881757e-05
14	0x30d2e232	1.53438e-09
15	0xaf9c4f24	-2.8432467e-10
16	0x357a781a	9.330703e-07
17	0x3249e408	1.1751588e-08
18	0x39afcd34	0.0003353149
19	0x3b1619e9	0.0022903627
20	0x3c1f8dab	0.009738366
21	0xbcb92f7c	-0.02260565
22	0xbc0eb307	-0.008709676
23	0xbb91010b	-0.004425173
24	0x3d08a600	0.033361435
25	0x3c8244cd	0.015901947
26	0xbb3267ff	-0.002722263
27	0x3e411502	0.1885567
28	0xbe19a97d	-0.15006061
29	0xbcdc06cf	-0.026858715
30	0x3d894fb1	0.06704653
31	0x3c577024	0.013149295
32	0x3c0a85d0	0.008454755
33	0x3d037f2e	0.03210371
34	0xbce2721d	-0.027642304
35	0xb9fe06d8	-0.00048451754
36	0x39045bed	0.00012622746
37	0xb6e3ca93	-6.78871e-06
38	0xb0d3d92b	-1.5413993e-09
39	0xb19964af	-4.4643325e-09
40	0xb19dc75b	-4.5919655e-09
41	0x358bf844	1.0428562e-06
42	0xac0ef0f1	-2.0313163e-12
43	0xb4a59445	-3.0841525e-07
44	0xae5e5c3b	-5.0558873e-11
45	0x3d0e0df3	0.03468127
46	0xbdaec9c5	-0.08534578
47	0xbca3c7f9	-0.019992815
48	0x3dd0105f	0.101593725
49	0x3d155666	0.03645935
50	0x3c3fc978	0.011705749
51	0x3deaa08f	0.11456405
52	0xbb5e6b2c	-0.003393839
53	0xbcca5928	-0.024700716
54	0x3dcfbbf0	0.10143268
55	0xbdaa4f37	-0.0831589
56	0xbd154496	-0.03644236
57	0xba732e86	-0.0009276647
58	0x3d8120fe	0.06305121
59	0x3881e6c4	6.194183e-05
60	0x3dbabdb9	0.09118218
61	0x3b1df937	0.0024104842
62	0x3c2e6973	0.010645258
63	0x3b29c5ab	0.0025905173
64	0xbd1d3861	-0.038383845
65	0xbd1b0235	-0.0378439
66	0xbd2163dc	-0.039401874
67	0xbd8aa204	-0.06769183
68	0xbd2605fa	-0.040533043
69	0xbd1b53af	-0.037921604
70	0xbd82f049	-0.06393487
71	0xbca803f2	-0.020509694
72	0x3d699fae	0.057037048
73	0x3da8968a	0.08231838
74	0x3c5339b0	0.012892172
75	0xbd2f4094	-0.042786196
76	0x3db39050	0.0876776
77	0x3d0f9beb	0.035060804
78	0xbd82e25b	-0.0639083
79	0x3c92b7b5	0.017909864
80	0xbd573964	-0.052544966
81	0xafff95ad	-4.649058e-10
82	0x318a1407	4.0186054e-09
83	0xb08ad72f	-1.010198e-09
84	0x326bd5c3	1.3727404e-08
85	0xb07d4a39	-9.214634e-10
86	0xb05f6013	-8.1263457e-10
87	0xadf9c03b	-2.839339e-11
88	0xb1139322	-2.147495e-09
89	0xb0548438	-7.7313045e-10
90	0x3d96e5cf	0.07368051
91	0x3cc3c45e	0.023897346
92	0xbd778075	-0.06042524
93	0x3dcef67b	0.10105606
94	0x3dca28df	0.09871077
95	0xbd3df555	-0.046376545
96	0x3d49ed3b	0.049298506
97	0xbbcbc80a	-0.006218915
98	0xbda25a88	-0.07927424
99	0xbcd32fee	-0.02577969
100	0xbdbb9373	-0.09158983
101	0x3c3ef0a9	0.011654058
102	0x3da5b153	0.080904625
103	0xbe0910d3	-0.13385324
104	0x3e1a9c6c	0.15098733
105	0x3e347cc1	0.17625715
106	0xbdab2bee	-0.08357988
107	0x3de36145	0.11102537
108	0x3068a19e	8.463078e-10
109	0xb115c029	-2.1791584e-09
110	0xb04c2e6a	-7.4280726e-10
111	0x3137ce9d	2.674745e-09
112	0xafa3c7ac	-2.9791403e-10
113	0x2d9dac3a	1.7925317e-11
114	0x301f2a1d	5.790371e-10
115	0xaf30b59e	-1.607163e-10
116	0x2fd9fe38	3.9652703e-10
117	0x3c2588bc	0.010103401
118	0xbd0d4cab	-0.034496944
119	0xbcaae05a	-0.020858932
120	0x3cef3d2c	0.029203974
121	0xbdad82e6	-0.084722325
122	0x3d504bc3	0.050853502
123	0x3da23f46	0.07922225
124	0xbcd378a1	-0.025814356
125	0x3d6ef7d6	0.058341824
126	0x3cf77648	0.030207768
127	0xbd136a05	-0.03598978
128	0xbc227850	-0.00991638
129	0x3ce2edea	0.027701337
130	0xbdc6fd8e	-0.097163305
131	0x3d5f6257	0.054537144
132	0x3daff1f9	0.085910745
133	0xbc1ec798	-0.009691142
134	0x3d9fcffd	0.078033425
135	0xbc2ad6ed	-0.010427219
136	0x3dddd920	0.10832429
137	0x3dbacd85	0.09121231
138	0x3cc52b08	0.02406837
139	0x3daffde5	0.085933484
140	0x3dbb112b	0.09134134
141	0xbcdd7f65	-0.027038286
142	0x3cdb72ae	0.026788082
143	0x3c8d1739	0.017222987
144	0x3dadfdcc	0.084956735
145	0x3da21a4b	0.07915171
146	0x3b687588	0.0035470445
147	0xbd07a30b	-0.033114474
148	0x3dae8d15	0.08523003
149	0xbd209b2b	-0.03921048
150	0xbdd2d24b	-0.102940165
151	0xbcf98e08	-0.030463234
152	0xbd248fb7	-0.04017612
153	0x37372e69	1.0918456e-05
154	0xbb8be72a	-0.0042695003
155	0x394147b5	0.00018432627
156	0x37b71c7d	2.1828566e-05
157	0x36fa6329	7.4621244e-06
158	0xbb9ac60e	-0.004723317
159	0xba782b10	-0.0009466866
160	0xb7878984	-1.615729e-05
161	0xba280ad0	-0.00064103026
162	0x3d4830cc	0.04887466
163	0x3cda1950	0.026623398
164	0xbd9ed2b2	-0.07755031
165	0x3e156ef5	0.14593108
166	0x3e16da3a	0.14731684
167	0xbd928274	-0.07153788
168	0x3da984b3	0.082772635
169	0xbcfe872e	-0.031070318
170	0xbe0b78ea	-0.13620344
171	0xbc5e15cf	-0.013555004
172	0xbd840da3	-0.064479135
173	0x3d22796a	0.03966657
174	0x3d456f6c	0.048201963
175	0xbd8fc6e0	-0.07020354
176	0x3e32cc8c	0.17460841
177	0x3e48b6a7	0.19600926
178	0x3d9e1799	0.07719345
179	0x3e23decd	0.1600296
180	0x3c8f6d3f	0.017508147
181	0x3c203ce5	0.009780143
182	0x3625ac36	2.4687156e-06
183	0x378bac2e	1.6650269e-05
184	0x37bdc6c4	2.2623113e-05
185	0x374010c6	1.1447997e-05
186	0x35bafa6f	1.3930966e-06
187	0xbc8d2ea0	-0.017234147
188	0x3a07797c	0.0005167944
189	0x3d24ee68	0.040266424
190	0xbd964f83	-0.073393844
191	0xbcde980b	-0.02717211
192	0x3cb01831	0.02149591
193	0xbcf657e4	-0.030071206
194	0x3dbd950a	0.092569426
195	0x3e0af44b	0.13569753
196	0x3caf5c6a	0.021406371
197	0x3d909616	0.070598766
198	0x3c128509	0.008942851
199	0xbd770de1	-0.06031597
200	0x3c2c2deb	0.010508995
201	0x3c3cf4a3	0.011532935
202	0xbd23019e	-0.039796464
203	0x3d9b35b9	0.07578606
204	0x3dd211ef	0.10257327
205	0x3d691944	0.05690886
206	0x3da3cdc4	0.07998231
207	0xb8fa067c	-0.00011922137
208	0x3d93aeed	0.07211099
209	0x3e075a9c	0.13218158
210	0x3d237894	0.039909914
211	0x3dac94ac	0.084267944
212	0x3dd56cee	0.10421167
213	0x3c31ce9a	0.01085248
214	0xbca9aa36	-0.020711046
215	0xbcaaa976	-0.020832758
216	0x3dac6a98	0.08418769
217	0x3db12929	0.08650429
218	0x3c871c7a	0.01649307
219	0x3d21a999	0.03946838
220	0x3dc3aaa3	0.09554031
221	0x3b67f5bb	0.003539427
222	0xbd3667de	-0.04453265
223	0x3af0d356	0.001837353
224	0xbc8244a3	-0.01590187
225	0xb1e14077	-6.5556907e-09
226	0x3175b0d6	3.5752712e-09
227	0xadf70564	-2.8083043e-11
228	0x33b3983e	8.36303e-08
229	0xb3c28cb1	-9.0594206e-08
230	0x31020ad9	1.8923656e-09
231	0xb1cba9c1	-5.9273764e-09
232	0x33f17311	1.12433675e-07
233	0xb05e96f1	-8.097763e-10
234	0x3da33b04	0.07970241
235	0x3d4a5d5f	0.049405452
236	0xbd9149a5	-0.07094125
237	0x3de690a0	0.11258054
238	0x3d2b7c22	0.04186643
239	0xbd6680c8	-0.05627516
240	0x3d25b9d9	0.04046044
241	0xbd9729db	-0.0738103
242	0xbdb801a3	-0.08984687
243	0xbe192fdd	-0.14959665
244	0x3c888711	0.016665967
245	0x3b4d007e	0.003128081
246	0xbdab447c	-0.08362672
247	0xbd7e03ab	-0.062015217
248	0x3d8d9218	0.06912631
249	0x3de80764	0.11329535
250	0x3e01b59d	0.12666936
251	0xbcefa745	-0.029254565
252	0x2f85f40a	2.436596e-10
253	0x33872f12	6.2949894e-08
254	0x312ee9bc	2.5453195e-09
255	0xb1ce26bd	-5.999793e-09

layers.3.conv3.bias f4 [16]
0	0x3d07592e	0.033044033
1	0xbb098887	-0.0020985918
2	0xbd7b61a0	-0.0613724
3	0x3d0721ab	0.032991093
4	0x3c0facf1	0.00876926
5	0xbcb134e7	-0.021631671
6	0xbd3d565d	-0.04622494
7	0xbb879b0a	-0.004138355
8	0xbc04cfa9	-0.008106151
9	0x3cd5bee3	0.026091998
10	0x3c9a1875	0.01881049
11	0x3bdf051d	0.0068060295
12	0xbbdfcb5d	-0.0068296627
13	0x3c9087e5	0.017642925
14	0xbd3c45d1	-0.04596502
15	0xbd37378e	-0.044730715

layers.3.conv3.weight_g f4 [16, 1, 1, 1]
0	0x3f12e969	0.57387406
1	0x3f316185	0.6928943
2	0x3f379878	0.71717024
3	0x3f0a1f30	0.5395384
4	0x3f4209b0	0.7579603
5	0x3f4795d9	0.77963024
6	0x3f179043	0.592045
7	0x3f1dada2	0.6159307
8	0x3f312590	0.6919794
9	0x3f168343	0.5879404
10	0x3f24e07b	0.6440503
11	0x3f305d3e	0.68892276
12	0x3f135b76	0.57561433
13	0x3f083fd2	0.5322238
14	0x3f47e610	0.7808542
15	0x3f2a46ae	0.665141

layers.3.conv3.weight_v f4 [16, 16, 3, 3]
0	0xbb4df1c0	-0.0031424612
1	0x3dbad2f1	0.09122265
2	0x3dcaed19	0.09908504
3	0x3dbf1d53	0.09331765
4	0x3d6f7f65	0.058471102
5	0x3d94d3d5	0.07266966
6	0x3daff320	0.08591294
7	0x3ce45483	0.02787233
8	0x3d38f852	0.04515869
9	0xbd172de1	-0.036908988
10	0x3db1866b	0.08668216
11	0x3d9aa79c	0.075515
12	0x3d58dff6	0.05294796
13	0x3d86c5b0	0.06580675
14	0x3ddd2496	0.10797994
15	0x3c717e74	0.014739621
16	0xbcb74f26	-0.022376608
17	0x3dc30dbc	0.09524104
18	0x3d50612a	0.050873913
19	0xbbd24231	-0.006416582
20	0x3da06bea	0.07833083
21	0x3c63d182	0.013904931
22	0x3dcfa53c	0.10138938
23	0x3dc9bd0e	0.098505124
24	0xbd07afa0	-0.033126473
25	0xbce30e1b	-0.027716687
26	0x3d7b0bbd	0.06129049
27	0x3c93eb2d	0.018056476
28	0xbcb90f46	-0.02259029
29	0x3dcb7cbe	0.09935902
30	0x3d2c4654	0.042059258
31	0x3db0916f	0.08621489
32	0x3dc0e94a	0.09419496
33	0x3dc4ddf7	0.09612649
34	0xbd25f07e	-0.040512554
35	0x3ddb1178	0.10696691
36	0x3d9632ea	0.0733393
37	0xbbadc4a2	-0.0053029815
38	0xbd97e8ae	-0.07417427
39	0x3c7bc587	0.015366918
40	0x3d93ac1e	0.07210563
41	0x3d5877ef	0.052848753
42	0x3c47d000	0.012195587
43	0x3d579582	0.052632816
44	0xbd55f2a3	-0.05223335
45	0x3b9fe259	0.0048792777
46	0xbde2f965	-0.110827245
47	0x3cbce954	0.023060478
48	0xbbdb7cc6	-0.0066982238
49	0xbcd0e8b2	-0.025501583
50	0x3ccf75e8	0.025324777
51	0xbcf14923	-0.02945382
52	0xbd380fd4	-0.04493697
53	0xbd842722	-0.064527765
54	0x3d31699b	0.043313604
55	0xbd2b7bf3	-0.041866254
56	0xbc98fb22	-0.018674437
57	0x3ca88d08	0.020575061
58	0x3d6b32ba	0.057421423
59	0x3de928c8	0.113847315
60	0x3d53b843	0.051689398
61	0xba9559c8	-0.0011394555
62	0xbcd42c0a	-0.025899906
63	0xbcd193ca	-0.025583167
64	0x3ddc8dd4	0.10769239
65	0xbd20be31	-0.03924388
66	0xbd39eb36	-0.04539033
67	0x3b2a88cf	0.0026021486
68	0xbcc4f739	-0.024043666
69	0x3d26dabf	0.040735956
70	0x3ce75b8b	0.028241893
71	0x3d9225a3	0.07136085
72	0x3d9e9566	0.07743339
73	0x3ddb3bbf	0.10704755
74	0x3cc87d47	0.0244738
75	0x3c2cc286	0.010544425
76	0xbd41017a	-0.04712055
77	0x3dcf0ae3	0.10109498
78	0x3dc43d47	0.09582
79	0x3d1600f8	0.036622018
80	0xbd09397e	-0.033502094
81	0xbc259739	-0.010106855
82	0x3d764f3c	0.060134158
83	0x3c4dc1c5	0.012558405
84	0x3d95ca94	0.07314029
85	0x3d95c743	0.07313397
86	0x3d08fa32	0.03344173
87	0xbc934afd	-0.017980093
88	0xbd381892	-0.044945307
89	0x3da88609	0.0822869
90	0x3c169374	0.009190429
91	0xbd58a2db	-0.052889686
92	0x3c1247cd	0.008928251
93	0x3dafe1e5	0.08588008
94	0xbd24e8df	-0.040261146
95	0x3d7c2f1f	0.061568376
96	0xbd475ca7	-0.048672345
97	0x3d67d72f	0.0566017
98	0xbd93fb36	-0.07225649
99	0xbc7ce242	-0.015434803
100	0xbd386130	-0.04501456
101	0x3d7e942f	0.062153038
102	0x3d2349be	0.039865248
103	0xba31c125	-0.0006780795
104	0x3dcfb7ba	0.10142465
105	0xbd2f7fd6	-0.042846523
106	0x3d85beb7	0.065305166
107	0x3d965988	0.073412955
108	0x3d8e8159	0.06958265
109	0xbd96c0e9	-0.073610134
110	0x3d1c0c63	0.03809775
111	0xbbb36fbf	-0.0054759677
112	0x3d8f256b	0.06989559
113	0xbd16bb07	-0.036799457
114	0x3cd8fc97	0.026487632
115	0xbb7741f8	-0.003772853
116	0xbd4cfa7a	-0.05004356
117	0xbd83fdc7	-0.064448886
118	0xbd30b9e9	-0.043146048
119	0xbd2b3b48	-0.041804582
120	0xbc912d98	-0.017721936
121	0xbccca0e2	-0.024979059
122	0xbd3b2a5f	-0.045694705
123	0x3dae7bda	0.085197166
124	0x3d9380f9	0.07202334
125	0x3dd42014	0.10357681
126	0x3d7ffaec	0.062495157
127	0x3cad814e	0.021179821
128	0xbc84516b	-0.016152104
129	0xbc88741b	-0.016656926
130	0xbcf39c31	-0.029737564
131	0xbd2981aa	-0.041383423
132	0x3d3a3238	0.04545805
133	0xbc5170bc	-0.012783226
134	0x3b649dda	0.0034884126
135	0x3d402a0d	0.046915103
136	0xbd20ca49	-0.039255414
137	0x3dd869df	0.10567068
138	0x3d6bdfb4	0.057586387
139	0xbca92d25	-0.02065141
140	0x3dc6ef5a	0.097136214
141	0xbc108421	-0.0088205645
142	0xbd31dfbc	-0.04342626
143	0x3d6d1b74	0.05788751
144	0x3c084120	0.008316308
145	0x3d6075f5	0.054799993
146	0x3d982217	0.07428377
147	0x3dbb1bf8	0.09136194
148	0x3dbf0089	0.09326274
149	0x3db8d175	0.09024326
150	0x3dd40c22	0.10353877
151	0x3d68bdec	0.05682175
152	0x3c55afac	0.013042372
153	0xbdbd01da	-0.09228869
154	0x3c3abcf0	0.011397585
155	0xbd684d17	-0.056714144
156	0xbd250b7c	-0.040294155
157	0x3c809e1e	0.015700396
158	0xba624661	-0.0008631703
159	0x3c850170	0.016236037
160	0x3d746c5c	0.059673652
161	0x3db76e7a	0.089566186
162	0xbdd61327	-0.10452872
163	0xbc9f510f	-0.019447831
164	0xbd5a197c	-0.05324696
165	0xbd6f4c2a	-0.058422245
166	0x3c9dc024	0.019256659
167	0xbcf53b7e	-0.029935595
168	0xbc982176	-0.018570643
169	0x3d8c5cda	0.068536475
170	0x3c39caba	0.011339838
171	0x3a8bb890	0.0010659862
172	0xbcb974c9	-0.022638695
173	0xbca943f4	-0.020662285
174	0xbd536545	-0.05161025
175	0x3bb4f337	0.0055221575
176	0x3d57d5ee	0.052694254
177	0x3d009e76	0.03140112
178	0xbc0a28c5	-0.008432572
179	0x3dab42cd	0.083623506
180	0x3c88c9bb	0.016697755
181	0x3d438a82	0.047739513
182	0x3d7d5f4e	0.061858468
183	0xbd9edb97	-0.07756727
184	0xbd663f87	-0.05621293
185	0xbda11289	-0.078648634
186	0xbdadd34b	-0.084875666
187	0xbdec7709	-0.11546142
188	0xbe70f95f	-0.23532628
189	0x3d63fc37	0.055660453
190	0xbd9f8ed3	-0.077909134
191	0xbcea0fe0	-0.028572023
192	0x3da1cc4b	0.07900294
193	0x3d020364	0.031741515
194	0xbbb983f8	-0.005661484
195	0x3dacb097	0.08432119
196	0xbc51cd1a	-0.012805248
197	0x3c760fe0	0.015018433
198	0xbc663e0e	-0.014052881
199	0xbaa95f88	-0.0012922147
200	0x3d95314b	0.072847925
201	0xbca652da	-0.020303179
202	0xbd4a2ebd	-0.04936098
203	0x3c15dd9f	0.009147077
204	0xbddb91b5	-0.10721151
205	0xbcf58d02	-0.029974464
206	0x3c607220	0.0136990845
207	0xbd7063ba	-0.058688857
208	0x3d815f04	0.06316951
209	0x3d9a18bf	0.07524251
210	0xba94e789	-0.0011360507
211	0x3bb4e3c3	0.0055203154
212	0x3d1e4b6b	0.038646143
213	0xbc5eb992	-0.013594048
214	0x3d4332ed	0.04765599
215	0x3d75792e	0.05993002
216	0x3d6f25e1	0.058385734
217	0x3d814bf2	0.063133135
218	0xbdf65ef0	-0.12029827
219	0x3cfe5681	0.031047108
220	0x3d883345	0.06650404
221	0x3d35db11	0.04439837
222	0x3cfd3b36	0.030912023
223	0x3da88fff	0.0823059
224	0x3dcc0808	0.09962469
225	0xbbe89944	-0.007098349
226	0xbd09fa92	-0.033686228
227	0x3cc56769	0.024097161
228	0x3a8ea22e	0.0010882074
229	0xbd1689cd	-0.03675251
230	0xbd84abb4	-0.06478062
231	0xbbf3b8a0	-0.0074377805
232	0xbd3ea97e	-0.04654836
233	0xbddd14ee	-0.10795008
234	0x3d811cb1	0.063043006
235	0xbdba18c3	-0.09086754
236	0xbd210b7a	-0.039317586
237	0x3dc616e1	0.096723326
238	0x3c2f2e8e	0.010692252
239	0x3da8a7b7	0.08235114
240	0x3dabf535	0.08396379
241	0x3d97f388	0.07419497
242	0x3d41d253	0.04731972
243	0x3d09b538	0.03362009
244	0x3c287bfa	0.010283465
245	0xbdf08689	-0.117444105
246	0xbd8d910d	-0.06912432
247	0xbccfdf54	-0.025375046
248	0xbc27ae47	-0.010234422
249	0xbd4152ff	-0.047198292
250	0x3d198a15	0.0374852
251	0x3d4a883b	0.049446326
252	0x3c05b33a	0.008160407
253	0xbe0d6a92	-0.13810185
254	0x3cff42d5	0.031159798
255	0xbd46d927	-0.048546936

layers.4.conv1.weight f4 [32, 16, 1, 1]
0	0x3e318b6f	0.17338346
1	0x3da56735	0.08076326
2	0xbe094a4d	-0.1340725
3	0x3e144652	0.1447995
4	0x3da1b592	0.0789596
5	0xbda406b3	-0.0800909
6	0x3e532891	0.20620944
7	0x3d7cc063	0.06170691
8	0x3cbf3901	0.023342611
9	0xbdeff84e	-0.11717282
10	0xbd08464a	-0.033270158
11	0xbdb6e2e0	-0.08929992
12	0x3dd16c5a	0.102257445
13	0x3e130841	0.14358617
14	0xbe39a0c1	-0.18127729
15	0x3e09ff00	0.13476181
16	0x3e5205ee	0.20510074
17	0xbe3f93f4	-0.18708783
18	0xbe7d0577	-0.24709116
19	0xbd75b6cd	-0.059988786
20	0x3e17a341	0.1480837
21	0xbc883f65	-0.016631791
22	0xbe59ca26	-0.2126852
23	0xbce21389	-0.027597206
24	0xbd312752	-0.04325039
25	0x3e4c1662	0.19930413
26	0xbe759d44	-0.23985773
27	0x3d31728f	0.043322142
28	0xbe099239	-0.13434686
29	0xbc55c508	-0.013047464
30	0xbe58defe	-0.21178815
31	0x3e376499	0.17909469
32	0xbd556ac0	-0.052103758
33	0x3db6106f	0.08889853
34	0xbe421cf8	-0.18956363
35	0xbe37b111	-0.17938639
36	0xbe2fd394	-0.17170554
37	0xbe74e77f	-0.23916434
38	0x3c72c0bf	0.014816462
39	0xbe5877c1	-0.21139432
40	0x3e412b14	0.18864089
41	0x3cefe544	0.029284127
42	0x3e3e08c8	0.18558037
43	0x3dc204b5	0.09473554
44	0x3c95ebe8	0.018300965
45	0xbe569945	-0.20956905
46	0xbe28c796	-0.16482386
47	0x3d7b3409	0.06132892
48	0xbe311311	-0.1729243
49	0xbe2e8abd	-0.17045112
50	0x3dd3ce85	0.10342125
51	0xbdfa8210	-0.12231839
52	0xbe3c5872	-0.18393114
53	0x3e3d0759	0.18459834
54	0x3e49293f	0.1964464
55	0xbd1cbd5b	-0.03826652
56	0xbd9aea8d	-0.07564268
57	0x3e71c342	0.23609641
58	0xbe21a5b4	-0.15785867
59	0xbde218ea	-0.11039908
60	0x3db05288	0.086094916
61	0xbda7a8b6	-0.08186476
62	0x3cd449a6	0.025914025
63	0x3e7827a4	0.24233872
64	0x3e5471bc	0.20746511
65	0xbe1e6af8	-0.15470493
66	0x3d9f7f8d	0.07788
67	0xbba1726b	-0.0049269698
68	0x3ddf98b3	0.10917797
69	0xbbf18e1b	-0.0073716766
70	0xbce3bfe4	-0.027801462
71	0xbdbf24c5	-0.09333185
72	0xbdd61052	-0.104523316
73	0x3e12584c	0.14291495
74	0xbe9182f3	-0.2842022
75	0xbddee88b	-0.10884198
76	0x3dd9e716	0.10639779
77	0xbe51cfc1	-0.20489408
78	0xbd4e642c	-0.0503885
79	0x3ddf0df2	0.10891332
80	0xbd9843e9	-0.07434828
81	0xbd9d63d8	-0.07685059
82	0xbe4ea8fd	-0.20181651
83	0x3e0910b3	0.13385276
84	0xbe2c9bdf	-0.16856335
85	0xbe3f9ac6	-0.18711385
86	0xbc9d8091	-0.019226344
87	0xbe163377	-0.1466807
88	0x3c22dbcb	0.009940098
89	0x3e142401	0.1446686
90	0x3cad8e19	0.021185922
91	0x3c9c039e	0.019044694
92	0x3e042b56	0.12907156
93	0x3e653ac2	0.22385696
94	0xbd434588	-0.047673732
95	0xbc8db449	-0.01729788
96	0x3d8a5b17	0.06755655
97	0xbc8460d9	-0.016159462
98	0xbdf84498	-0.12122458
99	0x3e716eae	0.23577377
100	0xbe45eb60	-0.1932807
101	0xbe885843	-0.26629838
102	0x3e6f1aeb	0.23350112
103	0xbc9498d8	-0.018139288
104	0x3e38f2ab	0.1806132
105	0x3de6d92d	0.11271892
106	0x3e39dff0	0.18151832
107	0xbdc2427e	-0.09485339
108	0x3dcd1ef2	0.10015668
109	0x3e368f56	0.17828116
110	0x3d87690d	0.06611834
111	0x3e2ed442	0.17073157
112	0xbd651258	-0.055925697
113	0xbe090716	-0.1338161
114	0xbe03c960	-0.12869787
115	0x3e63fa23	0.22263388
116	0x3e1b1dbb	0.1514806
117	0xbd3d25bf	-0.046178576
118	0x3d6afcff	0.057370182
119	0x3ea3ff4f	0.32030722
120	0xbc942c8f	-0.018087653
121	0x3dae7295	0.085179485
122	0xbcd2acde	-0.025717195
123	0xbd76b35c	-0.060229644
124	0xbe8af236	-0.27137917
125	0x3d7837a8	0.060599953
126	0x3cbd168e	0.023082044
127	0xbe4e4ec3	-0.20147233
128	0x3e2cf9e3	0.16892199
129	0xbdc1ee98	-0.09469336
130	0x3d659f49	0.05606011
131	0xbd558941	-0.05213285
132	0x3e1b06c9	0.15139307
133	0x3e56e0fd	0.20984264
134	0x3e08a8ea	0.13345686
135	0xbe2c3548	-0.168172
136	0xbd1883d3	-0.037235092
137	0xbe7120d5	-0.2354768
138	0xbe2ab07b	-0.16668884
139	0xbe5d8269	-0.21631779
140	0x3e5f57fc	0.21810907
141	0x3e08907c	0.13336366
142	0x3d109b1a	0.035304166
143	0x3ddc8020	0.107666254
144	0xbbb2327d	-0.0054381476
145	0xbe48ff92	-0.19628742
146	0x3e683a7d	0.22678562
147	0x3e61fb02	0.22068408
148	0xbe46d75f	-0.19418095
149	0xbe0273c6	-0.12739477
150	0xbd372dc3	-0.044721376
151	0xbdee997d	-0.11650369
152	0xbe21658e	-0.15761396
153	0xbd8a7853	-0.06761231
154	0x3d2e3b10	0.042536795
155	0xbe09d0ef	-0.13458608
156	0xbddbe118	-0.107362926
157	0x3e6d1ee1	0.2315631
158	0x3a87149a	0.0010305822
159	0xbe1a88a7	-0.15091191
160	0x3d6a5e88	0.05721906
161	0x3c3cd925	0.011526381
162	0x3e2b7b91	0.16746356
163	0x3e4b9db7	0.19884382
164	0x3e2a107c	0.16607851
165	0x3e8a2ca9	0.26987198
166	0xbdefc1b9	-0.117068715
167	0x3cac7194	0.021050252
168	0x3d47187e	0.048607342
169	0x3db9b578	0.090678155
170	0x3d732307	0.059359577
171	0x3ddfa946	0.10920958
172	0x3d85e8fd	0.065385796
173	0xbe0d2da0	-0.13786936
174	0xbddb55c5	-0.107097186
175	0x3c3b8285	0.0114446925
176	0xbd9c95c7	-0.07645755
177	0xbce55e3a	-0.027999032
178	0x3e3514c2	0.176837
179	0x3ddea8ab	0.108720146
180	0x3e374288	0.17896473
181	0xbde5386b	-0.111924015
182	0xbd246aed	-0.040141035
183	0x3e92062f	0.28520343
184	0x3dd3d428	0.103432
185	0x3e05692e	0.13028404
186	0xbe403b8e	-0.18772718
187	0x3d9d389d	0.07676814
188	0xbd9429c1	-0.072345264
189	0x3de67dfe	0.112545
190	0x3db0939c	0.08621904
191	0x3d9491ae	0.07254349
192	0x3e6dad6c	0.23210686
193	0x3e653335	0.22382815
194	0x3e8cec7a	0.27524167
195	0xbc78e979	-0.015192383
196	0xbe697de1	-0.22801925
197	0x3ccd7a24	0.025082655
198	0xbcba3dea	-0.022734601
199	0x3d68105f	0.056656238
200	0x3e4eb5ff	0.20186614
201	0xbe4373e6	-0.1908718
202	0xbe37cfe8	-0.17950404
203	0x3e7a8de1	0.24468185
204	0xbe87c41c	-0.26516807
205	0x3e14cc83	0.1453114
206	0x38a8e49d	8.053447e-05
207	0xbc88ce4e	-0.016699936
208	0xbe212b19	-0.15739097
209	0xbdd2fbe4	-0.103019506
210	0xbe64980e	-0.2232363
211	0xbe031f5d	-0.12804933
212	0x3e0fa5a4	0.1402803
213	0x3e2ca641	0.16860296
214	0xbde846bb	-0.11341616
215	0xbe5b48f3	-0.21414547
216	0xbe43254f	-0.19057201
217	0x3e1dc73b	0.15408032
218	0x3db5968b	0.088666044
219	0xbe69317a	-0.2277278
220	0x3d74c7fe	0.05976104
221	0xbd6f8fd7	-0.058486786
222	0xbe1e1cd7	-0.15440689
223	0x3e64cae5	0.22343023
224	0xbc6374c2	-0.013882818
225	0xbe0af227	-0.13568936
226	0x3b93f5a6	0.0045153676
227	0xbcbdf9ec	-0.023190461
228	0x3d030bfe	0.03199386
229	0xbd97aacf	-0.07405626
230	0x3e341443	0.17585854
231	0x3e02df47	0.12780486
232	0x3e12d0c3	0.14337449
233	0xbd1efaf4	-0.038813546
234	0xbe2a4ffa	-0.16632071
235	0xbe2d8228	-0.16944182
236	0x3da0b36b	0.07846721
237	0x3e354a7d	0.17704196
238	0x3dfec28a	0.12439449
239	0x3e5b820d	0.21436329
240	0xbe12b90e	-0.14328405
241	0x3ea519f1	0.32246354
242	0xbde338ba	-0.11094804
243	0x3daec862	0.08534314
244	0x3d532e67	0.051557925
245	0xbe227a47	-0.15866958
246	0xbd254da6	-0.040357254
247	0xbd747c3b	-0.059688788
248	0x3e86a280	0.26295853
249	0x3db14622	0.08655955
250	0x3e1ad7f4	0.15121442
251	0x3e084415	0.13307221
252	0x3d5e4622	0.054266103
253	0xbe1b1193	-0.15143423
254	0x3da5cd9a	0.08095856
255	0x3def4fcf	0.11685144
