target_model.pth (torch, 20657 bytes, 30 tensors)

layers.0.conv1.weight f4 [2, 1, 1, 1]
0.41106713 1.0455544
00000000: 6477 d23e bad4 853f

layers.0.conv1.bias f4 [2]
0.04484274 0.06035247
00000000: 05ad 373d 2734 773d

layers.0.conv2.bias f4 [2]
0.09208861 0.08357108
00000000: f498 bc3d 5027 ab3d

layers.0.conv2.weight_g f4 [2, 1, 1, 1]
0.8149927 0.75319344
00000000: 5da3 503f 49d1 403f

layers.0.conv2.weight_v f4 [2, 1, 3, 3]
0.054949038 0.23398253 0.15738434 0.3437495 0.04105654 0.3600025 0.28025138 -0.13148671
0.27408254 -0.08576512 -0.11318319 -0.30987757 0.23089501 -0.10689763 -0.24708843 -0.031748317
0.055883568 -0.4456243
00000000: 3e12 613d 1e99 6f3e 5c29 213e efff af3e
00000010: e72a 283d 3f52 b83e 1c7d 8f3e 74a4 06be
00000020: 8c54 8c3e a0a5 afbd 97cc e7bd 46a8 9ebe
00000030: be6f 6c3e 25ed dabd c004 7dbe 860a 02bd
00000040: 2be6 643d de28 e4be

layers.0.conv3.bias f4 [2]
0.04937331 0.067950696
00000000: ab3b 4a3d bc29 8b3d

layers.0.conv3.weight_g f4 [2, 1, 1, 1]
0.5514818 0.7915005
00000000: e92d 0d3f c79f 4a3f

layers.0.conv3.weight_v f4 [2, 2, 3, 3]
0.1755492 0.023366693 0.16940628 0.0024268962 -0.07870228 0.08533764 0.01121833 0.25669974
-0.025186084 -0.058027267 0.076424845 -0.24287823 0.14511666 -0.10493428 -0.16189161 -0.104921214
-0.08608132 -0.19492035 -0.043042876 0.1509112 0.07301769 0.33935985 0.24847865 0.28442606
0.20655099 0.2198013 0.28667122 0.058765903 -0.05215195 -0.01562856 -0.08345079 -0.020737628
-0.07890084 0.06512973 -0.022699365 -0.09167408
00000000: 2bc3 333e 826b bf3c d778 2d3e 900c 1f3b
00000010: a92e a1bd 80c5 ae3d 16cd 373c 266e 833e
00000020: 0c53 cebc 00ae 6dbd a184 9c3d 12b5 78be
00000030: 7699 143e c9e7 d6bd eac6 25be efe0 d6bd
00000040: 674b b0bd 3399 47be ba4d 30bd 7788 1a3e
00000050: 4c8a 953d 93c0 ad3e 3071 7e3e 4ba0 913e
00000060: 1a82 533e 9813 613e 92c6 923e 84b4 703d
00000070: 489d 55bd 7707 80bc 3fe8 aabd f5e1 a9bc
00000080: c396 a1bd bc62 853d 05f4 b9bc 9fbf bbbd

layers.1.conv1.weight f4 [4, 2, 1, 1]
0.11322708 -0.34592706 -0.27000585 0.55218524 -0.36645913 -0.3128564 0.57658124 0.31686395
00000000: 99e3 e73d 5a1d b1be 353e 8abe 035c 0d3f
00000010: 88a0 bbbe b72e a0be d49a 133f fe3b a23e

layers.1.conv1.bias f4 [4]
-0.0075873393 0.025684092 -0.0113494545 0.023811148
00000000: 379f f8bb 7267 d23c 10f3 39bc 990f c33c

layers.1.conv2.bias f4 [4]
0.11691642 0.04210143 0.01953719 0.0805796
00000000: e071 ef3d 8d72 2c3d 750c a03c eb06 a53d

layers.1.conv2.weight_g f4 [4, 1, 1, 1]
0.7348397 0.6662641 0.67412406 0.62949157
00000000: 741e 3c3f 4990 2a3f 6593 2c3f 5c26 213f

layers.1.conv2.weight_v f4 [4, 2, 3, 3]
0.04157847 0.045744605 0.1305594 0.11518915 -0.051406294 0.1312711 -0.097585835 -0.08674399
0.08835165 0.0031064914 0.06183474 0.26589578 -0.13121258 -0.14417394 0.21169622 0.053512394
-0.079409614 0.17545918 0.17483756 0.07679386 -0.06330155 0.25269344 0.077984415 0.062136654
0.17399803 -0.07026929 0.05132239 0.05286071 0.07552043 0.046686128 0.27102205 0.1394786
-0.05117673 0.012425901 0.059104048 0.050128695 -0.06357867 0.09964392 0.08476307 -0.035248563
0.09411695 0.065831244 -0.012695615 0.004018887 -0.03772964 0.22112079 0.27772167 0.25346154
0.20027143 0.09247758 0.12572056 0.026681557 0.014394182 -0.06410499 0.00085727515 0.03713178
-0.06870266 -0.13569687 -0.112654746 -0.09095321 0.10640256 -0.00985509 -0.18784302 -0.095655166
0.19389129 -0.08296145 -0.04182209 -0.04265001 -0.09683268 -0.024315666 -0.045825154 0.0431212
00000000: 304e 2a3d b25e 3b3d 5db1 053e 4ae8 eb3d
00000010: 688f 52bd ee6b 063e 15db c7bd d5a6 b1bd
00000020: b6f1 b43d 4796 4b3b 6d46 7d3d 7e23 883e
00000030: 975c 06be 55a2 13be e5c6 583e d02f 5b3d
00000040: 82a1 a2bd 92ab 333e 9e08 333e 1946 9d3d
00000050: 3ea4 81bd 0961 813e 4bb6 9f3d 0183 7e3d
00000060: 8a2c 323e 58e9 8fbd 6d37 523d 7984 583d
00000070: 75aa 9a3d f439 3f3d 67c3 8a3e 7ad3 0e3e
00000080: b19e 51bd 0296 4b3c 1617 723d bf53 4d3d
00000090: 8935 82bd 1d12 cc3d 4398 ad3d cc60 10bd
000000a0: 63c0 c03d 88d2 863d 4501 50bc deb0 833b
000000b0: 658a 1abd 7d6d 623e 8931 8e3e b6c5 813e
000000c0: f413 4d3e e364 bd3d e4bc 003e 4893 da3c
000000d0: 93d5 6b3c 7a49 83bd c3ba 603a 7e17 183d
000000e0: fbb3 8cbd 1ff4 0abe 88b7 e6bd ad45 babd
000000f0: 96e9 d93d 3e77 21bc ec59 40be dbe6 c3bd
00000100: 708b 463e b1e7 a9bd a44d 2bbd c7b1 2ebd
00000110: 3650 c6bd a631 c7bc 28b3 3bbd db9f 303d

layers.1.conv3.bias f4 [4]
-0.03054633 0.00052198366 -0.022011496 -0.00041774777
00000000: 4c3c fabc bbd5 083a 7451 b4bc 2805 dbb9

layers.1.conv3.weight_g f4 [4, 1, 1, 1]
0.4939268 0.73522776 0.51308197 0.7073246
00000000: f9e3 fc3e e337 3c3f 5759 033f 3a13 353f

layers.1.conv3.weight_v f4 [4, 4, 3, 3]
-0.035761543 -0.14443113 0.049947694 -0.05220221 -0.067961715 -0.16740084 0.043165203 0.076868586
0.12094779 -0.09365563 0.017501075 -0.028965592 -0.13566995 -0.1437732 0.09932669 -0.12149771
0.14533632 0.04767138 0.018435556 0.061408464 0.040163115 0.04508347 0.05421419 -0.08912016
-0.1166246 -0.050052013 0.082540065 0.14980191 0.15908791 -0.07386774 -0.037996665 -0.13946058
0.13384165 -0.14633545 -0.105492055 0.1651385 -0.048619963 -0.03818298 0.022067862 -0.13775054
0.067316964 -0.0019487501 0.04365278 0.13124675 0.12397709 0.10994114 0.08344915 -0.003417167
0.22739875 0.16173474 -0.05830594 0.16470337 0.10626297 0.0006094635 0.068859726 -0.13054864
-0.13020585 0.13139607 0.07496394 0.06956051 0.036897823 0.19242825 0.27517432 -0.010735515
0.007808534 -0.06317539 -0.02108075 -0.023092272 -0.011628625 -0.011773952 -0.023484252 -0.00926205
-0.11493155 -0.1604042 -0.044476148 -0.025121618 -0.032867745 0.115594715 0.056715894 0.09987563
0.05745449 0.006868747 0.079205565 -0.1339169 0.068496786 0.05422479 -0.09863802 -0.025818922
-0.14124112 -0.17396156 -0.013466578 0.021061867 -0.03118287 0.040425487 -0.1499255 -0.09835359
0.092070654 -0.1756304 0.020953216 0.14679416 0.13291739 0.07754114 -0.17952922 5.4295553e-05
-0.0883311 -0.069214374 0.14441906 -0.088620074 -0.11259669 -0.06276155 0.092411496 -0.07551461
0.06342139 0.06812259 -0.13524953 0.06967452 0.14770043 0.16327094 0.091580085 -0.041572083
0.048050772 0.13284726 -0.053465262 0.13978551 0.08176649 0.043050375 0.07609411 -0.124376506
-0.106795296 0.21718077 0.101021364 0.13743338 0.061126914 0.19019955 0.099451706 -0.010025884
0.0011611514 -0.06392549 -0.0093195895 -0.016163772 -0.007735009 -0.008077584 -0.014541808 -0.021325048
00000000: b27a 12bd c1e5 13be f495 4c3d fcd1 55bd
00000010: 832f 8bbd 206b 2bbe ffcd 303d 476d 9d3d
00000020: 7ab3 f73d 86ce bfbd 6a5e 8f3c 4049 edbc
00000030: 10ed 0abe 4839 13be cb6b cb3d cbd3 f8bd
00000040: 0bd3 143e 1143 433d 2a06 973c 7187 7b3d
00000050: 1482 243d 72a9 383d b30f 5e3d a184 b6bd
00000060: e1d8 eebd 5703 4dbd c40a a93d ac65 193e
00000070: f1e7 223e f847 97bd 64a2 1bbd c1ce 0ebe
00000080: c90d 093e f6d8 15be 380c d8bd 111a 293e
00000090: ba25 47bd c265 1cbd a9c7 b43c 7a0e 0dbe
000000a0: 7add 893d 346d ffba 42cd 323d 8c65 063e
000000b0: b3e7 fd3d d228 e13d 63e7 aa3d 8df2 5fbb
000000c0: 38db 683e cb9d 253e 36d2 6ebd 00a8 283e
000000d0: 66a0 d93d 67c4 1f3a 5406 8d3d 8bae 05be
000000e0: af54 05be b18c 063e b286 993d be75 8e3d
000000f0: 2c22 173d e90b 453e a6e3 8c3e 03e4 2fbc
00000100: bbde ff3b 1962 81bd 89b1 acbc 012c bdbc
00000110: fd85 3ebc 89e7 40bc 0c62 c0bc dabf 17bc
00000120: 3c61 ebbd 0041 24be 9f2c 36bd dacb cdbc
00000130: 54a0 06bd ecbc ec3d ed4e 683d 988b cc3d
00000140: 6655 6b3d 3a13 e13b 8736 a23d 8321 09be
00000150: 0b48 8c3d d01a 5e3d bb02 cabd 3482 d3bc
00000160: 83a1 10be fb22 32be eca2 5cbc f089 ac3c
00000170: 3873 ffbc 3295 253d 1286 19be 9b6d c9bd
00000180: 8a8f bc3d 75d8 33be 14a6 ab3c 3551 163e
00000190: 7f1b 083e e4cd 9e3d 82d6 37be 68bb 6338
000001a0: f0e6 b4bd 44c0 8dbd 97e2 133e 717e b5bd
000001b0: 1899 e6bd 2189 80bd 3d42 bd3d 67a7 9abd
000001c0: 13e3 813d db83 8b3d da7e 0abe 84b1 8e3d
000001d0: c83e 173e 7f30 273e 578e bb3d 7d47 2abd
000001e0: e3d0 443d 1d09 083e 64fe 5abd ef23 0f3e
000001f0: 3175 a73d 9755 303d 3bd7 9b3d 1cb9 febd
00000200: 7eb7 dabd a364 5e3e 4ae4 ce3d 56bb 0c3e
00000210: 3760 7a3d acc3 423e 56ad cb3d 9b43 24bc
00000220: c731 983a 5eeb 82bd 31b1 18bc e369 84bc
00000230: f575 fdbb d857 04bc c340 6ebc deb1 aebc

layers.2.conv1.weight f4 [8, 4, 1, 1]
-0.428208 0.2580466 0.41109687 0.44805014 0.0651883 0.21083686 0.4463831 0.11185121
-0.23996454 -0.48565 0.21731924 0.18020196 0.44172785 -0.25955313 0.2134979 -0.16926208
-0.14140114 0.31341413 -0.4393507 0.38399735 0.23118103 -0.3058868 0.25364646 -0.13383347
0.049755562 -0.1732462 -0.49598512 -0.09949608 0.23492323 -0.070543095 -0.24517062 0.0026651176
00000000: 143e dbbe af1e 843e 4a7b d23e d466 e53e
00000010: 7281 853d 9ee5 573e 538c e43e 3f12 e53d
00000020: 44b9 75be 1ea7 f8be ef88 5e3e dd86 383e
00000030: 272a e23e 26e4 84be 329f 5a3e 0a53 2dbe
00000040: 76cb 10be d177 a03e 93f2 e0be 4d9b c43e
00000050: b8ba 6c3e 329d 9cbe f3dd 813e a40b 09be
00000060: 7dcc 4b3d 7467 31be c3f1 fdbe 9ac4 cbbd
00000070: b78f 703e e678 90bd 020e 7bbe 41a9 2e3b

layers.2.conv1.bias f4 [8]
0.016238092 0.027108794 -0.017317478 -0.009069764 0.024861133 -0.01076421 0.00994804 -0.005468878
00000000: bf05 853c 4313 de3c 62dd 8dbc 5999 14bc
00000010: 93a9 cb3c 5e5c 30bc 1bfd 223c 4634 b3bb

layers.2.conv2.bias f4 [8]
0.04564255 0.040580258 0.031522565 0.019583564 -0.007516638 0.07792392 0.020949867 -0.0022066254
00000000: aff3 3a3d 7c37 263d ce1d 013d b66d a03c
00000010: 214e f6bb 9396 9f3d 0e9f ab3c 089d 10bb

layers.2.conv2.weight_g f4 [8, 1, 1, 1]
0.7131001 0.69704527 0.7178817 0.80575824 0.6961895 0.6712199 0.68106204 0.66498643
00000000: ba8d 363f 8f71 323f 18c7 373f 2c46 4e3f
00000010: 7a39 323f 11d5 2b3f 155a 2e3f 8d3c 2a3f

layers.2.conv2.weight_v f4 [8, 4, 3, 3]
1.7131522e-05 -0.0011310624 0.00033649476 0.00058474706 0.0019921607 0.0014298769 -0.00024524928 0.0017718216
-0.001123513 -0.03451437 0.12510239 -0.0546591 -0.023915632 -0.01095704 0.0012179902 0.14048254
0.27217993 0.015587399 -0.0047179963 0.00039997185 0.00028669223 0.0005166493 0.00057995215 -0.00032969087
0.0007805827 0.00079843856 -4.889182e-05 -0.051161148 0.15393685 -0.07102373 -0.053978145 0.09027316
0.021953452 0.15065368 0.15255734 0.07758099 -0.0008012712 0.00025689884 -3.9915456e-05 -1.1074492e-05
0.0017426133 4.6805075e-05 -0.0014336702 8.4681604e-05 -0.002322695 0.124100335 0.038420297 0.14269134
0.040854685 0.061539818 0.015403328 0.019819422 -0.16330135 -0.16773054 -0.0014433725 -0.0004613421
-0.00029097806 -0.0028682994 -0.011659295 -0.0002543671 -0.014113924 0.00014977177 0.0004236827 -0.0041445564
0.21993077 0.055693883 0.16379096 0.020515503 0.06214058 0.1743579 -0.13707076 -0.12347648
-0.0029501244 -0.025324805 -0.0054884152 0.004199727 0.036907837 0.0021141823 -0.0019584508 0.008858484
-0.0022017544 0.24911863 0.18848759 0.23822892 -0.00077421847 0.026030652 0.02011942 0.031304408
-0.19406043 0.07041032 -5.129353e-05 -0.0008290231 -0.032282583 -0.0029088245 0.0003526799 0.0075289384
8.821303e-05 -0.00023807317 -0.000323723 0.09298427 0.05295158 0.0007509242 0.21355765 -0.030363543
0.14784946 -0.012909685 -0.042992614 0.10706586 -0.0018278151 -0.0049430486 -0.00031828223 0.004732701
3.7419853e-05 -6.0782946e-05 -0.0016495803 -0.0056872177 0.00031283448 0.19560705 0.074942544 0.103416264
0.069532365 0.19845651 0.18344453 -0.025270626 0.024081167 0.19374807 -0.0051567024 0.0014370073
-0.0049383827 0.001159669 -0.00048476024 4.8821552e-05 -0.001083877 -0.00031048167 0.0047110817 0.12291472
-0.051242784 -0.03383854 0.25644773 0.05405309 0.17035516 -0.0097476635 0.02433012 0.15208781
-0.0006033382 0.00013482921 0.004822269 2.3729439e-05 -0.0054327515 -0.015751068 0.00032733014 -0.0032551785
-3.2998883e-05 0.072627544 0.165573 0.23886178 -0.04046431 -0.002720724 -0.0061235866 0.06970664
0.10870985 0.038616426 -0.002167704 -0.0012385244 -0.0013654752 0.0047744857 -0.004754839 0.0012744351
-0.00023916377 0.0006467097 9.027505e-06 0.12066626 0.08359147 0.24905764 -0.1590836 0.015276232
-0.009215593 0.036869295 0.11821417 0.0077158487 0.010956099 -0.012425488 0.0010438616 -0.0018550294
0.00024207267 -0.027729979 0.0023891742 -0.010245792 -0.0012537739 -0.013063344 0.1863723 -0.12999476
-0.01791568 0.08089203 0.05207132 -0.043000635 0.1073696 0.06866879 -0.001584228 -0.0034290708
7.422566e-05 0.0002767216 0.00035917235 0.00046665393 0.0017830336 0.0003034609 0.001550806 -0.03180124
0.19332628 -0.102472626 -0.054198287 -0.010395506 -0.078649245 0.0031421648 -0.035533953 0.032740958
0.0010516137 -0.0006513683 -0.0004592825 -3.724896e-05 0.0003765175 -0.0040302686 -0.00096085714 0.0014831885
0.0004829009 -0.025247294 0.028247055 0.016385466 0.04557793 0.11090286 0.018486636 0.01846738
0.1664776 -0.09894982 0.0006515354 0.0005023685 -0.00040040968 -0.001697342 -0.00037215193 0.021372087
-0.011589063 0.013658034 0.0019903781 0.000353017 0.030263912 -0.041955583 0.057441026 0.19482194
-0.0033216756 -0.020332575 0.21462372 -0.051433627 0.0006465107 0.0018280138 0.000105593776 -0.00054962974
00000000: aab5 8f37 2840 94ba 906b b039 b649 193a
00000010: e98e 023b b56a bb3a cd94 80b9 783c e83a
00000020: d742 93ba f15e 0dbd d71a 003e 38e2 5fbd
00000030: b7ea c3bc 2885 33bc f8a4 9f3a a8da 0f3e
00000040: 2b5b 8b3e 4a62 7f3c 6c99 9abb 50b3 d139
00000050: 2e4f 9639 bf6f 073a ee07 183a 5cda acb9
00000060: 05a0 4c3a 4e4e 513a 3111 4db8 5a8e 51bd
00000070: 9fa1 1d3e e474 91bd 3018 5dbd 22e1 b83d
00000080: bad7 b33c f544 1a3e fe37 1c3e c8e2 9e3d
00000090: 660c 52ba 61b0 8639 e56a 27b8 95cc 39b7
000000a0: 6668 e43a 9150 4438 fde9 bbba 1797 b138
000000b0: 5b38 18bb 5128 fe3d 9a5e 1d3d ae1d 123e
000000c0: 3e57 273d 2d11 7c3d 3e5e 7c3c 575c a23c
000000d0: 7838 27be 8ec1 2bbe 8b2f bdba 4ae0 f1b9
000000e0: 6a8e 98b9 14fa 3bbb a106 3fbc 935c 85b9
000000f0: 163e 67bc 0e0c 1d39 bb21 de39 0fcf 87bb
00000100: 8835 613e 451f 643d d1b8 273e 2110 a83c
00000110: 1f87 7e3d e18a 323e 475c 0cbe 3de1 fcbd
00000120: e056 41bb f775 cfbc 2ad8 b3bb dd9d 893b
00000130: ac2c 173d 188e 0a3b 5a59 00bb 2d23 113c
00000140: 4f4b 10bb f418 7f3e e402 413e 48f2 733e
00000150: ecf4 4aba 3c3e d53c 7bd1 a43c 0d39 003d
00000160: c7b7 46be 4933 903d 0224 57b8 cc52 59ba
00000170: be3a 04bd faa1 3ebb e5e7 b839 50b5 f63b
00000180: 03ff b838 48a3 79b9 5eb9 a9b9 896e be3d
00000190: c2e3 583d acd9 443a dbae 5a3e f7bc f8bc
000001a0: d965 173e 2583 53bc 0619 30bd 5845 db3d
000001b0: 4c93 efba 4cf9 a1bb 1edf a6b9 c614 9b3b
000001c0: 43f3 1c38 31f1 7eb8 bb36 d8ba d75b babb
000001d0: ef03 a439 374d 483e 7a7b 993d e8cb d33d
000001e0: fc66 8e3d 2f38 4b3e e2d8 3b3e 5804 cfbc
000001f0: de45 c53c e565 463e 8ef9 a8bb f759 bc3a
00000200: 28d2 a1bb 0900 983a 6b27 feb9 bec5 4c38
00000210: e110 8eba 25c8 a2b9 6b5f 9a3b b6ba fb3d
00000220: f4e3 51bd 489a 0abd 1e4d 833e c666 5d3d
00000230: 9571 2e3e aab4 1fbc f64f c73c e8bc 1b3e
00000240: 5729 1eba f160 0d39 2004 9e3b 950e c737
00000250: 3905 b2bb 6208 81bc 829d ab39 d554 55bb
00000260: 4868 0ab8 c0bd 943d f88b 293e 2f98 743e
00000270: e8bd 25bd 2d4e 32bb 5ea8 c8bb 5bc2 8e3d
00000280: 45a3 de3d 422c 1e3d 0a10 0ebb fc55 a2ba
00000290: bff9 b2ba 4a73 9c3b 7bce 9bbb f20a a73a
000002a0: 09c8 7ab9 f487 293a d774 1737 df1f f73d
000002b0: 0132 ab3d f708 7f3e d0e6 22be 2949 7a3c
000002c0: 00fd 16bc 4204 173d 451a f23d 3bd5 fc3b
000002d0: 3681 333c 4694 4bbc 2fd2 883a 7524 f3ba
000002e0: e3d4 7d39 fb29 e3bc b193 1c3b f7dd 27bc
000002f0: ac55 a4ba a307 56bc 61d8 3e3e 591d 05be
00000300: e7c3 92bc b8aa a53d bd48 553d 6f21 30bd
00000310: 98e4 db3d 39a2 8c3d dfa5 cfba 43ba 60bb
00000320: 99a9 9b38 f214 9139 4c4f bc39 3ba9 f439
00000330: aeb4 e93a d519 9f39 6a44 cb3a 0442 02bd
00000340: 53f7 453e 2bdd d1bd 06ff 5dbd ea51 2abc
00000350: db12 a1bd c7ec 4d3b 0d8c 11bd 621b 063d
00000360: 4dd6 893a 96c0 2aba dbcb f0b9 c43b 1cb8
00000370: 5367 c539 5810 84bb 08e2 7bba 8c67 c23a
00000380: dd2d fd39 6ad3 cebc 5e66 e73c d03a 863c
00000390: ecaf 3a3d 0a21 e33d 4971 973c e748 973c
000003a0: 1b79 2a3e 34a6 cabd cdcb 2a3a 61b1 033a
000003b0: 14ee d1b9 5979 deba 631d c3b9 8414 af3c
000003c0: 0ee0 3dbc f2c5 5f3c 0171 023b 2415 b939
000003d0: 06ec f73c 9ed9 2bbd 4847 6b3d 677f 473e
000003e0: 78b0 59bb 8090 a6bc 52c6 5b3e 11ac 52bd
000003f0: 997a 293a f799 ef3a 3a72 dd38 0715 10ba

layers.2.conv3.bias f4 [8]
-0.007238215 -0.026401898 0.015949748 0.008030576 -0.022255775 0.011254461 -0.009118734 0.0142791895
00000000: 8c2e edbb cb48 d8bc 0ca9 823c ad92 033c
00000010: be51 b6bc a164 383c be66 15bc 43f3 693c

layers.2.conv3.weight_g f4 [8, 1, 1, 1]
0.718354 0.7283848 0.6107827 0.5407341 0.6887496 0.61859673 0.6132824 0.53529716
00000000: 0ce6 373f 6d77 3a3f 415c 1c3f 8d6d 0a3f
00000010: e551 303f 5b5c 1e3f 1300 1d3f 3c09 093f

layers.2.conv3.weight_v f4 [8, 8, 3, 3]
-0.110750675 -0.015994506 -0.07325633 -0.12014649 0.00310532 0.0084834425 0.006089447 0.11502483
-0.031333476 0.023781875 0.03768905 0.07742001 -0.066397674 -0.11275318 0.023967093 -0.1265693
-0.108130954 -0.016119873 0.00022649282 -0.032051362 0.03042453 0.021568567 -0.12920317 -0.044015344
-0.028284887 -0.14733432 -0.027300263 -0.07698946 -0.1567333 -0.0713676 -0.0033701109 -0.116822295
-0.14322352 0.029882265 -0.08110478 -0.0012491456 0.02772631 0.03577935 -0.07278163 -0.037515327
-0.010635518 -0.039166626 -0.028262433 -0.044880453 -0.10292109 -0.05181077 0.0063443854 0.026460486
-0.045987543 0.032477323 -0.002017604 -0.0034643484 0.061841097 -0.07609871 -0.08214782 0.057637233
-0.0836045 -0.11880265 0.057154424 -0.057599504 -0.036576584 0.108014435 0.02477567 -0.047420364
-0.07399341 0.05795411 -0.089458495 -0.13470674 -0.027706841 -0.07906518 -0.086598605 -0.07254736
-0.12714761 -0.07249423 -0.062249728 -0.082948364 0.02832028 -0.03498571 -0.009646452 0.08749838
-0.05085308 -0.006704891 0.03797217 0.059199292 -0.0023118637 -0.03580482 -0.043926377 -0.04174049
-0.06000207 -0.068428725 0.07480182 -0.05982083 0.07045338 -0.043406565 -0.13838011 0.006781285
-0.13185117 -0.05535166 -0.09008846 0.018698886 -0.073268004 -0.0025607182 -0.06886452 -0.11445923
-0.11417325 -0.13212693 -0.13810089 0.0468138 -0.062687024 0.006297173 -0.09854355 -0.01862489
-0.032986708 -0.02453964 -0.054326426 -0.17891723 -0.09695823 -0.0506725 0.04141647 0.027847508
-0.054923892 0.05907775 -0.011391509 0.00066474447 0.102736264 -0.069061756 -0.036507145 0.04604737
-0.045984518 -0.035175316 -0.07072396 -0.10908761 -0.018935563 -0.08212503 -0.006941859 -0.044313133
0.009294259 0.01576265 -0.07572181 -0.17176272 -0.068097256 -0.023450898 -0.118973866 -0.11088279
-0.038590077 -0.08138336 -0.030617243 0.072092034 0.088303536 0.092947856 0.014681746 -0.053000018
-0.07331719 0.123689115 -0.09577452 0.03747683 -0.0022582277 0.11790749 0.07690463 -0.019996384
-0.090103984 0.019671982 -0.072535805 -0.0019484612 0.039623305 0.066845715 -0.02306701 -0.07262592
-0.090190925 -0.10084319 0.025389232 -0.060049884 0.015336071 -0.045348935 -0.07305897 0.0899647
0.076535985 0.091280706 0.12410785 -0.07316407 -0.05369092 -0.07953072 0.088505216 0.07883048
0.10424453 -0.07946103 -0.049925543 0.12541421 -0.08574357 -0.08448267 0.051170845 -0.09508685
-0.03285608 0.058073442 0.103994496 -0.012395562 -0.09356753 0.07243579 0.124507494 -0.09164513
-0.0037295308 -0.08994819 -0.06401726 0.0440945 0.06014781 0.05370277 -0.115871385 -0.015924247
0.06113128 -0.00029617417 -0.026901366 -0.05038035 0.12151777 -0.081946895 -0.07954373 0.09897715
-0.06947261 0.073528655 -0.06602153 -0.012447276 -0.049532287 0.10178897 0.085302435 0.011211354
0.0028828233 -0.038188178 -0.060477972 -0.040277068 0.04292075 -0.021149185 0.0846143 0.01850031
0.0066015283 -0.06870559 0.053420372 -0.10786283 0.031968754 0.04891406 0.023788555 0.08742341
0.033488937 -0.031884424 -0.07819406 -0.10156218 0.064907506 0.06977964 -0.08218837 0.035658464
-0.038315933 0.10622725 -0.035695545 0.10307038 0.08463563 0.06624249 0.081785776 0.043174647
00000000: 40d1 e2bd e906 83bc 6a07 96bd 5d0f f6bd
00000010: a082 4b3b 23fe 0a3c fc89 c73b 2392 eb3d
00000020: 8857 00bd 35d2 c23c d55f 1a3d 628e 9e3d
00000030: 81fb 87bd 24eb e6bd a356 c43c 629b 01be
00000040: c373 ddbd d30d 84bc b47e 6d39 4a48 03bd
00000050: dd3c f93c 90b0 b03c d64d 04be 6f49 34bd
00000060: b5b5 e7bc cfde 16be cda4 dfbc a6ac 9dbd
00000070: b27e 20be 2d29 92bd 14dd 5cbb 8740 efbd
00000080: 30a9 12be a7cb f43c 431a a6bd 5fba a3ba
00000090: 4922 e33c 5e8d 123d 890e 95bd aca9 19bd
000000a0: 9840 2ebc 2f6d 20bd 9e86 e7bc 91d4 37bd
000000b0: 4bc8 d2bd 8837 54bd 90e4 cf3b a9c3 d83c
000000c0: 6f5d 3cbd f106 053d c739 04bb 1f0a 63bb
000000d0: 174d 7d3d a4d9 9bbd 1e3d a8bd 0515 6c3d
000000e0: d638 abbd ce4e f3bd c21a 6a3d 75ed 6bbd
000000f0: 54d1 15bd ac36 dd3d 59f6 ca3c db3b 42bd
00000100: db89 97bd 4a61 6d3d 0436 b7bd 90f0 09be
00000110: 75f9 e2bc edec a1bd 9c5a b1bd b693 94bd
00000120: fc32 02be db77 94bd 92f9 7ebd d5e0 a9bd
00000130: efff e73c 2d4d 0fbd 270c 1ebc 5a32 b33d
00000140: 524b 50bd b4b4 dbbb b588 1b3d f57a 723d
00000150: a382 17bb 13a8 12bd 25ec 33bd 13f8 2abd
00000160: bbc4 75bd 5c24 8cbd b231 993d b006 75bd
00000170: dd49 903d 15cb 31bd 84b3 0dbe 8b35 de3b
00000180: fe03 07be 6cb8 62bd 4c80 b8bd 682e 993c
00000190: 890d 96bd b9d1 27bb d708 8dbd 9a69 eabd
000001a0: aad3 e9bd 484c 07be 526a 0dbe d4bf 3f3d
000001b0: 0e62 80bd 8458 ce3b 33d1 c9bd 3a93 98bc
000001c0: 121d 07bd 5b07 c9bc 6385 5ebd 1436 37be
000001d0: 0992 c6bd f88d 4fbd 51a4 293d 7520 e43c
000001e0: e0f7 60bd 83fb 713d 74a3 3abc 3f42 2e3a
000001f0: 6467 d23d 4070 8dbd 8488 15bd 2b9c 3c3d
00000200: 435a 3cbd fe13 10bd b9d7 90bd 5369 dfbd
00000210: c11e 9bbc 2b31 a8bd 8978 e3bb b081 35bd
00000220: f346 183c ac20 813c 0914 9bbd 91e2 2fbe
00000230: 9376 8bbd 191c c0bc 92a8 f3bd 8416 e3bd
00000240: a110 1ebd 52ac a6bd 03d1 fabc fda4 933d
00000250: 7cd8 b43d 725b be3d b58b 703c 8c16 59bd
00000260: 5327 96bd b850 fd3d 6e25 c4bd 4e81 193d
00000270: c6fe 13bb 7b79 f13d 2d80 9d3d 75cf a3bc
00000280: 7088 b8bd 2327 a13c a78d 94bd 8263 ffba
00000290: 0c4c 223d 68e6 883d 07f7 bcbc e6bc 94bd
000002a0: 05b6 b8bd e086 cebd 14fd cf3c def6 75bd
000002b0: 2544 7b3c cebf 39bd f19f 95bd 6a3f b83d
000002c0: e6be 9c3d 61f1 ba3d 422c fe3d 0bd7 95bd
000002d0: 03eb 5bbd 01e1 a2bd 3942 b53d e071 a13d
000002e0: 287e d53d 77bc a2bd ba7e 4cbd 956c 003e
000002f0: 539a afbd 4005 adbd 8598 513d e5bc c2bd
00000300: 1994 06bd 6bde 6d3d 11fb d43d c116 4bbc
00000310: 55a0 bfbd 3759 943d c9fd fe3d 71b0 bbbd
00000320: 256b 74bb c236 b8bd 7b1b 83bd 6f9c 343d
00000330: 8d5d 763d 70f7 5b3d fa4d edbd 9173 82bc
00000340: cb64 7a3d d347 9bb9 4160 dcbc a05b 4ebd
00000350: 4fde f83d c6d3 a7bd d3e7 a2bd 88b4 ca3d
00000360: a847 8ebd 3196 963d 4c36 87bd a9ef 4bbc
00000370: 5ee2 4abd bc76 d03d 0bb3 ae3d d4af 373c
00000380: c0ed 3c3b 356b 1cbd c0b7 77bd 91f9 24bd
00000390: abcd 2f3d 0e41 adbc 434a ad3d f68d 973c
000003a0: a251 d83b 84b5 8cbd 52cf 5a3d 30e7 dcbd
000003b0: abf1 023d 1c5a 483d 37e0 c23c 0b0b b33d
000003c0: b22b 093d 3e99 02bd 3524 a0bd d5ff cfbd
000003d0: 3aee 843d a1e8 8e3d 6052 a8bd 9c0e 123d
000003e0: 2bf1 1cbd ac8d d93d 7e35 12bd 9016 d33d
000003f0: 7255 ad3d 25aa 873d 4d7f a73d e6d7 303d

conv1.weight f4 [8, 8, 1, 1]
0.1157957 0.16245979 0.18245634 -0.10371185 -0.022422768 -0.2853581 0.21361727 0.23462826
0.1862927 0.19949785 0.21051475 0.33130023 0.13257691 0.12687603 0.110550545 -0.19848418
0.1009503 0.1313959 -0.27975592 -0.10402056 -0.2748931 -0.21824856 0.24793892 0.26971558
-0.09441071 0.075267486 -0.082316525 0.0702256 -0.059179056 -0.18491596 -0.16156124 0.3514863
0.021978648 -0.22648397 0.038652748 -0.3506487 -0.033279248 0.27690125 0.056853965 0.07678321
-0.37044898 -0.09554295 0.20196609 -0.25770095 -0.22248389 0.23752755 0.17227097 0.15790588
-0.32865372 0.22921799 -0.07666071 0.073867664 0.29394394 -0.3239035 0.10056067 -0.31773987
0.295503 0.1422308 0.039108228 -0.14080417 0.1584889 -0.18243368 0.06718677 0.29516134
00000000: 4c26 ed3d dc5b 263e d6d5 3a3e e166 d4bd
00000010: f4af b7bc 751a 92be 7cbe 5a3e 6442 703e
00000020: 83c3 3e3e 2a49 4c3e 2e91 573e 2fa0 a93e
00000030: 3ec2 073e caeb 013e 5368 e23d 703f 4bbe
00000040: 08bf ce3d a68c 063e 2b3c 8fbe bb08 d5bd
00000050: cabe 8cbe 8d7c 5fbe b3e3 7d3e 2918 8a3e
00000060: 675a c1bd d725 9a3d 9195 a8bd 70d2 8f3d
00000070: bd65 72bd 9c5a 3dbe 4f70 25be 03f6 b33e
00000080: 910c b43c 6aeb 67be 5852 1e3d 3a88 b3be
00000090: d24f 08bd 00c6 8d3e b4df 683d 8440 9d3d
000000a0: 7dab bdbe 06ac c3bd 33d0 4e3e 61f1 83be
000000b0: d1d2 63be 6c3a 733e cd67 303e 14b2 213e
000000c0: 4d45 a8be 1fb8 6a3e 4a00 9dbd ee47 973d
000000d0: d27f 963e aed6 a5be c1f2 cd3d cdae a2be
000000e0: 2b4c 973e f3a4 113e f32f 203d f82e 10be
000000f0: ea4a 223e e5cf 3abe 3899 893d 631f 973e

conv1.bias f4 [8]
-0.23929042 -0.08498971 0.06743966 0.059316013 -0.025569446 0.28311038 -0.08703789 0.091195896
00000000: 8c08 75be 160f aebd ce1d 8a3d 59f5 723d
00000010: 0477 d1bc d8f3 903e ec40 b2bd eac4 ba3d

lin_00.weight f4 [64, 8]
0.18908358 -0.09701048 0.21832822 0.22066005 0.15286197 -0.097841665 0.31175077 -0.22496979
0.09390282 0.115872994 0.27265745 -0.26733926 0.035360124 -0.18116322 0.17270246 0.15257521
-0.24135141 -0.085356005 0.059479535 0.11155586 0.34087935 0.12208699 0.112882115 0.14125459
-0.3325798 0.23433697 -0.041324172 0.19892105 0.100648895 -0.018535051 0.24740559 -0.20489383
0.09354788 0.14849667 -0.1306558 0.121802 -0.34214023 -0.18306938 0.16534191 0.17557804
-0.32261643 0.12163365 0.03304847 0.34308863 -0.3428216 -0.08376841 -0.19905263 -0.21386383
-0.05740501 -0.32303053 0.27536252 -0.124351405 0.12315343 -0.2068173 0.0018951782 -0.24899511
0.28289455 0.2964243 0.27671131 -0.12304168 0.21875237 -0.2936568 0.16127017 -0.0433836
-0.30241936 -0.2783833 -0.3201868 0.07645617 -0.14697413 -0.15150826 0.3323146 -0.09787191
0.118364185 -0.00033084332 0.23478998 0.11641793 0.20897321 0.10353794 -0.08783419 0.34371132
-0.025056953 -0.21040712 0.10937573 -0.04264988 -0.2606634 0.04597783 -0.08166452 -0.13996778
-0.191591 -0.1760009 -0.13828509 0.051699575 0.32768646 -0.18835971 -0.18712492 -0.23305278
-0.017824007 0.035053004 -0.23517887 0.16636825 -0.30851802 0.33241886 0.07109806 -0.024880234
-0.119126394 0.12538648 0.23706025 -0.24333255 -0.08618663 0.24154325 -0.049449075 -0.28436416
-0.12441407 0.04999425 -0.032092 -0.21468338 -0.24619174 0.121532045 0.22233546 0.35475913
-0.06109656 0.11842033 -0.27583945 0.20368297 0.33931005 0.2019871 -0.17598411 0.29263225
-0.33287227 -0.04217561 -0.087086506 -0.3505827 -0.20050694 -0.25607836 0.094465785 -0.029235695
0.16626108 -0.10581103 0.26820898 0.030815577 0.28958282 0.27733758 -0.31190097 -0.2549621
0.20908588 0.35568026 -0.281503 0.021048615 -0.15104042 0.34868574 0.25360098 0.27770007
0.17843741 -0.035083733 0.32512936 -0.15574832 0.0016992578 -0.083570085 -0.2852316 -0.16144921
0.085218154 -0.031358834 -0.2328336 -0.04468326 0.060701523 -0.24590866 0.2122672 -0.29881823
0.021623645 -0.345552 -0.35195172 -0.0700019 0.33526832 0.3061723 0.13716057 0.23056464
-0.19213237 0.1978769 0.21445669 -0.33590284 -0.26934496 0.15184417 0.032478258 -0.23790514
-0.2983185 0.2437405 0.046082366 0.016347243 -0.34432748 0.32772234 -0.2664604 0.16450939
-0.042255532 0.043182015 0.18300124 -0.08709358 -0.09024045 0.2898349 -0.29569405 0.17703243
-0.109599315 -0.104031116 0.255879 0.07839427 -0.3386563 0.3318923 -0.1904078 0.32264194
-0.07621664 0.3044802 0.06529972 -0.05419781 0.17292513 -0.04828608 -0.20279288 0.15390442
0.22797246 -0.04403212 0.3306025 0.022320604 -0.18587823 -0.1915351 0.23648141 -0.1423774
0.23297521 -0.3468767 0.0011179213 -0.25379077 0.11521906 0.27446276 0.14931235 -0.1317907
-0.3074105 -0.23443091 -0.25383395 0.30406728 -0.1661452 0.10622687 0.30383196 0.07884943
-0.34007713 -0.013136675 -0.07527024 0.25874785 -0.053684186 0.013113671 0.2701418 0.11563181
0.19096659 -0.071401015 0.22838111 0.03305952 -0.067190945 0.050610103 -0.25066954 0.017917616
00000000: 209f 413e 6ead c6bd 6f91 5f3e b5f4 613e
00000010: d987 1c3e 3661 c8bd cc9d 9f3e 7b5e 66be
00000020: 1f50 c03d d24e ed3d c299 8b3e b1e0 88be
00000030: c7d5 103d da82 39be ead8 303e ad3c 1c3e
00000040: d324 77be 21cf aebd d0a0 733d 6677 e43d
00000050: bd87 ae3e be08 fa3d bd2e e73d 0ba5 103e
00000060: e647 aabe 08f6 6f3e 8943 29bd f6b1 4b3e
00000070: 0221 ce3d d2d6 97bc e457 7d3e b0cf 51be
00000080: 0896 bf3d 830f 183e a2ca 05be 5473 f93d
00000090: 012d afbe 8a76 3bbe 644f 293e bbca 333e
000000a0: fb2d a5be 101b f93d d55d 073d 50a9 af3e
000000b0: 5086 afbe c68e abbd 74d4 4bbe 1fff 5abe
000000c0: 8421 6bbd 4264 a5be 51fc 8c3e f3ab febd
000000d0: de37 fc3d eac7 53be a167 f83a 93f8 7ebe
000000e0: 8ed7 903e edc4 973e 1bad 8d3e 47fd fbbd
000000f0: 9f00 603e 2f5a 96be 0224 253e 00b3 31bd
00000100: b6d6 9abe 4288 8ebe 86ef a3be 0d95 9c3d
00000110: 6380 16be fb24 1bbe 2425 aa3e 1171 c8bd
00000120: ec68 f23d 0a75 adb9 c96c 703e 866c ee3d
00000130: 13fd 553e b30b d43d 69e2 b3bd eefa af3e
00000140: 3d44 cdbc f774 57be 6200 e03d a4b1 2ebd
00000150: ac75 85be 4053 3c3d ba3f a7bd b753 0fbe
00000160: 6e30 44be 9439 34be 9b9a 0dbe efc2 533d
00000170: 85c6 a73e 5ee1 40be ad9d 3fbe 63a5 6ebe
00000180: a703 92bc bd93 0f3d bbd2 70be 705c 2a3e
00000190: 13f6 9dbe ce32 aa3e dc9b 913d a2d1 cbbc
000001a0: 8af8 f3bd 5065 003e ecbf 723e 2b2c 79be
000001b0: 9e82 b0bd 1d57 773e 1d8b 4abd 2e98 91be
000001c0: cecc febd c5c6 4c3d e772 03bd f6d5 5bbe
000001d0: b019 7cbe cbe5 f83d e8ab 633e fda2 b53e
000001e0: 6340 7abd 5c86 f23d d43a 8dbe 4592 503e
000001f0: 0cba ad3e b5d5 4e3e 2e35 34be e5d3 953e
00000200: 3c6e aabe 55c0 2cbd 695a b2bd 937f b3be
00000210: b151 4dbe b41c 83be 4777 c13d b27f efbc
00000220: 5840 2a3e 74b3 d8bd b052 893e f370 fc3c
00000230: 3344 943e 31ff 8d3e 7cb1 9fbe 648a 82be
00000240: 9c1a 563e b91b b63e 2921 90be 256e ac3c
00000250: 57aa 1abe f086 b23e fdd7 813e b42e 8e3e
00000260: 4cb8 363e f6b3 0fbd 5b77 a63e 7d7c 1fbe
00000270: a1b9 de3a cb26 abbd e009 92be f152 25be
00000280: db86 ae3d 1f72 00bd ee6b 6ebe cb05 37bd
00000290: 29a2 783d 7bcf 7bbe 935c 593e b4fe 98be
000002a0: 1224 b13c 31ec b0be 0433 b4be 285d 8fbd
000002b0: 4aa8 ab3e 9ec2 9c3e d273 0c3e 2319 6c3e
000002c0: 59be 44be 3ea0 4a3e 899a 5b3e 75fb abbe
000002d0: 95e7 89be 0a7d 1b3e ec07 053d 689d 73be
000002e0: 34bd 98be 1c97 793e ddc0 3c3d a7ea 853c
000002f0: b14b b0be 39cb a73e 7f6d 88be 2675 283e
00000300: 2314 2dbd a0df 303d ad64 3b3e 1e5e b2bd
00000310: fccf b8bd 3d65 943e 3665 97be fd47 353e
00000320: 9b75 e0bd 440e d5bd 9302 833e 2d8d a03d
00000330: 5c64 adbe caed a93e 43fa 42be 5331 a53e
00000340: 7817 9cbd d4e4 9b3e dcbb 853d 86fe 5dbd
00000350: 4913 313e a0c7 45bd f0a8 4fbe 1f99 1d3e
00000360: 9d71 693e 065b 34bd bb44 a93e b3d9 b63c
00000370: dd56 3ebe c721 44be 2f28 723e 62cb 11be
00000380: 0e91 6e3e d399 b1be 3787 923a ddf0 81be
00000390: f8f7 eb3d 6286 8c3e 56e5 183e 24f4 06be
000003a0: e964 9dbe a80e 70be 86f6 81be b5ae 9b3e
000003b0: f821 2abe 798d d93d dd8f 9b3e cf7b a13d
000003c0: 971e aebe 353b 57bc 4927 9abd 997a 843e
000003d0: f3e3 5bbd b9da 563c 0750 8a3e 5fd0 ec3d
000003e0: bf8c 433e b23a 92bd bddc 693e 6b69 073d
000003f0: 689b 89bd 8a4c 4f3d c257 80be f7c7 923c

lin_00.bias f4 [64]
0.24486385 0.09461107 0.21183549 -0.1190562 -0.22712368 -0.23995358 -0.19760889 -0.26413476
0.1858094 0.10594578 -0.22488111 0.33976543 0.10636674 0.1159717 -0.12141918 0.25996897
-0.24792525 0.24683498 -0.17427887 0.15821731 -0.12715031 0.20179556 -0.29477045 -0.051063903
-0.08732365 -0.19125468 -0.2103211 -0.098625146 0.025471719 0.2183109 -0.025763141 0.32728937
-0.16725558 -0.18094361 0.013409906 -0.10361296 0.11163935 0.32494342 0.14808401 -0.29410198
-0.120083876 -0.069825225 -0.32005027 0.0885705 0.29484737 0.16619785 -0.020702023 -0.026758133
-0.16459264 -0.039046403 0.3152571 -0.18070017 0.050470456 -0.25788343 -0.09611446 0.01947872
-0.26539707 0.07171788 -0.30181834 -0.14357822 0.21929982 0.29672274 -0.06015212 -0.25121242
00000000: 97bd 7a3e 73c3 c13d 67eb 583e bdd3 f3bd
00000010: 1c93 68be 64b6 75be fc59 4abe ac3c 87be
00000020: d244 3e3e 1afa d83d 3c47 66be bcf5 ad3e
00000030: ced6 d93d 9282 ed3d 9eaa f8bd a71a 853e
00000040: 1ee0 7dbe 4fc2 7c3e 2976 32be b803 223e
00000050: b133 02be 7fa3 4e3e 27ec 96be 6228 51bd
00000060: bed6 b2bd 44d8 43be 6a5e 57be fbfb c9bd
00000070: 11aa d03c e48c 5f3e 390d d3bc 7992 a73e
00000080: 0c45 2bbe 4849 39be 39b5 5b3c 0833 d4bd
00000090: 2ca3 e43d fc5e a63e 56a3 173e 8994 96be
000000a0: 89ee f5bd 8700 8fbd a1dd a3be 7364 b53d
000000b0: 3cf6 963e c52f 2a3e 4a97 a9bc df33 dbbc
000000c0: f98a 28be 1fef 1fbd 6169 a13e 7709 39be
000000d0: 1cba 4e3d 4c09 84be a8d7 c4bd d691 9f3c
000000e0: 20e2 87be d3e0 923d ef87 9abe 2b06 13be
000000f0: 2290 603e 0bec 973e 1262 76bd ea9e 80be

lin_01.weight f4 [10, 64]
-0.10563242 -0.01735809 -0.050066926 0.09877927 -0.08410474 0.07479898 0.023626294 -0.03779531
0.09583925 0.08275107 -0.0043462045 -0.08260535 -0.026279826 0.038676083 0.13883883 -0.03226489
-0.051642247 -0.118902326 0.10615625 0.12942804 0.0855535 -0.059045177 0.08902036 -0.026627406
0.07309304 0.09175404 -0.07318286 0.03075154 0.051803697 -0.068726644 0.11772303 0.100213625
0.10385595 -0.0011209957 -0.06503936 -0.037560668 0.04392097 -0.016472427 0.06957571 0.10407211
0.009589377 -0.10173348 0.049324363 0.117098466 -0.032791123 -0.0626603 -0.028029978 0.017803412
-0.09219983 0.0663618 0.058060728 -0.04751028 -0.042073827 -0.058962453 0.09713713 0.0805647
0.03531966 -0.0014810908 0.031042965 0.11989045 0.03983706 -0.049744383 0.047683902 -0.04931322
0.011921155 -0.12954588 0.0056243716 0.0064827525 -0.08010132 0.07988971 0.11476932 -0.103939384
0.0759645 -0.0947099 -0.024698526 0.0843465 0.012005949 0.057587743 -0.08480311 0.10254105
-0.058340784 0.03847907 -0.033905327 0.097324714 0.012689618 0.08603987 0.032017168 0.07076706
-0.004430765 0.005136598 0.07365522 -0.04048485 -0.041344635 0.101953976 0.05409343 -0.10196979
0.04419627 -0.12187297 -0.039952453 -0.020849084 0.06545942 -0.023304509 0.1909393 0.12349211
0.096898325 -0.11413168 -0.045199703 0.0028051331 0.12797618 -0.0019229169 0.027619297 0.06540566
-0.06501509 -0.07525404 0.14232665 -0.0027727876 0.082181975 -0.121169336 -0.04743164 0.11434856
-0.012030566 0.060009293 -0.104098886 0.12094999 -0.02821998 -0.011323737 -0.066858575 -0.05513289
-0.110057086 -0.10116204 -0.02951441 -0.05481177 0.08703724 -0.0006012201 0.09662766 -0.020813007
0.011256217 0.11928252 -0.09615592 -0.06025534 0.104453154 -0.0419189 -0.0047984133 0.004613725
-0.06671046 0.0075052963 -0.012201617 0.03337851 -0.026378319 -0.043212518 -0.04681123 0.030274743
0.06176108 -0.10061897 -0.055751164 -0.119258836 0.06346 0.08536896 -0.118405715 0.030269014
0.02520134 -0.06668437 0.018827148 0.11869424 0.12188728 0.047498655 -0.07802868 -0.07070412
-0.047327217 0.0010192127 -0.009125522 0.08623199 -0.11707736 0.0075857155 -0.03432704 0.010362609
0.11949794 0.0036352891 -0.027191272 -0.04211777 -0.1297701 -0.11258493 0.05414439 -0.08549746
0.070550784 -0.04404088 0.04483145 0.090712555 0.012690236 0.042465266 0.10306598 -0.039048284
0.065031394 -0.12325706 0.081505954 -0.040760547 -0.009362812 0.0697109 0.009123079 0.108658634
-0.08107521 -0.0928883 0.1109314 -0.10324487 0.05632618 0.091901064 0.07983736 -0.07212442
-0.0018369168 -0.141531 -0.088721186 -0.056846123 -0.08210131 0.04288997 0.06511365 -0.06642755
-0.04848751 0.084970936 -0.04860925 0.105545804 0.10643276 -0.06781164 -0.14567627 0.09147143
-0.06681113 0.11883095 -0.11771111 -0.00935428 0.03674118 -0.062136132 0.07564803 -0.1126674
-0.051636603 -0.019560855 0.09517218 0.027070053 0.054678112 0.027079329 0.098130666 -0.030947095
-0.038361922 -0.017063864 0.01890985 -0.036440656 0.039923288 0.034069512 0.02921847 0.0721157
0.019792184 0.05632301 -0.034645163 -0.111667864 0.044586085 0.02012092 0.07976801 0.047480594
00000000: cf55 d8bd 8e32 8ebc fa12 4dbd c94c ca3d
00000010: 1b3f acbd 3530 993d ee8b c13c 41cf 1abd
00000020: 5e47 c43d 6579 a93d 9b6a 8ebb fe2c a9bd
00000030: ca48 d7bc d06a 1e3d c42b 0e3e 3028 04bd
00000040: d286 53bd 1083 f3bd 7368 d93d c988 043e
00000050: ac36 af3d 5bd9 71bd 4e50 b63d b821 dabc
00000060: ceb1 953d 8be9 bb3d e5e0 95bd a7ea fb3c
00000070: 1d30 543d 8ec0 8cbd c618 f13d cd3c cd3d
00000080: 6eb2 d43d 60ee 92ba 5b33 85bd 37d9 19bd
00000090: 7ae6 333d 2ff1 86bc b67d 8e3d c223 d53d
000000a0: c31c 1d3c a559 d0bd 5808 4a3d 52d1 ef3d
000000b0: fc4f 06bd 0b54 80bd 209f e5bc 76d8 913c
000000c0: 44d3 bcbd b2e8 873d 16d1 6d3d 249a 42bd
000000d0: 9b55 2cbd 9d82 71bd d5ef c63d 1bff a43d
000000e0: 59ab 103d 2921 c2ba d14d fe3c 2089 f53d
000000f0: 2f2c 233d c4c0 4bbd 3250 433d a9fc 49bd
00000100: f350 433c ada7 04be a64c b83b 456d d43b
00000110: 290c a4bd 379d a33d 2d0c eb3d 2cde d4bd
00000120: 4793 9b3d 44f7 c1bd 9054 cabc dcbd ac3d
00000130: 9ab4 443c 20e1 6b3d 41ad adbd 0b01 d23d
00000140: bff6 6ebd 3b9c 1d3d 50e0 0abd 2e52 c73d
00000150: 1ee8 4f3c ac35 b03d 6f24 033d 52ee 903d
00000160: f32f 91bb e850 a83b 8cd8 963d 71d3 25bd
00000170: fe58 29bd 3fcd d03d 1391 5d3d 8ad5 d0bd
00000180: 2607 353d 8998 f9bd 2fa5 23bd b3cb aabc
00000190: 970f 863d 19e9 bebc 9885 433e 6ee9 fc3d
000001a0: a172 c63d dfbd e9bd 5323 39bd 53d6 373b
000001b0: 300c 033e 620a fcba dd41 e23c 67f3 853d
000001c0: a226 85bd ca1e 9abd 14be 113e a8b7 35bb
000001d0: 064f a83d a127 f8bd ae47 42bd 942f ea3d
000001e0: da1b 45bc 4ecc 753d cc31 d5bd a1b4 f73d
000001f0: 962d e7bc 3287 39bc 26ed 88bd 06d3 61bd
00000200: 9c65 e1bd 0b2e cfbd 34c8 f1bc 4e82 60bd
00000210: 9540 b23d 339b 1dba b9e4 c53d 0a80 aabc
00000220: ff6b 383c 654a f43d 65ed c4bd 4ece 76bd
00000230: 89eb d53d 27b3 2bbd 023c 9dbb bb2e 973b
00000240: 7e9f 88bd fdee f53b 4ae9 47bc e8b7 083d
00000250: 5817 d8bc 9cff 30bd 22bd 3fbd bd02 f83c
00000260: 30f9 7c3d 5211 cebd 555b 64bd fa3d f4bd
00000270: 51f7 813d ecd5 ae3d b27e f2bd b9f6 f73c
00000280: 0a73 ce3c d191 88bd 643b 9a3c f715 f33d
00000290: 0aa0 f93d f38d 423d 80cd 9fbd 52cd 90bd
000002a0: 2fda 41bd 1a97 853a 3783 15bc 669a b03d
000002b0: 41c6 efbd 9891 f83b 839a 0cbd efc7 293c
000002c0: 56bb f43d 083e 6e3b 3bc0 debc af83 2cbd
000002d0: 74e2 04be ee92 e6bd 82c6 5d3d 4b19 afbd
000002e0: ee7c 903d 3664 34bd 2fa1 373d 81c7 b93d
000002f0: b5ea 4f3c 0ff0 2d3d 4214 d33d 18f1 1fbd
00000300: 2e2f 853d 336e fcbd 98ec a63d 88f4 26bd
00000310: 7b66 19bc 97c4 8e3d f778 153c 6b88 de3d
00000320: c20a a6bd 393c bebd 0030 e33d 0c72 d3bd
00000330: 48b6 663d a036 bc3d c581 a33d f8b5 93bd
00000340: b3c4 f0ba 81ed 10be 74b3 b5bd 7bd7 68bd
00000350: bb24 a8bd 65ad 2f3d 4e5a 853d 2b0b 88bd
00000360: d79a 46bd 3e05 ae3d 7e1a 47bd 6628 d83d
00000370: 6bf9 d93d d4e0 8abd 292c 15be 6055 bb3d
00000380: 46d4 88bd a45d f33d 8612 f1bd b242 19bc
00000390: eb7d 163d 7582 7ebd 5bed 9a3d 2abe e6bd
000003a0: e780 53bd 163e a0bc a2e9 c23d 04c2 dd3c
000003b0: 28f6 5f3d 78d5 dd3c bbf8 c83d c384 fdbc
000003c0: 6421 1dbd 84c9 8bbc d4e8 9a3c cc42 15bd
000003d0: 9a86 233d 798c 0b3d 935b ef3c 65b1 933d
000003e0: 3823 a23c f5b2 663d 16e8 0dbd 1fb2 e4bd
000003f0: e69f 363d a1d4 a43c 695d a33d 037b 423d

lin_01.bias f4 [10]
0.018384894 -0.057253424 -0.09605635 0.08884079 -0.08043738 -0.0595443 -0.10811806 -0.07190395
0.01896651 0.03843688
00000000: eb9b 963c 9182 6abd 31b9 c4bd 29f2 b53d
00000010: 5abc a4bd b9e4 73bd 006d ddbd 6142 93bd
00000020: a85f 9b3c fd6f 1d3d
