target_model-fullModel.pth (torch, 38679 bytes, 66 tensors)

weight f4 [2, 1, 1, 1]
0	0x3ed27764	0.41106713
1	0x3f85d4ba	1.0455544

bias f4 [2]
0	0x3d37ad05	0.04484274
1	0x3d773427	0.06035247

bias f4 [2]
0	0x3dbc98f4	0.09208861
1	0x3dab2750	0.08357108

weight_g f4 [2, 1, 1, 1]
0	0x3f50a35d	0.8149927
1	0x3f40d149	0.75319344

weight_v f4 [2, 1, 3, 3]
0	0x3d61123e	0.054949038
1	0x3e6f991e	0.23398253
2	0x3e21295c	0.15738434
3	0x3eafffef	0.3437495
4	0x3d282ae7	0.04105654
5	0x3eb8523f	0.3600025
6	0x3e8f7d1c	0.28025138
7	0xbe06a474	-0.13148671
8	0x3e8c548c	0.27408254
9	0xbdafa5a0	-0.08576512
10	0xbde7cc97	-0.11318319
11	0xbe9ea846	-0.30987757
12	0x3e6c6fbe	0.23089501
13	0xbddaed25	-0.10689763
14	0xbe7d04c0	-0.24708843
15	0xbd020a86	-0.031748317
16	0x3d64e62b	0.055883568
17	0xbee428de	-0.4456243

weight f4 [2, 1, 3, 3]
0	0x3d77f2b9	0.060534213
1	0x3e8a93f1	0.27065995
2	0x3e3922fa	0.18079749
3	0x3ec8be47	0.3920767
4	0x3d3972e2	0.045275576
5	0x3ed30d8b	0.4122127
6	0x3ea4cf26	0.32189292
7	0xbe1c54d0	-0.15266728
8	0x3ea0fbd1	0.3144212
9	0xbdcb599b	-0.099292
10	0xbe054fa8	-0.13018668
11	0xbeb350b2	-0.35022503
12	0x3e84364d	0.25822678
13	0xbdfc466c	-0.123181194
14	0xbe8dd813	-0.27703914
15	0xbd1c8965	-0.038216967
16	0x3d82a11e	0.06378387
17	0xbf002da9	-0.5006967

bias f4 [2]
0	0x3d4a3bab	0.04937331
1	0x3d8b29bc	0.067950696

weight_g f4 [2, 1, 1, 1]
0	0x3f0d2de9	0.5514818
1	0x3f4a9fc7	0.7915005

weight_v f4 [2, 2, 3, 3]
0	0x3e33c32b	0.1755492
1	0x3cbf6b82	0.023366693
2	0x3e2d78d7	0.16940628
3	0x3b1f0c90	0.0024268962
4	0xbda12ea9	-0.07870228
5	0x3daec580	0.08533764
6	0x3c37cd16	0.01121833
7	0x3e836e26	0.25669974
8	0xbcce530c	-0.025186084
9	0xbd6dae00	-0.058027267
10	0x3d9c84a1	0.076424845
11	0xbe78b512	-0.24287823
12	0x3e149976	0.14511666
13	0xbdd6e7c9	-0.10493428
14	0xbe25c6ea	-0.16189161
15	0xbdd6e0ef	-0.104921214
16	0xbdb04b67	-0.08608132
17	0xbe479933	-0.19492035
18	0xbd304dba	-0.043042876
19	0x3e1a8877	0.1509112
20	0x3d958a4c	0.07301769
21	0x3eadc093	0.33935985
22	0x3e7e7130	0.24847865
23	0x3e91a04b	0.28442606
24	0x3e53821a	0.20655099
25	0x3e611398	0.2198013
26	0x3e92c692	0.28667122
27	0x3d70b484	0.058765903
28	0xbd559d48	-0.05215195
29	0xbc800777	-0.01562856
30	0xbdaae83f	-0.08345079
31	0xbca9e1f5	-0.020737628
32	0xbda196c3	-0.07890084
33	0x3d8562bc	0.06512973
34	0xbcb9f405	-0.022699365
35	0xbdbbbf9f	-0.09167408

weight f4 [2, 2, 3, 3]
0	0x3e2b9579	0.16756238
1	0x3caca030	0.021072477
2	0x3e26df2a	0.16296068
3	0x39c9b04f	0.00038469068
4	0xbd9f5dc5	-0.07781557
5	0x3da5544c	0.08072719
6	0x3c123e16	0.008925935
7	0x3e7c3687	0.24630176
8	0xbcd685f5	-0.026186923
9	0xbd6d0725	-0.05786814
10	0x3d98b710	0.074567914
11	0xbe71b2ab	-0.23603313
12	0x3e119eb3	0.14220695
13	0xbdd2c115	-0.10290734
14	0xbe1f4025	-0.15551813
15	0xbdd3d4a9	-0.10343296
16	0xbdacf5c6	-0.08445315
17	0xbe4000ef	-0.18750356
18	0xbd4f817d	-0.0506606
19	0x3e2e6485	0.17030533
20	0x3da712c1	0.08157874
21	0x3ec2b441	0.38028148
22	0x3e8e40c9	0.27783802
23	0x3ea407cd	0.32037202
24	0x3e6bce63	0.23027949
25	0x3e7bd7b7	0.24594007
26	0x3ea594d8	0.3234012
27	0x3d8ab52c	0.06772837
28	0xbd78947f	-0.060688492
29	0xbc8b98ef	-0.017040698
30	0xbdc45d54	-0.095881134
31	0xbcb0eee7	-0.021598293
32	0xbdb3e615	-0.08784119
33	0x3d99a5cc	0.07502326
34	0xbcce7c83	-0.025205856
35	0xbdd12413	-0.10211959

weight f4 [4, 2, 1, 1]
0	0x3de7e399	0.11322708
1	0xbeb11d5a	-0.34592706
2	0xbe8a3e35	-0.27000585
3	0x3f0d5c03	0.55218524
4	0xbebba088	-0.36645913
5	0xbea02eb7	-0.3128564
6	0x3f139ad4	0.57658124
7	0x3ea23bfe	0.31686395

bias f4 [4]
0	0xbbf89f37	-0.0075873393
1	0x3cd26772	0.025684092
2	0xbc39f310	-0.0113494545
3	0x3cc30f99	0.023811148

bias f4 [4]
0	0x3def71e0	0.11691642
1	0x3d2c728d	0.04210143
2	0x3ca00c75	0.01953719
3	0x3da506eb	0.0805796

weight_g f4 [4, 1, 1, 1]
0	0x3f3c1e74	0.7348397
1	0x3f2a9049	0.6662641
2	0x3f2c9365	0.67412406
3	0x3f21265c	0.62949157

weight_v f4 [4, 2, 3, 3]
0	0x3d2a4e30	0.04157847
1	0x3d3b5eb2	0.045744605
2	0x3e05b15d	0.1305594
3	0x3debe84a	0.11518915
4	0xbd528f68	-0.051406294
5	0x3e066bee	0.1312711
6	0xbdc7db15	-0.097585835
7	0xbdb1a6d5	-0.08674399
8	0x3db4f1b6	0.08835165
9	0x3b4b9647	0.0031064914
10	0x3d7d466d	0.06183474
11	0x3e88237e	0.26589578
12	0xbe065c97	-0.13121258
13	0xbe13a255	-0.14417394
14	0x3e58c6e5	0.21169622
15	0x3d5b2fd0	0.053512394
16	0xbda2a182	-0.079409614
17	0x3e33ab92	0.17545918
18	0x3e33089e	0.17483756
19	0x3d9d4619	0.07679386
20	0xbd81a43e	-0.06330155
21	0x3e816109	0.25269344
22	0x3d9fb64b	0.077984415
23	0x3d7e8301	0.062136654
24	0x3e322c8a	0.17399803
25	0xbd8fe958	-0.07026929
26	0x3d52376d	0.05132239
27	0x3d588479	0.05286071
28	0x3d9aaa75	0.07552043
29	0x3d3f39f4	0.046686128
30	0x3e8ac367	0.27102205
31	0x3e0ed37a	0.1394786
32	0xbd519eb1	-0.05117673
33	0x3c4b9602	0.012425901
34	0x3d721716	0.059104048
35	0x3d4d53bf	0.050128695
36	0xbd823589	-0.06357867
37	0x3dcc121d	0.09964392
38	0x3dad9843	0.08476307
39	0xbd1060cc	-0.035248563
40	0x3dc0c063	0.09411695
41	0x3d86d288	0.065831244
42	0xbc500145	-0.012695615
43	0x3b83b0de	0.004018887
44	0xbd1a8a65	-0.03772964
45	0x3e626d7d	0.22112079
46	0x3e8e3189	0.27772167
47	0x3e81c5b6	0.25346154
48	0x3e4d13f4	0.20027143
49	0x3dbd64e3	0.09247758
50	0x3e00bce4	0.12572056
51	0x3cda9348	0.026681557
52	0x3c6bd593	0.014394182
53	0xbd83497a	-0.06410499
54	0x3a60bac3	0.00085727515
55	0x3d18177e	0.03713178
56	0xbd8cb3fb	-0.06870266
57	0xbe0af41f	-0.13569687
58	0xbde6b788	-0.112654746
59	0xbdba45ad	-0.09095321
60	0x3dd9e996	0.10640256
61	0xbc21773e	-0.00985509
62	0xbe4059ec	-0.18784302
63	0xbdc3e6db	-0.095655166
64	0x3e468b70	0.19389129
65	0xbda9e7b1	-0.08296145
66	0xbd2b4da4	-0.04182209
67	0xbd2eb1c7	-0.04265001
68	0xbdc65036	-0.09683268
69	0xbcc731a6	-0.024315666
70	0xbd3bb328	-0.045825154
71	0x3d309fdb	0.0431212

weight f4 [4, 2, 3, 3]
0	0x3d740556	0.0595754
1	0x3d81eb8a	0.06343754
2	0x3e37930a	0.17927185
3	0x3e274ddb	0.16338293
4	0xbd97e4a6	-0.07416658
5	0x3e3cb06a	0.18426672
6	0xbe0b355c	-0.13594574
7	0xbdfcc960	-0.12343097
8	0x3e00f464	0.12593228
9	0x3b48e31a	0.0030652941
10	0x3dad8316	0.08472268
11	0x3ebc2ba1	0.36752036
12	0xbe3c0705	-0.18362053
13	0xbe502be5	-0.20329244
14	0x3e956eec	0.2918619
15	0x3d9f1916	0.07768457
16	0xbde0bae1	-0.10973144
17	0x3e7c7583	0.24654202
18	0x3e680ad3	0.22660379
19	0x3dcf24f6	0.101144716
20	0xbdaa2079	-0.08306975
21	0x3ea7d29f	0.3277788
22	0x3dd0b41d	0.10190604
23	0x3da7df1b	0.08196851
24	0x3e682703	0.22671132
25	0xbdbd9065	-0.09256057
26	0x3d8afd76	0.06786625
27	0x3d85a638	0.06525844
28	0x3dc3aee4	0.09554842
29	0x3d7b2886	0.061317943
30	0x3eb1425a	0.34620935
31	0x3e36d379	0.17854108
32	0xbd89dd27	-0.067316346
33	0x3c5c2df3	0.0134386895
34	0x3d9bc4f8	0.07605928
35	0x3d842f62	0.0645435
36	0xbda5873e	-0.08082436
37	0x3dfeeac9	0.124471255
38	0x3dda206c	0.10650715
39	0xbd3bc3fc	-0.045841202
40	0x3de9f69b	0.114239894
41	0x3da70372	0.08154954
42	0xbc8ef937	-0.01745282
43	0x3bbeb6cc	0.005820131
44	0xbd43e331	-0.04782409
45	0x3e8a5d27	0.27024195
46	0x3eb01e54	0.3439814
47	0x3ea0daa5	0.31416813
48	0x3e7b2719	0.24526633
49	0x3de48bc4	0.11159471
50	0x3e1da5ad	0.15395232
51	0x3d08a851	0.033363644
52	0x3c9751e0	0.018471658
53	0xbda1a871	-0.07893456
54	0xb8811e8b	-6.1568884e-05
55	0x3d5c66ce	0.05380898
56	0xbdde34e7	-0.10849934
57	0xbe58fe99	-0.21190871
58	0xbe34fca7	-0.17674504
59	0xbe125185	-0.1428891
60	0x3e2a2583	0.16615872
61	0xbc8543b4	-0.016267635
62	0xbe958857	-0.29205582
63	0xbe19250e	-0.14955541
64	0x3e96fe92	0.29491097
65	0xbe04be27	-0.12963162
66	0xbd887738	-0.06663364
67	0xbd8d4529	-0.06897957
68	0xbe19f752	-0.15035751
69	0xbd17bb0e	-0.037043624
70	0xbd92fe98	-0.07177466
71	0x3d8d3cd7	0.0689637

bias f4 [4]
0	0xbcfa3c4c	-0.03054633
1	0x3a08d5bb	0.00052198366
2	0xbcb45174	-0.022011496
3	0xb9db0528	-0.00041774777

weight_g f4 [4, 1, 1, 1]
0	0x3efce3f9	0.4939268
1	0x3f3c37e3	0.73522776
2	0x3f035957	0.51308197
3	0x3f35133a	0.7073246

weight_v f4 [4, 4, 3, 3]
0	0xbd127ab2	-0.035761543
1	0xbe13e5c1	-0.14443113
2	0x3d4c95f4	0.049947694
3	0xbd55d1fc	-0.05220221
4	0xbd8b2f83	-0.067961715
5	0xbe2b6b20	-0.16740084
6	0x3d30cdff	0.043165203
7	0x3d9d6d47	0.076868586
8	0x3df7b37a	0.12094779
9	0xbdbfce86	-0.09365563
10	0x3c8f5e6a	0.017501075
11	0xbced4940	-0.028965592
12	0xbe0aed10	-0.13566995
13	0xbe133948	-0.1437732
14	0x3dcb6bcb	0.09932669
15	0xbdf8d3cb	-0.12149771
16	0x3e14d30b	0.14533632
17	0x3d434311	0.04767138
18	0x3c97062a	0.018435556
19	0x3d7b8771	0.061408464
20	0x3d248214	0.040163115
21	0x3d38a972	0.04508347
22	0x3d5e0fb3	0.05421419
23	0xbdb684a1	-0.08912016
24	0xbdeed8e1	-0.1166246
25	0xbd4d0357	-0.050052013
26	0x3da90ac4	0.082540065
27	0x3e1965ac	0.14980191
28	0x3e22e7f1	0.15908791
29	0xbd9747f8	-0.07386774
30	0xbd1ba264	-0.037996665
31	0xbe0ecec1	-0.13946058
32	0x3e090dc9	0.13384165
33	0xbe15d8f6	-0.14633545
34	0xbdd80c38	-0.105492055
35	0x3e291a11	0.1651385
36	0xbd4725ba	-0.048619963
37	0xbd1c65c2	-0.03818298
38	0x3cb4c7a9	0.022067862
39	0xbe0d0e7a	-0.13775054
40	0x3d89dd7a	0.067316964
41	0xbaff6d34	-0.0019487501
42	0x3d32cd42	0.04365278
43	0x3e06658c	0.13124675
44	0x3dfde7b3	0.12397709
45	0x3de128d2	0.10994114
46	0x3daae763	0.08344915
47	0xbb5ff28d	-0.003417167
48	0x3e68db38	0.22739875
49	0x3e259dcb	0.16173474
50	0xbd6ed236	-0.05830594
51	0x3e28a800	0.16470337
52	0x3dd9a066	0.10626297
53	0x3a1fc467	0.0006094635
54	0x3d8d0654	0.068859726
55	0xbe05ae8b	-0.13054864
56	0xbe0554af	-0.13020585
57	0x3e068cb1	0.13139607
58	0x3d9986b2	0.07496394
59	0x3d8e75be	0.06956051
60	0x3d17222c	0.036897823
61	0x3e450be9	0.19242825
62	0x3e8ce3a6	0.27517432
63	0xbc2fe403	-0.010735515
64	0x3bffdebb	0.007808534
65	0xbd816219	-0.06317539
66	0xbcacb189	-0.02108075
67	0xbcbd2c01	-0.023092272
68	0xbc3e85fd	-0.011628625
69	0xbc40e789	-0.011773952
70	0xbcc0620c	-0.023484252
71	0xbc17bfda	-0.00926205
72	0xbdeb613c	-0.11493155
73	0xbe244100	-0.1604042
74	0xbd362c9f	-0.044476148
75	0xbccdcbda	-0.025121618
76	0xbd06a054	-0.032867745
77	0x3decbcec	0.115594715
78	0x3d684eed	0.056715894
79	0x3dcc8b98	0.09987563
80	0x3d6b5566	0.05745449
81	0x3be1133a	0.006868747
82	0x3da23687	0.079205565
83	0xbe092183	-0.1339169
84	0x3d8c480b	0.068496786
85	0x3d5e1ad0	0.05422479
86	0xbdca02bb	-0.09863802
87	0xbcd38234	-0.025818922
88	0xbe10a183	-0.14124112
89	0xbe3222fb	-0.17396156
90	0xbc5ca2ec	-0.013466578
91	0x3cac89f0	0.021061867
92	0xbcff7338	-0.03118287
93	0x3d259532	0.040425487
94	0xbe198612	-0.1499255
95	0xbdc96d9b	-0.09835359
96	0x3dbc8f8a	0.092070654
97	0xbe33d875	-0.1756304
98	0x3caba614	0.020953216
99	0x3e165135	0.14679416
100	0x3e081b7f	0.13291739
101	0x3d9ecde4	0.07754114
102	0xbe37d682	-0.17952922
103	0x3863bb68	5.4295553e-05
104	0xbdb4e6f0	-0.0883311
105	0xbd8dc044	-0.069214374
106	0x3e13e297	0.14441906
107	0xbdb57e71	-0.088620074
108	0xbde69918	-0.11259669
109	0xbd808921	-0.06276155
110	0x3dbd423d	0.092411496
111	0xbd9aa767	-0.07551461
112	0x3d81e313	0.06342139
113	0x3d8b83db	0.06812259
114	0xbe0a7eda	-0.13524953
115	0x3d8eb184	0.06967452
116	0x3e173ec8	0.14770043
117	0x3e27307f	0.16327094
118	0x3dbb8e57	0.091580085
119	0xbd2a477d	-0.041572083
120	0x3d44d0e3	0.048050772
121	0x3e08091d	0.13284726
122	0xbd5afe64	-0.053465262
123	0x3e0f23ef	0.13978551
124	0x3da77531	0.08176649
125	0x3d305597	0.043050375
126	0x3d9bd73b	0.07609411
127	0xbdfeb91c	-0.124376506
128	0xbddab77e	-0.106795296
129	0x3e5e64a3	0.21718077
130	0x3dcee44a	0.101021364
131	0x3e0cbb56	0.13743338
132	0x3d7a6037	0.061126914
133	0x3e42c3ac	0.19019955
134	0x3dcbad56	0.099451706
135	0xbc24439b	-0.010025884
136	0x3a9831c7	0.0011611514
137	0xbd82eb5e	-0.06392549
138	0xbc18b131	-0.0093195895
139	0xbc8469e3	-0.016163772
140	0xbbfd75f5	-0.007735009
141	0xbc0457d8	-0.008077584
142	0xbc6e40c3	-0.014541808
143	0xbcaeb1de	-0.021325048

weight f4 [4, 4, 3, 3]
0	0xbcf0781a	-0.029354144
1	0xbdefddc2	-0.11712219
2	0x3d229953	0.039697003
3	0xbd2ca6ee	-0.042151384
4	0xbd6169e2	-0.05503262
5	0xbe0b13e1	-0.13581802
6	0x3d0e5de8	0.034757525
7	0x3d7d4b73	0.061839532
8	0x3dc79c74	0.09746638
9	0xbd9b846b	-0.07593616
10	0x3c629ae2	0.013830872
11	0xbcc2f3c5	-0.023797879
12	0xbde0b806	-0.109726
13	0xbdeeb898	-0.11656302
14	0x3da52a7b	0.08064743
15	0xbdca4059	-0.098755546
16	0x3defeeb5	0.11715452
17	0x3d1cdf77	0.03829905
18	0x3c6fe8c9	0.014642903
19	0x3d49c01f	0.049255487
20	0x3d039af4	0.032130197
21	0x3d1566fe	0.036475174
22	0x3d343c4d	0.04400282
23	0xbd9372d4	-0.07199636
24	0xbdc0f28c	-0.09421262
25	0xbd24f8bd	-0.040276278
26	0x3d884a92	0.06654848
27	0x3df73d60	0.12072253
28	0x3e03960f	0.12850212
29	0xbd755071	-0.059891168
30	0xbcfdc82a	-0.030979235
31	0xbde71be7	-0.11284619
32	0x3dddcdc4	0.10830262
33	0xbdf24fb8	-0.118316114
34	0xbdaec147	-0.085329585
35	0x3e092219	0.13391913
36	0xbd62f946	-0.055413507
37	0xbd338aed	-0.04383366
38	0x3cd0854f	0.025454191
39	0xbe263d5a	-0.16234341
40	0x3da764fc	0.08173558
41	0xbb6cf69a	-0.0036157728
42	0x3d58c2df	0.05292022
43	0x3e1f1d59	0.15538539
44	0x3e15a6e2	0.14614442
45	0x3e0263b6	0.12733349
46	0x3dcc0f37	0.099638395
47	0xbb2a108c	-0.0025949804
48	0x3e88d73a	0.26726705
49	0x3e43d3b2	0.19123724
50	0xbd8ff4ea	-0.070291355
51	0x3e45c747	0.193143
52	0x3e0110a7	0.12604009
53	0xb9e3aa53	-0.00043423715
54	0x3da86c90	0.08223832
55	0xbe1da873	-0.1539629
56	0xbe1cf9f7	-0.15329729
57	0x3e1cd084	0.15313917
58	0x3db396e9	0.08769018
59	0x3da5db0a	0.08098419
60	0x3d293a59	0.04131541
61	0x3e66f719	0.22555198
62	0x3ea684e5	0.32523265
63	0xbc3407d7	-0.010988197
64	0x3c26907f	0.0101662865
65	0xbd988ead	-0.07449088
66	0xbcd314ea	-0.025766809
67	0xbce147e8	-0.027500108
68	0xbc479327	-0.01218108
69	0xbc40c0ce	-0.011764718
70	0xbce11c01	-0.027479174
71	0xbc19c8b5	-0.009386231
72	0xbdc95285	-0.098301925
73	0xbe0cafb8	-0.13738906
74	0xbd1bed00	-0.038067818
75	0xbcaf3a86	-0.02139021
76	0xbce660c0	-0.028122306
77	0x3dcb0fe1	0.09915138
78	0x3d475158	0.04866156
79	0x3daf4828	0.085586846
80	0x3d49ea04	0.04929544
81	0x3bc55135	0.0060216435
82	0x3d8b5748	0.06803757
83	0xbdeab9c1	-0.11461211
84	0x3d70b49e	0.058766
85	0x3d3e9233	0.046526145
86	0xbdacfa4a	-0.08446176
87	0xbcb5c79d	-0.02218991
88	0xbdf81179	-0.12112708
89	0xbe18a757	-0.14907585
90	0xbc3a093f	-0.0113547435
91	0x3c957425	0.018243859
92	0xbcd9e18e	-0.02659681
93	0x3d0e563c	0.03475021
94	0xbe038622	-0.12844136
95	0xbdac7b9d	-0.08422015
96	0x3da19e4b	0.0789152
97	0xbe1a2372	-0.15052584
98	0x3c9369dc	0.017994814
99	0x3e00abc1	0.12565519
100	0x3de93afc	0.113882035
101	0x3d8796d7	0.06620567
102	0xbe1d8237	-0.15381704
103	0x38fa200e	0.000119268996
104	0xbd9ae02f	-0.07562291
105	0xbd727992	-0.05919797
106	0x3dfd8dfe	0.123805985
107	0xbd9b59e4	-0.07585505
108	0xbe0ba841	-0.13638403
109	0xbd9d5987	-0.076830916
110	0x3deafe73	0.114743136
111	0xbdb9d6c4	-0.090741664
112	0x3da278f3	0.079332255
113	0x3dae9634	0.08524743
114	0xbe29b612	-0.1657336
115	0x3dabf9cb	0.083972536
116	0x3e394eea	0.1809651
117	0x3e490e8c	0.19634455
118	0x3de4e05c	0.11175606
119	0xbd4f3c90	-0.050594866
120	0x3d65340c	0.05595784
121	0x3e251681	0.16121866
122	0xbd887f60	-0.0666492
123	0x3e2bfd2d	0.16795798
124	0x3dcaceb4	0.09902707
125	0x3d56d848	0.052452356
126	0x3dbbe78e	0.09175025
127	0xbe1bf8c1	-0.15231611
128	0xbe050cec	-0.1299321
129	0x3e87ebfc	0.2654723
130	0x3dfb7403	0.12277987
131	0x3e2c05d0	0.16799092
132	0x3d93ddca	0.07220037
133	0x3e6c2c81	0.23063852
134	0x3df4361a	0.119243816
135	0xbc2b4551	-0.010453538
136	0x3b659dbd	0.0035036646
137	0xbda1275f	-0.078688376
138	0xbc1e8792	-0.009675877
139	0xbc8cd7f1	-0.017192813
140	0xbc0462e8	-0.008080222
141	0xbc02a587	-0.007974035
142	0xbc80e04d	-0.015731955
143	0xbce1a426	-0.027544092

weight f4 [8, 4, 1, 1]
0	0xbedb3e14	-0.428208
1	0x3e841eaf	0.2580466
2	0x3ed27b4a	0.41109687
3	0x3ee566d4	0.44805014
4	0x3d858172	0.0651883
5	0x3e57e59e	0.21083686
6	0x3ee48c53	0.4463831
7	0x3de5123f	0.11185121
8	0xbe75b944	-0.23996454
9	0xbef8a71e	-0.48565
10	0x3e5e88ef	0.21731924
11	0x3e3886dd	0.18020196
12	0x3ee22a27	0.44172785
13	0xbe84e426	-0.25955313
14	0x3e5a9f32	0.2134979
15	0xbe2d530a	-0.16926208
16	0xbe10cb76	-0.14140114
17	0x3ea077d1	0.31341413
18	0xbee0f293	-0.4393507
19	0x3ec49b4d	0.38399735
20	0x3e6cbab8	0.23118103
21	0xbe9c9d32	-0.3058868
22	0x3e81ddf3	0.25364646
23	0xbe090ba4	-0.13383347
24	0x3d4bcc7d	0.049755562
25	0xbe316774	-0.1732462
26	0xbefdf1c3	-0.49598512
27	0xbdcbc49a	-0.09949608
28	0x3e708fb7	0.23492323
29	0xbd9078e6	-0.070543095
30	0xbe7b0e02	-0.24517062
31	0x3b2ea941	0.0026651176

bias f4 [8]
0	0x3c8505bf	0.016238092
1	0x3cde1343	0.027108794
2	0xbc8ddd62	-0.017317478
3	0xbc149959	-0.009069764
4	0x3ccba993	0.024861133
5	0xbc305c5e	-0.01076421
6	0x3c22fd1b	0.00994804
7	0xbbb33446	-0.005468878

bias f4 [8]
0	0x3d3af3af	0.04564255
1	0x3d26377c	0.040580258
2	0x3d011dce	0.031522565
3	0x3ca06db6	0.019583564
4	0xbbf64e21	-0.007516638
5	0x3d9f9693	0.07792392
6	0x3cab9f0e	0.020949867
7	0xbb109d08	-0.0022066254

weight_g f4 [8, 1, 1, 1]
0	0x3f368dba	0.7131001
1	0x3f32718f	0.69704527
2	0x3f37c718	0.7178817
3	0x3f4e462c	0.80575824
4	0x3f32397a	0.6961895
5	0x3f2bd511	0.6712199
6	0x3f2e5a15	0.68106204
7	0x3f2a3c8d	0.66498643

weight_v f4 [8, 4, 3, 3]
0	0x378fb5aa	1.7131522e-05
1	0xba944028	-0.0011310624
2	0x39b06b90	0.00033649476
3	0x3a1949b6	0.00058474706
4	0x3b028ee9	0.0019921607
5	0x3abb6ab5	0.0014298769
6	0xb98094cd	-0.00024524928
7	0x3ae83c78	0.0017718216
8	0xba9342d7	-0.001123513
9	0xbd0d5ef1	-0.03451437
10	0x3e001ad7	0.12510239
11	0xbd5fe238	-0.0546591
12	0xbcc3eab7	-0.023915632
13	0xbc338528	-0.01095704
14	0x3a9fa4f8	0.0012179902
15	0x3e0fdaa8	0.14048254
16	0x3e8b5b2b	0.27217993
17	0x3c7f624a	0.015587399
18	0xbb9a996c	-0.0047179963
19	0x39d1b350	0.00039997185
20	0x39964f2e	0.00028669223
21	0x3a076fbf	0.0005166493
22	0x3a1807ee	0.00057995215
23	0xb9acda5c	-0.00032969087
24	0x3a4ca005	0.0007805827
25	0x3a514e4e	0.00079843856
26	0xb84d1131	-4.889182e-05
27	0xbd518e5a	-0.051161148
28	0x3e1da19f	0.15393685
29	0xbd9174e4	-0.07102373
30	0xbd5d1830	-0.053978145
31	0x3db8e122	0.09027316
32	0x3cb3d7ba	0.021953452
33	0x3e1a44f5	0.15065368
34	0x3e1c37fe	0.15255734
35	0x3d9ee2c8	0.07758099
36	0xba520c66	-0.0008012712
37	0x3986b061	0.00025689884
38	0xb8276ae5	-3.9915456e-05
39	0xb739cc95	-1.1074492e-05
40	0x3ae46866	0.0017426133
41	0x38445091	4.6805075e-05
42	0xbabbe9fd	-0.0014336702
43	0x38b19717	8.4681604e-05
44	0xbb18385b	-0.002322695
45	0x3dfe2851	0.124100335
46	0x3d1d5e9a	0.038420297
47	0x3e121dae	0.14269134
48	0x3d27573e	0.040854685
49	0x3d7c112d	0.061539818
50	0x3c7c5e3e	0.015403328
51	0x3ca25c57	0.019819422
52	0xbe273878	-0.16330135
53	0xbe2bc18e	-0.16773054
54	0xbabd2f8b	-0.0014433725
55	0xb9f1e04a	-0.0004613421
56	0xb9988e6a	-0.00029097806
57	0xbb3bfa14	-0.0028682994
58	0xbc3f06a1	-0.011659295
59	0xb9855c93	-0.0002543671
60	0xbc673e16	-0.014113924
61	0x391d0c0e	0.00014977177
62	0x39de21bb	0.0004236827
63	0xbb87cf0f	-0.0041445564
64	0x3e613588	0.21993077
65	0x3d641f45	0.055693883
66	0x3e27b8d1	0.16379096
67	0x3ca81021	0.020515503
68	0x3d7e871f	0.06214058
69	0x3e328ae1	0.1743579
70	0xbe0c5c47	-0.13707076
71	0xbdfce13d	-0.12347648
72	0xbb4156e0	-0.0029501244
73	0xbccf75f7	-0.025324805
74	0xbbb3d82a	-0.0054884152
75	0x3b899ddd	0.004199727
76	0x3d172cac	0.036907837
77	0x3b0a8e18	0.0021141823
78	0xbb00595a	-0.0019584508
79	0x3c11232d	0.008858484
80	0xbb104b4f	-0.0022017544
81	0x3e7f18f4	0.24911863
82	0x3e4102e4	0.18848759
83	0x3e73f248	0.23822892
84	0xba4af4ec	-0.00077421847
85	0x3cd53e3c	0.026030652
86	0x3ca4d17b	0.02011942
87	0x3d00390d	0.031304408
88	0xbe46b7c7	-0.19406043
89	0x3d903349	0.07041032
90	0xb8572402	-5.129353e-05
91	0xba5952cc	-0.0008290231
92	0xbd043abe	-0.032282583
93	0xbb3ea1fa	-0.0029088245
94	0x39b8e7e5	0.0003526799
95	0x3bf6b550	0.0075289384
96	0x38b8ff03	8.821303e-05
97	0xb979a348	-0.00023807317
98	0xb9a9b95e	-0.000323723
99	0x3dbe6e89	0.09298427
100	0x3d58e3c2	0.05295158
101	0x3a44d9ac	0.0007509242
102	0x3e5aaedb	0.21355765
103	0xbcf8bcf7	-0.030363543
104	0x3e1765d9	0.14784946
105	0xbc538325	-0.012909685
106	0xbd301906	-0.042992614
107	0x3ddb4558	0.10706586
108	0xbaef934c	-0.0018278151
109	0xbba1f94c	-0.0049430486
110	0xb9a6df1e	-0.00031828223
111	0x3b9b14c6	0.004732701
112	0x381cf343	3.7419853e-05
113	0xb87ef131	-6.0782946e-05
114	0xbad836bb	-0.0016495803
115	0xbbba5bd7	-0.0056872177
116	0x39a403ef	0.00031283448
117	0x3e484d37	0.19560705
118	0x3d997b7a	0.074942544
119	0x3dd3cbe8	0.103416264
120	0x3d8e66fc	0.069532365
121	0x3e4b382f	0.19845651
122	0x3e3bd8e2	0.18344453
123	0xbccf0458	-0.025270626
124	0x3cc545de	0.024081167
125	0x3e4665e5	0.19374807
126	0xbba8f98e	-0.0051567024
127	0x3abc59f7	0.0014370073
128	0xbba1d228	-0.0049383827
129	0x3a980009	0.001159669
130	0xb9fe276b	-0.00048476024
131	0x384cc5be	4.8821552e-05
132	0xba8e10e1	-0.001083877
133	0xb9a2c825	-0.00031048167
134	0x3b9a5f6b	0.0047110817
135	0x3dfbbab6	0.12291472
136	0xbd51e3f4	-0.051242784
137	0xbd0a9a48	-0.03383854
138	0x3e834d1e	0.25644773
139	0x3d5d66c6	0.05405309
140	0x3e2e7195	0.17035516
141	0xbc1fb4aa	-0.0097476635
142	0x3cc74ff6	0.02433012
143	0x3e1bbce8	0.15208781
144	0xba1e2957	-0.0006033382
145	0x390d60f1	0.00013482921
146	0x3b9e0420	0.004822269
147	0x37c70e95	2.3729439e-05
148	0xbbb20539	-0.0054327515
149	0xbc810862	-0.015751068
150	0x39ab9d82	0.00032733014
151	0xbb5554d5	-0.0032551785
152	0xb80a6848	-3.2998883e-05
153	0x3d94bdc0	0.072627544
154	0x3e298bf8	0.165573
155	0x3e74982f	0.23886178
156	0xbd25bde8	-0.04046431
157	0xbb324e2d	-0.002720724
158	0xbbc8a85e	-0.0061235866
159	0x3d8ec25b	0.06970664
160	0x3ddea345	0.10870985
161	0x3d1e2c42	0.038616426
162	0xbb0e100a	-0.002167704
163	0xbaa255fc	-0.0012385244
164	0xbab2f9bf	-0.0013654752
165	0x3b9c734a	0.0047744857
166	0xbb9bce7b	-0.004754839
167	0x3aa70af2	0.0012744351
168	0xb97ac809	-0.00023916377
169	0x3a2987f4	0.0006467097
170	0x371774d7	9.027505e-06
171	0x3df71fdf	0.12066626
172	0x3dab3201	0.08359147
173	0x3e7f08f7	0.24905764
174	0xbe22e6d0	-0.1590836
175	0x3c7a4929	0.015276232
176	0xbc16fd00	-0.009215593
177	0x3d170442	0.036869295
178	0x3df21a45	0.11821417
179	0x3bfcd53b	0.0077158487
180	0x3c338136	0.010956099
181	0xbc4b9446	-0.012425488
182	0x3a88d22f	0.0010438616
183	0xbaf32475	-0.0018550294
184	0x397dd4e3	0.00024207267
185	0xbce329fb	-0.027729979
186	0x3b1c93b1	0.0023891742
187	0xbc27ddf7	-0.010245792
188	0xbaa455ac	-0.0012537739
189	0xbc5607a3	-0.013063344
190	0x3e3ed861	0.1863723
191	0xbe051d59	-0.12999476
192	0xbc92c3e7	-0.01791568
193	0x3da5aab8	0.08089203
194	0x3d5548bd	0.05207132
195	0xbd30216f	-0.043000635
196	0x3ddbe498	0.1073696
197	0x3d8ca239	0.06866879
198	0xbacfa5df	-0.001584228
199	0xbb60ba43	-0.0034290708
200	0x389ba999	7.422566e-05
201	0x399114f2	0.0002767216
202	0x39bc4f4c	0.00035917235
203	0x39f4a93b	0.00046665393
204	0x3ae9b4ae	0.0017830336
205	0x399f19d5	0.0003034609
206	0x3acb446a	0.001550806
207	0xbd024204	-0.03180124
208	0x3e45f753	0.19332628
209	0xbdd1dd2b	-0.102472626
210	0xbd5dff06	-0.054198287
211	0xbc2a51ea	-0.010395506
212	0xbda112db	-0.078649245
213	0x3b4decc7	0.0031421648
214	0xbd118c0d	-0.035533953
215	0x3d061b62	0.032740958
216	0x3a89d64d	0.0010516137
217	0xba2ac096	-0.0006513683
218	0xb9f0cbdb	-0.0004592825
219	0xb81c3bc4	-3.724896e-05
220	0x39c56753	0.0003765175
221	0xbb841058	-0.0040302686
222	0xba7be208	-0.00096085714
223	0x3ac2678c	0.0014831885
224	0x39fd2ddd	0.0004829009
225	0xbcced36a	-0.025247294
226	0x3ce7665e	0.028247055
227	0x3c863ad0	0.016385466
228	0x3d3aafec	0.04557793
229	0x3de3210a	0.11090286
230	0x3c977149	0.018486636
231	0x3c9748e7	0.01846738
232	0x3e2a791b	0.1664776
233	0xbdcaa634	-0.09894982
234	0x3a2acbcd	0.0006515354
235	0x3a03b161	0.0005023685
236	0xb9d1ee14	-0.00040040968
237	0xbade7959	-0.001697342
238	0xb9c31d63	-0.00037215193
239	0x3caf1484	0.021372087
240	0xbc3de00e	-0.011589063
241	0x3c5fc5f2	0.013658034
242	0x3b027101	0.0019903781
243	0x39b91524	0.000353017
244	0x3cf7ec06	0.030263912
245	0xbd2bd99e	-0.041955583
246	0x3d6b4748	0.057441026
247	0x3e477f67	0.19482194
248	0xbb59b078	-0.0033216756
249	0xbca69080	-0.020332575
250	0x3e5bc652	0.21462372
251	0xbd52ac11	-0.051433627
252	0x3a297a99	0.0006465107
253	0x3aef99f7	0.0018280138
254	0x38dd723a	0.000105593776
255	0xba101507	-0.00054962974

weight f4 [8, 4, 3, 3]
0	0x39aea6bf	0.00033312102
1	0xbac1418f	-0.001474427
2	0x398258bc	0.00024861644
3	0x39fc10c9	0.00048077691
4	0x3b4e617e	0.0031491215
5	0x3ac26c08	0.0014833221
6	0xb9d6f122	-0.0004099692
7	0x3b6d2511	0.0036185423
8	0xbad0dea5	-0.0015935494
9	0xbd56522a	-0.05232445
10	0x3e4863bf	0.195693
11	0xbda95582	-0.082682624
12	0xbd0f6949	-0.035012517
13	0xbca618e8	-0.020275548
14	0x3b16fcbd	0.0023038827
15	0x3e61e033	0.22058181
16	0x3ed82560	0.42216015
17	0x3cbb39a3	0.022854632
18	0xbbd06b0c	-0.006360417
19	0xb81a7b45	-3.6831265e-05
20	0xb9914f17	-0.00027715482
21	0x3a0a618b	0.0005278817
22	0x39b67c70	0.00034806458
23	0x39546a43	0.00020257481
24	0x3aa63bc9	0.0012682612
25	0x3ab59af7	0.0013855387
26	0xb9b875da	-0.0003518302
27	0xbda2d25a	-0.079502776
28	0x3e76bdfc	0.24095911
29	0xbddeb42c	-0.10874209
30	0xbdadd4e3	-0.084878705
31	0x3e0c8a40	0.13724613
32	0x3d11c584	0.035588756
33	0x3e715d11	0.23570658
34	0x3e6f6955	0.23380025
35	0x3df9331b	0.12167951
36	0xba9f361a	-0.0012146861
37	0x3960dd7a	0.00021444811
38	0xb9b4961b	-0.00034444113
39	0x38962db1	7.161068e-05
40	0x3b9332b3	0.004492128
41	0xb90e8e1d	-0.00013595117
42	0xb9ab53ad	-0.00032678005
43	0x3b02e275	0.0019971405
44	0xbb511052	-0.0031900597
45	0x3e2fa2c2	0.17151931
46	0x3d51eb60	0.05124986
47	0x3e4cec1d	0.20011945
48	0x3d60e0c4	0.054901853
49	0x3db127a4	0.08650139
50	0x3cb2982f	0.021801082
51	0x3cd99658	0.026560947
52	0xbe6a265c	-0.22866195
53	0xbe718a56	-0.23587927
54	0xbaabb760	-0.0013100915
55	0xba91f3df	-0.0011135301
56	0xba91f82d	-0.0011136584
57	0xbb2a87f0	-0.0026020966
58	0xbc9ad565	-0.018900583
59	0xba129f76	-0.00055932195
60	0xbcb796c7	-0.022410763
61	0x3a5a9f87	0.00083398115
62	0x39dcb24e	0.00042094517
63	0xbc0f71a0	-0.008755118
64	0x3e9da9f0	0.30793715
65	0x3d9c1562	0.07621266
66	0x3e6d5306	0.23176202
67	0x3ce032c3	0.027367955
68	0x3db5ee52	0.088833466
69	0x3e7d2007	0.24719249
70	0xbe43948d	-0.19099636
71	0xbe2ffc66	-0.17186126
72	0xbb94f393	-0.004545638
73	0xbd12427e	-0.035707943
74	0xbbddf062	-0.0067730406
75	0x3b9195a2	0.0044428864
76	0x3d510c54	0.051037148
77	0x3ab0c55d	0.0013486553
78	0xbb31567e	-0.002705961
79	0x3c615b01	0.013754607
80	0xbb2ad396	-0.0026066056
81	0x3ea680df	0.32520196
82	0x3e7e999d	0.24863286
83	0x3ea1a924	0.31574357
84	0xbb6277c5	-0.0034556251
85	0x3d1390d7	0.036026802
86	0x3cccb12b	0.024986824
87	0x3d2c7229	0.04210106
88	0xbe82246f	-0.25418422
89	0x3dc063f1	0.09394062
90	0x37dc33d8	2.6250185e-05
91	0xb994c3d7	-0.00028374672
92	0xbd37f820	-0.044914365
93	0xbb939f9e	-0.004505112
94	0xb8aecd21	-8.335175e-05
95	0x3c442c21	0.011973412
96	0xb8cf8590	-9.895407e-05
97	0xba2d6b8f	-0.0006615454
98	0xba85f905	-0.0010221308
99	0x3df4e384	0.11957458
100	0x3d8b2edf	0.06796049
101	0xba8da9ac	-0.0010808012
102	0x3e903ee6	0.28172988
103	0xbd225fa0	-0.039641976
104	0x3e47fb02	0.19529346
105	0xbc9311ba	-0.017952789
106	0xbd5be492	-0.05368478
107	0x3e126492	0.14296177
108	0xbb2c9d5b	-0.0026338908
109	0xbbd144b0	-0.006386362
110	0xba031f84	-0.00050019496
111	0x3be28eab	0.00691398
112	0x391865f9	0.00014533837
113	0x399b26b1	0.0002959273
114	0xba877349	-0.001033404
115	0xbc2360ef	-0.009971841
116	0x3b005ed5	0.0019587774
117	0x3e8f4e51	0.27989438
118	0x3de2ed67	0.11080437
119	0x3e1b871a	0.15188256
120	0x3dc76873	0.09736719
121	0x3e932eca	0.28746635
122	0x3e882653	0.2659174
123	0xbd16f059	-0.036850307
124	0x3d1124c3	0.03543545
125	0x3e8ff0cc	0.281134
126	0xbbe3fa98	-0.0069573633
127	0x3ac3e4e4	0.0014945534
128	0xbbea9066	-0.007158327
129	0x3ad4ae6f	0.0016226302
130	0xba3dfb3a	-0.00072472135
131	0x3909351c	0.00013085123
132	0xbac79dd3	-0.001522953
133	0xb9c6a5c7	-0.00037889017
134	0x3bde9125	0.006792205
135	0x3e323a59	0.1740507
136	0xbd968208	-0.0734902
137	0xbd481a16	-0.048853002
138	0x3ebc1412	0.36734062
139	0x3d9bbfe2	0.07604958
140	0x3e7b5619	0.24544562
141	0xbc6c8f04	-0.014438394
142	0x3d118c08	0.035533935
143	0x3e5efed6	0.217769
144	0x3a486885	0.0007644969
145	0x38b2b98f	8.5222644e-05
146	0x3c10d01c	0.00883868
147	0xba401264	-0.0007326959
148	0xbbf1311c	-0.0073605906
149	0xbccafea6	-0.024779629
150	0xb7b43ca9	-2.148592e-05
151	0xbbd5ee9d	-0.006528689
152	0x39305ecf	0.00016819987
153	0x3dd3c17b	0.10339638
154	0x3e7288bc	0.23684973
155	0x3eaf42a2	0.34230524
156	0xbd63d37e	-0.055621617
157	0xbb4fc087	-0.0031700449
158	0xbc28746f	-0.010281666
159	0x3dd3ad82	0.10335828
160	0x3e1f50b6	0.15558133
161	0x3d69c740	0.057074785
162	0xbb37e4b8	-0.002805991
163	0xbaa0d3b1	-0.001227012
164	0xbaf75293	-0.0018869214
165	0x3be27c1f	0.006911769
166	0xbbe3da0e	-0.0069534844
167	0x3b048ca8	0.002022544
168	0x39dc903d	0.00042069136
169	0x3a855047	0.0010171019
170	0xb8ee7105	-0.00011369776
171	0x3e3152dd	0.17316766
172	0x3df229cd	0.11824379
173	0x3eb6acce	0.35678715
174	0xbe6a3fc5	-0.22875889
175	0x3cbb5494	0.022867478
176	0xbc735177	-0.014850966
177	0x3d64f6ed	0.05589955
178	0x3e2cf2b7	0.16889463
179	0x3c32a9bd	0.010904727
180	0x3cbe7623	0.023249691
181	0xbcd43d3d	-0.025908107
182	0x3abf870e	0.0014612393
183	0xbb15ad52	-0.0022838903
184	0xb9a96763	-0.0003231122
185	0xbd5ac4f6	-0.053410493
186	0x3ae2686f	0.0017273555
187	0xbcb3e161	-0.021958055
188	0xbab6335e	-0.0013900807
189	0xbcb2a388	-0.021806493
190	0x3ea81f4a	0.32836372
191	0xbe71554e	-0.23567697
192	0xbce93561	-0.028467836
193	0x3e0f87b8	0.14016616
194	0x3dc22b79	0.09480948
195	0xbda0fb4e	-0.078604326
196	0x3e411976	0.18857369
197	0x3dff7453	0.12473359
198	0xbb8e6bec	-0.0043463614
199	0xbbeee729	-0.00729074
200	0xba0969dd	-0.000524191
201	0xb8ac17e1	-8.206047e-05
202	0x3a075b7a	0.00051634724
203	0x38475266	4.7522037e-05
204	0x3b1c2164	0.0023823613
205	0x392bf3b0	0.00016398611
206	0x3b5c7605	0.003363968
207	0xbd676586	-0.056493305
208	0x3eae7665	0.34074703
209	0xbe3eaf47	-0.1862155
210	0xbdc1f747	-0.094709925
211	0xbcb99c07	-0.022657407
212	0xbe13a39e	-0.14417884
213	0x3bbd9615	0.0057857134
214	0xbd8a1b66	-0.06743507
215	0x3d6e991d	0.05825149
216	0x39bcf1c8	0.00036038295
217	0xb9d5f56a	-0.00040809374
218	0xb9b3ebd0	-0.00034317235
219	0x39a5f038	0.0003165023
220	0x391a2344	0.00014699722
221	0xbbe0e4e7	-0.006863225
222	0xba857aaa	-0.0010183651
223	0x3b47a292	0.003046189
224	0x38e7c168	0.00011050963
225	0xbd2eae74	-0.04264684
226	0x3d4a5aea	0.04940311
227	0x3cd9c987	0.026585354
228	0x3da966c6	0.082715556
229	0x3e45cabb	0.19315617
230	0x3cefb4c1	0.029260995
231	0x3d14b57b	0.036305886
232	0x3e953741	0.29143718
233	0xbe375e3c	-0.17907041
234	0x3a243fb0	0.00062655937
235	0x39f26315	0.0004623166
236	0xba1349a8	-0.00056185806
237	0xbb51dcbd	-0.003202244
238	0xbb20930b	-0.0024501707
239	0x3d26e4f2	0.040745683
240	0xbcbd9d83	-0.023146397
241	0x3cdc480f	0.026889829
242	0x3b0907d9	0.0020909219
243	0x3b66a2c1	0.0035192224
244	0x3d5a552f	0.053303894
245	0xbd9e9ee4	-0.0774515
246	0x3dd5402d	0.10412631
247	0x3eaf66b5	0.34258047
248	0xbc1a7ee8	-0.009429671
249	0xbd0ec12f	-0.034852203
250	0x3ec146f7	0.37749454
251	0xbdc26604	-0.09492114
252	0x3a8861c8	0.0010405118
253	0x3b04f2b4	0.0020286264
254	0x39e022dd	0.00042750585
255	0xb926e0cd	-0.00015914738

bias f4 [8]
0	0xbbed2e8c	-0.007238215
1	0xbcd848cb	-0.026401898
2	0x3c82a90c	0.015949748
3	0x3c0392ad	0.008030576
4	0xbcb651be	-0.022255775
5	0x3c3864a1	0.011254461
6	0xbc1566be	-0.009118734
7	0x3c69f343	0.0142791895

weight_g f4 [8, 1, 1, 1]
0	0x3f37e60c	0.718354
1	0x3f3a776d	0.7283848
2	0x3f1c5c41	0.6107827
3	0x3f0a6d8d	0.5407341
4	0x3f3051e5	0.6887496
5	0x3f1e5c5b	0.61859673
6	0x3f1d0013	0.6132824
7	0x3f09093c	0.53529716

weight_v f4 [8, 8, 3, 3]
0	0xbde2d140	-0.110750675
1	0xbc8306e9	-0.015994506
2	0xbd96076a	-0.07325633
3	0xbdf60f5d	-0.12014649
4	0x3b4b82a0	0.00310532
5	0x3c0afe23	0.0084834425
6	0x3bc789fc	0.006089447
7	0x3deb9223	0.11502483
8	0xbd005788	-0.031333476
9	0x3cc2d235	0.023781875
10	0x3d1a5fd5	0.03768905
11	0x3d9e8e62	0.07742001
12	0xbd87fb81	-0.066397674
13	0xbde6eb24	-0.11275318
14	0x3cc456a3	0.023967093
15	0xbe019b62	-0.1265693
16	0xbddd73c3	-0.108130954
17	0xbc840dd3	-0.016119873
18	0x396d7eb4	0.00022649282
19	0xbd03484a	-0.032051362
20	0x3cf93cdd	0.03042453
21	0x3cb0b090	0.021568567
22	0xbe044dd6	-0.12920317
23	0xbd34496f	-0.044015344
24	0xbce7b5b5	-0.028284887
25	0xbe16decf	-0.14733432
26	0xbcdfa4cd	-0.027300263
27	0xbd9daca6	-0.07698946
28	0xbe207eb2	-0.1567333
29	0xbd92292d	-0.0713676
30	0xbb5cdd14	-0.0033701109
31	0xbdef4087	-0.116822295
32	0xbe12a930	-0.14322352
33	0x3cf4cba7	0.029882265
34	0xbda61a43	-0.08110478
35	0xbaa3ba5f	-0.0012491456
36	0x3ce32249	0.02772631
37	0x3d128d5e	0.03577935
38	0xbd950e89	-0.07278163
39	0xbd19a9ac	-0.037515327
40	0xbc2e4098	-0.010635518
41	0xbd206d2f	-0.039166626
42	0xbce7869e	-0.028262433
43	0xbd37d491	-0.044880453
44	0xbdd2c84b	-0.10292109
45	0xbd543788	-0.05181077
46	0x3bcfe490	0.0063443854
47	0x3cd8c3a9	0.026460486
48	0xbd3c5d6f	-0.045987543
49	0x3d0506f1	0.032477323
50	0xbb0439c7	-0.002017604
51	0xbb630a1f	-0.0034643484
52	0x3d7d4d17	0.061841097
53	0xbd9bd9a4	-0.07609871
54	0xbda83d1e	-0.08214782
55	0x3d6c1505	0.057637233
56	0xbdab38d6	-0.0836045
57	0xbdf34ece	-0.11880265
58	0x3d6a1ac2	0.057154424
59	0xbd6bed75	-0.057599504
60	0xbd15d154	-0.036576584
61	0x3ddd36ac	0.108014435
62	0x3ccaf659	0.02477567
63	0xbd423bdb	-0.047420364
64	0xbd9789db	-0.07399341
65	0x3d6d614a	0.05795411
66	0xbdb73604	-0.089458495
67	0xbe09f090	-0.13470674
68	0xbce2f975	-0.027706841
69	0xbda1eced	-0.07906518
70	0xbdb15a9c	-0.086598605
71	0xbd9493b6	-0.07254736
72	0xbe0232fc	-0.12714761
73	0xbd9477db	-0.07249423
74	0xbd7ef992	-0.062249728
75	0xbda9e0d5	-0.082948364
76	0x3ce7ffef	0.02832028
77	0xbd0f4d2d	-0.03498571
78	0xbc1e0c27	-0.009646452
79	0x3db3325a	0.08749838
80	0xbd504b52	-0.05085308
81	0xbbdbb4b4	-0.006704891
82	0x3d1b88b5	0.03797217
83	0x3d727af5	0.059199292
84	0xbb1782a3	-0.0023118637
85	0xbd12a813	-0.03580482
86	0xbd33ec25	-0.043926377
87	0xbd2af813	-0.04174049
88	0xbd75c4bb	-0.06000207
89	0xbd8c245c	-0.068428725
90	0x3d9931b2	0.07480182
91	0xbd7506b0	-0.05982083
92	0x3d9049dd	0.07045338
93	0xbd31cb15	-0.043406565
94	0xbe0db384	-0.13838011
95	0x3bde358b	0.006781285
96	0xbe0703fe	-0.13185117
97	0xbd62b86c	-0.05535166
98	0xbdb8804c	-0.09008846
99	0x3c992e68	0.018698886
100	0xbd960d89	-0.073268004
101	0xbb27d1b9	-0.0025607182
102	0xbd8d08d7	-0.06886452
103	0xbdea699a	-0.11445923
104	0xbde9d3aa	-0.11417325
105	0xbe074c48	-0.13212693
106	0xbe0d6a52	-0.13810089
107	0x3d3fbfd4	0.0468138
108	0xbd80620e	-0.062687024
109	0x3bce5884	0.006297173
110	0xbdc9d133	-0.09854355
111	0xbc98933a	-0.01862489
112	0xbd071d12	-0.032986708
113	0xbcc9075b	-0.02453964
114	0xbd5e8563	-0.054326426
115	0xbe373614	-0.17891723
116	0xbdc69209	-0.09695823
117	0xbd4f8df8	-0.0506725
118	0x3d29a451	0.04141647
119	0x3ce42075	0.027847508
120	0xbd60f7e0	-0.054923892
121	0x3d71fb83	0.05907775
122	0xbc3aa374	-0.011391509
123	0x3a2e423f	0.00066474447
124	0x3dd26764	0.102736264
125	0xbd8d7040	-0.069061756
126	0xbd158884	-0.036507145
127	0x3d3c9c2b	0.04604737
128	0xbd3c5a43	-0.045984518
129	0xbd1013fe	-0.035175316
130	0xbd90d7b9	-0.07072396
131	0xbddf6953	-0.10908761
132	0xbc9b1ec1	-0.018935563
133	0xbda8312b	-0.08212503
134	0xbbe37889	-0.006941859
135	0xbd3581b0	-0.044313133
136	0x3c1846f3	0.009294259
137	0x3c8120ac	0.01576265
138	0xbd9b1409	-0.07572181
139	0xbe2fe291	-0.17176272
140	0xbd8b7693	-0.068097256
141	0xbcc01c19	-0.023450898
142	0xbdf3a892	-0.118973866
143	0xbde31684	-0.11088279
144	0xbd1e10a1	-0.038590077
145	0xbda6ac52	-0.08138336
146	0xbcfad103	-0.030617243
147	0x3d93a4fd	0.072092034
148	0x3db4d87c	0.088303536
149	0x3dbe5b72	0.092947856
150	0x3c708bb5	0.014681746
151	0xbd59168c	-0.053000018
152	0xbd962753	-0.07331719
153	0x3dfd50b8	0.123689115
154	0xbdc4256e	-0.09577452
155	0x3d19814e	0.03747683
156	0xbb13fec6	-0.0022582277
157	0x3df1797b	0.11790749
158	0x3d9d802d	0.07690463
159	0xbca3cf75	-0.019996384
160	0xbdb88870	-0.090103984
161	0x3ca12723	0.019671982
162	0xbd948da7	-0.072535805
163	0xbaff6382	-0.0019484612
164	0x3d224c0c	0.039623305
165	0x3d88e668	0.066845715
166	0xbcbcf707	-0.02306701
167	0xbd94bce6	-0.07262592
168	0xbdb8b605	-0.090190925
169	0xbdce86e0	-0.10084319
170	0x3ccffd14	0.025389232
171	0xbd75f6de	-0.060049884
172	0x3c7b4425	0.015336071
173	0xbd39bfce	-0.045348935
174	0xbd959ff1	-0.07305897
175	0x3db83f6a	0.0899647
176	0x3d9cbee6	0.076535985
177	0x3dbaf161	0.091280706
178	0x3dfe2c42	0.12410785
179	0xbd95d70b	-0.07316407
180	0xbd5beb03	-0.05369092
181	0xbda2e101	-0.07953072
182	0x3db54239	0.088505216
183	0x3da171e0	0.07883048
184	0x3dd57e28	0.10424453
185	0xbda2bc77	-0.07946103
186	0xbd4c7eba	-0.049925543
187	0x3e006c95	0.12541421
188	0xbdaf9a53	-0.08574357
189	0xbdad0540	-0.08448267
190	0x3d519885	0.051170845
191	0xbdc2bce5	-0.09508685
192	0xbd069419	-0.03285608
193	0x3d6dde6b	0.058073442
194	0x3dd4fb11	0.103994496
195	0xbc4b16c1	-0.012395562
196	0xbdbfa055	-0.09356753
197	0x3d945937	0.07243579
198	0x3dfefdc9	0.124507494
199	0xbdbbb071	-0.09164513
200	0xbb746b25	-0.0037295308
201	0xbdb836c2	-0.08994819
202	0xbd831b7b	-0.06401726
203	0x3d349c6f	0.0440945
204	0x3d765d8d	0.06014781
205	0x3d5bf770	0.05370277
206	0xbded4dfa	-0.115871385
207	0xbc827391	-0.015924247
208	0x3d7a64cb	0.06113128
209	0xb99b47d3	-0.00029617417
210	0xbcdc6041	-0.026901366
211	0xbd4e5ba0	-0.05038035
212	0x3df8de4f	0.12151777
213	0xbda7d3c6	-0.081946895
214	0xbda2e7d3	-0.07954373
215	0x3dcab488	0.09897715
216	0xbd8e47a8	-0.06947261
217	0x3d969631	0.073528655
218	0xbd87364c	-0.06602153
219	0xbc4befa9	-0.012447276
220	0xbd4ae25e	-0.049532287
221	0x3dd076bc	0.10178897
222	0x3daeb30b	0.085302435
223	0x3c37afd4	0.011211354
224	0x3b3cedc0	0.0028828233
225	0xbd1c6b35	-0.038188178
226	0xbd77b7c0	-0.060477972
227	0xbd24f991	-0.040277068
228	0x3d2fcdab	0.04292075
229	0xbcad410e	-0.021149185
230	0x3dad4a43	0.0846143
231	0x3c978df6	0.01850031
232	0x3bd851a2	0.0066015283
233	0xbd8cb584	-0.06870559
234	0x3d5acf52	0.053420372
235	0xbddce730	-0.10786283
236	0x3d02f1ab	0.031968754
237	0x3d485a1c	0.04891406
238	0x3cc2e037	0.023788555
239	0x3db30b0b	0.08742341
240	0x3d092bb2	0.033488937
241	0xbd02993e	-0.031884424
242	0xbda02435	-0.07819406
243	0xbdcfffd5	-0.10156218
244	0x3d84ee3a	0.064907506
245	0x3d8ee8a1	0.06977964
246	0xbda85260	-0.08218837
247	0x3d120e9c	0.035658464
248	0xbd1cf12b	-0.038315933
249	0x3dd98dac	0.10622725
250	0xbd12357e	-0.035695545
251	0x3dd31690	0.10307038
252	0x3dad5572	0.08463563
253	0x3d87aa25	0.06624249
254	0x3da77f4d	0.081785776
255	0x3d30d7e6	0.043174647

weight f4 [8, 8, 3, 3]
0	0xbe05042c	-0.12989873
1	0xbc967f1d	-0.01837116
2	0xbdb0231c	-0.086004466
3	0xbe101eb4	-0.14074212
4	0x3b13f0f6	0.0022574044
5	0x3c188efc	0.009311434
6	0x3c0409f4	0.008059014
7	0x3e0a59e1	0.13510849
8	0xbd1f261a	-0.038854696
9	0x3cd3e2ab	0.02586492
10	0x3d2c4bf9	0.04206464
11	0x3db6ed85	0.08932022
12	0xbd9fb764	-0.07798651
13	0xbe07af8f	-0.13250564
14	0x3cf0ca09	0.029393213
15	0xbe1830d5	-0.14862378
16	0xbe018000	-0.12646484
17	0xbc9667a5	-0.018359968
18	0xbaf6ebd6	-0.0018838595
19	0xbd226bb2	-0.039653488
20	0x3d08995d	0.033349384
21	0x3cdaeed3	0.026725208
22	0xbe1bd347	-0.15217315
23	0xbd55cf44	-0.052199617
24	0xbd077aee	-0.03307622
25	0xbe31d691	-0.17367007
26	0xbcfbf1eb	-0.030755004
27	0xbdbaaa63	-0.0911453
28	0xbe3f64f0	-0.18690848
29	0xbdb11df3	-0.086482905
30	0xbb4e7c8b	-0.003150734
31	0xbe0b5828	-0.13607848
32	0xbe2e8403	-0.17042546
33	0x3d116296	0.03549441
34	0xbdc4eee4	-0.09615877
35	0xba27fa89	-0.0006407877
36	0x3d07f81e	0.033195607
37	0x3d2618fc	0.04055117
38	0xbdb429f9	-0.08797068
39	0xbd2da53d	-0.04239391
40	0xbc6e4d06	-0.014544731
41	0xbd3e0542	-0.046391733
42	0xbd0815bd	-0.033223856
43	0xbd558c30	-0.052135646
44	0xbdfa4ac8	-0.12221295
45	0xbd743b7b	-0.059627037
46	0x3bb213db	0.005434496
47	0x3cf37155	0.029717127
48	0xbd558183	-0.052125465
49	0x3d159b05	0.03652479
50	0xbb345016	-0.0027513555
51	0xbb89c25d	-0.004204078
52	0x3d92bf95	0.071654476
53	0xbdb8a257	-0.09015339
54	0xbdc0ef62	-0.09420659
55	0x3d8d28f3	0.06892576
56	0xbdccc8dc	-0.099992484
57	0xbe0d25a0	-0.13783884
58	0x3d8b5157	0.06802624
59	0xbd895926	-0.06706457
60	0xbd2a2a3c	-0.041544184
61	0x3e02ab57	0.12760673
62	0x3cef48e6	0.029209565
63	0xbd6c653d	-0.057713736
64	0xbdb7c68a	-0.08973415
65	0x3d88d12d	0.06680522
66	0xbdd638cc	-0.10460052
67	0xbe229c9a	-0.15880051
68	0xbd07b790	-0.033134043
69	0xbdbdc0b6	-0.09265272
70	0xbdceea25	-0.10103253
71	0xbdafe1bd	-0.08587978
72	0xbe154e33	-0.14580612
73	0xbdae548b	-0.08512219
74	0xbd9602c1	-0.07324744
75	0xbdc2b6d8	-0.09507531
76	0x3cfbf365	0.030755708
77	0xbd2e4311	-0.04254443
78	0xbc264db6	-0.010150364
79	0x3dcea7f1	0.10090626
80	0xbd76c12b	-0.060242813
81	0xbc20e109	-0.009819278
82	0x3d2e622d	0.042574096
83	0x3d88d437	0.06681102
84	0xba982043	-0.0011606294
85	0xbd22ed22	-0.03977693
86	0xbd5aa80a	-0.05338291
87	0xbd42f9ca	-0.0476015
88	0xbd907095	-0.07052723
89	0xbda3a602	-0.07990648
90	0x3daf4912	0.08558859
91	0xbd92cc8f	-0.07167923
92	0x3da4a942	0.08040096
93	0xbd570801	-0.052497867
94	0xbe2317c7	-0.15927039
95	0x3beb0965	0.007172751
96	0xbe1df7c8	-0.15426552
97	0xbd81f58e	-0.06345664
98	0xbddb9139	-0.107210584
99	0x3cb060dc	0.021530561
100	0xbdaf1326	-0.08548574
101	0xbb88717a	-0.004163918
102	0xbda42fc5	-0.08016924
103	0xbe0709ec	-0.13187379
104	0xbe0a220d	-0.13489552
105	0xbe1fa6a2	-0.15590909
106	0xbe25e712	-0.16201428
107	0x3d5d913c	0.054093584
108	0xbd98dd4a	-0.074640825
109	0x3badaec7	0.005300376
110	0xbdef7b95	-0.11693493
111	0xbcbf72b3	-0.023370123
112	0xbd27e62e	-0.040991
113	0xbcef121a	-0.029183436
114	0xbd8178d7	-0.063218765
115	0xbe56f96c	-0.20993584
116	0xbde75e52	-0.11297287
117	0xbd6c3914	-0.05767162
118	0x3d3f2c0a	0.04667286
119	0x3cf8e6cd	0.030383492
120	0xbd7baa39	-0.061441634
121	0x3d88c0c1	0.0667739
122	0xbc708636	-0.014680436
123	0x3b4f6d89	0.0031650981
124	0x3df2e0e2	0.11859299
125	0xbda5a9df	-0.08089041
126	0xbd23321c	-0.03984271
127	0x3d5657cf	0.052329835
128	0xbd5c61bd	-0.053804148
129	0xbd1d3aad	-0.038386036
130	0xbdad919d	-0.08475039
131	0xbe042c4a	-0.1290752
132	0xbcc799a1	-0.024365248
133	0xbdc827fc	-0.097732514
134	0xbc2105be	-0.009828029
135	0xbd5a8510	-0.053349555
136	0x3c2e8d9d	0.01065388
137	0x3c847faa	0.016174156
138	0xbdb1705c	-0.08664009
139	0xbe4c5b55	-0.19956715
140	0xbda7aaa4	-0.08186844
141	0xbcd23833	-0.025661564
142	0xbe0cdc23	-0.1375585
143	0xbe05f898	-0.13083112
144	0xbd15d23d	-0.036577452
145	0xbda33992	-0.07969965
146	0xbcfae01c	-0.030624442
147	0x3d8cdc7c	0.068779916
148	0x3dad0365	0.08447913
149	0x3db631ca	0.08896215
150	0x3c5880e4	0.013214324
151	0xbd562d55	-0.052289326
152	0xbd935b6b	-0.07195171
153	0x3df30e00	0.11867905
154	0xbdbfd648	-0.09367043
155	0x3d1064d0	0.035252392
156	0xbb484f98	-0.003056502
157	0x3de7b29f	0.11313366
158	0x3d965e81	0.07342244
159	0xbc9bd64b	-0.019023081
160	0xbdb0e7c5	-0.086379565
161	0x3c970e10	0.018439323
162	0xbd91c26d	-0.07117162
163	0xbb3d8fa0	-0.0028924718
164	0x3d18e310	0.03732592
165	0x3d828323	0.063726686
166	0xbcbe876e	-0.023257937
167	0xbd91ef13	-0.07125678
168	0xbdb4bb14	-0.08824745
169	0xbdc98f88	-0.098418295
170	0x3cc3321e	0.023827609
171	0xbd71de00	-0.059049606
172	0x3c62e78c	0.01384915
173	0xbd37daca	-0.044886388
174	0xbd92a5cd	-0.0716053
175	0x3db04250	0.08606398
176	0x3d95a116	0.07306115
177	0x3db2cf97	0.08731001
178	0x3df3d9cd	0.119067766
179	0xbd930a35	-0.07179681
180	0xbd58e395	-0.052951414
181	0xbd9fa981	-0.07796002
182	0x3dad4e65	0.08462218
183	0x3d9a63ea	0.07538588
184	0x3dcc9600	0.09989548
185	0xbd9f8191	-0.07788385
186	0xbd490bad	-0.0490834
187	0x3df674c1	0.12033988
188	0xbdabf71d	-0.083967425
189	0xbda599cc	-0.08085975
190	0x3d46c182	0.048524387
191	0xbdbe7a03	-0.09300616
192	0xbd06137c	-0.032733425
193	0x3d625938	0.055260867
194	0x3dcc3b6c	0.09972271
195	0xbc54b1a9	-0.012981811
196	0xbdbb6fed	-0.091522075
197	0x3d8d7c5b	0.069084845
198	0x3df4c5a1	0.11951757
199	0xbdb6949f	-0.08915066
200	0xbb961745	-0.0045804107
201	0xbdb364dd	-0.087594725
202	0xbd8009ab	-0.06251844
203	0x3d2ae8fc	0.041726097
204	0x3d6af1f6	0.05735966
205	0x3d50bba0	0.050960183
206	0xbde7a86f	-0.11311423
207	0xbc8640cb	-0.016388318
208	0x3d6e2690	0.058142245
209	0xbaa9ec68	-0.0012964131
210	0xbcdc35dc	-0.02688115
211	0xbd4afbf6	-0.049556695
212	0x3deec488	0.11658579
213	0xbda3ca97	-0.07997625
214	0xbd9e4f9b	-0.07730027
215	0x3dc22813	0.094803
216	0xbd8bee69	-0.068325825
217	0x3d941231	0.07230032
218	0xbd84f5d1	-0.06492198
219	0xbc48bc85	-0.012251978
220	0xbd479e88	-0.04873517
221	0x3dccf8e6	0.10008411
222	0x3dabc63f	0.08387422
223	0x3c3454f6	0.011006584
224	0x3b39c7bd	0.0028347813
225	0xbd19e88d	-0.037575293
226	0xbd73a341	-0.059481863
227	0xbd224b1d	-0.039622415
228	0x3d2cd35c	0.042193756
229	0xbcaa60f7	-0.02079819
230	0x3daa6194	0.08319393
231	0x3c94ff8f	0.018188266
232	0x3bd4258b	0.006474202
233	0xbd8a6736	-0.06757967
234	0x3d57185c	0.052513465
235	0xbdd93e23	-0.10607555
236	0x3d00b5ae	0.031423263
237	0x3d44eeb3	0.048079204
238	0x3cbf9342	0.023385648
239	0x3db00a28	0.08595687
240	0x3d06d25d	0.03291546
241	0xbd007051	-0.031357113
242	0xbd9d82d4	-0.07690969
243	0xbdcc99b2	-0.099902526
244	0x3d82af97	0.06381147
245	0x3d8c7f31	0.06860197
246	0xbda594b5	-0.08085004
247	0x3d0f9393	0.035052847
248	0xbd1a6781	-0.037696365
249	0x3dd5e446	0.1044393
250	0xbd0fd91b	-0.035119157
251	0x3dcf8b7c	0.101340264
252	0x3daa728c	0.08322629
253	0x3d8567bd	0.06513927
254	0x3da4b545	0.08042387
255	0x3d2dd140	0.042435884

weight f4 [8, 8, 1, 1]
0	0x3ded264c	0.1157957
1	0x3e265bdc	0.16245979
2	0x3e3ad5d6	0.18245634
3	0xbdd466e1	-0.10371185
4	0xbcb7aff4	-0.022422768
5	0xbe921a75	-0.2853581
6	0x3e5abe7c	0.21361727
7	0x3e704264	0.23462826
8	0x3e3ec383	0.1862927
9	0x3e4c492a	0.19949785
10	0x3e57912e	0.21051475
11	0x3ea9a02f	0.33130023
12	0x3e07c23e	0.13257691
13	0x3e01ebca	0.12687603
14	0x3de26853	0.110550545
15	0xbe4b3f70	-0.19848418
16	0x3dcebf08	0.1009503
17	0x3e068ca6	0.1313959
18	0xbe8f3c2b	-0.27975592
19	0xbdd508bb	-0.10402056
20	0xbe8cbeca	-0.2748931
21	0xbe5f7c8d	-0.21824856
22	0x3e7de3b3	0.24793892
23	0x3e8a1829	0.26971558
24	0xbdc15a67	-0.09441071
25	0x3d9a25d7	0.075267486
26	0xbda89591	-0.082316525
27	0x3d8fd270	0.0702256
28	0xbd7265bd	-0.059179056
29	0xbe3d5a9c	-0.18491596
30	0xbe25704f	-0.16156124
31	0x3eb3f603	0.3514863
32	0x3cb40c91	0.021978648
33	0xbe67eb6a	-0.22648397
34	0x3d1e5258	0.038652748
35	0xbeb3883a	-0.3506487
36	0xbd084fd2	-0.033279248
37	0x3e8dc600	0.27690125
38	0x3d68dfb4	0.056853965
39	0x3d9d4084	0.07678321
40	0xbebdab7d	-0.37044898
41	0xbdc3ac06	-0.09554295
42	0x3e4ed033	0.20196609
43	0xbe83f161	-0.25770095
44	0xbe63d2d1	-0.22248389
45	0x3e733a6c	0.23752755
46	0x3e3067cd	0.17227097
47	0x3e21b214	0.15790588
48	0xbea8454d	-0.32865372
49	0x3e6ab81f	0.22921799
50	0xbd9d004a	-0.07666071
51	0x3d9747ee	0.073867664
52	0x3e967fd2	0.29394394
53	0xbea5d6ae	-0.3239035
54	0x3dcdf2c1	0.10056067
55	0xbea2aecd	-0.31773987
56	0x3e974c2b	0.295503
57	0x3e11a4f3	0.1422308
58	0x3d202ff3	0.039108228
59	0xbe102ef8	-0.14080417
60	0x3e224aea	0.1584889
61	0xbe3acfe5	-0.18243368
62	0x3d899938	0.06718677
63	0x3e971f63	0.29516134

bias f4 [8]
0	0xbe75088c	-0.23929042
1	0xbdae0f16	-0.08498971
2	0x3d8a1dce	0.06743966
3	0x3d72f559	0.059316013
4	0xbcd17704	-0.025569446
5	0x3e90f3d8	0.28311038
6	0xbdb240ec	-0.08703789
7	0x3dbac4ea	0.091195896
