networks/gan-is_best-step-1.pth (torch, 5099 bytes, 11 tensors)

layers.0.conv1.weight f4 [2, 1, 1, 1]
000000 98 1f 0d 3e a0 01 71 3e
       0.13781583 0.23535776

layers.0.conv1.bias f4 [2]
000000 00 00 00 00 00 00 00 00
       0.0 0.0

layers.0.conv2.weight f4 [2, 1, 3, 3]
000000 c8 29 23 bd 08 75 4b be b0 b8 65 be 08 18 0e 3e
       -0.039834768 -0.19868863 -0.22433734 0.13876355
000010 28 33 50 3d 9a a0 07 3e c0 b8 f8 bb 80 29 06 bc
       0.050830036 0.13244858 -0.0075903833 -0.008188605
000020 80 b2 51 bc 1e 60 38 3e c6 2e 6c be a0 28 93 3d
       -0.012798905 0.18005416 -0.23064718 0.07185483
000030 22 2a 3b 3e 5a f8 45 3e 7e cc 23 be 49 29 84 3e
       0.18277791 0.1933302 -0.15995976 0.25812748
000040 53 7c 63 be fa fb 31 3e
       -0.22215395 0.17381278

layers.0.conv2.bias f4 [2]
000000 00 00 00 00 00 00 00 00
       0.0 0.0

layers.0.conv3.weight f4 [2, 2, 3, 3]
000000 aa e2 93 3d 01 a5 64 be 9e f1 be bd f4 a7 bd bd
       0.07220967 -0.22328569 -0.093234286 -0.0926055
000010 b0 b6 60 be b0 71 4c bd 59 7f 28 3e 60 5b b8 bc
       -0.2194469 -0.04991311 0.1645483 -0.022504508
000020 71 81 6e 3e f4 43 59 be ea 83 c0 3d ab b4 50 3e
       0.23291565 -0.21217328 0.094001606 0.2038142
000030 53 97 6a 3e e4 40 bb bd 26 ed 59 be 7c 6b b1 bd
       0.22909288 -0.09143236 -0.21281871 -0.08663079
000040 e9 eb 32 3e 48 2d a9 3c e9 b0 66 3e 34 3c 30 be
       0.17472805 0.020651475 0.22528423 -0.17210466
000050 7f 22 17 be 66 02 f6 3d 9a 83 a5 3d 76 ce 1c be
       -0.14759253 0.12012176 0.08081742 -0.15313134
000060 55 8a 60 3e 9a 2a ba bd e8 97 48 be a6 26 86 3d
       0.2192777 -0.09090157 -0.19589198 0.0655034
000070 b4 37 07 be 18 b7 e5 bd 0c d5 06 be 42 4b 83 3d
       -0.13204843 -0.11216563 -0.13167208 0.06410839
000080 82 26 e2 3d 6f 54 22 3e c2 93 08 be 0c a2 61 bd
       0.11042501 0.15852521 -0.13337615 -0.05508618

layers.0.conv3.bias f4 [2]
000000 00 00 00 00 00 00 00 00
       0.0 0.0

layers.0.batch_norm.weight f4 [2]
000000 00 00 80 3f 00 00 80 3f
       1.0 1.0

layers.0.batch_norm.bias f4 [2]
000000 00 00 00 00 00 00 00 00
       0.0 0.0

layers.0.batch_norm.running_mean f4 [2]
000000 e5 6b e1 3b eb 7b 40 3c
       0.006879317 0.011748294

layers.0.batch_norm.running_var f4 [2]
000000 cf 70 66 3f c3 84 66 3f
       0.9001588 0.9004633

conv1.weight f4 [1, 2, 1, 1]
000000 26 dd 82 be bc 3a 0b be
       -0.25559348 -0.13596624
