networks/gan-not-is_best-step-0.pth (torch, 36571 bytes, 41 tensors)

layers.0.conv1.weight f4 [2, 1, 1, 1]
0	0x3f719336	0.9436525
1	0xbf41cd72	-0.7570411

layers.0.conv1.bias f4 [2]
0	0x00000000	0.0
1	0x00000000	0.0

layers.0.conv2.weight f4 [2, 1, 3, 3]
0	0x3e9eb363	0.30996236
1	0x3db636f4	0.088972
2	0x3ea8a215	0.3293616
3	0xbe90e962	-0.28303057
4	0xbda9c30c	-0.08289155
5	0x3ea36fb7	0.3192117
6	0xbe366b9b	-0.17814486
7	0xbe6167b3	-0.22012214
8	0x3ca7ca70	0.020482272
9	0x3e97c9e9	0.29646233
10	0xbe827a97	-0.25484154
11	0x3e95a017	0.292237
12	0x3e4ffcfa	0.20311347
13	0xbe155956	-0.1458486
14	0x3e13a5d0	0.14418721
15	0xbe0c739b	-0.13715975
16	0xbd2c1660	-0.042013526
17	0xbe34ea36	-0.1766747

layers.0.conv2.bias f4 [2]
0	0x00000000	0.0
1	0x00000000	0.0

layers.0.conv3.weight f4 [2, 2, 3, 3]
0	0xbe56e77c	-0.20986742
1	0xbdf446d1	-0.1192757
2	0x3cc1d998	0.023663327
3	0x3e4e2fd1	0.20135428
4	0xbe1988ec	-0.14993638
5	0x3e124d71	0.14287354
6	0x3e4ab549	0.19795717
7	0xbde492b9	-0.111607976
8	0xbe2db4c4	-0.16963488
9	0xbd1fcca0	-0.039013505
10	0xbcd58b88	-0.02606751
11	0x3d6de6cc	0.058081433
12	0xbe0dd72c	-0.13851613
13	0xbd81d198	-0.06338805
14	0xbcdbe778	-0.026843771
15	0xbe36c094	-0.178469
16	0x3e694747	0.22781096
17	0xbcb08740	-0.021548867
18	0x3e138019	0.14404334
19	0xbe5308c5	-0.20608814
20	0xb970a800	-0.00022950768
21	0x3d569474	0.05238767
22	0xbe60fcf1	-0.2197149
23	0xbe46fd36	-0.1943253
24	0x3de5e72e	0.11225735
25	0xbe2d47b4	-0.16921884
26	0x3dcd70da	0.1003129
27	0x3d8784fe	0.06617163
28	0x3d470c2c	0.048595592
29	0x3e539d33	0.20665435
30	0x3d5984dc	0.05310522
31	0x3d9e86a2	0.07740523
32	0xbe69a7b4	-0.2281788
33	0x3d02c1a4	0.03192295
34	0x3e6b35c5	0.2296973
35	0x3e15a119	0.14612235

layers.0.conv3.bias f4 [2]
0	0x00000000	0.0
1	0x00000000	0.0

layers.0.batch_norm.weight f4 [2]
0	0x3f800000	1.0
1	0x3f800000	1.0

layers.0.batch_norm.bias f4 [2]
0	0x00000000	0.0
1	0x00000000	0.0

layers.0.batch_norm.running_mean f4 [2]
0	0x00000000	0.0
1	0x00000000	0.0

layers.0.batch_norm.running_var f4 [2]
0	0x3f800000	1.0
1	0x3f800000	1.0

layers.1.conv1.weight f4 [4, 2, 1, 1]
0	0xbc027980	-0.007963538
1	0xbe02f1d0	-0.12787557
2	0xbf0c6196	-0.54836404
3	0x3f13fcf9	0.5780788
4	0x3f22c2fd	0.6357878
5	0xbf2a3bd3	-0.66497535
6	0xbeb7f229	-0.3592694
7	0x3d725ec0	0.059172392

layers.1.conv1.bias f4 [4]
0	0x00000000	0.0
1	0x00000000	0.0
2	0x00000000	0.0
3	0x00000000	0.0

layers.1.conv2.weight f4 [4, 2, 3, 3]
0	0x3e140ef3	0.14458828
1	0xbe130bcf	-0.14359973
2	0xbd74ad48	-0.059735566
3	0xbe23c56e	-0.15993282
4	0xbdc8c8e0	-0.09803939
5	0x3e0cb6d5	0.1374162
6	0xbe62218b	-0.22083108
7	0x3e45c621	0.19313861
8	0x3da702ca	0.08154829
9	0x3e60da0d	0.2195818
10	0x3e47d80d	0.1951601
11	0xbd3a9620	-0.045553327
12	0x3e53498d	0.20633526
13	0x3d4c2cdc	0.04984747
14	0xbe517fff	-0.20458983
15	0xbd152ab0	-0.036417663
16	0x3e4f775f	0.2026038
17	0x3d23191c	0.039818868
18	0x3bff6480	0.007793963
19	0xbe027e95	-0.127436
20	0x3e19085b	0.14944594
21	0xbda81568	-0.08207208
22	0xbe02b6a4	-0.12764984
23	0x3de320b6	0.110902235
24	0x3e6494f5	0.22322448
25	0x3de2e146	0.11078124
26	0x3e1a7d25	0.15086801
27	0xbe6d353c	-0.23164839
28	0x3dbd90b2	0.09256114
29	0xbd878626	-0.06617384
30	0xbc869ff8	-0.0164337
31	0xbe12f942	-0.14352897
32	0x3e4ea99d	0.2018189
33	0x3daf6076	0.0856332
34	0xbe447809	-0.19186415
35	0xbe5e5e8a	-0.21715751
36	0x3e640f43	0.22271447
37	0x3b731780	0.0037092865
38	0xbe612c97	-0.21989666
39	0x3d61e5fc	0.05515097
40	0xbe1d453f	-0.15358447
41	0xbdeeae4e	-0.1165434
42	0xbda835a4	-0.08213356
43	0xbdbec1ae	-0.09314285
44	0x3e2c5e53	0.16832857
45	0xbdae6ee6	-0.08517246
46	0xbdd68b76	-0.10475819
47	0x3d98f2a6	0.074681565
48	0x3e709b33	0.23496704
49	0x3cbe3088	0.0232165
50	0xbe0744cd	-0.13209839
51	0x3e68b385	0.22724731
52	0xbe592ee1	-0.21209289
53	0x3e702683	0.23452191
54	0x3cc8a2e8	0.024491742
55	0xbde1432e	-0.10999142
56	0x3d0c80ec	0.034302637
57	0xbdb4d76e	-0.088301525
58	0xbe523c54	-0.20530826
59	0xbdeefff2	-0.116699114
60	0xbe6b089c	-0.22952503
61	0xbe50abd7	-0.20378052
62	0xbe04cb26	-0.1296812
63	0x3da96d86	0.08272843
64	0x3da3d582	0.07999708
65	0x3ce2e528	0.02769716
66	0xbd916e70	-0.071011424
67	0xbd98ab56	-0.07454555
68	0x3e194629	0.1496817
69	0xbe4987ed	-0.19680758
70	0x3e0eece5	0.13957556
71	0xbe637043	-0.22210793

layers.1.conv2.bias f4 [4]
0	0x00000000	0.0
1	0x00000000	0.0
2	0x00000000	0.0
3	0x00000000	0.0

layers.1.conv3.weight f4 [4, 4, 3, 3]
0	0xbb830c20	-0.003999248
1	0xbdc6fad8	-0.097158134
2	0xbce30138	-0.027710542
3	0x3e03445d	0.12819047
4	0x3dbddb1a	0.09270306
5	0x3e0b6281	0.13611795
6	0xbd881048	-0.066437304
7	0xbd030e80	-0.03199625
8	0xbbda80a0	-0.0066681653
9	0xbd9e97f0	-0.077438235
10	0x3da881ba	0.082278684
11	0x3e0a73c3	0.13520722
12	0x3d8cfdfe	0.06884383
13	0x3d6be8cc	0.05759506
14	0xbdb3d2b8	-0.08780426
15	0xbdfced2e	-0.12349926
16	0x3db1e742	0.08686687
17	0xbdd552ae	-0.104161605
18	0x3d134d20	0.035962224
19	0x3e0fe817	0.14053379
20	0xbd8d9f46	-0.069151446
21	0x3da373f8	0.07981104
22	0x3dced742	0.10099651
23	0x3d940996	0.07228391
24	0xbe298683	-0.16555218
25	0xbdb50583	-0.08838942
26	0xbe0cab8e	-0.13737318
27	0x3e02f941	0.12790395
28	0x3d63bc74	0.055599645
29	0x3dd4ac56	0.10384433
30	0x3d0d6f90	0.034530222
31	0xbdee93a8	-0.11649257
32	0x3ddd896a	0.10817225
33	0x3e06ac19	0.13151588
34	0xbe0d22b7	-0.13782774
35	0xbdc74300	-0.09729576
36	0x3d65c350	0.056094468
37	0x3e14eff5	0.14544661
38	0x3e1abab9	0.15110292
39	0xbdde3333	-0.10849609
40	0xbdd4a736	-0.103834555
41	0xbd8202b0	-0.06348169
42	0xbb7c9240	-0.003853932
43	0x3dc53e8e	0.09631072
44	0xbdc41dab	-0.09575971
45	0xbe16c60e	-0.1472399
46	0xbd84d10e	-0.064851865
47	0xbddcd720	-0.10783219
48	0xbd4a3cec	-0.049374506
49	0xbd878db6	-0.06618826
50	0x3d43be2c	0.047788784
51	0x3decfdaa	0.1157182
52	0xbe25bbee	-0.1618497
53	0x3aab9f80	0.0013093799
54	0x3d21e71c	0.039527044
55	0xbdb9806b	-0.09057697
56	0x3c3b4e40	0.0114322305
57	0xbdfc05d3	-0.123057984
58	0x3dd799b2	0.10527362
59	0x3ddb38d2	0.10704197
60	0xbdea9683	-0.11454489
61	0x3d36c840	0.044624567
62	0xbd80561e	-0.062664255
63	0xbdac46d0	-0.08411944
64	0x3e13d277	0.14435755
65	0xbd31d9c6	-0.043420576
66	0xbd87353e	-0.06601952
67	0xbddb2ea6	-0.10702257
68	0x3def6722	0.11689593
69	0xbe0b4ec7	-0.1360427
70	0x3e08e7b7	0.13369642
71	0xbe102c57	-0.14079414
72	0x3d4f9330	0.05067748
73	0x3dd55526	0.104166314
74	0xbe24deeb	-0.16100661
75	0xbe2221fb	-0.15833275
76	0x3c959788	0.018260732
77	0xbba304e0	-0.0049749464
78	0xbafe6280	-0.0019408017
79	0xbe0d321a	-0.13788643
80	0xbde0d483	-0.109780334
81	0xbd6b3ed6	-0.057432972
82	0x3e0d2a71	0.13785721
83	0x3e24e9ad	0.16104765
84	0x3dd9a54e	0.106272325
85	0x3e0441b3	0.12915687
86	0x3da9a636	0.08283655
87	0xbe00f317	-0.12592731
88	0xbc5af8b0	-0.013364956
89	0x3c0faa30	0.008768603
90	0x3db78462	0.08960797
91	0xbd563a76	-0.052301846
92	0x3dd61612	0.10453428
93	0xba7f3900	-0.00097359717
94	0x3e1f9f0f	0.1558802
95	0xbe2117f4	-0.15731794
96	0x3ddf8122	0.10913302
97	0x3c3f06d0	0.011659339
98	0xbcb510f8	-0.022102818
99	0x3e035669	0.12825932
100	0xbd67d18c	-0.056596324
101	0xbe16f3ac	-0.14741391
102	0x3d91f35e	0.07126497
103	0xbdecde9e	-0.11565898
104	0x3da3200e	0.07965098
105	0xbdc93626	-0.09824781
106	0xbd5d94fc	-0.05409716
107	0xbcc8f3e8	-0.024530366
108	0x3e0f02df	0.13965939
109	0x3db37682	0.08762838
110	0xba633300	-0.00086669624
111	0x3d9fd2b0	0.07803857
112	0x3dca86ba	0.09888978
113	0x3d238094	0.039917544
114	0x3da847ca	0.08216818
115	0xbe102432	-0.14076307
116	0x3d8f979e	0.070113406
117	0x3b6d9200	0.0036250353
118	0xbe118c5c	-0.14213699
119	0xbd808713	-0.06275763
120	0x3d227690	0.03966385
121	0x3d522c64	0.051311865
122	0x3e10b769	0.14132465
123	0xbdbe6bc3	-0.09297898
124	0xbe00eef0	-0.12591147
125	0xbdfde3ae	-0.12396942
126	0x3e073f8d	0.13207836
127	0x3ddb5b6a	0.10710795
128	0xbda56f5e	-0.08077882
129	0xbdb0e7a3	-0.08637931
130	0xbe0bf412	-0.13667324
131	0x3e199963	0.14999919
132	0xbdab8d36	-0.08376543
133	0x3e076491	0.13221957
134	0x3ceb0f80	0.028693914
135	0xbded9026	-0.1159976
136	0x3dac45a2	0.08411719
137	0x3df54f3a	0.11978002
138	0x3d9369a0	0.07197881
139	0xbdb8de16	-0.090267345
140	0x3e161b81	0.1465893
141	0x3de79432	0.11307563
142	0x3d6b1c50	0.057400048
143	0x3c89c708	0.016818538

layers.1.conv3.bias f4 [4]
0	0x00000000	0.0
1	0x00000000	0.0
2	0x00000000	0.0
3	0x00000000	0.0

layers.1.batch_norm.weight f4 [4]
0	0x3f800000	1.0
1	0x3f800000	1.0
2	0x3f800000	1.0
3	0x3f800000	1.0

layers.1.batch_norm.bias f4 [4]
0	0x00000000	0.0
1	0x00000000	0.0
2	0x00000000	0.0
3	0x00000000	0.0

layers.1.batch_norm.running_mean f4 [4]
0	0x00000000	0.0
1	0x00000000	0.0
2	0x00000000	0.0
3	0x00000000	0.0

layers.1.batch_norm.running_var f4 [4]
0	0x3f800000	1.0
1	0x3f800000	1.0
2	0x3f800000	1.0
3	0x3f800000	1.0

layers.2.conv1.weight f4 [8, 4, 1, 1]
0	0xbdf64b30	-0.1202606
1	0x3df60bd0	0.12013972
2	0x3e2cecc8	0.168872
3	0x3dbb1580	0.0913496
4	0x3dbfbc68	0.093621075
5	0xbef02248	-0.46901155
6	0x3d9a02b0	0.07520044
7	0x3e64b9b8	0.22336471
8	0x3e45976c	0.19296044
9	0xbe95c736	-0.29253548
10	0x3ea0ba92	0.31392342
11	0xbe31649c	-0.17323536
12	0xbeecd484	-0.46255887
13	0xbe93b354	-0.28847754
14	0x3e554198	0.20825803
15	0xbede935e	-0.43471807
16	0x3edf8106	0.43653125
17	0x3eb53be8	0.35397267
18	0x3d972dc0	0.07381773
19	0x3bdb3780	0.0066899657
20	0x3ec9fe14	0.3945166
21	0xbe8088ac	-0.25104272
22	0xbed87bb2	-0.42281872
23	0x3ef47e4e	0.47752613
24	0xbd318740	-0.043341875
25	0xbe3771a0	-0.17914438
26	0x3e9b880c	0.30377233
27	0xbd8a6008	-0.06756598
28	0x3e9fc3ba	0.31204015
29	0x3eea8cd4	0.45810568
30	0x3e8e700a	0.27819854
31	0xbec25bb0	-0.37960577

layers.2.conv1.bias f4 [8]
0	0x00000000	0.0
1	0x00000000	0.0
2	0x00000000	0.0
3	0x00000000	0.0
4	0x00000000	0.0
5	0x00000000	0.0
6	0x00000000	0.0
7	0x00000000	0.0

layers.2.conv2.weight f4 [8, 4, 3, 3]
0	0xbc879498	-0.016550347
1	0xbd8b0ca3	-0.0678952
2	0x3c581a40	0.013189852
3	0xbd307b6c	-0.043086454
4	0xbe0058eb	-0.1253392
5	0x3d2dd204	0.042436615
6	0xbd13ad40	-0.036053896
7	0x3e19d307	0.15021907
8	0x3ceb7438	0.02874194
9	0xbaa51400	-0.0012594461
10	0x3cfd6820	0.03093344
11	0xbd0ec1b4	-0.0348527
12	0xbdd68110	-0.104738355
13	0x3dc0a716	0.09406869
14	0x3e1ec601	0.1550522
15	0x3d923628	0.07139236
16	0x3d3701d4	0.044679478
17	0xbb73f300	-0.0037223697
18	0xbe0723fc	-0.1319732
19	0xbbf80f80	-0.007570207
20	0xbdb40e20	-0.08791757
21	0x3e155f63	0.14587168
22	0xbd8d8cbe	-0.0691161
23	0xbcb4df48	-0.022079125
24	0x3d276d20	0.040875554
25	0x3db78282	0.08960439
26	0xbdaea7c6	-0.08528094
27	0xbcccc638	-0.024996862
28	0x3dc09b62	0.09404637
29	0xbc86f668	-0.016474918
30	0x3d93abd0	0.07210505
31	0xbdee69d6	-0.1164128
32	0xbdc01e2e	-0.09380756
33	0xbd6e2c80	-0.058147907
34	0xbab6a280	-0.0013933927
35	0x3de2a60a	0.11066826
36	0xbd83d8be	-0.06437825
37	0xbd9d4590	-0.076792836
38	0xbd3df0bc	-0.04637216
39	0x3d5628f0	0.052285135
40	0xbe03cb43	-0.12870507
41	0x3d27617c	0.040864453
42	0xbdb4fc9e	-0.088372454
43	0xbe0b6452	-0.13612488
44	0xbdde7313	-0.108617924
45	0xbe291c0c	-0.16514605
46	0x3d1a11d4	0.03761466
47	0x3dc3f836	0.09568827
48	0xbd0c1a14	-0.034204558
49	0x3d231edc	0.03982435
50	0x3d210924	0.039315358
51	0x3df1cb8a	0.118064
52	0x3cd21c60	0.025648296
53	0x3db8b632	0.09019126
54	0xbd0dce2c	-0.03462045
55	0x3de04eba	0.10952516
56	0xbd0bc7ec	-0.034126207
57	0x3e1c815d	0.15283723
58	0xbdff3a30	-0.1246227
59	0xbe1bb584	-0.15205961
60	0x3d0d7890	0.034538805
61	0xbd823b2b	-0.06358942
62	0x3d964d9a	0.0733902
63	0x3e23926d	0.15973826
64	0xbe269a3c	-0.16269773
65	0x3c284f70	0.010272846
66	0x3db0c402	0.086311355
67	0xbe162970	-0.14664245
68	0x3bd1c380	0.0064014792
69	0xbe119294	-0.14216071
70	0xbe2223a2	-0.15833905
71	0x3e29ea0d	0.1659319
72	0x3db4a592	0.088206425
73	0x3da2f2fa	0.079565
74	0x3d0447f4	0.032295182
75	0xbd0cf240	-0.034410715
76	0xbe15d1df	-0.1463084
77	0x3e05e7a3	0.13076644
78	0x3e01428f	0.12623046
79	0x3e1a1aeb	0.15049331
80	0xbd96a966	-0.07356529
81	0x3dbcde3e	0.09222077
82	0x3d2b4764	0.04181613
83	0x3dc74932	0.09730758
84	0xbe21e27c	-0.15809053
85	0x3cf92e00	0.030417442
86	0xbe0db874	-0.13839895
87	0x3d85a9ee	0.06526552
88	0xbdc9d42e	-0.09854923
89	0x3e151693	0.14559393
90	0x3db4ae5a	0.088223174
91	0x3df92ece	0.121671304
92	0xbe001333	-0.12507324
93	0xbd95e21b	-0.07318517
94	0x3e1aab95	0.15104516
95	0xbdd1decb	-0.102475725
96	0x3daac996	0.08339231
97	0xbd9a9343	-0.07547619
98	0x3d56e17c	0.052461132
99	0x3d5b239c	0.053500757
100	0x3e1f4b31	0.15556027
101	0x3e246d19	0.16057242
102	0xbd79cf26	-0.060988568
103	0xbe0f68b0	-0.14004779
104	0x3e15906d	0.14605875
105	0x3db01f52	0.08599724
106	0x3dfc05aa	0.12305768
107	0x3dffcf5a	0.12490721
108	0x3e1422dd	0.14466424
109	0xbc88da78	-0.016705737
110	0xbb8e69a0	-0.0043460876
111	0x3e1736e9	0.1476704
112	0x3e1dfb37	0.15427862
113	0x3dbc947a	0.09208007
114	0x3d861b5a	0.06548186
115	0xbd965ccb	-0.073419176
116	0x3df68f06	0.12038998
117	0xbe0e0f76	-0.13873085
118	0x3d8f6fa6	0.07003717
119	0xbd09840c	-0.033573195
120	0xbe1ddacc	-0.15415496
121	0xbdfa4b9b	-0.12221452
122	0x3d9a5e8e	0.07537566
123	0xbd82ce88	-0.06387049
124	0xbe1e0027	-0.15429746
125	0xbd91a278	-0.071110666
126	0x3e1c04c1	0.15236188
127	0x3df2d39e	0.11856769
128	0x3e14c0a3	0.1452661
129	0x3d8f5126	0.069979
130	0xbe181bcf	-0.14854358
131	0x3c17e310	0.0092704445
132	0xbe1e02b4	-0.15430719
133	0x3e049b2d	0.1294982
134	0xbd5f3ce0	-0.054501414
135	0xbe11f706	-0.14254388
136	0x3caa07b8	0.020755634
137	0x3dbdcdaa	0.09267743
138	0x3dd7d626	0.105388924
139	0x3e214745	0.15749843
140	0xbdb9630b	-0.09052094
141	0x3d42b4c4	0.047535673
142	0xbe2295f3	-0.15877514
143	0xbc36cc10	-0.011157051
144	0xbd53465c	-0.05158077
145	0xbdbd6c0e	-0.092491254
146	0x3da5a5c8	0.08088261
147	0xbe1d2424	-0.15345818
148	0xbcc20918	-0.023685977
149	0x3e27d839	0.16391076
150	0x3e1681ed	0.14698
151	0xbe2a22d8	-0.16614854
152	0xbd6a5e96	-0.05721911
153	0x3db643e2	0.08899666
154	0xbcf66a88	-0.030080095
155	0xbac40480	-0.0014954954
156	0xbe24fd8a	-0.16112342
157	0xbddf4c33	-0.10903206
158	0xbd8a740e	-0.06760417
159	0xbdb2eb3e	-0.08736275
160	0x3df0bcf2	0.117547885
161	0x3df0c2ba	0.11755891
162	0x3cdfc828	0.027317122
163	0xbe028e28	-0.12749541
164	0x3d576110	0.0525828
165	0xbdbf48fe	-0.09340094
166	0xbe1d1932	-0.15341642
167	0x3c2bd2d0	0.010487273
168	0x3e28b2b1	0.16474415
169	0x3dd5cc26	0.10439329
170	0x3ddf2456	0.108956024
171	0x3dc454f2	0.095865145
172	0x3d8f9b28	0.070120156
173	0x3d93159e	0.071818575
174	0x3e1609c5	0.14652164
175	0x3e15e579	0.14638318
176	0x3d1cf26c	0.03831713
177	0x3d9f5b7a	0.0778112
178	0xbd669b96	-0.056300722
179	0x3de7c3ea	0.113166645
180	0xbd406ca0	-0.046978593
181	0x3c5c1a90	0.013434067
182	0xbc846658	-0.016162083
183	0xbe196852	-0.14981201
184	0x3d8d8046	0.06909232
185	0x3db65f22	0.08904864
186	0x3d8bf56e	0.068339214
187	0xbc904a20	-0.01761347
188	0xbdddf8db	-0.10838481
189	0x3d9c9b76	0.07646839
190	0xbe0bf1bb	-0.13666432
191	0x3cb4cd60	0.022070587
192	0xbe113314	-0.14179641
193	0x3e2276e3	0.15865664
194	0xbe0a25cb	-0.1349098
195	0xbd744480	-0.05963564
196	0x3d6ec64c	0.05829458
197	0x3d9c2b20	0.07625413
198	0x3d586a5c	0.052835807
199	0x3d7ac1ec	0.061220095
200	0x3e01e055	0.12683232
201	0x3e09f2c1	0.1347151
202	0x3dd681ca	0.10473974
203	0xbe1f5a60	-0.15561819
204	0x3c412a70	0.011789903
205	0x3deaff9e	0.11474536
206	0xbdc44d76	-0.09585087
207	0x3da19786	0.07890229
208	0xbdd237ab	-0.10264524
209	0x3dcfa5fa	0.101390794
210	0xbe287852	-0.16452149
211	0x3e16214d	0.1466114
212	0x3deb3a86	0.11485772
213	0xbda31e20	-0.0796473
214	0x3dfd5eee	0.12371622
215	0x3db14392	0.08655466
216	0x3dab0366	0.083502576
217	0xbd1a41cc	-0.037660405
218	0x3d1a8e6c	0.03773348
219	0x3cf783b8	0.030214176
220	0xbd129bb0	-0.035793006
221	0x3c9cd5e0	0.019144952
222	0x3d2c290c	0.042031333
223	0xbd945c0b	-0.07244118
224	0xbbc4ba00	-0.0060036182
225	0x3c4f10f0	0.012638316
226	0x3e1f7191	0.15570666
227	0x3dd343f2	0.10315694
228	0xbc7509d0	-0.014955953
229	0x3d651c00	0.055934906
230	0xbd8210fb	-0.06350895
231	0xbd2f2206	-0.042757057
232	0x3e28ce41	0.1648493
233	0xbe053280	-0.13007545
234	0x3dd1ce0a	0.10244377
235	0xbe2063d6	-0.15663084
236	0xbd6a9950	-0.057275116
237	0xbdb76d00	-0.08956337
238	0x3c3694c0	0.011143863
239	0x3ded4eea	0.11587317
240	0x3dc1f26a	0.09470065
241	0xbd6fe7c0	-0.058570623
242	0xbdc6cb00	-0.09706688
243	0xbe273bf8	-0.1633147
244	0xbe29d528	-0.16585219
245	0x39c2da00	0.00037164986
246	0xbd18f350	-0.037341416
247	0xbd2b9ca6	-0.04189744
248	0x3bd9eee0	0.0066507906
249	0x3d9a74b8	0.075417936
250	0xbe1eb7bb	-0.15499775
251	0xbcd2f878	-0.025753245
252	0xbc0a1890	-0.008428708
253	0x3da83bb0	0.082145095
254	0x3dfe7ee6	0.12426548
255	0xbd4dfc0c	-0.0502892

layers.2.conv2.bias f4 [8]
0	0x00000000	0.0
1	0x00000000	0.0
2	0x00000000	0.0
3	0x00000000	0.0
4	0x00000000	0.0
5	0x00000000	0.0
6	0x00000000	0.0
7	0x00000000	0.0

layers.2.conv3.weight f4 [8, 8, 3, 3]
0	0x3dc40d21	0.09572817
1	0x3dce05a3	0.10059669
2	0x3dee5c17	0.116386585
3	0x3dca5e11	0.09881223
4	0x3dcfa531	0.1013893
5	0xbd88e341	-0.0668397
6	0xbd5bd980	-0.05367422
7	0x3d08c8aa	0.033394493
8	0x3da3c3fb	0.07996365
9	0x3dddea8f	0.10835754
10	0x3cb8030c	0.02246239
11	0xbd09e666	-0.03366699
12	0xbde11438	-0.109901845
13	0xbdd4d2df	-0.10391783
14	0x3d0aec1e	0.033916585
15	0x3d72241e	0.059116475
16	0x3cffc1bc	0.03122031
17	0x3d50aafa	0.050944306
18	0x3c2990c8	0.01034946
19	0x3ddf241b	0.108955584
20	0xbc31c3f8	-0.010849945
21	0x3da6218d	0.08111868
22	0x3dd7c1ed	0.10535035
23	0xbdb75ef1	-0.089536555
24	0xbd0d99d4	-0.03457053
25	0x3daebb49	0.085318156
26	0xbd0f360c	-0.034963652
27	0xbde91bc9	-0.11382253
28	0x3d90e28b	0.0707446
29	0x3dcfa839	0.10139508
30	0xbd4ecd16	-0.050488554
31	0xbb0a3640	-0.0021089464
32	0x3d3ddf8e	0.046355776
33	0x3d4aea3a	0.049539782
34	0xbd8eae72	-0.069668666
35	0x3b968b70	0.004594259
36	0x3dc74da9	0.097316094
37	0xbd81afc1	-0.063323505
38	0x3cdcf9b4	0.026974536
39	0xbddcd072	-0.10781945
40	0x3de279f7	0.11058419
41	0x3cd16544	0.025560983
42	0x3d32f0fe	0.04368686
43	0x3d067e2a	0.032835163
44	0x3da5df4b	0.080992304
45	0x3d8e576b	0.069502674
46	0xbdd83ac0	-0.10558081
47	0x3d8ef8d7	0.06981056
48	0xbdce3d56	-0.10070293
49	0xbdb53ccc	-0.08849487
50	0xbd64a72b	-0.055823486
51	0x3d656e26	0.05601325
52	0xbceeff44	-0.029174455
53	0x3c819354	0.015817322
54	0x3dd47dbf	0.10375547
55	0x3d36dc46	0.044643663
56	0xbc053920	-0.008131295
57	0xbd935422	-0.071937814
58	0xbdd3338b	-0.103125654
59	0xbc786768	-0.015161373
60	0xbc9a1fcc	-0.01881399
61	0x3da4d805	0.08049015
62	0x3d42f01e	0.047592275
63	0xbd43db2c	-0.04781644
64	0xbd956dd6	-0.0729634
65	0x3bb08db0	0.005387984
66	0xbde11ad7	-0.109914474
67	0xbce8d618	-0.0284224
68	0x3c097d88	0.008391745
69	0xbceed08c	-0.029152177
70	0xbd8fe0e0	-0.070253134
71	0xbc6f8b00	-0.0146205425
72	0x3d7057ca	0.058677472
73	0x3dea2567	0.11432915
74	0x3dc09e27	0.09405165
75	0x3d09e3ee	0.033664636
76	0xbdc4a5a1	-0.09601904
77	0x3d9789f3	0.073993586
78	0xbc06d2c8	-0.008228965
79	0xbda60c54	-0.0810782
80	0xbcb4a978	-0.022053465
81	0xbb1931c0	-0.00233756
82	0xbb509c40	-0.0031831414
83	0xbd2122aa	-0.0393397
84	0x3d58d28a	0.05293516
85	0x3d472892	0.048622675
86	0x3c777b28	0.015105046
87	0x3d906e0b	0.07052239
88	0xbdd59530	-0.10428846
89	0x3dce8175	0.10083286
90	0x3c458158	0.012054764
91	0xbde71f01	-0.112852104
92	0xbd3f7736	-0.046744548
93	0xbc8bd770	-0.017070502
94	0x3d8c46b7	0.06849425
95	0x3d41c89e	0.047310464
96	0xbddc1601	-0.107463844
97	0xbdd1581a	-0.10221882
98	0xbc94dc1c	-0.018171363
99	0xbdd59ec9	-0.104306765
100	0x3cf0a3ac	0.02937492
101	0x3d86a3f7	0.065742426
102	0x3d5ebc4e	0.0543788
103	0x3d8104f3	0.06299772
104	0xbcf1aeb0	-0.029502243
105	0x3a3ef580	0.0007284507
106	0x3bc400c0	0.0059815347
107	0x3c9d09d4	0.019169725
108	0x3b897660	0.0041950196
109	0xbba10af0	-0.004914634
110	0xbda8af6e	-0.082365856
111	0x3d4e6146	0.050385736
112	0xbdcfe316	-0.10150735
113	0x3de1774f	0.110090844
114	0xbd158684	-0.036505237
115	0x3cd4f1a4	0.02599413
116	0x3d54fcda	0.05199895
117	0xbdaf5eda	-0.085630134
118	0xbdc951a2	-0.09830023
119	0x3d5d7896	0.054070078
120	0x3dcb360b	0.09922417
121	0xbd04a822	-0.032386906
122	0xbddc01a1	-0.10742498
123	0xbc13a338	-0.009011082
124	0x3d5a474a	0.053290643
125	0x3c960464	0.01831264
126	0x3dc26941	0.09492732
127	0x3d693c1a	0.056942083
128	0x3dd8226b	0.1055344
129	0x3cfcab34	0.030843355
130	0xbc80e758	-0.015735313
131	0x3c744638	0.01490932
132	0x3def326b	0.11679538
133	0xbd01547e	-0.03157472
134	0x3c06f708	0.008237608
135	0x3d4ceda2	0.05003131
136	0xbdd7a930	-0.10530317
137	0xbde26626	-0.110546395
138	0x3d97a6df	0.07404875
139	0x3cca50f4	0.024696805
140	0xbd7c79ff	-0.061639782
141	0x3d3ed5d2	0.046590634
142	0xbcce25bc	-0.025164478
143	0x3c6c4788	0.014421351
144	0x3db3aea5	0.08773545
145	0x3bc2a030	0.005939506
146	0x3d9b8a05	0.075946845
147	0xbdd44cab	-0.10366186
148	0xbdbce228	-0.092228234
149	0xbcda5148	-0.026650086
150	0xbdaebffe	-0.08532713
151	0xbc8d24c8	-0.017229453
152	0x3d8f12e9	0.06986029
153	0x3cf99664	0.03046722
154	0x3d0878ee	0.033318453
155	0x3c1aa088	0.009437688
156	0xbd2d15f2	-0.042257257
157	0x3d5a299e	0.053262345
158	0xbcaee02c	-0.021347128
159	0xbc4056b0	-0.011739418
160	0x3cf43c94	0.029814042
161	0xbd1d1c1e	-0.038356893
162	0xbd80b205	-0.062839545
163	0xbdc702f3	-0.097173594
164	0x3cb21fc4	0.021743663
165	0xbd93d968	-0.07219201
166	0x3d8502df	0.06494688
167	0x3c2ff1d8	0.010738812
168	0xbd868482	-0.065682426
169	0xbd41203a	-0.047149874
170	0x3d8fe0d5	0.07025305
171	0xbd8fa8c2	-0.0701461
172	0x3dcc4211	0.09973539
173	0xbd70dd11	-0.058804575
174	0x3d659e96	0.056059442
175	0xbd17528c	-0.036943957
176	0x3d4b110e	0.04957681
177	0x3da2fce5	0.07958392
178	0x3c653868	0.013990499
179	0xbde74da5	-0.112941064
180	0x3d19520e	0.03743177
181	0xbc5fb5f0	-0.013654217
182	0xbce32d80	-0.027731657
183	0xbd5a9d7c	-0.053372845
184	0xbd9c591a	-0.07634182
185	0x3d72a7a2	0.0592419
186	0x3c7cd9a8	0.015432753
187	0xbd280cda	-0.04102788
188	0x3dd5dec9	0.104428835
189	0xbcd78858	-0.026310131
190	0xbda13348	-0.07871109
191	0x3ce6c184	0.028168447
192	0xbac0e700	-0.0014717281
193	0xbdb6720e	-0.08908473
194	0x3ddeb40d	0.10874186
195	0xbcdac6c8	-0.026706114
196	0xbd465988	-0.048425227
197	0x3dae0315	0.084966816
198	0xbdda8675	-0.10670177
199	0x3dc2a2dd	0.0950372
200	0xbdd4f6b7	-0.103986196
201	0x3b675f00	0.0035304427
202	0xbd837a9f	-0.064198725
203	0xbda60b40	-0.081076145
204	0xbd9f4346	-0.07776503
205	0xbc014c40	-0.007891715
206	0xbcee973c	-0.029124849
207	0xbdc9b90a	-0.098497465
208	0xbd72842f	-0.05920809
209	0xbcb5df18	-0.022201106
210	0xbdc7da03	-0.09758379
211	0x3c0e31c8	0.008678861
212	0xbde75da1	-0.11297155
213	0xbd0c4702	-0.034247406
214	0xbd143adc	-0.036188945
215	0x3dc44fd3	0.09585538
216	0x3dcb948b	0.09940442
217	0x3d96a01b	0.073547564
218	0xbb8f6ac0	-0.0043767393
219	0x3d86daa1	0.06584669
220	0x3cc233ec	0.023706399
221	0xbca1cac8	-0.019750014
222	0xbcb77048	-0.022392407
223	0xbda05862	-0.07829358
224	0xbdc7a506	-0.097482726
225	0x3d40ed3a	0.047101237
226	0x3d306dba	0.043073393
227	0xbbb59400	-0.0055413246
228	0x3dc85223	0.09781291
229	0xbdb74f7d	-0.08950708
230	0xbdb55822	-0.088547006
231	0xbca25050	-0.019813687
232	0xbd564fae	-0.052322082
233	0xbc9cbbb0	-0.019132465
234	0xbd976114	-0.07391563
235	0x3d1c31ee	0.038133554
236	0xbd87f826	-0.066391274
237	0xbca67284	-0.020318277
238	0xbd482aac	-0.04886882
239	0x3db60051	0.08886779
240	0xbde3e9f2	-0.11128606
241	0xbdc6ee40	-0.09713411
242	0x3db6e637	0.08930629
243	0x3c7a6558	0.015282951
244	0xbd540c52	-0.051769562
245	0x3d5e9636	0.05434247
246	0xbc81bf64	-0.015838332
247	0xbd75a63f	-0.059972998
248	0xbde8f72d	-0.1137527
249	0x3deeb90d	0.116563894
250	0x3dc33a4b	0.09532603
251	0x3ddcfe45	0.107906856
252	0xbbe97da0	-0.0071255714
253	0x3d7985da	0.060918666
254	0x3dba1797	0.09086531
255	0xbd5f945c	-0.054584846

layers.2.conv3.bias f4 [8]
0	0x00000000	0.0
1	0x00000000	0.0
2	0x00000000	0.0
3	0x00000000	0.0
4	0x00000000	0.0
5	0x00000000	0.0
6	0x00000000	0.0
7	0x00000000	0.0

layers.2.batch_norm.weight f4 [8]
0	0x3f800000	1.0
1	0x3f800000	1.0
2	0x3f800000	1.0
3	0x3f800000	1.0
4	0x3f800000	1.0
5	0x3f800000	1.0
6	0x3f800000	1.0
7	0x3f800000	1.0

layers.2.batch_norm.bias f4 [8]
0	0x00000000	0.0
1	0x00000000	0.0
2	0x00000000	0.0
3	0x00000000	0.0
4	0x00000000	0.0
5	0x00000000	0.0
6	0x00000000	0.0
7	0x00000000	0.0

layers.2.batch_norm.running_mean f4 [8]
0	0x00000000	0.0
1	0x00000000	0.0
2	0x00000000	0.0
3	0x00000000	0.0
4	0x00000000	0.0
5	0x00000000	0.0
6	0x00000000	0.0
7	0x00000000	0.0

layers.2.batch_norm.running_var f4 [8]
0	0x3f800000	1.0
1	0x3f800000	1.0
2	0x3f800000	1.0
3	0x3f800000	1.0
4	0x3f800000	1.0
5	0x3f800000	1.0
6	0x3f800000	1.0
7	0x3f800000	1.0

layers.3.conv1.weight f4 [16, 8, 1, 1]
0	0x3de05800	0.10954285
1	0x3dbb8010	0.09155285
2	0x3e2d8fe2	0.16949418
3	0x3e812a0b	0.2522739
4	0x3ea3a09d	0.31958476
5	0x3dffc65c	0.12489006
6	0xbe660aa3	-0.22464995
7	0xbdea46f6	-0.11439316
8	0x3e98841f	0.297883
9	0xbd2197e0	-0.03945148
10	0x3df463d4	0.11933103
11	0xbe3e0ddd	-0.18559976
12	0x3deee620	0.116649866
13	0x3e63f86a	0.22262731
14	0xbe35449c	-0.17701954
15	0x3db52a7c	0.08845994
16	0xbe1797db	-0.14804022
17	0xbd6631b8	-0.05619976
18	0xbe52034b	-0.20509069
19	0x3e89a395	0.26882616
20	0xbe7bae30	-0.24578166
21	0x3e969dbd	0.2941722
22	0xbe959c58	-0.29220843
23	0xbd6cc0f0	-0.057801187
24	0xbeb2b788	-0.34905648
25	0x3e26f266	0.16303405
26	0x3ea14c89	0.31503704
27	0x3d3f1680	0.046652317
28	0xbe0f817d	-0.1401424
29	0x3e454e76	0.19268212
30	0xbd8a2ca8	-0.06746799
31	0xbaa3b300	-0.0012489259
32	0x3d8da6d8	0.069165885
33	0x3e928c87	0.2862284
34	0xbd375b08	-0.04476455
35	0x3e615b7a	0.22007552
36	0x3ea02f87	0.3128626
37	0xbe579a15	-0.21054871
38	0xbe5d58cc	-0.21615905
39	0x3e8a3413	0.26992854
40	0xbcef8d00	-0.029242039
41	0xbe97dd89	-0.29661205
42	0x3e47f2ae	0.19526169
43	0xbe7cc154	-0.24683124
44	0xbe8cd68d	-0.2750744
45	0x3e72dd76	0.23717293
46	0x3e77ffbe	0.24218652
47	0xbe835ffe	-0.25659174
48	0x3e8f39bb	0.27973732
49	0xbe54549d	-0.20735402
50	0xbe19280b	-0.14956681
51	0x3dca31e4	0.09872797
52	0xbe5c699b	-0.2152466
53	0x3e51211a	0.20422783
54	0xbe4e5dcb	-0.20152967
55	0x3e3c5296	0.18390879
56	0x3e4cb162	0.19989541
57	0x3eb1eadd	0.347495
58	0x3d3ef1b0	0.04661721
59	0x3e2d8c16	0.1694797
60	0xbeaa60bb	-0.33276924
61	0x3dc519b8	0.09624046
62	0x3e9f0a6d	0.31062642
63	0xbe82b698	-0.25529933
64	0x3d1de1a8	0.03854528
65	0xbe11ffd4	-0.14257747
66	0x3e82f8d9	0.2558048
67	0x3e73d006	0.23809823
68	0xbe96b3c2	-0.2943402
69	0xbe6163ea	-0.2201077
70	0xbe11ad68	-0.14226305
71	0xbe1271eb	-0.14301269
72	0xbea9e98f	-0.33186004
73	0xbeac7807	-0.33685324
74	0xbb296900	-0.0025849938
75	0xbe3a27ed	-0.18179293
76	0x3e0e123a	0.1387414
77	0xbe216c89	-0.15764059
78	0x3de9ec08	0.114219725
79	0xbdf68926	-0.12037878
80	0x3e7a2b3e	0.24430558
81	0x3dcca1a8	0.09991771
82	0xbe819708	-0.2531054
83	0x3e500f16	0.20318255
84	0x3cfc5080	0.030800104
85	0xbdc80688	-0.09766871
86	0xbd194618	-0.037420362
87	0x3e8c870d	0.27446786
88	0xbcccae00	-0.024985313
89	0xbe6537dd	-0.22384591
90	0xbdbdac60	-0.092613935
91	0xbdad50e4	-0.08462694
92	0x3e1c1df2	0.15245798
93	0xbe0e6569	-0.13905872
94	0xbe9f003a	-0.3105486
95	0xbea3575b	-0.31902584
96	0xbd686860	-0.056740165
97	0x3c5fa0a0	0.013649136
98	0xbe4c5335	-0.19953616
99	0x3dbddf34	0.09271088
100	0x3df23900	0.11827278
101	0x3e83b847	0.2572653
102	0x3e905e97	0.28197166
103	0xbcf12510	-0.029436618
104	0xbe07820d	-0.13233204
105	0xbded9c6a	-0.11602099
106	0x3eaefe93	0.341786
107	0xbe4cba03	-0.19992833
108	0xbe187c6d	-0.14891215
109	0x3e3d65e6	0.18495902
110	0xbe8f7090	-0.28015566
111	0xbdd539a8	-0.10411388
112	0xbe041f1e	-0.12902495
113	0xbea9e9ab	-0.33186087
114	0x3e383396	0.17988428
115	0xbe21ad72	-0.1578882
116	0x3ea76a49	0.32698277
117	0xbda9abc0	-0.08284712
118	0xbd3c8ee8	-0.046034724
119	0x3eaa8027	0.33300897
120	0x3d481590	0.04884869
121	0xbcef9220	-0.029244483
122	0x3e492a42	0.19645026
123	0xbe721d2e	-0.23643944
124	0x3e3525ea	0.17690244
125	0x3e9a810d	0.30176583
126	0x3da794fc	0.081827134
127	0xbe006bcb	-0.1254112

layers.3.conv1.bias f4 [16]
0	0x00000000	0.0
1	0x00000000	0.0
2	0x00000000	0.0
3	0x00000000	0.0
4	0x00000000	0.0
5	0x00000000	0.0
6	0x00000000	0.0
7	0x00000000	0.0
8	0x00000000	0.0
9	0x00000000	0.0
10	0x00000000	0.0
11	0x00000000	0.0
12	0x00000000	0.0
13	0x00000000	0.0
14	0x00000000	0.0
15	0x00000000	0.0

layers.3.conv2.weight f4 [16, 8, 3, 3]
0	0x3bf8ee70	0.0075967833
1	0xbdce7005	-0.1007996
2	0x3c635308	0.013874777
3	0xbdb7cc5e	-0.08974527
4	0xbb8f9400	-0.0043816566
5	0x3d8449c7	0.064593844
6	0x3d45873e	0.04822468
7	0xbd4b21a6	-0.049592637
8	0x3ddefab9	0.10887665
9	0x3dc8657d	0.09784982
10	0x3dd5275f	0.104079
11	0x3db0e245	0.086369075
12	0xbd1a1788	-0.037620097
13	0xbd704ee5	-0.05866899
14	0x3d40917e	0.047013752
15	0xbdec147f	-0.11527347
16	0xbde4bb09	-0.111684866
17	0xbdc78cdd	-0.097436644
18	0xbac67a40	-0.0015142635
19	0x3dee75fd	0.11643598
20	0x3d005a96	0.03133639
21	0xbdc5ad7a	-0.09652229
22	0x3ca27934	0.019833185
23	0x3db04e63	0.08608701
24	0xbdc8da42	-0.098072544
25	0xbc219af0	-0.0098636
26	0xbde0747e	-0.10959719
27	0xbd7a2deb	-0.061078947
28	0xbca039e0	-0.019558847
29	0xbcbd2b64	-0.02309198
30	0xbd2eb410	-0.04265219
31	0xbd8647b6	-0.065566465
32	0x3d10c4ca	0.035343923
33	0x3dbcdde5	0.092220105
34	0x3d6c79e2	0.057733424
35	0x3da3ef57	0.08004635
36	0xbd387e20	-0.045042157
37	0x3ca3e834	0.020008184
38	0x3d3bee4a	0.045881547
39	0xbdd60ed1	-0.10452045
40	0x3b01c4a0	0.0019801036
41	0x3cdf0a6c	0.02722665
42	0xbddb953c	-0.107218236
43	0x3bfc4710	0.007698901
44	0xbd9b3fce	-0.07580529
45	0x3c9b403c	0.018951528
46	0xbdecc281	-0.11560536
47	0x3d94b58f	0.07261192
48	0xbd246424	-0.040134564
49	0xbdc45bf8	-0.09587854
50	0x3d7cd93a	0.0617306
51	0xbd519fa2	-0.05117763
52	0xbda532c2	-0.08066322
53	0xbdde86ec	-0.10865578
54	0x3d50c1c2	0.05096603
55	0x3d8d417d	0.068972565
56	0xbdac4127	-0.08410864
57	0x3daf4e99	0.08559913
58	0xbd178874	-0.036995366
59	0x3dd44ae5	0.103658475
60	0x3c8f9894	0.01752881
61	0xbd93f704	-0.07224849
62	0x3db3728b	0.08762082
63	0x3d16be1e	0.036802404
64	0xbcef11c4	-0.029183276
65	0x3d50f422	0.051014073
66	0xbc8d0550	-0.017214447
67	0x3dacbfd3	0.08435025
68	0x3cd36d8c	0.025809072
69	0xbd47ea72	-0.04880757
70	0x3d875a63	0.06609037
71	0xbddafedc	-0.10693142
72	0x3b5c21a0	0.0033589378
73	0xbdbce108	-0.09222609
74	0x3ac7a100	0.0015230477
75	0x3d1077f6	0.035270654
76	0xbd48e7d4	-0.049049214
77	0xbdcaafdd	-0.098968245
78	0xbde88cd4	-0.11354986
79	0x3d7e1dbe	0.062040083
80	0xbdbab948	-0.09117371
81	0xbd0f5bd8	-0.0349997
82	0xbd9c86ba	-0.076428846
83	0xbd19ed4c	-0.03757982
84	0x3d6afa16	0.057367407
85	0x3d811dcb	0.06304511
86	0xbdc38e89	-0.09548671
87	0xbd08e08c	-0.03341727
88	0x3db1a697	0.086743526
89	0x3dbf8eb1	0.09353388
90	0xbd8c5c9e	-0.06853603
91	0xbd07e096	-0.033173166
92	0x3d9bb9e9	0.07603819
93	0xbd3eaec4	-0.04655339
94	0x3d5b6e1e	0.053571813
95	0xbda73543	-0.08164456
96	0xbde49bbd	-0.11162517
97	0x3c4bf488	0.0124484375
98	0xbdad8a68	-0.084736645
99	0x3d6c750e	0.05772882
100	0x3d70bab6	0.05877181
101	0xbd649f82	-0.05581618
102	0x3d9afeef	0.07568156
103	0x3c6c4948	0.0144217685
104	0x3d79ca6e	0.060984068
105	0xbd421988	-0.04738763
106	0x3c8e76ac	0.017390572
107	0xbd44be18	-0.04803285
108	0x3db79a23	0.08964946
109	0xbd55b41a	-0.05217371
110	0xbdc7167d	-0.09721086
111	0x3d988615	0.07447449
112	0xbc9be624	-0.019030638
113	0xbddbc775	-0.10731403
114	0x3da21e23	0.079159044
115	0x3da2b10d	0.07943926
116	0xbdc5a5ee	-0.09650789
117	0x38924800	6.9752336e-05
118	0xbc541d90	-0.012946501
119	0xbd32e0c8	-0.0436714
120	0x3d8350f7	0.06411927
121	0x3d846ea1	0.06466413
122	0x3d979823	0.07402065
123	0xbdeade1d	-0.11468146
124	0x3daf0fc5	0.0854793
125	0x3dd3f1fd	0.1034889
126	0x3de03e35	0.10949365
127	0x3dc32d6b	0.09530147
128	0x3cf66c24	0.030080862
129	0x3d03611e	0.03207504
130	0xbd67e605	-0.056615848
131	0xbc54f628	-0.012998141
132	0xbdd58f51	-0.10427726
133	0xbd9aa9d6	-0.07551925
134	0x3d11a51e	0.03555786
135	0xbda0c879	-0.07850737
136	0x3cba5f34	0.022750475
137	0xbdba0f0d	-0.09084902
138	0xbdca1a33	-0.09868278
139	0x3d263976	0.040582143
140	0xbd314834	-0.04328175
141	0xbceefa3c	-0.029172055
142	0x3da13acd	0.078725435
143	0x3c9be784	0.019031294
144	0xbd15c8f2	-0.03656859
145	0xbc4618c0	-0.012090862
146	0xbc95509c	-0.018226914
147	0x3dc3c6d1	0.095594056
148	0xbd885ed0	-0.06658709
149	0xbde03418	-0.10947436
150	0x3cc4e104	0.024033077
151	0xbc7a14a0	-0.015263706
152	0x3afefa00	0.0019453168
153	0x3c6fe298	0.0146414265
154	0x3ccd9914	0.025097407
155	0xbc89b404	-0.016809471
156	0xbdab477c	-0.08363244
157	0xbd3921e0	-0.04519832
158	0x3dddedb7	0.10836356
159	0x3c4a9888	0.012365468
160	0x3bece710	0.0072296932
161	0xbbe72b90	-0.0070547536
162	0x3c42e7d8	0.011896096
163	0xbdaa2f42	-0.08309795
164	0x399de600	0.00030116737
165	0x3ce3a93c	0.027790658
166	0xbb96bd70	-0.0046002194
167	0xbc772020	-0.015083343
168	0x3d8271eb	0.063693844
169	0xbd733006	-0.05937197
170	0xbd2d5c0e	-0.04232412
171	0xbda2f33c	-0.079565495
172	0x3d057256	0.032579742
173	0xbdd2e645	-0.10297827
174	0xbc27f1a0	-0.010250479
175	0xbdec1f71	-0.115294345
176	0xbc9e0d78	-0.019293532
177	0xbd8095f1	-0.06278599
178	0xbdccfd59	-0.1000926
179	0xbdc40415	-0.09571091
180	0x3b4b9180	0.0031062067
181	0x3ca2ec44	0.01988805
182	0xbdd4e7ba	-0.10395761
183	0x3dd33b41	0.10314036
184	0xbda88c86	-0.08229928
185	0xbddf0dc1	-0.10891295
186	0xbdb5565f	-0.088543646
187	0xbd4e6066	-0.0503849
188	0xbc154268	-0.009110071
189	0xbd9e7586	-0.077372596
190	0xbdead075	-0.11465541
191	0x3d1842ee	0.037173204
192	0x3cec3bac	0.028837048
193	0x3dc34b27	0.095358185
194	0x3cd5d2e4	0.026101537
195	0x3b98ff90	0.0046691373
196	0x3debd6c1	0.115155704
197	0x3d8ab82b	0.067734085
198	0xbc190650	-0.009339884
199	0x3db2a401	0.087226875
200	0xbca71d24	-0.020399638
201	0x3d6f503e	0.058426134
202	0xbd8ba1ba	-0.06817956
203	0xbd2ff566	-0.04295864
204	0x3dd0c4ef	0.10193812
205	0x3d8babcb	0.06819876
206	0xbd9c0111	-0.07617391
207	0xbd8e01c2	-0.06933929
208	0xbdf0f91c	-0.11766264
209	0x3deca83b	0.11555525
210	0xbb2793e0	-0.0025570318
211	0x3b9edd00	0.0048481226
212	0xbc478858	-0.012178503
213	0x3dc10707	0.094251685
214	0xbd3dbe24	-0.04632391
215	0xbdc38452	-0.095467225
216	0x3d0cf39e	0.03441202
217	0x3dd9ecaf	0.10640847
218	0x3c33f1d8	0.010982953
219	0x3d171b6e	0.036891393
220	0xbdadaf33	-0.08480682
221	0x3ce16f14	0.027518786
222	0x3d6b78ae	0.057488136
223	0xbd8a2ee0	-0.06747222
224	0xbdc901e8	-0.09814817
225	0x3c184518	0.009293817
226	0x3cc1584c	0.023601674
227	0xbc0d4808	-0.008623131
228	0x3ca3b754	0.019984879
229	0x3dc91f41	0.09820414
230	0xbdd97e6e	-0.10619818
231	0x3d9fb0e9	0.07797415
232	0xbcf6769c	-0.030085854
233	0xbd997226	-0.07492475
234	0x3d00d956	0.031457268
235	0x3c8dc3d4	0.017305292
236	0x3d4a3962	0.04937113
237	0xbd04a61c	-0.032384977
238	0xbd05414a	-0.032532968
239	0xbde1706f	-0.11007773
240	0xbdb2046a	-0.08692248
241	0x3d093a72	0.033503003
242	0xbcdd6250	-0.027024418
243	0xbd098e68	-0.033583075
244	0x3b2a3e00	0.0025976896
245	0x3d32226a	0.04348985
246	0xbd98dff6	-0.07464592
247	0xbb4035a0	-0.0029328838
248	0xbd08213a	-0.033234812
249	0xbde1b1bf	-0.110202305
250	0xbdb90d66	-0.09035759
251	0xbda6755b	-0.081278525
252	0x3cccf84c	0.02502074
253	0x3da5176f	0.0806111
254	0x3c01fee8	0.00793431
255	0x3d8d4ec7	0.06899791

layers.3.conv2.bias f4 [16]
0	0x00000000	0.0
1	0x00000000	0.0
2	0x00000000	0.0
3	0x00000000	0.0
4	0x00000000	0.0
5	0x00000000	0.0
6	0x00000000	0.0
7	0x00000000	0.0
8	0x00000000	0.0
9	0x00000000	0.0
10	0x00000000	0.0
11	0x00000000	0.0
12	0x00000000	0.0
13	0x00000000	0.0
14	0x00000000	0.0
15	0x00000000	0.0

layers.3.conv3.weight f4 [16, 16, 3, 3]
0	0x3d8f1ec9	0.06988294
1	0x3d8990db	0.06717082
2	0xbd3b0dbe	-0.045667402
3	0xbd7efddb	-0.062253814
4	0x3da0fff9	0.07861323
5	0xbd81a020	-0.063293695
6	0xbd94c742	-0.07264568
7	0xbc432de0	-0.011912793
8	0xbd85522e	-0.06509815
9	0xbd98081c	-0.07423422
10	0xbd4a7423	-0.049427163
11	0x3c396488	0.011315472
12	0xbd833b14	-0.06407753
13	0xbc2a9ed8	-0.010413848
14	0xbd8096be	-0.06278752
15	0x3d686092	0.05673272
16	0xbc89363c	-0.016749494
17	0xbd9a43b8	-0.075324476
18	0xbcf4f736	-0.029903036
19	0x3d36e742	0.04465414
20	0xbcff94f6	-0.03119896
21	0x3d98d8b1	0.074632056
22	0xbc4cb8a0	-0.01249519
23	0xbd8bf7d3	-0.06834378
24	0xbd79d973	-0.06099839
25	0xbd295003	-0.04133607
26	0x3d980ea9	0.07424671
27	0x3cb1e8e0	0.021717489
28	0xbd0312d6	-0.032000385
29	0x3d882049	0.06646783
30	0x3da97185	0.08273605
31	0xbd3d0acb	-0.04615287
32	0x3c72eb40	0.014826596
33	0xbd853126	-0.06503515
34	0x3d144c8e	0.03620582
35	0xbd2ab990	-0.041680872
36	0x3b6122a0	0.0034352913
37	0x3d850dfb	0.06496807
38	0xbc4bffb8	-0.012451105
39	0xbd186fe0	-0.037216067
40	0xbd752b2e	-0.059855632
41	0x3d3a6362	0.045504935
42	0x3b9e4ff0	0.0048313066
43	0xbda6f1be	-0.081515774
44	0xbdaa9c8c	-0.0833064
45	0xbd968834	-0.073501974
46	0xbda9e793	-0.082961224
47	0x3da6f059	0.081513114
48	0xbd949d4c	-0.072565645
49	0x3d8d1acd	0.068898775
50	0x3d4c05ce	0.049810223
51	0xbd177043	-0.036972295
52	0xbd1ac306	-0.037783645
53	0x3da95925	0.08268956
54	0x3d12a3a6	0.0358006
55	0xbaee8f40	-0.0018200651
56	0x3d882b93	0.06648936
57	0xbd4e53ce	-0.05037289
58	0xbd84ba70	-0.06480873
59	0x3d905a71	0.070485
60	0x3c88c894	0.016697206
61	0xbd97d1c6	-0.07413058
62	0x3d9ed00d	0.07754526
63	0xbd8ba2ab	-0.06818136
64	0x3d5be6c2	0.053686865
65	0xbd668dd3	-0.056287598
66	0xbd4b72ab	-0.049669903
67	0xbd161b4b	-0.036647122
68	0x3c9c1674	0.019053675
69	0x3d550fd2	0.05201704
70	0xbd784b38	-0.06061861
71	0x3d0594f2	0.03261275
72	0xbc5d3f08	-0.013503797
73	0xbd87ded0	-0.06634295
74	0x3aced240	0.0015779212
75	0x3d6762fa	0.056490876
76	0xbd399326	-0.045306347
77	0x3d5061ba	0.05087445
78	0x3d3aab12	0.0455733
79	0x3d95cc4d	0.07314358
80	0xbd1e3d83	-0.03863288
81	0x3c2eb780	0.010663867
82	0xbd4bd476	-0.049763165
83	0xbd2a1270	-0.04152149
84	0x3d8b6e97	0.06808203
85	0x3d3d72b2	0.04625196
86	0xbda0c9a0	-0.07850957
87	0xbd2393de	-0.03993594
88	0x3ce135f4	0.027491547
89	0x3d891e9d	0.06695292
90	0x3b605620	0.0034231022
91	0x3afa8000	0.0019111633
92	0xbd0385e6	-0.032110117
93	0x3cc08e74	0.023505427
94	0x3c9984e4	0.018740125
95	0x3d5d44e2	0.05402077
96	0x3cc177c4	0.023616679
97	0x3d1f582e	0.038902454
98	0xbd5b1c6e	-0.05349391
99	0x3d50cbee	0.050975733
100	0xbd2ad1f3	-0.04170413
101	0xbce91b0c	-0.02845528
102	0xbd922d2a	-0.071375206
103	0xbafbbdc0	-0.001920633
104	0x3ae38540	0.0017358437
105	0x3d9a86d3	0.07545247
106	0x3d395ba2	0.045253403
107	0x3da3a539	0.07990498
108	0xbd8ee8b2	-0.06977977
109	0xbd3d985e	-0.046287887
110	0xbda4e3ff	-0.08051299
111	0x3d8a88d1	0.06764377
112	0xbbce7410	-0.006300457
113	0xbb4f74a0	-0.0031655207
114	0xbc86e690	-0.016467363
115	0xbc480080	-0.01220715
116	0xbcbefe50	-0.023314625
117	0xbd0969e0	-0.033548236
118	0x3cac3e0c	0.02102568
119	0xbcf9f6d0	-0.030513197
120	0xbcf957f0	-0.03043744
121	0xbc8e3a84	-0.017361887
122	0xbd5607ab	-0.052253406
123	0xbb3d0c80	-0.0028846562
124	0x3cce9c34	0.025220968
125	0xbd80d9f8	-0.06291574
126	0x3d8f3acb	0.06993636
127	0xbd4f7bd0	-0.050655186
128	0x3d035f42	0.032073267
129	0xbd902e5c	-0.07040092
130	0x3da56e59	0.08077688
131	0xbc69dba0	-0.014273554
132	0x3d02845e	0.031864516
133	0x3c8c4400	0.017122269
134	0x3c34aee8	0.011028029
135	0xbd673a10	-0.056451857
136	0x3d9e528d	0.07730589
137	0xbca3f5f4	-0.02001474
138	0xbd7f82cb	-0.062380593
139	0x3da0ed63	0.07857778
140	0x3c9e0644	0.019290097
141	0x3d78764a	0.060659684
142	0x3cc06c20	0.023489058
143	0xbc96d3bc	-0.01841151
144	0x3cd131c0	0.025536418
145	0xbc9c0fe4	-0.019050546
146	0xbd3745a3	-0.044744145
147	0x3d769faa	0.06021086
148	0x3c78f040	0.015193999
149	0xbc800014	-0.015625037
150	0x3d3c3f4a	0.045958795
151	0xbd2fe20e	-0.042940192
152	0xba967600	-0.0011479259
153	0x3d536bda	0.051616527
154	0x3d3d179a	0.046165086
155	0x3d52403a	0.051330782
156	0xbc9e02ac	-0.019288383
157	0xbd83c720	-0.064344645
158	0x3d62839a	0.055301286
159	0xbc9be9f0	-0.019032449
160	0xbd8499b6	-0.064746305
161	0x3b8cd830	0.0042982325
162	0xbd6954d3	-0.05696566
163	0xbd492186	-0.049104236
164	0xbc8f6eec	-0.017508946
165	0x3d148f5a	0.036269523
166	0xbcb92590	-0.022600919
167	0xb96dce00	-0.00022678822
168	0xbda66067	-0.08123856
169	0x3d2d01c2	0.042238005
170	0xbd38b3cb	-0.04509334
171	0x3c842df0	0.016135186
172	0x3c3b1fd8	0.011421166
173	0xbd9257ae	-0.0714563
174	0x3da1fadd	0.079091765
175	0xbd58ca3e	-0.05292725
176	0xbd04c168	-0.03241101
177	0xbc9cc8bc	-0.019138686
178	0x3c3ed660	0.011647791
179	0x3c70cae0	0.014696807
180	0xbce38b8c	-0.027776502
181	0xbbef5f80	-0.0073050857
182	0x3d8019fd	0.06254957
183	0x3d926b25	0.071493424
184	0x3cc634e4	0.024195142
185	0xbd3ca678	-0.046057194
186	0x3d4d5a1a	0.050134756
187	0xbce3fd3c	-0.027830712
188	0xbc9ef0f0	-0.019401997
189	0x3d0c31d8	0.034227222
190	0xbd961d33	-0.07329788
191	0xbd7a5db3	-0.061124515
192	0x3ca3ac50	0.019979626
193	0x3cf23e50	0.029570729
194	0x3d6f9fea	0.058502115
195	0xbd45b100	-0.048264503
196	0xbb493300	-0.0030700564
197	0xbd90b82c	-0.07066378
198	0xbcb078ec	-0.021542035
199	0x3d4f8a5a	0.05066905
200	0xbd652b73	-0.05594964
201	0xbd8bda22	-0.06828715
202	0xbd6eaeab	-0.058272045
203	0xbd2833be	-0.04106497
204	0xbda48f67	-0.08035164
205	0xbc1d8be0	-0.009615868
206	0x3ac9f340	0.0015407577
207	0x3c63ef88	0.013912089
208	0x3d3610d6	0.04444965
209	0x3ca60950	0.020268112
210	0x3ced4690	0.02896431
211	0x3c1ea098	0.009681843
212	0x3bfc93d0	0.0077080503
213	0x3cb30dc4	0.02185715
214	0x3d813421	0.06308771
215	0xbd7b6e96	-0.06138476
216	0x3d879581	0.066203125
217	0xbc90741c	-0.01763349
218	0x3d6091f2	0.054826684
219	0x3d152570	0.036412656
220	0x3c077b68	0.008269168
221	0x3da6d2a5	0.08145646
222	0x3d55a6e2	0.052161105
223	0x3d298c6e	0.04139369
224	0xbcf09aa6	-0.029370617
225	0x3ced558c	0.028971456
226	0x3c87a3b4	0.016557552
227	0x3cb84fb0	0.022498935
228	0x3d9fe3a9	0.078070946
229	0x3da3a205	0.07989887
230	0x3a7faf80	0.00097536296
231	0x3d80a593	0.06281581
232	0x3d775816	0.06038674
233	0x3d985e89	0.07439906
234	0x3d486c6e	0.04893153
235	0x3cdb98dc	0.026806287
236	0x3ce01800	0.027355194
237	0xbcfd80d6	-0.030945223
238	0xbc5c4fd8	-0.013446771
239	0x3da06b3f	0.078329556
240	0xbc696220	-0.014244586
241	0x3d939b2d	0.07207332
242	0xbbd624b0	-0.006535135
243	0x3d5248a2	0.0513388
244	0x3d1ada58	0.037805885
245	0x3c4a84a0	0.012360722
246	0xbce6bfac	-0.028167568
247	0xbc97334c	-0.018457077
248	0xbd6ea6f3	-0.058264684
249	0xbd4a9e50	-0.049467385
250	0x3c98ecc4	0.018667586
251	0x3d63be86	0.05560162
252	0x3d9713a9	0.07376797
253	0x3d981b3d	0.0742707
254	0xbcd71626	-0.026255678
255	0x3d548682	0.05188609

layers.3.conv3.bias f4 [16]
0	0x00000000	0.0
1	0x00000000	0.0
2	0x00000000	0.0
3	0x00000000	0.0
4	0x00000000	0.0
5	0x00000000	0.0
6	0x00000000	0.0
7	0x00000000	0.0
8	0x00000000	0.0
9	0x00000000	0.0
10	0x00000000	0.0
11	0x00000000	0.0
12	0x00000000	0.0
13	0x00000000	0.0
14	0x00000000	0.0
15	0x00000000	0.0

layers.3.batch_norm.weight f4 [16]
0	0x3f800000	1.0
1	0x3f800000	1.0
2	0x3f800000	1.0
3	0x3f800000	1.0
4	0x3f800000	1.0
5	0x3f800000	1.0
6	0x3f800000	1.0
7	0x3f800000	1.0
8	0x3f800000	1.0
9	0x3f800000	1.0
10	0x3f800000	1.0
11	0x3f800000	1.0
12	0x3f800000	1.0
13	0x3f800000	1.0
14	0x3f800000	1.0
15	0x3f800000	1.0

layers.3.batch_norm.bias f4 [16]
0	0x00000000	0.0
1	0x00000000	0.0
2	0x00000000	0.0
3	0x00000000	0.0
4	0x00000000	0.0
5	0x00000000	0.0
6	0x00000000	0.0
7	0x00000000	0.0
8	0x00000000	0.0
9	0x00000000	0.0
10	0x00000000	0.0
11	0x00000000	0.0
12	0x00000000	0.0
13	0x00000000	0.0
14	0x00000000	0.0
15	0x00000000	0.0

layers.3.batch_norm.running_mean f4 [16]
0	0x00000000	0.0
1	0x00000000	0.0
2	0x00000000	0.0
3	0x00000000	0.0
4	0x00000000	0.0
5	0x00000000	0.0
6	0x00000000	0.0
7	0x00000000	0.0
8	0x00000000	0.0
9	0x00000000	0.0
10	0x00000000	0.0
11	0x00000000	0.0
12	0x00000000	0.0
13	0x00000000	0.0
14	0x00000000	0.0
15	0x00000000	0.0

layers.3.batch_norm.running_var f4 [16]
0	0x3f800000	1.0
1	0x3f800000	1.0
2	0x3f800000	1.0
3	0x3f800000	1.0
4	0x3f800000	1.0
5	0x3f800000	1.0
6	0x3f800000	1.0
7	0x3f800000	1.0
8	0x3f800000	1.0
9	0x3f800000	1.0
10	0x3f800000	1.0
11	0x3f800000	1.0
12	0x3f800000	1.0
13	0x3f800000	1.0
14	0x3f800000	1.0
15	0x3f800000	1.0

conv1.weight f4 [1, 16, 1, 1]
0	0x3e0343f0	0.12818885
1	0xbd88ee98	-0.06686133
2	0xbe4cfb08	-0.20017636
3	0x3e6a7822	0.2289739
4	0x3e06c8ae	0.1316249
5	0x3e63fdbe	0.22264764
6	0xbe573d34	-0.21019441
7	0x3ddf3464	0.108986646
8	0x3dda7284	0.10666373
9	0xbe1854d8	-0.14876115
10	0xbe3c93ca	-0.18415752
11	0xbe62d5f8	-0.22151935
12	0xbe3bad2e	-0.18327782
13	0x3e6706a2	0.22561124
14	0x3d793838	0.06084463
15	0x3e129dd4	0.14318019
