networks/gan-not-best-step-2.pth (torch, 36351 bytes, 41 tensors)

layers.0.conv1.weight f4 [2, 1, 1, 1]
0	0x3d69bf38	0.057067126
1	0xbf32b7ca	-0.6981169

layers.0.conv1.bias f4 [2]
0	0x3aa60440	0.0012666062
1	0xb8c0e8fd	-9.198671e-05

layers.0.conv2.weight f4 [2, 1, 3, 3]
0	0xbd63b074	-0.0555882
1	0xbea5c56d	-0.32377186
2	0xbe5f2cab	-0.21794383
3	0xbe62c3dc	-0.22145027
4	0xbe8a890f	-0.27057692
5	0xbe871ce0	-0.26389217
6	0xbe0266f9	-0.12734593
7	0xbe2c7367	-0.16840898
8	0x3e72e60c	0.23720568
9	0xbe3b62a2	-0.18299344
10	0xbe5140df	-0.20434903
11	0x3e2f8fc7	0.1714469
12	0x3e05048a	0.12990013
13	0xbe12a37a	-0.14320174
14	0x3d9792e9	0.07401068
15	0x3d9a49ef	0.07533633
16	0x3e5e2bc6	0.21696386
17	0xbdfb1127	-0.12259131

layers.0.conv2.bias f4 [2]
0	0xb81e802e	-3.7789512e-05
1	0xba41ab2d	-0.0007387873

layers.0.conv3.weight f4 [2, 2, 3, 3]
0	0x3db21049	0.086945124
1	0xbc4ca56a	-0.01249061
2	0xbd399d4f	-0.045316037
3	0xbe63b063	-0.22235255
4	0x3e407f99	0.18798675
5	0x3d49cbc0	0.049266577
6	0x3d060da9	0.03272787
7	0x3daf6e45	0.08565954
8	0xbe5f9d37	-0.21837316
9	0x3e4a4c3c	0.19755644
10	0xbc18a678	-0.009317033
11	0xbcf913e0	-0.030404985
12	0xbe3abeb4	-0.1823681
13	0x3e308b90	0.17240739
14	0xbe40c8cf	-0.18826602
15	0x3d9f3009	0.07772834
16	0xbe1536be	-0.14571664
17	0xbdef1b3f	-0.11675119
18	0x3d10943a	0.03529761
19	0x3d0c04b2	0.034184165
20	0xbe3f8401	-0.18702699
21	0x3e6800db	0.22656576
22	0x3d83de4f	0.064388864
23	0x3e2e3787	0.1701337
24	0xbe32f813	-0.17477445
25	0xbd559ef8	-0.052153558
26	0x3e6895d0	0.22713399
27	0x3de479b3	0.11156025
28	0x3e16f2b9	0.14741029
29	0x3d7e0b23	0.06202234
30	0xbe379f19	-0.17931785
31	0xbdd365dc	-0.103221625
32	0xbda6892b	-0.081316315
33	0x3d3e7719	0.0465003
34	0xbe41cb47	-0.189252
35	0x3df559bc	0.11980006

layers.0.conv3.bias f4 [2]
0	0xb55a33f9	-8.128696e-07
1	0xb2cd95e4	-2.3933303e-08

layers.0.batch_norm.weight f4 [2]
0	0x3f7f766c	0.9979007
1	0x3f803e3d	1.0018994

layers.0.batch_norm.bias f4 [2]
0	0x3afe87a0	0.0019419082
1	0x3afdf573	0.0019375518

layers.0.batch_norm.running_mean f4 [2]
0	0x3bb8b2c0	0.005636543
1	0xbd87b2a1	-0.06625868

layers.0.batch_norm.running_var f4 [2]
0	0x3f4f5fb6	0.8100542
1	0x3f51536a	0.81767905

layers.1.conv1.weight f4 [4, 2, 1, 1]
0	0xbf25b926	-0.6473564
1	0xbed77bfe	-0.42086786
2	0x3e055e69	0.13024296
3	0x3e8e9b7f	0.2785301
4	0xbe48793b	-0.19577496
5	0x3f0795ff	0.5296325
6	0x3e39201c	0.18078655
7	0xbedd8f36	-0.43273324

layers.1.conv1.bias f4 [4]
0	0x390a3bd8	0.00013182999
1	0xb82ab38d	-4.0698378e-05
2	0xb6a23bd2	-4.8349402e-06
3	0xb8c87fe7	-9.560567e-05

layers.1.conv2.weight f4 [4, 2, 3, 3]
0	0x3d851123	0.06497409
1	0xbe44f5ed	-0.19234438
2	0x3babdb77	0.005244668
3	0xbe1c0429	-0.15235962
4	0xbd151ef1	-0.03640646
5	0xbdfaa079	-0.12237639
6	0x3e39867d	0.1811771
7	0x3c3081a3	0.010773095
8	0xbd6df457	-0.05809435
9	0xbe276f8e	-0.16351148
10	0xbe16cdff	-0.14727019
11	0xbd9c16c8	-0.07621533
12	0x3e5ebfbe	0.21752831
13	0xbe2c8a19	-0.16849555
14	0xbe0dd3ed	-0.13850375
15	0x3de9e09a	0.114197925
16	0xbe310c06	-0.17289743
17	0x3d4119ab	0.04714362
18	0x3e423b5f	0.18967961
19	0x3e40f591	0.18843676
20	0x3d0be19b	0.0341507
21	0x3e492f9c	0.19647068
22	0xbe3385ba	-0.17531481
23	0xbe1f198c	-0.15537089
24	0xbd27877c	-0.040900692
25	0x3d921b9d	0.07134173
26	0xbdd877db	-0.105697356
27	0xbcb25bf5	-0.021772364
28	0x3e2d48c2	0.16922286
29	0x3e5cee44	0.21575266
30	0xbe57f294	-0.2108863
31	0x3d163ff7	0.036682095
32	0xbd7330e2	-0.05937279
33	0x3caaefbf	0.020866273
34	0xbe538086	-0.20654497
35	0xbe3efdb8	-0.18651474
36	0x3e4f1598	0.20223081
37	0x3d7857f3	0.06063075
38	0xbcb67b55	-0.022275606
39	0x3df9be78	0.12194532
40	0x3d42276e	0.047400884
41	0xbdbca6bd	-0.0921149
42	0xbe1eb025	-0.15496881
43	0x3dca6464	0.09882429
44	0xbdce1dd3	-0.10064282
45	0xbd6b1a1e	-0.057397954
46	0xbe300ebd	-0.17193122
47	0xbdd4ac28	-0.10384399
48	0x3e4d1fce	0.20031664
49	0x3e2a8f85	0.16656311
50	0xbcd87122	-0.026421133
51	0x3e656396	0.2240127
52	0x3d5026c6	0.050818227
53	0x3d358be5	0.044322867
54	0xbd8ca9e6	-0.06868343
55	0xbe03cc0c	-0.12870806
56	0xbc049837	-0.0080929315
57	0x3e63bb3f	0.22239397
58	0x3dfce5ea	0.1234854
59	0xbd3357a5	-0.043784756
60	0x3d39415b	0.045228343
61	0xbe106f75	-0.14105017
62	0xbe6d3adb	-0.23166983
63	0xbe0ebb84	-0.13938719
64	0x3e0e4b9b	0.13896029
65	0x3d00f847	0.031486776
66	0xbd867b21	-0.06566454
67	0x3cf1bc5d	0.029508764
68	0xbd33f843	-0.043937933
69	0x3e2c7467	0.16841279
70	0xbe2d4391	-0.16920306
71	0xbd9ba075	-0.07598964

layers.1.conv2.bias f4 [4]
0	0xba3c8b6b	-0.0007192406
1	0xba38851b	-0.0007038877
2	0x3a40316e	0.00073315843
3	0xba3cacee	-0.00071973994

layers.1.conv3.weight f4 [4, 4, 3, 3]
0	0xbc75cf6a	-0.015003065
1	0xbdce9e78	-0.10088819
2	0x3d1dd6cf	0.038534936
3	0x3e03f368	0.12885821
4	0x3e12b8a1	0.14328243
5	0x3d6f74d6	0.058461033
6	0x3e260065	0.16211088
7	0xbdec67c4	-0.11543229
8	0x3db85756	0.09001033
9	0xbd781936	-0.060570918
10	0xbe27ecb3	-0.16398887
11	0xbd85e32c	-0.0653747
12	0xbd065ff0	-0.032806337
13	0x3e05d390	0.13068986
14	0xbda1e9b4	-0.079059035
15	0x3c178ca4	0.00924984
16	0xbd3deae0	-0.046366572
17	0xbdd5105c	-0.10403511
18	0xbdb829bc	-0.08992335
19	0xbddcb504	-0.107767135
20	0xbdd75726	-0.10514669
21	0xbd7c9df4	-0.061674073
22	0x3e1b89cd	0.15189286
23	0x3dbfbce1	0.09362198
24	0x3e24d87d	0.16098209
25	0x3dcdd446	0.100502536
26	0xbde9d952	-0.11418404
27	0xbdba3d63	-0.0909374
28	0x3d38bcd6	0.045101963
29	0xbe287e47	-0.16454421
30	0x3da0905c	0.07840034
31	0x3deef7ca	0.11668356
32	0x3d2135fd	0.039358128
33	0x3df95ecd	0.12176285
34	0xbe1975cb	-0.1498634
35	0x3d426e6e	0.047468595
36	0xbd0515f4	-0.03249164
37	0x3deb75d5	0.11497084
38	0x3dedfc71	0.11620415
39	0xbdf50744	-0.119642764
40	0xbdf7d0d2	-0.12100376
41	0x3e035ca9	0.12828316
42	0x3d963658	0.07334584
43	0xbe1051a6	-0.14093646
44	0x3da73dac	0.0816606
45	0x3d5d29b6	0.053994857
46	0xbddfd517	-0.109293155
47	0x3d3dfa01	0.046381
48	0x3dff59dd	0.12468312
49	0xbdee3c30	-0.116325736
50	0x3e1e3ce3	0.15452914
51	0x3dabe296	0.08392827
52	0xbd81b0b6	-0.06332533
53	0xbd22a867	-0.039711382
54	0x3dd7cd6a	0.105372265
55	0xbd9a4c00	-0.07534027
56	0x3d43414e	0.0476697
57	0xbdd4dc3d	-0.103935696
58	0x3dfecfef	0.12442004
59	0x3da59c30	0.08086431
60	0x3c85e53f	0.016344665
61	0xbe173996	-0.14768061
62	0x3db76bb0	0.08956087
63	0xbd990ef8	-0.07473558
64	0x3cdd5017	0.027015729
65	0x3e26001c	0.16210979
66	0x3d636d47	0.055524137
67	0xbdc216b2	-0.09476985
68	0x3de051f8	0.10953134
69	0xbda4a796	-0.08039777
70	0x3d325daf	0.043546375
71	0x3d320db4	0.0434701
72	0x3e17e76d	0.14834376
73	0xbd29fd70	-0.041501462
74	0x3e25a1b1	0.16174962
75	0x3d654af1	0.055979673
76	0x3c1de258	0.009636484
77	0xbd958aa7	-0.073018365
78	0x3d6d6d16	0.05796536
79	0xbdf99bdf	-0.12187933
80	0xbb3e743c	-0.002906098
81	0xbd8b1f1f	-0.06793045
82	0xbe2ac16a	-0.16675344
83	0x3d36f618	0.044668287
84	0x3d44cf36	0.048049174
85	0x3e1e3b70	0.15452361
86	0x3c04e70a	0.008111725
87	0x39ac35ff	0.00032846627
88	0x3e1f9c92	0.1558707
89	0x3e142533	0.14467315
90	0xbde19be7	-0.11016064
91	0xbddad024	-0.10684231
92	0x3e210b8d	0.15727063
93	0xbd765220	-0.060136914
94	0x3d9edf6d	0.07757459
95	0xbe267c64	-0.16258389
96	0xbc35baf7	-0.011091939
97	0xbd908f65	-0.070586
98	0x3cee5360	0.02909249
99	0x3e19c8fc	0.15018076
100	0xbd1fcee7	-0.039015677
101	0xbdcda02b	-0.10040315
102	0x3e0f7e59	0.14013042
103	0x3df16032	0.11785926
104	0xbd7e3580	-0.06206274
105	0xbd1fd802	-0.03902436
106	0xbd117455	-0.035511333
107	0xbc6cc45f	-0.014451115
108	0xbd3ec32b	-0.046572845
109	0xbddee35d	-0.1088321
110	0xbd421197	-0.047380056
111	0xbcd07010	-0.02544406
112	0xbe10302d	-0.14080878
113	0xbdab4e39	-0.08364529
114	0x3e1571de	0.14594218
115	0xbd77a3ce	-0.06045895
116	0x3dfdcfa8	0.12393123
117	0x3dfa6581	0.122263916
118	0x3d6f5c14	0.058437422
119	0xbe28231e	-0.16419646
120	0xbcede77c	-0.029041044
121	0xbd37230d	-0.04471116
122	0x3e1c069a	0.15236893
123	0xbd65d3d3	-0.056110214
124	0xbbee4ee8	-0.00727259
125	0xbb7561f6	-0.0037442422
126	0x3e24f714	0.16109878
127	0x3dfa7517	0.12229364
128	0x3dcf0d7a	0.10109992
129	0x3e20047c	0.1562671
130	0x3d996a12	0.074909344
131	0xbe178205	-0.14795692
132	0x3e258532	0.16164091
133	0xbd48ac7e	-0.048992626
134	0xbdc84bdf	-0.09780096
135	0x3db670d2	0.089082375
136	0xbd90a4d7	-0.07062691
137	0xbcf1a6cb	-0.029498478
138	0x3e0aa0ae	0.13537857
139	0x3e16aa0b	0.14713304
140	0xbd20c095	-0.03924616
141	0xbb1606af	-0.0022892167
142	0xbb6813a0	-0.0035412088
143	0xbda8bfc1	-0.08239699

layers.1.conv3.bias f4 [4]
0	0x33dc047d	1.0245365e-07
1	0x32b3e357	2.0941725e-08
2	0xb250cd13	-1.2153822e-08
3	0xb340bb22	-4.487368e-08

layers.1.batch_norm.weight f4 [4]
0	0x3f803e43	1.0019001
1	0x3f7f7663	0.9979002
2	0x3f7f7693	0.99790305
3	0x3f7f7650	0.99789906

layers.1.batch_norm.bias f4 [4]
0	0x3b031e72	0.002000716
1	0xbb02b3a6	-0.0019943505
2	0xbb02d6cc	-0.0019964455
3	0xbb030b5b	-0.0019995782

layers.1.batch_norm.running_mean f4 [4]
0	0xbdb02b6b	-0.08602031
1	0x3d078607	0.033086803
2	0x3ce2f0d4	0.027702726
3	0xbca82b30	-0.020528406

layers.1.batch_norm.running_var f4 [4]
0	0x3f534689	0.82529503
1	0x3f502150	0.8130083
2	0x3f56314d	0.8366898
3	0x3f542f0d	0.82884294

layers.2.conv1.weight f4 [8, 4, 1, 1]
0	0xbed5acaa	-0.41733295
1	0xbe6b8a62	-0.23002008
2	0xbeac0e2e	-0.33604568
3	0x3eaec29a	0.34132844
4	0xbf003017	-0.5007338
5	0x3e69ed46	0.22844419
6	0xbda2c784	-0.07948211
7	0x3eb94c3a	0.3619097
8	0x3e947958	0.28998828
9	0x3e879556	0.26481122
10	0xbe3678dd	-0.17819543
11	0xbd36f824	-0.04467024
12	0xbe37b835	-0.17941363
13	0xbe40094e	-0.1875355
14	0xbddf9e7f	-0.109189026
15	0xbe66256e	-0.22475216
16	0xbefec711	-0.4976125
17	0x3ec08c6f	0.37607142
18	0x3dc6de4e	0.0971037
19	0xbd1310ca	-0.035904683
20	0x3d94d19d	0.07266543
21	0x3eb5ebb4	0.3553139
22	0x3e0dd55d	0.13850923
23	0x3ea84b80	0.32870102
24	0xbecaf731	-0.39641717
25	0xbd321962	-0.04348124
26	0x3df991ed	0.12186036
27	0xbe2336ef	-0.15938924
28	0x3edb2d25	0.4280788
29	0x3df72f2c	0.12069544
30	0xbeadc6c8	-0.3394072
31	0x3e1419d4	0.14462978

layers.2.conv1.bias f4 [8]
0	0x37dd3e43	2.6374246e-05
1	0x36a2c1bd	4.8505303e-06
2	0xb84452e2	-4.6807232e-05
3	0x37079afb	8.082711e-06
4	0x374e52d0	1.2297838e-05
5	0x37bd75e8	2.258546e-05
6	0xb7bbd12c	-2.238954e-05
7	0x381dad37	3.7593036e-05

layers.2.conv2.weight f4 [8, 4, 3, 3]
0	0x3d47b226	0.04875388
1	0xbe01abaf	-0.12663148
2	0x3ddca158	0.107729614
3	0x3dead93e	0.11467217
4	0xbe1169e8	-0.14200556
5	0x3da7b0e8	0.08188039
6	0xbc80887a	-0.015690077
7	0xbc5094b5	-0.012730767
8	0xbd701479	-0.058613274
9	0x3dd84e61	0.105618246
10	0x3dc10d79	0.09426398
11	0x3e20494f	0.15652965
12	0xbe007a2e	-0.12546608
13	0x3de7cce9	0.113183804
14	0x3e0dab3d	0.13834853
15	0x3e1dfb07	0.1542779
16	0x3d337517	0.043812837
17	0x3e27e09e	0.16394278
18	0xbe10b516	-0.14131579
19	0xbd2cb5ed	-0.042165685
20	0x3e22abef	0.158859
21	0xbdb4fff7	-0.08837884
22	0xbde2dc98	-0.11077231
23	0x3c1be42d	0.009514851
24	0x3e1717a4	0.14755112
25	0xbe032d41	-0.12810232
26	0x3e14e02b	0.14538638
27	0x3dcee1d7	0.10101669
28	0xbd93d84e	-0.07218991
29	0x3d951f24	0.0728133
30	0xbd8dd1e8	-0.06924802
31	0xbca65397	-0.02030353
32	0xbdb657f9	-0.08903498
33	0x3d9c75af	0.07639634
34	0x3c40ace3	0.011759969
35	0xbe18ae93	-0.14910345
36	0xbdab44db	-0.083627425
37	0x3c838ffe	0.016059872
38	0x3e12849c	0.14308399
39	0xbdd7c7e8	-0.10536176
40	0x3dd04c47	0.10170799
41	0x3e0e93a7	0.13923512
42	0xbda3157b	-0.079630814
43	0xbdf710b1	-0.120637305
44	0xbce7afb2	-0.02828202
45	0xbc920483	-0.017824417
46	0x3d2b18d8	0.04177174
47	0xbdc7aa14	-0.09749237
48	0xbd34a985	-0.04410698
49	0xbc95ac2c	-0.018270575
50	0xbe009023	-0.12554984
51	0x3e243668	0.1603638
52	0xbc82b012	-0.015953097
53	0x3dcfa1c9	0.1013828
54	0xbe148d92	-0.1450713
55	0x3a0f3b4f	0.0005463855
56	0x3d1a1345	0.037616033
57	0xbe1e5837	-0.15463339
58	0xbe0bf63e	-0.13668153
59	0x3da3df04	0.08001521
60	0xbdf67b48	-0.12035233
61	0x3d8fca7c	0.07021043
62	0x3d417a91	0.04723603
63	0x3d09ee58	0.033674568
64	0x3e14eb5e	0.1454291
65	0x3d16e940	0.03684354
66	0x3d5d472b	0.05402295
67	0xbe25ed9b	-0.1620392
68	0x3cbec418	0.023286864
69	0x3e270ad7	0.16312729
70	0x3dd50c9b	0.10402795
71	0x3d340c94	0.043957308
72	0x3d22c0ae	0.039734535
73	0xba96f76a	-0.0011517827
74	0xbcfae5fd	-0.030627245
75	0xbe0512b7	-0.1299542
76	0x3e0acbd6	0.1355432
77	0x3e18cfb6	0.14922985
78	0xbe1fc13b	-0.15601055
79	0xbdac18e5	-0.08403186
80	0x3c59565f	0.013265221
81	0xbd888fe0	-0.06668067
82	0x3e12ba35	0.14328845
83	0x3e09d6e9	0.13460888
84	0xbe12cf79	-0.14336957
85	0x3dd0fb01	0.10204125
86	0xbdce9396	-0.100867435
87	0xbd2ff053	-0.0429538
88	0xbde8f73c	-0.11375281
89	0xbd8f6fad	-0.07003722
90	0x3dc86acf	0.09785997
91	0xbe1f32dc	-0.15546745
92	0x3e0b43e2	0.13600114
93	0x3d6e665e	0.058203094
94	0x3e1ea697	0.15493236
95	0x3e0dfbcb	0.13865583
96	0xbd06d941	-0.032922033
97	0x3e14b862	0.14523461
98	0x3d0d6a33	0.034525108
99	0xbe13b514	-0.14424545
100	0xbcd8d854	-0.02647034
101	0x3e123953	0.1427968
102	0x3cec30ee	0.028831925
103	0x3bc89638	0.006121423
104	0xbdb9dc41	-0.09075213
105	0x3dd70563	0.10499074
106	0xbd707175	-0.05870195
107	0xbdb76575	-0.08954898
108	0x3d9f2049	0.0776983
109	0x3e20e09c	0.15710682
110	0x3d9eec2c	0.0775989
111	0x3dd8fac5	0.105947055
112	0xbe27245b	-0.16322462
113	0x3d84865a	0.06470938
114	0xbd426c3b	-0.047466498
115	0xbc4a32b4	-0.01234119
116	0xbdd1218a	-0.10211475
117	0x3e116311	0.14197947
118	0x3d752e51	0.059858624
119	0xbe0ba303	-0.13636403
120	0xbe1df5bf	-0.15425776
121	0x3e208538	0.15675819
122	0x3afadbb7	0.0019138966
123	0xbe1fde1d	-0.15612073
124	0x3d1cb86b	0.038261812
125	0xbddfd199	-0.109286495
126	0xbdaa37f1	-0.08311451
127	0xbd70ae2d	-0.058759857
128	0xbd8856ff	-0.06657218
129	0x3df2435b	0.11829253
130	0xbd798db2	-0.060926147
131	0xbd9929a3	-0.07478645
132	0x3d558668	0.052130133
133	0x3e295df0	0.1653974
134	0x3c80b9fc	0.015713684
135	0xbdc0c3dc	-0.09412357
136	0x3e23c86e	0.15994427
137	0xbe1a48d9	-0.15066852
138	0x3e290ec5	0.1650954
139	0x3c87dc0e	0.016584422
140	0xbd9eadf0	-0.0774802
141	0x3cc0b2c1	0.023522737
142	0xbd811913	-0.06303611
143	0xbe156496	-0.14589152
144	0xbda7a7fb	-0.081863366
145	0xbe25733e	-0.16157243
146	0xbe12d87c	-0.14340395
147	0xbdbd18cf	-0.092332475
148	0x3d729654	0.059225395
149	0x3d6a8f60	0.05726564
150	0x3c9b7ec2	0.018981341
151	0xbd4ad8e3	-0.049523246
152	0xbd552b14	-0.052043036
153	0x3dda37e8	0.106551945
154	0xbe0dcff5	-0.1384886
155	0x3dcb964c	0.09940776
156	0xbe201273	-0.15632038
157	0x3db0494e	0.08607732
158	0x3e27b429	0.1637732
159	0x3d5508a2	0.052010186
160	0x3c0498ae	0.008093042
161	0xbb5717af	-0.0032820513
162	0xbdc579fc	-0.09642407
163	0xbcdd59c5	-0.027020345
164	0x3e03fed7	0.12890182
165	0x3dbf4bd9	0.09340639
166	0x3e0c1b05	0.13682182
167	0xbd868a99	-0.06569404
168	0xbd0029a2	-0.031289704
169	0xbbde863d	-0.006790905
170	0xbd9d1b37	-0.076712064
171	0x3da9fa99	0.08299751
172	0x3e0b2f8e	0.1359236
173	0x3d8e7874	0.06956568
174	0x3d6ee368	0.05832234
175	0xbdb25fa1	-0.08709646
176	0xbdfb9262	-0.1228378
177	0x3db3627b	0.08759018
178	0xbdd3cd11	-0.10341848
179	0x3d16460f	0.036687907
180	0x3e109353	0.141187
181	0xbd8ca8aa	-0.068681076
182	0x3da21fa0	0.07916188
183	0x3dd050ce	0.10171662
184	0x3d9288e3	0.07155015
185	0xbe2a3b38	-0.16624153
186	0xbdb383f6	-0.08765404
187	0xbe0d5682	-0.13802531
188	0x3e03b070	0.12860274
189	0x3d66b665	0.05632629
190	0x3dd60a3b	0.1045117
191	0x3d105f5d	0.035247196
192	0xbded2f15	-0.11581246
193	0x3dde255f	0.10846972
194	0x3e075d40	0.13219166
195	0xbe0c6d0d	-0.13713475
196	0xbdc5fe11	-0.096676
197	0x3d62f311	0.055407587
198	0x3e15abbb	0.14616291
199	0x3e1b6524	0.15175301
200	0xbddcb55b	-0.10776778
201	0xbdd33719	-0.103132434
202	0xbd81658b	-0.06318196
203	0xbb4f879c	-0.0031666523
204	0x3dc6aafe	0.09700583
205	0xbdc2d1aa	-0.095126465
206	0xbe176941	-0.14786245
207	0xbd836e39	-0.06417508
208	0xbddb54b6	-0.10709517
209	0xbd473f12	-0.048644133
210	0xbd863dbd	-0.065547444
211	0x3d46ba3b	0.048517447
212	0x3dee7659	0.11643667
213	0xbe25fc65	-0.16209562
214	0x3b059201	0.0020381215
215	0x3d24d956	0.04024633
216	0xbdbac8f6	-0.091203615
217	0x3c3080a0	0.010772854
218	0xbdfa8c91	-0.12233842
219	0x3dd64140	0.10461664
220	0x3dd9bda0	0.10631871
221	0xbde936ce	-0.11387406
222	0x3d3409b5	0.04395457
223	0xbd81cf22	-0.063383356
224	0xbdaada3c	-0.08342406
225	0x3e1488b3	0.14505272
226	0xbd335cd5	-0.043789703
227	0xbd85e76d	-0.065382816
228	0xbddc5312	-0.10758032
229	0x3dede60a	0.11616142
230	0xbe0bc2ce	-0.13648531
231	0x3e08519a	0.13312379
232	0xbe10d49d	-0.14143606
233	0x3d526fa3	0.051375996
234	0x3dd6c22f	0.10486256
235	0xbe257036	-0.16156086
236	0xbe21764f	-0.15767787
237	0x3c91bbaa	0.01778968
238	0xbbba936d	-0.005693844
239	0xbac988a2	-0.0015375803
240	0xbe0dd8ff	-0.13852309
241	0xbde2282a	-0.11042817
242	0xbd6854c2	-0.056721456
243	0x3e0c7883	0.13717847
244	0x3e25981f	0.16171311
245	0x3dd82de9	0.10555632
246	0x3e04c488	0.12965596
247	0x3dab1853	0.08354249
248	0xbe0195a7	-0.12654744
249	0xbc4f8dff	-0.012668132
250	0x3c1b67fc	0.009485241
251	0x3db609ca	0.08888586
252	0xbd592b06	-0.053019546
253	0x3dd78a9b	0.10524484
254	0xbadfa88a	-0.0017063778
255	0x3e1edfda	0.1551508

layers.2.conv2.bias f4 [8]
0	0xba3b7c89	-0.0007152041
1	0x39d2c2ac	0.00040199363
2	0xba2cb8ae	-0.0006588799
3	0xba405235	-0.00073364686
4	0x3a409719	0.0007346734
5	0x3a3ef4fe	0.00072844315
6	0xb986aa81	-0.00025685507
7	0xba3d54cc	-0.00072224136

layers.2.conv3.weight f4 [8, 8, 3, 3]
0	0xbda693ad	-0.08133636
1	0x3d720ff4	0.059097245
2	0x3daed0d5	0.08535925
3	0x3d52fc2c	0.05151002
4	0xbd815a8f	-0.06316101
5	0x3dd30c38	0.10305065
6	0x3da50304	0.08057216
7	0x3d28f019	0.0412446
8	0x3c3e9821	0.01163295
9	0xbdc443f0	-0.095832705
10	0x3c8128f2	0.015766595
11	0xbdde1c0b	-0.108451925
12	0xbdd4d170	-0.103915095
13	0xbced9209	-0.029000299
14	0x3ce49fdb	0.027908256
15	0x3d20810f	0.03918558
16	0x3cadde41	0.021224143
17	0x3cb007ce	0.021488097
18	0xbde1c6e7	-0.11024266
19	0x3c94f7e5	0.018184612
20	0x3d5a211b	0.053254228
21	0x3d37d6fd	0.044882763
22	0xbd8bfb5c	-0.06835052
23	0x3d97bf70	0.07409561
24	0xbd2475a2	-0.040151246
25	0xbdde1269	-0.10843355
26	0xbd8ab33c	-0.067724675
27	0x3d48d681	0.049032692
28	0xbdd09109	-0.10183913
29	0x3dd3504f	0.10318052
30	0x3da9a6eb	0.0828379
31	0x3c93dfbb	0.018051019
32	0x3a9d8c2c	0.0012019924
33	0x3dbd3184	0.0923796
34	0xbd73c223	-0.059511315
35	0xbdccd5c1	-0.10001708
36	0x3de5f343	0.11228039
37	0xbc2ed46e	-0.010670764
38	0xbd2b93a1	-0.041888837
39	0x3d928f3d	0.07156227
40	0xbc7aced1	-0.015308098
41	0x3d970412	0.07373823
42	0x3dde74fa	0.10862155
43	0x3d877d69	0.06615717
44	0xbdb5f28a	-0.08884151
45	0x3c784ad9	0.015154564
46	0xbcefa26d	-0.029252255
47	0xba85c8f8	-0.0010206988
48	0x3c552ee9	0.0130116725
49	0x3d13dbd3	0.036098313
50	0xbdd0b08d	-0.101899244
51	0xbd37df6a	-0.0448908
52	0x3d903903	0.07042124
53	0xbc3bb6fc	-0.011457201
54	0xbd435b9b	-0.047694784
55	0x3c109d9f	0.008826642
56	0xbcf71c60	-0.030164897
57	0xbdb62077	-0.08892911
58	0x3cf54b95	0.029943267
59	0xbcd5b296	-0.026086133
60	0x3dd9cc55	0.10634676
61	0x3ca1d1ad	0.019753302
62	0xb988885f	-0.00026041546
63	0x3cb74a0b	0.022374174
64	0xbcc6baff	-0.024259089
65	0xbd98bb5a	-0.074576095
66	0x3d86e579	0.06586737
67	0x3de1e853	0.110306405
68	0x3d4c2ee0	0.04984939
69	0x3d03a520	0.032139897
70	0xbb558ec9	-0.0032586327
71	0xbdbfb332	-0.09360351
72	0xbbc63a15	-0.0060494044
73	0xbd7c9b93	-0.061671805
74	0x3dd1c77f	0.10243129
75	0xbd4ae11b	-0.049531084
76	0xbc757294	-0.014980931
77	0x3cf2384e	0.029567864
78	0x3d8053cb	0.06265982
79	0xbd744dfc	-0.059644684
80	0xbc959175	-0.018257836
81	0x3d86db54	0.06584802
82	0xbc42f4ed	-0.011899215
83	0x3d4e681c	0.050392255
84	0xbda797ae	-0.081832275
85	0xbd86d542	-0.065836444
86	0xbd25b2f2	-0.04045386
87	0xbaa65dcd	-0.001269275
88	0x3d9ef6b8	0.077619016
89	0xbd39dbe1	-0.04537571
90	0xbd5c2a25	-0.05375113
91	0xbd04b880	-0.032402515
92	0x3d19f496	0.03758677
93	0xbdbbb60a	-0.091655806
94	0x3ce6f5f8	0.028193459
95	0xbd7d31fc	-0.061815247
96	0xbdc67837	-0.09690898
97	0xbd9c5ee6	-0.07635288
98	0xbdeff2b0	-0.11716211
99	0x3cdf1976	0.02723382
100	0x3d89381f	0.067001574
101	0xbcc0e9dc	-0.023549013
102	0x3ce96831	0.028492065
103	0x3cdf795d	0.02727955
104	0x3daa4889	0.08314616
105	0x3c980660	0.018557727
106	0x3d81615f	0.063174
107	0xbccd8944	-0.025089867
108	0x3d9e023c	0.0771527
109	0xbcc8b7fa	-0.02450179
110	0x3ddc4d31	0.107569106
111	0xbdb5cc30	-0.08876836
112	0xbddd86d1	-0.1081673
113	0x3cccaee1	0.024985733
114	0xbd3aab59	-0.045573566
115	0x3d573c74	0.052547887
116	0x3de6cdd9	0.11269731
117	0xbdea638d	-0.11444769
118	0x3c00f782	0.00787151
119	0x3d7c41ec	0.061586305
120	0xbdd5ac50	-0.104332566
121	0x3b84102f	0.0040302495
122	0xbdcc95b5	-0.09989492
123	0xbde62733	-0.112379454
124	0x3deede7f	0.116635315
125	0x3d7ccafb	0.061717015
126	0x3d68a4dc	0.056797847
127	0x3cc02880	0.023456812
128	0xbccba9a1	-0.024861159
129	0xbdd2abde	-0.10286687
130	0x3dbc0fbd	0.09182689
131	0x3db76e8c	0.08956632
132	0x3ddb264a	0.107006624
133	0xbd5790f4	-0.052628472
134	0x3d84252d	0.06452403
135	0x3cecce8f	0.028907089
136	0x3d8bdd0d	0.068292715
137	0xbde38f9f	-0.11111378
138	0x3cabf902	0.02099276
139	0xbdc9a2fd	-0.09845541
140	0x3d3b03cc	0.045657918
141	0xbd9006fe	-0.07032584
142	0x3dd4078c	0.10353002
143	0x3d7fd704	0.062460914
144	0x3daeb124	0.08529881
145	0xbdb6695d	-0.08906815
146	0xbd56ee0e	-0.05247312
147	0x3dd94ce1	0.106103666
148	0xbd95d2d2	-0.073156014
149	0x3d6f0d72	0.05836243
150	0xbd5d8f77	-0.054091897
151	0x3d14f606	0.03636744
152	0x3d17f7ac	0.037101433
153	0x3ddfc886	0.10926919
154	0x3de71881	0.112839706
155	0xbd337e44	-0.04382159
156	0xbdca9648	-0.09891945
157	0x3dd4be40	0.1038785
158	0x3d7b6693	0.06137712
159	0x3db2d3b1	0.08731783
160	0x3db37d81	0.08764172
161	0x3dd29d8e	0.102839574
162	0xbc375110	-0.01118876
163	0xbb1ee641	-0.0024246129
164	0x3dd6f270	0.1049546
165	0x3de0b9d6	0.109729454
166	0x3d83e334	0.0643982
167	0x3d3bf142	0.04588438
168	0xbd57849c	-0.0526167
169	0x3dad1cd1	0.08452762
170	0xbdca4fad	-0.09878478
171	0x3d4cfbc6	0.050044797
172	0xbcc8347f	-0.024439095
173	0xbddddfc2	-0.10833694
174	0xbdafb071	-0.085785754
175	0x3d576afe	0.05259227
176	0xbd36366c	-0.044485494
177	0xbdde0b96	-0.108420536
178	0xbd4b2b6d	-0.04960196
179	0x3ddb83cc	0.10718498
180	0x3dacfa46	0.08446173
181	0x3dd39f6a	0.1033314
182	0x3d486f9a	0.048934557
183	0xbdd86610	-0.10566342
184	0x3bbf5be1	0.0058398102
185	0xbde0c8b5	-0.10975782
186	0x3dba0b77	0.09084218
187	0xbd1e86cb	-0.038702767
188	0xbdcfd33e	-0.10147713
189	0x3c7bf21d	0.0153775485
190	0x3d878f80	0.06619167
191	0x3d99ffb4	0.075194746
192	0x3de2c9b7	0.1107363
193	0xbd81d859	-0.06340093
194	0x3d0c8505	0.034306545
195	0xbde47a2e	-0.111561164
196	0xbc0ccefe	-0.008594273
197	0xbd18061c	-0.0371152
198	0xbd86ffdc	-0.0659177
199	0x3d6cb445	0.057789106
200	0xbddd8ecf	-0.10818254
201	0xbc88c605	-0.016695986
202	0x3debf7a3	0.11521842
203	0x3dd62595	0.10456387
204	0xbdf13956	-0.11778514
205	0xbd22ee61	-0.039778117
206	0x3d7ef21b	0.06224261
207	0xbcab500e	-0.020912196
208	0xbaaac450	-0.0013028476
209	0xbde7e825	-0.11323575
210	0xbd9c733a	-0.07639165
211	0xbd467e10	-0.048460066
212	0xbd7a815b	-0.06115852
213	0x3da8fb6e	0.082510814
214	0x3dababf4	0.08382407
215	0x3c98fdc0	0.018675685
216	0xbdba0069	-0.090821095
217	0x3d155b31	0.03646392
218	0xbd85c6b7	-0.065320425
219	0xbddf9e68	-0.109188855
220	0x3c057053	0.008144456
221	0x3ded0c2f	0.115745895
222	0x3d95ab6e	0.07308088
223	0x3d9f3466	0.07773666
224	0x3d8958ef	0.06706416
225	0x3d4df1d7	0.050279465
226	0x3d52f9d1	0.051507775
227	0x3dd5aa14	0.104328305
228	0x3dd2780c	0.102768034
229	0x3cd7e68a	0.026355047
230	0x3d6457dc	0.05574785
231	0xbd260b4c	-0.040538117
232	0x3da4626b	0.08026584
233	0xbd052f33	-0.032515716
234	0x3c10b747	0.008832759
235	0xbc3118cd	-0.010809136
236	0xbdd76c79	-0.105187364
237	0x3d4515a1	0.04811633
238	0x3d7ee6f5	0.062231977
239	0x3d48e25d	0.049044
240	0xbc40180f	-0.011724486
241	0xbd9bb501	-0.07602883
242	0x3d5a7ae8	0.05333987
243	0xbdc7407a	-0.09729095
244	0x3c857259	0.016289877
245	0xbdcbebff	-0.09957122
246	0x3de43fdf	0.11144995
247	0xbdc1d978	-0.09465307
248	0xbd2a2d0b	-0.041546863
249	0x3d25d34f	0.040484723
250	0x3d5a8c12	0.053356238
251	0x3d160d7e	0.03663396
252	0x3d342814	0.043983534
253	0x3db630a7	0.088959984
254	0x3dc432e3	0.09580018
255	0x3d962d2a	0.07332833

layers.2.conv3.bias f4 [8]
0	0xb24cc926	-1.1920099e-08
1	0x30807eb3	9.349236e-10
2	0x32ad76b1	2.0193825e-08
3	0xb323d2a4	-3.814297e-08
4	0xb140bdec	-2.8047635e-09
5	0xb1b3e450	-5.2355418e-09
6	0xb2472a0e	-1.1592887e-08
7	0xb2472a0e	-1.1592887e-08

layers.2.batch_norm.weight f4 [8]
0	0x3f803e43	1.0019001
1	0x3f7f7b3e	0.9979743
2	0x3f7f7674	0.9979012
3	0x3f803e23	1.0018963
4	0x3f803e4d	1.0019013
5	0x3f7f7654	0.9978993
6	0x3f7f7656	0.9978994
7	0x3f803e43	1.0019001

layers.2.batch_norm.bias f4 [8]
0	0x3b030b86	0.0019995882
1	0x3b02a040	0.0019931942
2	0xbb030a1f	-0.0019995046
3	0x3b03153e	0.0020001675
4	0x3ae1d0b3	0.0017228335
5	0xbb030cd0	-0.001999665
6	0x3b030408	0.0019991416
7	0x3b02ff44	0.0019988576

layers.2.batch_norm.running_mean f4 [8]
0	0xbd4d51ca	-0.05012683
1	0x3ab4efd9	0.001380439
2	0x3cc9af99	0.024619864
3	0xbd652376	-0.05594202
4	0xbbc10ce3	-0.005891429
5	0x3d91cccb	0.07119139
6	0xbd18f8f3	-0.03734679
7	0x3cda0334	0.026612855

layers.2.batch_norm.running_var f4 [8]
0	0x3f5b01b1	0.85549456
1	0x3f56afa4	0.83861756
2	0x3f5065a4	0.8140509
3	0x3f500a1b	0.8126542
4	0x3f5b1c2c	0.8558986
5	0x3f528c8c	0.8224571
6	0x3f51f6ea	0.82017386
7	0x3f543ce1	0.82905394

layers.3.conv1.weight f4 [16, 8, 1, 1]
0	0x3de62cd9	0.11239023
1	0xbe4dfaae	-0.20115158
2	0xbd717462	-0.058948882
3	0xbe182878	-0.14859188
4	0x3e8982f4	0.26857722
5	0xbea9e4e6	-0.33182448
6	0xbe9428ac	-0.2893728
7	0x3e8a2f3f	0.2698917
8	0x3d339c2b	0.043850105
9	0xbe1cf8a1	-0.1532922
10	0x3e28f8cb	0.16501157
11	0xbd4acc6a	-0.04951135
12	0xbe362b76	-0.17790017
13	0xbeadaeae	-0.33922333
14	0x3eb40c55	0.3516566
15	0x3e936e3e	0.28795046
16	0x3ea6c0ab	0.3256887
17	0xbc9eb575	-0.019373635
18	0x3e39133b	0.18073742
19	0x3e8c943c	0.27456844
20	0xbe25a24c	-0.16175193
21	0xbbe64a1d	-0.007027878
22	0xbe8af0d0	-0.2713685
23	0x3e1653e0	0.14680433
24	0x3e4d042e	0.20021126
25	0xbe6158e1	-0.22006561
26	0x3e50d168	0.20392382
27	0x3e05c422	0.130631
28	0x3e09fc03	0.13475041
29	0xbbd15f35	-0.0063895234
30	0x3d8e15f2	0.069377795
31	0xbeaa17fb	-0.3322142
32	0x3e57d46e	0.21077129
33	0xbe453224	-0.19257408
34	0xbc4312a1	-0.011906297
35	0x3e289fdd	0.16467233
36	0xbea80f22	-0.32824045
37	0xbe889f57	-0.26684067
38	0xbe0bb034	-0.13641435
39	0x3c350427	0.011048353
40	0x3e971559	0.29508474
41	0x3c9a648b	0.01884677
42	0xbe460451	-0.19337584
43	0xbda6d1dd	-0.08145497
44	0xbe811355	-0.25210062
45	0x3de3d11d	0.111238696
46	0xbeb5b9d4	-0.35493338
47	0x3e15d765	0.14632948
48	0xbe7d212c	-0.24719685
49	0xbe9bcbac	-0.30428827
50	0xbe305b48	-0.17222321
51	0x3cb621fa	0.022232998
52	0xbe51531c	-0.2044186
53	0xbead19d9	-0.33808783
54	0x3e8a30cb	0.2699035
55	0x3b6b406f	0.003589656
56	0xbd4eef30	-0.050521076
57	0xbe98cbfa	-0.29843122
58	0x3b616bc8	0.0034396518
59	0xbe544f40	-0.20733356
60	0x3daa1a20	0.08305764
61	0x3e4b5575	0.19856818
62	0x3e3b780a	0.1830751
63	0x3e81086f	0.25201747
64	0x3d72faf0	0.059321344
65	0x3df90b1f	0.12160324
66	0x3e44e684	0.1922856
67	0xbe3d740f	-0.18501304
68	0x3e715be0	0.23570204
69	0xbdeb1fd8	-0.11480683
70	0x3df854ac	0.12125525
71	0x3e2b779c	0.16744846
72	0xbe04fd88	-0.1298734
73	0x3eb144e3	0.3462287
74	0x3c212b42	0.009836974
75	0xbe54e139	-0.2078904
76	0x3e27f17b	0.16400711
77	0x3e0d116e	0.1377618
78	0xbe215b21	-0.15757419
79	0xbdd947ab	-0.10609373
80	0x3e165d26	0.14683971
81	0xbe09e2ed	-0.13465472
82	0x3e5eb47a	0.21748534
83	0x3e7fcc7f	0.24980353
84	0x3e80a9ee	0.25129646
85	0x3dc27325	0.09494618
86	0x3d0ffb6c	0.035151884
87	0x3da89124	0.082308084
88	0x3d9c0621	0.076183565
89	0x3dad61ae	0.084658965
90	0xbeae97d0	-0.341002
91	0xbe55565c	-0.20833725
92	0x3e81118e	0.25208706
93	0xbe206f6b	-0.15667503
94	0xbdd27fce	-0.10278283
95	0x3e0dbdeb	0.13841979
96	0xbe415d36	-0.18883213
97	0xbe0409ac	-0.12894315
98	0x3e0dd6d8	0.13851488
99	0xbe0cba66	-0.1374298
100	0xbe0611e6	-0.13092765
101	0x3e652c65	0.22380216
102	0xbe8c4f50	-0.2740426
103	0xbe257404	-0.16157538
104	0x3cf4a6b2	0.029864643
105	0x3e748a46	0.23880872
106	0x3df1776f	0.11790358
107	0xbe4bfb59	-0.199201
108	0xbe015953	-0.1263173
109	0x3db2b6db	0.08726283
110	0x3e2fc28e	0.1716406
111	0xbe788757	-0.24270378
112	0x3b3ecced	0.0029113845
113	0xbcf287c4	-0.029605754
114	0xbcf687fc	-0.03009414
115	0xbe89717b	-0.2684439
116	0xbe2c2c3a	-0.16813746
117	0x3e58ccfa	0.21171942
118	0xbc0e4b13	-0.008684891
119	0x3d97ff71	0.074217685
120	0x3ea637c4	0.3246442
121	0xbe0cd8d0	-0.13754582
122	0xbe285679	-0.16439237
123	0x3d49592d	0.04915731
124	0x3daa0921	0.083025225
125	0xbe25fdd0	-0.16210103
126	0x3e82fee4	0.2558509
127	0xbea4401c	-0.32080162

layers.3.conv1.bias f4 [16]
0	0xb49795b6	-2.823487e-07
1	0xb71194a7	-8.677284e-06
2	0x38044cf5	3.1542924e-05
3	0xb8874901	-6.4509e-05
4	0x3534786f	6.723048e-07
5	0xb811fe7f	-3.4807712e-05
6	0xb7d3d818	-2.5253787e-05
7	0x37ffbf15	3.0487348e-05
8	0x39161c8b	0.00014315748
9	0xb5b8e32a	-1.3775182e-06
10	0xb9361bdd	-0.00017367252
11	0xb8137731	-3.5158537e-05
12	0x38c30a31	9.300223e-05
13	0x369b4610	4.6275163e-06
14	0x371cb53a	9.34052e-06
15	0x368c5026	4.1816556e-06

layers.3.conv2.weight f4 [16, 8, 3, 3]
0	0x3d3d052e	0.046147518
1	0x3c309e7c	0.010779973
2	0xbd9e86f9	-0.07740588
3	0x3d1b53b6	0.03792163
4	0x3da5672d	0.0807632
5	0x3d657895	0.0560232
6	0x3d483fee	0.048889093
7	0x3d1f901e	0.0389558
8	0xbd0b4f94	-0.03401144
9	0xbd7ce12c	-0.061738178
10	0xbd537f65	-0.051635165
11	0xbd7b3532	-0.061330028
12	0xbcbd127c	-0.023080103
13	0x3d929e65	0.071591176
14	0xbdea5445	-0.114418544
15	0x3db7eb51	0.0898043
16	0x3dc63567	0.096781544
17	0x3da7a3ea	0.08185561
18	0xbd9c4921	-0.07631136
19	0x3d8bbc0e	0.06822978
20	0x3de9d247	0.1141706
21	0x3d16c220	0.036806226
22	0xb9db3b2d	-0.00041815024
23	0xbd6b69ab	-0.05747382
24	0x3dd74223	0.105106615
25	0x3dd4ccee	0.1039065
26	0xbdcc8630	-0.09986532
27	0xbc7a38a2	-0.015272291
28	0xbc4d9aa8	-0.01254908
29	0xbd0c2e91	-0.034224097
30	0xbd13a16d	-0.03604262
31	0xbd8ecdc4	-0.069728404
32	0xbd24b62e	-0.040212803
33	0xbd72abeb	-0.059245985
34	0xbdde234a	-0.108465746
35	0xbddf4ef0	-0.10903728
36	0xbddee1c7	-0.10882907
37	0xbd9e87b4	-0.07740727
38	0xbcb701e9	-0.022339778
39	0x3c1cde52	0.00957449
40	0xbbb10f1d	-0.005403413
41	0xbc45059a	-0.012025261
42	0xbdbac9f7	-0.09120553
43	0xbc2f34df	-0.010693758
44	0xbdb3fcf1	-0.08788479
45	0xbdec9ed1	-0.11553729
46	0x3ddb2ea7	0.107022576
47	0x3dc68863	0.096939825
48	0xbc867b9e	-0.016416367
49	0xbcd6ccac	-0.026220642
50	0xbdd3048a	-0.103036
51	0x3b6328bb	0.0034661728
52	0xbd4537bd	-0.04814886
53	0x3d84edd3	0.06490674
54	0xbd4fef5f	-0.05076539
55	0xbdc437f4	-0.09580985
56	0xbd01787c	-0.031609043
57	0xbd145f7c	-0.036223873
58	0xbddd920d	-0.108188726
59	0x3d357b34	0.04430695
60	0x3deb2a27	0.11482649
61	0xbd843a22	-0.064564005
62	0x3db8f03c	0.09030196
63	0x3dd9c358	0.10632962
64	0x3d35f45d	0.044422496
65	0x3d85d359	0.06534452
66	0xba9a9bc9	-0.0011795695
67	0x3d1188b7	0.035530772
68	0xbdcc2e24	-0.09969738
69	0xbda5f01e	-0.08102439
70	0xbd718567	-0.058965113
71	0x3d7573ac	0.059924766
72	0xbd893c88	-0.067009985
73	0xbd97ce66	-0.07412414
74	0xbd17abc0	-0.037029028
75	0xbde8b5d5	-0.11362807
76	0xbd858559	-0.06519575
77	0x3d21a440	0.03946328
78	0x3dc5761c	0.09641668
79	0x3c5b0093	0.013366836
80	0xbdc1f463	-0.09470441
81	0xbd9e14f4	-0.0771884
82	0xbcbd8b76	-0.02313779
83	0x3d4984f5	0.049199063
84	0x3d67e6de	0.056616656
85	0x3dd1cdd1	0.102443345
86	0x3dd799d6	0.10527389
87	0xbd779fd4	-0.06045516
88	0xbcad20d5	-0.02113382
89	0x3db5ca31	0.088764556
90	0x3d25561f	0.040365335
91	0x3d94bd7a	0.07262702
92	0xbd53ed6c	-0.051740095
93	0x3c9fcebb	0.019507756
94	0xbd9d6203	-0.0768471
95	0x3dc69a30	0.09697378
96	0x3caf994e	0.021435406
97	0x3d0653ae	0.032794647
98	0x3dbc139a	0.09183426
99	0xbde2ea25	-0.11079816
100	0xbd0aea1b	-0.033914667
101	0xbd8c9d7d	-0.06865976
102	0xbd05e277	-0.032686677
103	0x3cdac366	0.026704501
104	0x3decc372	0.11560716
105	0x3dc56307	0.096380286
106	0xbd8c77bc	-0.06858775
107	0x3d1bab86	0.038005374
108	0x3deca5bf	0.11555051
109	0x3cea032b	0.028565964
110	0x3dc4c367	0.096075825
111	0xbdeb5e97	-0.11492651
112	0xbdc8fcbc	-0.0981383
113	0xbd3a9394	-0.045550898
114	0x3d184b59	0.037181232
115	0xbdb5eee7	-0.08883458
116	0x3cd554eb	0.026041469
117	0xbc26b7c9	-0.010175654
118	0x3dadfbb9	0.08495278
119	0x3dd7ce0c	0.10537347
120	0xbda14e5b	-0.07876273
121	0x3d933807	0.07188421
122	0xbde543df	-0.11194586
123	0xbd0f83e6	-0.035037898
124	0xbdb41418	-0.08792895
125	0xbd2564e6	-0.040379427
126	0xbd3ba681	-0.045813087
127	0xbda17dad	-0.07885299
128	0xbd916071	-0.07098473
129	0x3da6abad	0.08138213
130	0xbd8abf3f	-0.067747585
131	0x3d69f208	0.057115585
132	0x3c1874c5	0.009305184
133	0xbda78a14	-0.08180633
134	0xbc9a6081	-0.018844845
135	0xbd938cee	-0.072046146
136	0xbdee2a93	-0.11629214
137	0xbc8ee69f	-0.017443953
138	0xbdf0e3a7	-0.11762171
139	0x3d15a310	0.03653246
140	0x3c807c0d	0.015684152
141	0x3dd47301	0.10373498
142	0xbae18e68	-0.0017208578
143	0xbdac3fb6	-0.084105894
144	0xbde3d43f	-0.11124467
145	0xbd316d84	-0.043317333
146	0xbd174c6e	-0.036938123
147	0x3d36cd76	0.044629537
148	0xbc81e43a	-0.015855897
149	0x3cc18e04	0.023627289
150	0x3d209bcf	0.03921109
151	0x3c9b69d8	0.018971369
152	0xbc98c28c	-0.018647455
153	0xbc9c4a3f	-0.019078372
154	0xbd9acc32	-0.075584784
155	0x3d59942f	0.053119835
156	0xbd554b67	-0.052073862
157	0x3da8d15f	0.08243059
158	0xbce3b868	-0.027797893
159	0x3c4983c1	0.012299479
160	0x3dbe0c8d	0.092797376
161	0x3deaa90b	0.11458024
162	0x3debb030	0.115082145
163	0x3ce6360b	0.028101942
164	0x3ddbc170	0.10730255
165	0x3d5cf76f	0.05394691
166	0x3dcf7ac0	0.101308346
167	0xbdcaf31d	-0.099096514
168	0xbd3f65f5	-0.046728093
169	0x3d4b869d	0.049688924
170	0xbdc03c08	-0.0938645
171	0x3dcb1513	0.09916129
172	0x3ded0450	0.11573088
173	0xbc161eef	-0.009162649
174	0xbbb7aacf	-0.005605079
175	0xbda9530e	-0.082677945
176	0xbdec1cdc	-0.11528942
177	0xbd413156	-0.04716619
178	0xbdb4c2f0	-0.08826244
179	0x3cf1143f	0.0294286
180	0x3df0bbc8	0.117545664
181	0x3db3486c	0.08754048
182	0x3dc300c7	0.09521633
183	0x3de0196d	0.109423496
184	0xbd0e9ff5	-0.034820516
185	0x3dae7fdd	0.08520482
186	0x3dcb59a9	0.09929211
187	0x3db6d0f8	0.089265764
188	0x3d6ca42a	0.057773747
189	0xbdcf1e3c	-0.101131886
190	0x3d613db9	0.054990504
191	0x3d34dd30	0.044156253
192	0xbd4f5313	-0.050616335
193	0xbdb0ddd6	-0.08636062
194	0x3d116d7a	0.035504796
195	0xbd3ed8fb	-0.046593647
196	0xbdc66cda	-0.096887305
197	0xbd69af66	-0.05705204
198	0x3d8a23f6	0.0674514
199	0xbdae4a26	-0.085102364
200	0x3c5fb017	0.013652823
201	0x3cf18da0	0.029486477
202	0x3ded2285	0.1157885
203	0xbd2485ac	-0.040166542
204	0x3cfa9ae8	0.030591443
205	0x3d1803bc	0.037112936
206	0x3cff1d63	0.031141942
207	0x3d6a4365	0.05719318
208	0x3dad9904	0.08476451
209	0x3dd8b26c	0.10580906
210	0x3d2d64f2	0.042332597
211	0xbd9ace01	-0.075588234
212	0xbd1ef244	-0.03880526
213	0x3dccc16b	0.09997829
214	0xbc606d74	-0.013697971
215	0x3d25294a	0.04032258
216	0xbd7fff32	-0.062499233
217	0x3d1ccb4e	0.038279824
218	0x3d969f64	0.0735462
219	0xbd6ecb61	-0.058299426
220	0x3ceba735	0.028766254
221	0xbd476bb1	-0.048686687
222	0xbc94f6c1	-0.018184068
223	0xbd8d524c	-0.069004625
224	0x3db8e2bd	0.09027622
225	0xbda917ed	-0.082565166
226	0x3dc7d253	0.09756913
227	0xbdc8b0b9	-0.09799332
228	0xbc99f40a	-0.018793125
229	0xbdefb415	-0.1170427
230	0x3d612ce4	0.05497445
231	0x3dd60b6a	0.10451396
232	0x3c77a255	0.015114387
233	0xbd3d8f02	-0.04627896
234	0x3d84f3e0	0.06491828
235	0xbcb3e9ef	-0.021962134
236	0x398b2f13	0.0002654722
237	0x3cb73cd0	0.022367865
238	0x3dc4dd68	0.096125424
239	0xbc7fa7cf	-0.0156039735
240	0x3d9777af	0.07395875
241	0x3dd545c8	0.104137
242	0xbd90d4e9	-0.070718594
243	0xbd94e674	-0.07270518
244	0x3db6e80d	0.08930979
245	0xbc2a77f4	-0.010404576
246	0xbdc90585	-0.09815506
247	0x3d83d6b9	0.064374395
248	0xbda74619	-0.08167667
249	0xbdbd00fd	-0.09228704
250	0x3da099ee	0.0784186
251	0x3da67240	0.0812726
252	0xbdb0805c	-0.086182326
253	0x3dbef075	0.09323207
254	0xbd8e83d5	-0.06958739
255	0xbd4f12e4	-0.050555125

layers.3.conv2.bias f4 [16]
0	0x3a202fa5	0.0006110615
1	0xba13f6fa	-0.00056444074
2	0x3a2855a6	0.0006421454
3	0xb9d3f221	-0.00040425456
4	0x39f1c633	0.00046114772
5	0x398db497	0.00027028166
6	0xba373bdb	-0.0006989815
7	0x3a38e531	0.0007053195
8	0x3a179fd1	0.00057840074
9	0xba2e694c	-0.00066532637
10	0x3a376620	0.0006996114
11	0x3a362944	0.0006948898
12	0xba3bb897	-0.000716099
13	0xba323a8f	-0.0006798887
14	0x3a25fc48	0.00063318433
15	0x3a3dfcaa	0.0007247428

layers.3.conv3.weight f4 [16, 16, 3, 3]
0	0x3d8289dd	0.063739516
1	0xbd80fcb7	-0.062982015
2	0xbda29fb8	-0.0794062
3	0x3cc40e38	0.023932561
4	0x3d0096f3	0.031393956
5	0xbb880d52	-0.0041519785
6	0xbda74210	-0.08166897
7	0xbc8370d3	-0.01604501
8	0x3d2051ba	0.03914044
9	0xbd25c6d1	-0.04047281
10	0x3da5a563	0.08088186
11	0xbc9329fe	-0.01796436
12	0x3cd69779	0.026195275
13	0x3d75d0f4	0.060013726
14	0xbd121fda	-0.035674907
15	0x3da1ed66	0.07906608
16	0xbd201154	-0.039079025
17	0xbc4a027e	-0.012329696
18	0x3b5c9250	0.0033656545
19	0xbcdda9f8	-0.027058586
20	0x3d39b2b9	0.04533646
21	0x3d1527df	0.036414977
22	0xbc7b1aef	-0.015326246
23	0xbc7846ab	-0.015153567
24	0x3c9e945d	0.019357855
25	0xbd9bb219	-0.07602329
26	0xbd3b8290	-0.04577881
27	0xbd9f890d	-0.07789812
28	0x3d1e7934	0.038689807
29	0x3b9d947f	0.004808962
30	0x3d2bd187	0.041947868
31	0xbccd869e	-0.025088605
32	0xbd842040	-0.06451464
33	0xbc7deeb4	-0.015498806
34	0x3c3cf0cb	0.011532019
35	0xbd78c1e8	-0.0607318
36	0x3d959910	0.07304585
37	0xbd331d8d	-0.043729354
38	0x3d58a646	0.052892946
39	0xbd9fedf3	-0.07809057
40	0xbcb27e71	-0.021788808
41	0xbdaa286a	-0.083084896
42	0xbd368de5	-0.044568915
43	0xbd1efc3a	-0.03881476
44	0x3d927273	0.07150736
45	0x3b508035	0.0031814699
46	0x3d656926	0.05600848
47	0x3d020d43	0.03175093
48	0x3d660fc3	0.056167375
49	0xbd43cc50	-0.04780227
50	0xbd1ce389	-0.038302932
51	0x3c4532fe	0.012036083
52	0xbd27b0bc	-0.04094003
53	0xbbc956a6	-0.0061443625
54	0x3c08a3d1	0.008339838
55	0xbccb828e	-0.024842527
56	0x3d00c81f	0.03144085
57	0xbc385e0b	-0.01125289
58	0x3d384953	0.044991802
59	0x3c5ad500	0.013356447
60	0x3d9d46a0	0.07679486
61	0x3da21ecf	0.079160325
62	0xbc20724f	-0.009792878
63	0xbd457e88	-0.048216373
64	0xbbeeb7e2	-0.007285104
65	0x3bc2eb8a	0.0059484886
66	0x3d8053d3	0.06265988
67	0xbc01a9f6	-0.007914057
68	0xbd1ff4cf	-0.039051827
69	0xbd81cf3f	-0.06338357
70	0xbcd49c5d	-0.025953466
71	0xbd1a38d2	-0.037651844
72	0x3d8ad735	0.06779329
73	0xbd3f2c82	-0.046673305
74	0xbd6c5481	-0.057697777
75	0xbc5e813e	-0.013580618
76	0x3d68d99a	0.056848146
77	0x3d92fad4	0.07176748
78	0xbd85c621	-0.06531931
79	0x3d565917	0.052331056
80	0xbcc2b858	-0.023769543
81	0x3d24f25f	0.040270206
82	0xbc9580f4	-0.018249966
83	0xbc9e1a97	-0.019299788
84	0x3cdbd5b6	0.026835304
85	0x3c336125	0.010948454
86	0x3d9bbff5	0.07604972
87	0xbd8143f9	-0.06311793
88	0x3d6021b7	0.054719653
89	0x3cea48ee	0.028599229
90	0x3d19ef58	0.03758177
91	0xbd09b185	-0.03361656
92	0xbd945826	-0.072433755
93	0xbd39e386	-0.045383
94	0x3d9e4bf1	0.077293284
95	0x3d6b4e13	0.057447504
96	0x3d80e864	0.06294325
97	0xbda21a48	-0.07915169
98	0x3d610d65	0.054944415
99	0xbd4ff119	-0.050767038
100	0x3c844644	0.016146787
101	0xbc48dd74	-0.01225983
102	0x3d73d6ac	0.0595309
103	0xbd62bc51	-0.055355374
104	0x3d35c49f	0.044376966
105	0xbd9f6ffb	-0.077850305
106	0xbcdc1122	-0.026863638
107	0xbd9964d8	-0.074899375
108	0xbcabc99e	-0.020970162
109	0x3ce25952	0.027630482
110	0x3d0f0855	0.034920055
111	0x3d2797fd	0.04091643
112	0xbcead80a	-0.028667469
113	0xbd865d54	-0.0656077
114	0xbcec0350	-0.028810173
115	0xbd0ef85d	-0.034904826
116	0x3be9841a	0.0071263434
117	0x3c790275	0.01519834
118	0x3d55fdcf	0.052244004
119	0x3d2c1058	0.042007774
120	0xbbc77cb2	-0.006087863
121	0x3c2c1b6b	0.010504584
122	0x3c684ecb	0.014178942
123	0x3cda98c6	0.026684176
124	0x3b9723b2	0.0046124095
125	0xbc790bb7	-0.015200547
126	0x3cb150be	0.021644946
127	0xbd7da958	-0.061929077
128	0x3d488192	0.048951693
129	0xbd0e9892	-0.03481347
130	0x3d557095	0.05210932
131	0xbbec00ae	-0.0072022295
132	0x3d7e929e	0.062151544
133	0x3a709318	0.0009177192
134	0xbd7349cb	-0.059396546
135	0xbcae224c	-0.021256588
136	0x3c9553b6	0.018228393
137	0x3c6e9d3c	0.014563855
138	0xbc7c8d9f	-0.0154146245
139	0xbc7cd6f5	-0.015432109
140	0xbb5dedc5	-0.0033863646
141	0x3cf7350b	0.03017666
142	0x3d8a81e9	0.0676306
143	0x3baa8913	0.005204329
144	0x3d2dbd6a	0.042416967
145	0x3c2b1019	0.01044085
146	0x3d6d5646	0.057943605
147	0xbd5edc44	-0.05440928
148	0x3be41bf4	0.00696134
149	0xbd9b4df9	-0.075832315
150	0x3cc8ac1b	0.024496129
151	0x3d836823	0.06416347
152	0x3d49bafb	0.049250584
153	0xbcc51e97	-0.024062438
154	0xbbb1c970	-0.0054256245
155	0xbb8cbcb5	-0.0042949566
156	0x3da45526	0.08024053
157	0x3da43f55	0.08019892
158	0xbcb0c58f	-0.021578578
159	0xbc7f5ca5	-0.015586053
160	0x3ca4b53b	0.020105949
161	0x3d6940fa	0.056946732
162	0x3da4f492	0.080544606
163	0xbc619444	-0.013768259
164	0x3d69d13e	0.057084315
165	0xbb6f6eb2	-0.0036534485
166	0xbb3b11bb	-0.0028544504
167	0xbd561c3c	-0.05227302
168	0xbc7e84e4	-0.015534613
169	0xbda9882e	-0.08277927
170	0x3b9c7c58	0.004775565
171	0x3d8022e3	0.06256654
172	0xbd225e28	-0.039640576
173	0xbd3a1bfb	-0.04543684
174	0xbd91d22b	-0.071201645
175	0x3b7ca872	0.003855255
176	0x3d1e15d7	0.038595047
177	0xbb516ac4	-0.0031954506
178	0x3d3bae4c	0.04582052
179	0xbd101e66	-0.03518524
180	0x3d6d7f39	0.057982657
181	0x3da62f12	0.08114447
182	0xbd2b9213	-0.041887354
183	0xbd2e196f	-0.042504724
184	0xbcbc9068	-0.023018077
185	0xbd76f25c	-0.060289726
186	0x3d6339ee	0.055475168
187	0xbbe15b10	-0.0068773106
188	0x3d2d09da	0.042245723
189	0xbcc85ae0	-0.024457395
190	0xbd46077b	-0.048346978
191	0xbd42da93	-0.04757173
192	0xbd4d563c	-0.050131068
193	0xbd5f3c2e	-0.05450075
194	0x3d893be3	0.067008756
195	0x3d8d2257	0.068913154
196	0x3d61f6f2	0.055167146
197	0x3ccaa49e	0.024736699
198	0x3cce4b57	0.02518241
199	0xbcdf3e8c	-0.027251504
200	0xbc681765	-0.014165734
201	0x3da95585	0.08268265
202	0xbb495eb7	-0.003072662
203	0x3d8cb30e	0.068700895
204	0x3d06e216	0.032930456
205	0xbc815844	-0.015789159
206	0xbbf50948	-0.007477913
207	0x3bcdc8ab	0.006280025
208	0xbd20189c	-0.03908597
209	0xbd311a18	-0.043237776
210	0x3d64b42d	0.05583589
211	0x3d32cebc	0.04365419
212	0x3c2b3618	0.010449909
213	0xbd8e1f74	-0.06939593
214	0xbd888982	-0.066668525
215	0xbd23f3ff	-0.040027615
216	0x3da33169	0.079684086
217	0xbaf09e70	-0.0018357765
218	0xbce0575f	-0.027385412
219	0xbd50b739	-0.050955985
220	0x3d7b4709	0.06134704
221	0x3c6c1468	0.014409162
222	0xbd943bf6	-0.07237999
223	0x3d4dd7d4	0.050254658
224	0xbc1906da	-0.009340012
225	0x3d7baa02	0.06144143
226	0x3cf20c22	0.029546801
227	0xbd529722	-0.051413663
228	0x3c810e90	0.015754014
229	0xbd29ae90	-0.04142624
230	0xbd96002a	-0.0732425
231	0x3cf8e082	0.030380491
232	0xbd499fc2	-0.049224623
233	0x3d89020e	0.06689845
234	0xbd21e94e	-0.039529137
235	0xbd38a0a8	-0.04507509
236	0x3d875c5a	0.066094115
237	0x3d0be646	0.034155153
238	0x3d9ecac2	0.07753517
239	0xbd8aa70e	-0.067701444
240	0x3d56c27b	0.052431565
241	0xbda16b6f	-0.078818195
242	0xbd8d63e7	-0.069038205
243	0x3a860867	0.0010225893
244	0xbd97c147	-0.074099116
245	0x3cc92766	0.02455492
246	0x3cda7870	0.026668757
247	0x3c88e10d	0.016708875
248	0x3da8f241	0.08249331
249	0x3d6c4fcc	0.057693288
250	0x3d815451	0.0631491
251	0x3badd1b1	0.005304538
252	0xbd92c4c0	-0.07166433
253	0xbd7838bf	-0.060600992
254	0x3da4ae2d	0.08041034
255	0x3c55d372	0.013050901

layers.3.conv3.bias f4 [16]
0	0x2f8d5833	2.571042e-10
1	0x321d678f	9.162149e-09
2	0x304d9787	7.47939e-10
3	0x3183b4ef	3.8331716e-09
4	0xaf4d9792	-1.869849e-10
5	0xb2007e69	-7.479323e-09
6	0x3240bd5e	1.1218928e-08
7	0xb1b3e450	-5.2355418e-09
8	0x32270a9b	9.723091e-09
9	0xb1807e93	-3.73968e-09
10	0x33357d2e	4.2256197e-08
11	0x33533328	4.9173792e-08
12	0xb34a5def	-4.7117222e-08
13	0x32a3d3b7	1.9071974e-08
14	0xb1895411	-3.996782e-09
15	0xb07a90a9	-9.1155045e-10

layers.3.batch_norm.weight f4 [16]
0	0x3f803e4b	1.001901
1	0x3f803e44	1.0019002
2	0x3f803e44	1.0019002
3	0x3f803e47	1.0019006
4	0x3f803e49	1.0019008
5	0x3f7f7665	0.9979003
6	0x3f7f764e	0.99789894
7	0x3f803e43	1.0019001
8	0x3f803e42	1.0019
9	0x3f803e30	1.0018978
10	0x3f803e3e	1.0018995
11	0x3f7f766d	0.9979008
12	0x3f803e3f	1.0018996
13	0x3f7f96bc	0.9983938
14	0x3f803e45	1.0019003
15	0x3f7f7681	0.997902

layers.3.batch_norm.bias f4 [16]
0	0xbb019a73	-0.0019775897
1	0x3b030989	0.0019994697
2	0x3b0313c6	0.00200008
3	0x3b0321ed	0.0020009235
4	0x3b031ed0	0.002000738
5	0xbb030a6f	-0.0019995233
6	0xbb02d105	-0.001996101
7	0x3b031a2c	0.0020004613
8	0x3b031760	0.0020002946
9	0xbb02f772	-0.0019983915
10	0x3b03185c	0.0020003533
11	0xbb02f204	-0.0019980678
12	0x3b02f716	0.00199837
13	0x3b032486	0.0020010783
14	0x3b031761	0.0020002949
15	0xbb02ee73	-0.0019978553

layers.3.batch_norm.running_mean f4 [16]
0	0xbcf1eb05	-0.029531011
1	0x3c1d6ac8	0.009607978
2	0x3d19d51c	0.037556753
3	0x3c5f9ae1	0.013647766
4	0xbd243253	-0.040087055
5	0xbca105e8	-0.019656137
6	0xbd9cdc4f	-0.07659208
7	0x3c086b3b	0.008326347
8	0x3d4074d4	0.046986416
9	0x3bce44f0	0.006294839
10	0x3d8dbe16	0.06921022
11	0xbc9fa167	-0.019486142
12	0xbd4feb31	-0.050761405
13	0x3c2ae744	0.010431115
14	0xbc80786e	-0.015682425
15	0xbb8dd727	-0.0043286267

layers.3.batch_norm.running_var f4 [16]
0	0x3f54daa3	0.83146113
1	0x3f56dc4d	0.839299
2	0x3f59bbb6	0.8505205
3	0x3f506286	0.81400335
4	0x3f60d1d7	0.8782019
5	0x3f577227	0.8415856
6	0x3f562e0d	0.8366402
7	0x3f563012	0.836671
8	0x3f522ff5	0.82104427
9	0x3f53d67b	0.82749146
10	0x3f51473d	0.81749326
11	0x3f513da7	0.817347
12	0x3f50c65c	0.8155267
13	0x3f5240d5	0.82130176
14	0x3f502bbd	0.8131674
15	0x3f5683ca	0.83794844

conv1.weight f4 [1, 16, 1, 1]
0	0xbcb844d7	-0.022493763
1	0xbe38b451	-0.18037535
2	0x3e023e55	0.1271909
3	0x3d25888d	0.040413428
4	0x3c04435f	0.008072703
5	0xbe4024b8	-0.18764007
6	0xbe78735e	-0.24262759
7	0xbe2a39ca	-0.16623607
8	0xbe44c397	-0.19215237
9	0xbe50440b	-0.20338456
10	0xbe379f57	-0.17931877
11	0xbdc39d27	-0.09551459
12	0xbe1a8340	-0.1508913
13	0x3e3c0f47	0.18365203
14	0xbce8a414	-0.028398551
15	0xbc7ff3e2	-0.015622111
