networks/gan-not-best-step-0.pth (torch, 5115 bytes, 11 tensors)

layers.0.conv1.weight f4 [2, 1, 1, 1]
00000000: 5862 55bf 40f9 a23d
-0.83353186 0.07957697

layers.0.conv1.bias f4 [2]
00000000: 0000 0000 0000 0000
0.0 0.0

layers.0.conv2.weight f4 [2, 1, 3, 3]
00000000: 0ae1 4b3e 56f6 02be 6eda 15be ca53 5e3e
00000010: 90fa 5bbe 0085 8bbd 5218 8ebe 262f 6f3e
00000020: 2cbb d93d b399 07be 6ae7 723e 1b98 a13e
00000030: 8853 0b3e 260b 71be a0db 94bd b948 893e
00000040: b60d 783e 266f e0bd
0.19910064 -0.12789282 -0.14634106 0.2171165 -0.21482301 -0.06812477 -0.2775293 0.2335783
0.10631403 -0.13242225 0.2372109 0.3156136 0.13606083 -0.23539409 -0.07268453 0.26813295
0.2422398 -0.109587

layers.0.conv2.bias f4 [2]
00000000: 0000 0000 0000 0000
0.0 0.0

layers.0.conv3.weight f4 [2, 2, 3, 3]
00000000: 027d 813d 6dc2 543e 143a 2f3d 86c9 3fbe
00000010: b2c7 903d 7383 063e 13dc 273e 28c4 1ebe
00000020: 544d 2dbd c0fc 48bc dcca 28bd 5c42 56bd
00000030: 6eef adbd 163e a63d 7263 e53d 3884 3bbd
00000040: 3daa 3d3e 0006 a6ba 9c59 6b3d 6c9e 713d
00000050: 185c a4bd 0086 29bc 10a5 d7bc 9a8d b63d
00000060: 5bab 01be b696 ddbd 19f9 68be eafd d1bd
00000070: 3add 993d 1516 433e 81f2 6dbe 68a8 adbd
00000080: 95d9 173e 6485 02be 25f6 223e 50d9 1b3c
0.063226715 0.20777293 0.042779997 -0.18729219 0.07069339 0.13136081 0.16392545 -0.15504515
-0.042310074 -0.012267292 -0.041209087 -0.05230938 -0.08492933 0.08117311 0.11200608 -0.04578039
0.18521972 -0.0012666583 0.057458505 0.058988973 -0.08025378 -0.0103468895 -0.026323825 0.08913727
-0.12663023 -0.108197615 -0.22751273 -0.102535084 0.07512899 0.19051392 -0.23237039 -0.084793866
0.14829095 -0.12746197 0.15914209 0.009512261

layers.0.conv3.bias f4 [2]
00000000: 0000 0000 0000 0000
0.0 0.0

layers.0.batch_norm.weight f4 [2]
00000000: 0000 803f 0000 803f
1.0 1.0

layers.0.batch_norm.bias f4 [2]
00000000: 0000 0000 0000 0000
0.0 0.0

layers.0.batch_norm.running_mean f4 [2]
00000000: 0000 0000 0000 0000
0.0 0.0

layers.0.batch_norm.running_var f4 [2]
00000000: 0000 803f 0000 803f
1.0 1.0

conv1.weight f4 [1, 2, 1, 1]
00000000: 5b01 d9be 68ba 0c3e
-0.42383847 0.13742983
