networks/gan-not-best-step-1.pth (torch, 5115 bytes, 11 tensors)

layers.0.conv1.weight f4 [2, 1, 1, 1]
0.13880877 0.23634444
00000000: e323 0e3e 4704 723e

layers.0.conv1.bias f4 [2]
-0.00031499367 0.00013798385
00000000: bc25 a5b9 c2af 1039

layers.0.conv2.weight f4 [2, 1, 3, 3]
-0.039832775 -0.19867869 -0.22432612 0.1387566 0.050827496 0.13244197 -0.007590004 -0.0081881955
-0.012798266 0.18004516 -0.23063564 0.07185124 0.18276878 0.19332053 -0.15995176 0.25811458
-0.22214283 0.17380409
00000000: b127 23bd 6d72 4bbe bfb5 65be 3616 0e3e
00000010: 7e30 503d de9e 073e 91b5 f8bb c827 06bc
00000020: d1af 51bc c25d 383e c02b 6cbe be26 933d
00000030: bd27 3b3e d1f5 453e 65ca 23be 9827 843e
00000040: 6979 63be b3f9 313e

layers.0.conv2.bias f4 [2]
0.0 0.0
00000000: 0000 0000 0000 0000

layers.0.conv3.weight f4 [2, 2, 3, 3]
0.07220606 -0.22327453 -0.09322962 -0.09260087 -0.21943593 -0.049910612 0.16454007 -0.022503383
0.232904 -0.21216267 0.093996905 0.203804 0.22908142 -0.09142779 -0.21280807 -0.08662646
0.17471932 0.020650443 0.22527297 -0.17209604 -0.14758515 0.12011576 0.08081338 -0.15312368
0.21926673 -0.09089702 -0.19588219 0.065500125 -0.13204183 -0.11216002 -0.1316655 0.06410518
0.11041949 0.15851729 -0.13336948 -0.055083428
00000000: c5e0 933d 14a2 64be 2cef bebd 86a5 bdbd
00000010: d0b3 60be 126f 4cbd 317d 283e 0459 b8bc
00000020: 637e 6e3e 2c41 59be 7381 c03d ffb1 503e
00000030: 5294 6a3e 7e3e bbbd 5cea 59be 3769 b1bd
00000040: 9fe9 323e 1e2b a93c f5ad 663e f239 30be
00000050: 9020 17be 40ff f53d 7c81 a53d 74cc 1cbe
00000060: 7587 603e 3828 babd 5795 48be ee24 863d
00000070: f935 07be 27b4 e5bd 52d3 06be 9449 833d
00000080: 9d23 e23d 5b52 223e 0292 08be 299f 61bd

layers.0.conv3.bias f4 [2]
0.0 0.0
00000000: 0000 0000 0000 0000

layers.0.batch_norm.weight f4 [2]
1.00095 1.00095
00000000: 211f 803f 211f 803f

layers.0.batch_norm.bias f4 [2]
0.0009999891 0.0009999797
00000000: 1112 833a c011 833a

layers.0.batch_norm.running_mean f4 [2]
0.006879317 0.011748294
00000000: e56b e13b eb7b 403c

layers.0.batch_norm.running_var f4 [2]
0.9001588 0.9004633
00000000: cf70 663f c384 663f

conv1.weight f4 [1, 2, 1, 1]
-0.25658068 -0.13695945
00000000: 8b5e 83be 193f 0cbe
