networks/gan-best-step-2.pth (torch, 36143 bytes, 41 tensors)

layers.0.conv1.weight f4 [2, 1, 1, 1]
-0.5198472 -0.29952487
00000000: b514 05bf 535b 99be

layers.0.conv1.bias f4 [2]
-0.0146660125 -0.018590484
00000000: b749 70bc 124b 98bc

layers.0.conv2.weight f4 [2, 1, 3, 3]
0.24988405 0.06781676 0.22029664 0.25728068 0.13615347 0.22433764 -0.26012376 0.116240405
-0.03778343 -0.29933965 -0.08593431 0.058612775 0.12639181 0.28412023 -0.19132471 -0.24861845
-0.21636948 0.23993528
00000000: 9be1 7f3e 83e3 8a3d 7195 613e 4bba 833e
00000010: d16b 0b3e c4b8 653e f12e 85be 730f ee3d
00000020: ccc2 1abd 0c43 99be 54fe afbd f313 703d
00000030: db6c 013e 3578 913e a0ea 43be d695 7ebe
00000040: f68f 5dbe 98b1 753e

layers.0.conv2.bias f4 [2]
0.020202579 -0.010326743
00000000: e17f a53c 8031 29bc

layers.0.conv3.weight f4 [2, 2, 3, 3]
-0.064229935 -0.13434158 0.29373828 -0.041322425 0.18896744 0.11023226 -0.15115665 0.14674588
0.18524566 0.09114743 -0.09238109 0.2212726 0.14269781 0.026686288 -0.04530232 -0.24306972
-0.056767527 -0.21906213 -0.2636082 -0.119435646 -0.025287587 0.006952724 0.027809711 -0.026625238
-0.23687881 -0.002605869 0.08086686 0.09983838 -0.17688367 0.13500862 -0.069816336 -0.16088063
-0.065251715 0.15005596 -0.119246036 0.21168506
00000000: fc8a 83bd d790 09be dd64 963e b441 29bd
00000010: ae80 413e 73c1 e13d cfc8 1abe 8d44 163e
00000020: 0ab1 3d3e 81ab ba3d 4c32 bdbd 4995 623e
00000030: 601f 123e 349d da3c ed8e 39bd 45e7 78be
00000040: 1185 68bd d351 60be a7f7 86be ad9a f4bd
00000050: ea27 cfbc add3 e33b 31d1 e33c 2c1d dabc
00000060: 5c90 72be 3ac7 2abb 869d a53d 1178 cc3d
00000070: fe20 35be b33f 0a3e defb 8ebd e4bd 24be
00000080: b1a2 85bd 45a8 193e 4437 f4bd f8c3 583e

layers.0.conv3.bias f4 [2]
-0.0056136134 -0.004719465
00000000: 67f2 b7bb bea5 9abb

layers.0.batch_norm.weight f4 [2]
1.0259712 0.95623714
00000000: 0653 833f f5cb 743f

layers.0.batch_norm.bias f4 [2]
-0.08584893 0.04993952
00000000: 90d1 afbd 628d 4c3d

layers.0.batch_norm.running_mean f4 [2]
-0.25942332 -0.18359847
00000000: 22d3 84be 3d01 3cbe

layers.0.batch_norm.running_var f4 [2]
0.02260529 0.0074901525
00000000: bb2e b93c f46f f53b

layers.1.conv1.weight f4 [4, 2, 1, 1]
-0.02310245 0.54780227 -0.3163239 -0.6198629 0.6121675 0.00446366 -0.2870467 0.3920905
00000000: 5941 bdbc c53c 0c3f 35f5 a1be 56af 1ebf
00000010: 02b7 1c3f e543 923b c9f7 92be 16c0 c83e

layers.1.conv1.bias f4 [4]
0.0023895807 -6.97297e-05 -0.0013716703 0.011962581
00000000: 839a 1c3b d93b 92b8 9ec9 b3ba b4fe 433c

layers.1.conv2.weight f4 [4, 2, 3, 3]
-0.095177166 0.04039139 -0.13199073 0.060996782 0.026294813 0.061278705 -0.1653318 -0.0336825
0.18779853 0.05994371 -0.090330526 -0.055751182 0.0007166078 -0.18292066 0.042195074 -0.014940102
0.2647562 0.08882325 0.011962122 0.008098605 -0.12091016 -0.17209375 0.03569205 0.23475419
0.096321 0.107937224 0.045752317 -0.177701 -0.054283764 -0.20165063 0.17518958 -0.19978411
-0.018312983 0.054259673 0.1696625 -0.07131733 -0.05970447 0.13851796 -0.0013815237 0.16542806
-0.12105339 -0.086386085 -0.037574288 -0.035812646 0.20333503 -0.11439829 -0.10504826 -0.045590017
0.13781366 -0.1403394 0.10183622 -0.08138612 -0.23186356 -0.103470705 -0.22506164 0.054449033
0.18069473 -0.045427274 0.09151583 0.15877742 0.18098219 0.0018398844 0.14223178 -0.04677512
0.15749124 -0.0014507541 0.2159174 -0.13949798 -0.10804371 0.06473983 -0.1252621 0.1212113
00000000: 3fec c2bd 7171 253d 9428 07be c3d7 793d
00000010: 3868 d73c 61ff 7a3d bd4c 29be a9f6 09bd
00000020: 424e 403e 8987 753d 36ff b8bd 5a5b 64bd
00000030: bcda 3b3a 8e4f 3bbe bed4 2c3d 54c7 74bc
00000040: 208e 873e f7e8 b53d c7fc 433c 03b0 043c
00000050: bf9f f7bd 5839 30be d431 123d 6763 703e
00000060: f243 c53d 310e dd3d c866 3b3d 40f7 35be
00000070: a758 5ebd 817d 4ebe e664 333e 3594 4cbe
00000080: 1c05 96bc 643f 5e3d 02bc 2d3e d20e 92bd
00000090: ad8c 74bd a7d7 0d3e 3e14 b5ba f965 293e
000000a0: d7ea f7bd 30eb b0bd 7fe7 19bd 48b0 12bd
000000b0: 0f37 503e a749 eabd 8b23 d7bd 99bc 3abd
000000c0: 061f 0d3e 22b5 0fbe 828f d03d c4ad a6bd
000000d0: a46d 6dbe 73e8 d3bd 8f76 66be f305 5f3d
000000e0: 0a08 393e f311 3abd a76c bb3d 8c96 223e
000000f0: 6553 393e 4728 f13a 35a5 113e 4597 3fbd
00000100: 6245 213e 3b27 beba 7319 5d3e 8fd8 0ebe
00000110: 0546 ddbd 5196 843d b544 00be a13d f83d

layers.1.conv2.bias f4 [4]
0.06407205 0.029527696 0.048696164 0.028995678
00000000: 3538 833d 11e4 f13c a175 473d 5888 ed3c

layers.1.conv3.weight f4 [4, 4, 3, 3]
-0.15130484 -0.009047786 -0.20044607 -0.19504127 0.119323984 0.07886821 -0.0015255138 -0.02734072
-0.050740972 -0.105866455 0.1421601 0.10145362 0.112534955 -0.13754648 0.048704337 -0.021529801
0.034451757 -0.22986007 0.032921158 -0.18146996 0.055349536 -0.10273099 0.16047288 0.14017108
0.06911703 -0.054248597 -0.08426726 0.16916165 -0.11505449 0.07601075 -0.06123256 0.09165559
0.03559934 0.094845764 0.1362108 -0.1287152 -0.04180754 0.1725373 -0.012078633 0.16159163
0.044297427 0.03953292 -0.016520157 -0.098133825 0.16483255 0.15316759 0.18190733 0.10282864
-0.021658873 0.09904022 -0.21960075 0.12062839 -0.09565726 -0.11939442 -0.20758188 -0.013008445
-0.13697338 -0.25445852 -0.13207437 0.113131255 0.050587244 0.11283708 0.16496217 -0.08092469
-0.019239787 -0.052733287 0.14487572 -0.029107053 -0.06671243 0.02810753 0.08888419 0.17758872
0.17245893 -0.030144028 0.119937666 -0.11697021 0.055598475 0.017234998 -0.03153244 0.15049945
-0.13342823 -0.040591937 0.19759344 0.21310538 -0.12394957 -0.00919001 0.14967528 0.008219045
0.057494063 -0.105887815 -0.055188254 -0.012311883 -0.10918548 0.19227278 0.13294658 0.05584229
-0.07982621 0.008088268 -0.12334703 -0.112816356 -0.03350165 0.20359136 0.055926584 0.052497875
0.13573024 0.07795313 0.12339658 0.20134047 0.18710616 0.102610834 0.14936167 -0.03835154
0.18299478 0.017426023 0.08871314 0.083640024 -0.11758847 0.040227618 0.12615287 0.14053859
0.00932959 -0.038709268 0.13380094 -0.09052927 0.111576304 -0.067034416 0.2471646 -0.024497615
-0.053490385 0.12191378 0.121057846 0.07880783 0.11696989 0.07277131 0.120129414 0.1095525
-0.17861702 0.051384334 0.053424824 -0.17560485 0.09826507 -0.042139616 0.14292349 -0.084490046
00000000: a8ef 1abe 2a3d 14bc bc41 4dbe e6b8 47be
00000010: 2260 f43d a885 a13d c0f3 c7ba a5f9 dfbc
00000020: c4d5 4fbd 83d0 d8bd 6b92 113e eac6 cf3d
00000030: ba78 e63d fcd8 0cbe 337e 473d 445f b0bc
00000040: 491d 0d3d 7060 6bbe 56d8 063d 43d3 39be
00000050: 32b6 623d a064 d2bd 0153 243e 0289 0f3e
00000060: 3b8d 8d3d c733 5ebd 5094 acbd b638 2d3e
00000070: b0a1 ebbd 86ab 9b3d fece 7abd edb5 bb3d
00000080: 9dd0 113d 7f3e c23d d87a 0b3e ebcd 03be
00000090: 623e 2bbd 9ead 303e 75e5 45bc 4778 253e
000000a0: 3871 353d 45ed 213d 4855 87bc 63fa c8bd
000000b0: ddc9 283e f7d7 1c3e ea45 3a3e d297 d23d
000000c0: f36d b1bc 99d5 ca3d 05df 60be 040c f73d
000000d0: f4e7 c3bd 1085 f4bd 5890 54be 5f21 55bc
000000e0: c042 0cbe 6348 82be 813e 07be 5cb1 e73d
000000f0: 9234 4f3d 2117 e73d d8eb 283e d8bb a5bd
00000100: c29c 9dbc dcfe 57bd 4d5a 143e ea71 eebc
00000110: 87a0 88bd c341 e63c ea08 b63d d1d9 353e
00000120: 1399 303e 9cf0 f6bc e1a1 f53d 148e efbd
00000130: 3abb 633d 6930 8d3c 2928 01bd 871c 1a3e
00000140: 69a1 08be bb43 26bd ef55 4a3e 4c38 5a3e
00000150: 46d9 fdbd b291 16bc 7a44 193e 2ca9 063c
00000160: e57e 6b3d b6db d8bd 140d 62bd c8b7 49bc
00000170: a39c dfbd 28e3 443e 2623 083e e3ba 643d
00000180: ed7b a3bd a884 043c 5e9d fcbd 430c e7bd
00000190: 0739 09bd 417a 503e 4613 653d 0308 573d
000001a0: defc 0a3e e4a5 9f3d 59b7 fc3d 322c 4e3e
000001b0: c298 3f3e a125 d23d 44f2 183e 8116 1dbd
000001c0: fc62 3b3e 05c1 8e3c 3caf b53d 764b ab3d
000001d0: 39d2 f0bd b7c5 243d 382e 013e 59e9 0f3e
000001e0: 23db 183c 9c8d 1ebd 1d03 093e 6967 b9bd
000001f0: 1e82 e43d 5749 89bd b818 7d3e 39af c8bc
00000200: bc18 5bbd efad f93d 2ded f73d 0066 a13d
00000210: e98d ef3d 2009 953d 6906 f63d 105d e03d
00000220: 61e7 36be 6178 523d fdd3 5a3d c2d1 33be
00000230: 323f c93d 979a 2cbd 895a 123e 1e09 adbd

layers.1.conv3.bias f4 [4]
-4.2892e-05 2.0117886e-05 3.6436202e-05 -0.0014724841
00000000: efe6 33b8 d5c2 a837 13d3 1838 5e00 c1ba

layers.1.batch_norm.weight f4 [4]
0.99770993 0.96588206 1.0084577 1.0350511
00000000: eb69 7f3f 0c44 773f 2415 813f 8e7c 843f

layers.1.batch_norm.bias f4 [4]
0.016691009 -0.022014191 -0.0075809597 0.039629444
00000000: 95bb 883c 1b57 b4bc b369 f8bb 7c52 223d

layers.1.batch_norm.running_mean f4 [4]
0.23001964 -0.40127593 0.23095219 0.05731532
00000000: 458a 6b3e 0a74 cdbe bb7e 6c3e 78c3 6a3d

layers.1.batch_norm.running_var f4 [4]
0.08295922 0.2672764 0.11119774 0.0034288256
00000000: 86e6 a93d 74d8 883e a4bb e33d 26b6 603b

layers.2.conv1.weight f4 [8, 4, 1, 1]
0.27189967 0.21284181 -0.098492846 0.17349777 0.043011595 -0.09063775 0.007210924 0.21618369
-0.22249322 -0.025282243 0.032482132 0.46154606 0.40078673 -0.024068901 0.21397617 -0.07670658
-0.13506165 0.52390426 -0.38809907 0.25445756 -0.45603994 -0.17290337 -0.26388037 0.074174486
0.3321582 0.3575121 -0.18948358 -0.28138387 -0.5279138 -0.44518837 -0.037451323 -0.16878201
00000000: 6f36 8b3e 34f3 593e 9eb6 c9bd 66a9 313e
00000010: ed2c 303d 49a0 b9bd 9d49 ec3b 425f 5d3e
00000020: 43d5 63be b51c cfbc fc0b 053d c44f ec3e
00000030: eb33 cd3e 252c c5bc 921c 5b3e 5718 9dbd
00000040: 9a4d 0abe 971e 063f ecb4 c6be 4348 823e
00000050: 117e e9be 950d 31be 541b 87be cbe8 973d
00000060: a410 aa3e d30b b73e fc07 42be 8c11 90be
00000070: 5c25 07bf bbef e3be 8f66 19bd 31d5 2cbe

layers.2.conv1.bias f4 [8]
0.00042903304 0.00092657184 -0.0029641308 0.001063713 0.0010903269 -0.0009050087 0.0009090514 0.002644646
00000000: d7ef e039 2fe5 723a dd41 42bb 496c 8b3a
00000010: 4de9 8e3a 1b3e 6dba 684d 6e3a cc51 2d3b

layers.2.conv2.weight f4 [8, 4, 3, 3]
0.0116360495 0.084485695 -0.091195464 -0.14108568 0.13268177 0.1911405 0.15130208 0.11086939
-0.10466496 0.057654824 0.15418497 0.18581189 0.057038777 0.14785634 0.089303724 0.07953194
0.04496274 -0.03008229 -0.07353264 -0.10671925 0.16290513 -0.1548149 -0.015534866 0.07076925
0.12596153 0.15893395 -0.01642046 0.09928899 0.058431663 -0.14710338 0.07337817 -0.08401962
0.090230934 0.18057282 -0.06254134 0.19526356 -0.06702925 0.052173052 -0.12323185 0.08865663
0.016394204 0.13809331 0.11043057 0.10574268 0.14633739 0.11725296 -0.12931296 -0.0068253917
0.015243492 0.09819876 0.191684 0.045390405 0.030591978 -0.16570188 -0.068829544 0.13282387
0.06183834 0.121543266 0.08563225 0.020119285 0.12409919 -0.07309489 0.12174453 0.21371673
-0.05344797 -0.11448823 0.20941456 -0.051857274 -0.1633426 0.04835847 0.08148594 -0.0606519
-0.057110358 0.10261167 0.07686095 -0.114659086 0.0210581 0.13808897 -0.09496599 0.017179595
-0.13517782 0.21714655 0.014943488 0.09325667 0.09494772 0.13005409 0.14272222 -0.10656164
0.13608447 -0.09691014 -0.17726398 -0.042380925 0.08215043 -0.057948936 0.033248566 0.1438569
0.051559668 -0.033196524 -0.08195853 -0.18976311 0.012487482 0.0064826324 0.09876543 0.08350412
-0.043082595 -0.08858014 0.0007686689 -0.17888494 0.07391664 0.077267095 0.013484304 -0.116242886
-0.0045102895 0.090346724 0.1733347 0.19357243 0.10283738 -0.20246065 0.14232986 0.055620514
-0.0611966 0.025444867 0.08197055 0.0792054 -0.03269461 0.13955031 0.17895907 0.088148385
0.15437669 -0.16560036 0.15949704 0.028545594 -0.14461179 -0.003089838 0.031224934 0.22253731
0.06257927 -0.1288253 -0.15144323 -0.049660105 -0.1816064 0.029474093 0.13859569 0.11960656
0.117931746 -0.119237706 0.03872438 0.057906024 -0.05790357 0.07076672 -0.05427061 -0.041610938
0.15028462 -0.20209979 0.24473163 0.004709782 -0.0015556477 0.15906386 -0.1101738 -0.07324339
0.07574012 0.10986099 -0.022363711 -0.2243237 0.021786723 0.11726123 -0.05609085 0.19498144
0.03368182 0.22291765 0.12059027 0.0355553 -0.04643861 0.2233467 0.023940561 -0.05554151
0.15131609 -0.1977749 -0.09583226 0.18947642 0.08681845 -0.06660072 0.07280061 -0.014657285
0.0016391395 0.15779296 -0.033404544 0.08678544 -0.09759427 -0.20721018 -0.042368576 -0.06345032
0.01335982 0.15900853 0.0718316 0.118670665 0.066455655 -0.012842527 0.1253071 -0.01085894
-0.014995123 0.060722515 -0.07071011 -0.05545585 -0.17809986 0.011989338 -0.049598638 0.1538239
0.04995773 -0.031154118 -0.029408772 0.07806881 -0.03876281 0.09621339 -0.123318285 0.12579787
-0.019086286 0.07782506 0.09083374 -0.04297554 -0.11556152 0.07580241 -0.053226035 -0.090542436
-0.12649381 -0.047167096 0.08593261 0.08859036 0.02524026 0.20357458 0.026017074 -0.02852082
0.079432435 0.04507943 -0.093187295 0.1590817 -0.05757231 -0.13011213 0.15966609 -0.12759206
0.09941731 -0.19857891 -0.04600404 -0.053367343 -0.07975582 -0.15181758 -0.06513585 0.015842108
-0.09853735 -0.116818696 -0.092002615 -0.2025677 -0.05587556 -0.11946055 -0.008220573 0.012247645
00000000: 21a5 3e3c d606 ad3d b0c4 babd c478 10be
00000010: bbdd 073e 56ba 433e efee 1a3e 7e0f e33d
00000020: 955a d6bd 7727 6c3d aae2 1d3e 7945 3e3e
00000030: 7ea1 693d a767 173e dfe4 b63d a4e1 a23d
00000040: da2a 383d 226f f6bc 4898 96bd 9f8f dabd
00000050: 9ad0 263e cc87 1ebe f385 7ebc 78ef 903d
00000060: 0ffc 003e 95bf 223e 3384 86bc 0758 cb3d
00000070: 0a56 6f3d 45a2 16be 4b47 963d 7b12 acbd
00000080: ffca b83d 15e8 383e ad15 80bd 2cf3 473e
00000090: a246 89bd 69b3 553d fb60 fcbd 9b91 b53d
000000a0: 234d 863c 5568 0d3e 6c29 e23d 9e8f d83d
000000b0: 78d9 153e 5222 f03d 9e6a 04be 89a7 dfbb
000000c0: d7bf 793c 6e1c c93d cf48 443e 4aeb 393d
000000d0: 079c fa3c c1ad 29be 81f6 8cbd fb02 083e
000000e0: 334a 7d3d adeb f83d f65f af3d 33d1 a43c
000000f0: b727 fe3d c6b2 95bd 3255 f93d 8fd8 5a3e
00000100: 42ec 5abd ce78 eabd c570 563e 4b68 54bd
00000110: 4843 27be 8813 463d 1ae2 a63d 206e 78bd
00000120: 8dec 69bd 1126 d23d 4669 9d3d 62d2 eabd
00000130: 0982 ac3c 3267 0d3e 877d c2bd 39bc 8c3c
00000140: 0e6c 0abe aa5b 5e3e 88d5 743c 5afd be3d
00000150: f373 c23d e62c 053e c625 123e fd3c dabd
00000160: ba59 0b3e d378 c6bd b084 35be 9f97 2dbd
00000170: 7c3e a83d dd5b 6dbd a62f 083d 394f 133e
00000180: 3b30 533d 14f9 07bd e0d9 a7bd 4351 42be
00000190: 4c98 4c3c 436c d43b 8845 ca3d 3504 ab3d
000001a0: 6077 30bd 8169 b5bd 7f80 493a 9d2d 37be
000001b0: 9b61 973d 363e 9e3d 45ed 5c3c c010 eebd
000001c0: 0dcb 93bb b407 b93d a77e 313e da37 463e
000001d0: 679c d23d d851 4fbe ebbe 113e 56d2 633d
000001e0: 49a9 7abd c171 d03c 2de0 a73d 7136 a23d
000001f0: c9ea 05bd 47e6 0e3e 0c41 373e 2487 b43d
00000200: ec14 1e3e 2493 29be 3153 233e 73d8 e93c
00000210: 1d15 14be e17e 4abb 6fcb ff3c d2e0 633e
00000220: 8f29 803d c8ea 03be ef13 1bbe 6568 4bbd
00000230: 07f7 39be a773 f13c 07ec 0d3e 49f4 f43d
00000240: 3386 f13d e632 f4bd 759d 1e3d de2e 6d3d
00000250: 4b2c 6dbd 24ee 903d dc4a 5ebd 3b70 2abd
00000260: 36e4 193e 3ff3 4ebe ee9a 7a3e 8454 9a3b
00000270: e0e6 cbba a3e1 223e cda2 e1bd a100 96bd
00000280: a31d 9b3d ccfe e03d 1a34 b7bc 1db5 65be
00000290: 127a b23c a826 f03d 85bf 65bd 37a9 473e
000002a0: f3f5 093d 8644 643e 08f8 f63d 6fa2 113d
000002b0: 6936 3ebd ffb4 643e ff1e c43c 7f7f 63bd
000002c0: 9bf2 1a3e 8185 4abe b443 c4bd 1b06 423e
000002d0: dfcd b13d f565 88bd 7c18 953d 1c25 70bc
000002e0: 65d8 d63a 7a94 213e 34d3 08bd 91bc b13d
000002f0: 81df c7bd e82e 54be ac8a 2dbd 3ef2 81bd
00000300: 25e3 5a3c 22d3 223e 721c 933d 9b09 f33d
00000310: e719 883d 7669 52bc 8150 003e b2e9 31bc
00000320: 1bae 75bc 2cb8 783d 76d0 90bd ac25 63bd
00000330: cf5f 36be ee6e 443c f127 4bbd 0384 1d3e
00000340: 7aa0 4c3d ec36 ffbc aaea f0bc 8ae2 9f3d
00000350: c1c5 1ebd 870b c53d 4c8e fcbd 28d1 003e
00000360: d85a 9cbc bf62 9f3d 0a07 ba3d 1f07 30bd
00000370: 85ab ecbd 4b3e 9b3d 8b03 5abd 506e b9bd
00000380: 9887 01be 4932 41bd 70fd af3d dd6e b53d
00000390: a9c4 ce3c db75 503e c221 d53c 7fa4 e9bc
000003a0: 79ad a23d 35a5 383d fbd8 bebd 50e6 223e
000003b0: f1d0 6bbd 1d3c 05be 827f 233e 7ea7 02be
000003c0: 4d9b cb3d 4558 4bbe bb6e 3cbd b797 5abd
000003d0: 0557 a3bd 1176 1bbe f265 85bd 4fc7 813c
000003e0: f3cd c9bd a43e efbd de6b bcbd e86d 4fbe
000003f0: c5dd 64bd bca7 f4bd 95af 06bc 59aa 483c

layers.2.conv2.bias f4 [8]
0.038038712 0.019059522 0.032534353 0.06868356 0.071330115 0.05263103 0.035065483 0.05921777
00000000: 7bce 1b3d b722 9c3c be42 053d f7a9 8c3d
00000010: 8615 923d a393 573d d3a0 0f3d 558e 723d

layers.2.conv3.weight f4 [8, 8, 3, 3]
-0.0435857 -0.0082917195 -0.12560576 0.034968786 0.031197513 -0.17870733 0.029485496 -0.038414974
-0.017284622 -0.0072965277 -0.002373001 -0.16958651 0.046743616 -0.108539395 -0.09595291 -0.042374678
-0.1730576 -0.19084233 -0.025067618 0.02509879 0.09841302 0.056198332 -0.05027261 -0.011113123
-0.024839977 0.08566544 -0.10589387 0.03936384 -0.09383158 -0.11257789 -0.045984063 -0.007929724
-0.077436775 -0.07332459 0.09606598 0.054995146 0.019276496 0.00025752556 0.04459965 -0.05211896
0.07396338 0.11020915 0.049072843 0.11002488 0.090207696 0.10469171 0.06588731 -0.023194974
0.114522256 -0.054370057 0.06367701 0.10435119 -0.010373525 0.18741496 0.060086854 -0.0256107
0.038920775 0.122115515 0.041535076 -0.018853446 0.1090511 0.012814818 0.0615721 0.0113007985
0.013450042 0.026138086 -0.016921187 -0.019367792 0.008083026 -0.021396225 -0.21063145 -0.104606204
0.052425 -0.008357874 0.01820543 0.093692824 -0.00612701 -0.02156193 0.10365895 -0.014807927
-0.045352984 0.11586219 -0.00031318955 0.019236792 -0.017722243 0.1307925 0.11002917 -0.031760372
0.009083528 0.068409316 0.053925462 -0.15088929 0.0593053 0.028160546 -0.019985856 -0.051218495
0.038118307 0.14062424 0.09264761 0.082351826 0.18101071 0.031330228 0.046946608 0.13411336
0.08045519 -0.12818007 0.061429866 -0.18304585 0.061220303 0.11317509 -0.12038117 -0.1146921
0.0004927924 -0.08929093 -0.028276399 -0.019799791 -0.19361213 -0.09760434 0.09133585 -0.050294153
-0.08175991 -0.0012251876 0.010028377 -0.17577909 -0.0027656383 -0.039463006 -0.016887406 0.015634852
0.17414257 0.1252165 0.040723972 0.10856522 -0.018839035 -0.032416135 0.02963774 0.02140149
-0.13986173 0.12277131 -0.04866861 0.1012957 0.17299847 0.16496456 -0.020411223 0.14615895
0.0699341 0.036924817 0.02629685 -0.014855789 0.16300406 0.16648848 -0.018642263 0.060211882
0.035271656 -0.018776013 0.038889784 -0.032530986 -0.048343938 -0.0028889026 -0.06828058 -0.047205582
-0.058560558 -0.0017567992 -0.018519795 -0.049364846 0.041228786 -0.018648773 -0.09469476 0.049043655
-0.028163655 -0.07676645 0.22733548 0.14904056 0.04080283 0.037967913 -0.010477799 0.10219121
0.029648291 -0.021290788 -0.07908561 -0.18607406 -0.070178635 -0.052755155 -0.1618912 0.019717298
0.20698163 -0.13735998 0.11409839 0.167819 -0.051617365 0.030228246 0.00040177105 -0.008706603
-0.12734291 -0.027892364 -0.11440017 -0.023682361 -0.121678255 -0.1637992 0.03830804 -0.085369594
0.031203805 0.10005459 0.10063748 0.10723283 -0.0986307 -0.13253413 0.08918273 0.11457855
-0.052486055 0.12748443 0.15221018 -0.05094507 0.044496004 0.17605259 0.11911466 0.17757176
-0.08987405 0.073617846 -0.01650734 0.152551 0.10680125 0.10907785 0.16835168 -0.06456569
-0.0043186983 -0.019667212 0.04673913 0.08835839 0.12637532 0.15433943 -0.027041584 0.10560673
0.1721866 0.08394904 0.0610725 -0.18938272 -0.052357163 -0.056498013 0.010391263 -0.04883736
0.07390046 0.012906526 0.18609896 0.15905192 -0.011708316 0.15229961 -0.025549257 0.06775854
0.0056525324 -0.10803532 -0.075786844 -0.16250536 -0.12897865 0.05337118 -0.1164559 0.023865482
00000000: eb86 32bd fed9 07bc cc9e 00be 6e3b 0f3d
00000010: ed91 ff3c 0eff 36be 918b f13c 0559 1dbd
00000020: 7b98 8dbc b617 efbb 5a84 1bbb 16a8 2dbe
00000030: 3c76 3f3d e749 debd f682 c4bd 1291 2dbd
00000040: 0336 31be 2c6c 43be 9b5a cdbc fa9b cd3c
00000050: c48c c93d 3930 663d a7ea 4dbd d113 36bc
00000060: 357d cbbc 5d71 af3d e3de d8bd fa3b 213d
00000070: c52a c0bd 3d8f e6bd c959 3cbd aceb 01bc
00000080: 2c97 9ebd 342b 96bd 3ebe c43d 9742 613d
00000090: bee9 9d3c 7f04 8739 1fae 363d b17a 55bd
000000a0: 1d7a 973d 56b5 e13d 9b00 493d b954 e13d
000000b0: d0be b83d 9b68 d63d edef 863d 6303 bebc
000000c0: a58a ea3d 23b3 5ebd 1869 823d 14b6 d53d
000000d0: b8f5 29bc b5e9 3f3e a21d 763d 88cd d1bc
000000e0: 646b 1f3d b317 fa3d af20 2a3d 8b72 9abc
000000f0: 2f56 df3d 3ef5 513c 0733 7c3d fc26 393c
00000100: 915d 5c3c 8a1f d63c 4d9e 8abc 34a9 9ebc
00000110: ab6e 043c 2347 afbc c5af 57be c73b d6bd
00000120: 99bb 563d 77ef 08bc 8e23 953c 06e2 bf3d
00000130: 16c5 c8bb a5a2 b0bc 254b d43d f39c 72bc
00000140: 0dc4 39bd 2849 ed3d 9733 a4b9 7a96 9d3c
00000150: 3d2e 91bc 78ee 053e f956 e13d 2a17 02bd
00000160: 14d3 143c 2f1a 8c3d f2e0 5c3d b982 1abe
00000170: 1dea 723d f2b0 e63c 61b9 a3bc 7cca 51bd
00000180: f121 1c3d cdff 0f3e 08be bd3d 13a8 a83d
00000190: df5a 393e 2054 003d 164b 403d 0355 093e
000001a0: b1c5 a43d a341 03be e29d 7b3d 5f70 3bbe
000001b0: 24c2 7a3d 57c8 e73d 678a f6bd b1e3 eabd
000001c0: bd2e 013a 2ade b6bd e8a3 e7bc 2c33 a2bc
000001d0: 4242 46be c9e4 c7bd 4a0e bb3d 3e01 4ebd
000001e0: bd71 a7bd 7996 a0ba 104e 243c 6fff 33be
000001f0: b63f 35bb f6a3 21bd 7557 8abc a914 803c
00000200: 6e52 323e c138 003e 2ece 263d 7157 de3d
00000210: 5254 9abc c8c6 04bd d9ca f23c 2d52 af3c
00000220: ea37 0fbe 866f fb3d bd58 47bd 1f74 cf3d
00000230: 8326 313e 78ec 283e 7035 a7bc b1aa 153e
00000240: 9c39 8f3d 7a3e 173d 7e6c d73c b265 73bc
00000250: 89ea 263e f57b 2a3e a9b7 98bc bca0 763d
00000260: 0379 103d 27d0 99bc e54a 1f3d 363f 05bd
00000270: 4b04 46bd be53 3dbb b0d6 8bbd a45a 41bd
00000280: 32dd 6fbd 6644 e6ba d3b6 97bc cb32 4abd
00000290: 84df 283d 50c5 98bc 54ef c1bd 00e2 483d
000002a0: 77b7 e6bc bb37 9dbd a2ca 683e 179e 183e
000002b0: de20 273d 3e84 1b3d 13ab 2bbc a049 d13d
000002c0: f9e0 f23c 056a aebc a3f7 a1bd 338a 3ebe
000002d0: d1b9 8fbd ca15 58bd cfc6 25be 2c86 a13c
000002e0: fef2 533e 18a8 0cbe 6bac e93d bed8 2b3e
000002f0: bb6c 53bd 3aa1 f73c cca4 d239 24a6 0ebc
00000300: 2e66 02be 877e e4bc a34a eabd 8301 c2bc
00000310: 7332 f9bd faba 27be e4e8 1c3d 41d6 aebd
00000320: 1f9f ff3c 6ce9 cc3d 061b ce3d e39c db3d
00000330: e4fe c9bd 07b7 07be 6fa5 b63d 29a8 ea3d
00000340: 9efb 56bd 478b 023e fcdc 1b3e c7ab 50bd
00000350: 7141 363d 2147 343e 63f2 f33d 5fd5 353e
00000360: e30f b8bd f4c4 963d 673a 87bc 5436 1c3e
00000370: 9dba da3d 3564 df3d 6264 2c3e 043b 84bd
00000380: de83 8dbb 221d a1bc 8871 3f3d 3ef5 b43d
00000390: 8868 013e 280b 1e3e 5086 ddbc 5748 d83d
000003a0: af51 303e 79ed ab3d 2827 7a3d 8bed 41be
000003b0: 7774 56bd 766a 67bd 1e40 2a3c af09 48bd
000003c0: 2059 973d e575 533c ba90 3e3e 82de 223e
000003d0: 3dd4 3fbc 6ef4 1b3e ad4c d1bc fdc4 8a3d
000003e0: e138 b93b 9f41 ddbd 2236 9bbd ce67 26be
000003f0: fb12 04be bd9b 5a3d 6e80 eebd 8b81 c33c

layers.2.conv3.bias f4 [8]
3.3330946e-06 -6.281505e-05 -9.848596e-05 -1.804228e-05 -2.0098818e-05 -3.3363965e-05 4.2512387e-05 -9.347081e-05
00000000: 21ae 5f36 93bb 83b8 3f8a ceb8 8059 97b7
00000010: e299 a8b7 49f0 0bb8 544f 3238 c205 c4b8

layers.2.batch_norm.weight f4 [8]
0.9841199 1.0368091 0.9927217 0.94327223 1.0071009 0.9690181 1.018258 1.0188577
00000000: 48ef 7b3f 29b6 843f 0223 7e3f 4a7a 713f
00000010: afe8 803f 9211 783f 4756 823f ee69 823f

layers.2.batch_norm.bias f4 [8]
0.038872566 0.07454728 0.007049649 -0.035353802 0.016097412 -0.022525134 0.04105237 0.043765336
00000000: d738 1f3d 3fac 983d be00 e73b 26cf 10bd
00000010: b8de 833c a186 b8bc 8826 283d 4843 333d

layers.2.batch_norm.running_mean f4 [8]
0.28063953 0.05148181 0.080112934 0.17308237 0.07559131 -0.3321242 0.04233947 -0.5070865
00000000: fcaf 8f3e 97de 523d 4012 a43d 813c 313e
00000010: 9ecf 9a3d 2f0c aabe 276c 2d3d 6cd0 01bf

layers.2.batch_norm.running_var f4 [8]
0.032068867 0.0433738 0.045565505 0.15949793 0.1409078 0.17214043 0.049988214 0.1643883
00000000: a55a 033d baa8 313d e5a2 3a3d 6d53 233e
00000010: 224a 103e 9545 303e 71c0 4c3d 6855 283e

layers.3.conv1.weight f4 [16, 8, 1, 1]
0.18492658 -0.09291069 -0.35035798 0.19760999 0.2693676 -0.2511312 0.03026709 0.010593115
-0.13115631 0.20618586 0.23115915 0.21974012 -0.30611247 0.23098798 0.32056114 0.28784442
0.22106837 -0.005648081 0.009328885 -0.22938402 -0.05908994 -0.28774986 -0.23895948 0.16493227
-0.14057027 0.14388317 -0.22411115 -0.21065933 0.123577386 -0.20801164 -0.07509695 0.20671023
0.054961104 -0.11013868 -0.03678106 -0.054283317 0.28724295 -0.19600275 -0.32163107 0.06585119
-0.07706896 -0.026185539 0.0085542835 0.04473801 -0.019078271 -0.23014319 -0.09601734 0.34064218
0.044135287 0.031530034 0.022968622 0.032367438 -0.20550172 0.06317698 0.101629935 -0.027840009
-0.008285734 0.22734015 -0.13404846 -0.089459404 -0.2564847 0.06727714 -0.32948717 -0.07198412
-0.29628733 0.007718143 -0.100958645 -0.24317002 -0.296202 -0.008040356 0.042359196 -0.3264863
0.27920243 -0.24970427 -0.29831368 -0.2692798 -0.13383244 -0.030825686 -0.2136231 -0.3186781
0.068800524 0.04584435 0.28225365 0.06405356 -0.053171173 0.32422054 0.13620524 -0.0026290696
0.26716018 -0.04366634 0.19607593 -0.18115692 -0.16446963 0.27591676 0.16554876 -0.20138346
-0.17923471 -0.35627705 0.3155111 0.03900901 0.047738545 -0.0118367 0.3438444 -0.1297072
-0.2720336 0.10609857 0.31519246 0.04983986 0.10313878 -0.22576834 0.08569089 0.20226471
-0.1515876 -0.23644812 0.10875407 0.080993235 0.036805857 0.104845166 0.27990884 -0.30649748
0.25015157 -0.06919912 -0.19184037 0.10880627 0.03846062 0.1347527 -0.11609242 -0.10607042
00000000: 655d 3d3e f647 bebd 1f62 b3be 465a 4a3e
00000010: 8dea 893e 4594 80be b0f2 f73c bf8e 2d3c
00000020: d74d 06be 6322 533e fcb4 6c3e 8e03 613e
00000030: c6ba 9cbe 1d88 6c3e 9720 a43e 5860 933e
00000040: bf5f 623e 8a13 b9bb 2ed8 183c a5e3 6abe
00000050: 4b08 72bd f353 93be cbb1 74be 01e4 283e
00000060: a7f1 0fbe 1c56 133e 657d 65be 14b7 57be
00000070: 2416 fd3d 0101 55be 6ecc 99bd d9ab 533e
00000080: e51e 613d 6390 e1bd bda7 16bd 2f58 5ebd
00000090: 8211 933e f2b4 48be d4ac a4be fddc 863d
000000a0: 55d6 9dbd 0e83 d6bc 4427 0c3c 343f 373d
000000b0: 094a 9cbc a8aa 6bbe bda4 c4bd a768 ae3e
000000c0: 34c7 343d a325 013d b128 bc3c b893 043d
000000d0: 0b6f 52be ef62 813d 5b23 d03d bb10 e4bc
000000e0: e3c0 07bc dbcb 683e 0044 09be 7e36 b7bd
000000f0: f651 83be 99c8 893d 8bb2 a8be 696c 93bd
00000100: f9b2 97be 7ae8 fc3b 68c3 cebd 9001 79be
00000110: caa7 97be b3bb 03bc d680 2d3d 3629 a7be
00000120: 9ff3 8e3e 7ab2 7fbe 92bc 98be 0bdf 89be
00000130: 5f0b 09be 2686 fcbc 04c0 5abe c729 a3be
00000140: 4ae7 8c3d 49c7 3b3d 8d83 903e 832e 833d
00000150: 04ca 59bd 3c00 a63e 6379 0b3e 784c 2cbb
00000160: 38c9 883e 7adb 32bd 21c8 483e 3381 39be
00000170: ba6a 28be f644 8d3e 9d85 293e 7737 4ebe
00000180: 4e89 37be f269 b6be ac8a a13e e9c7 1f3d
00000190: 7e89 433d b8ee 41bc 600c b03e f7d1 04be
000001a0: fd47 8bbe 354a d93d e860 a13e e224 4c3d
000001b0: 6d3a d33d d12f 67be b57e af3d 7b1e 4f3e
000001c0: c839 1bbe 751f 72be 74ba de3d c8df a53d
000001d0: bdc1 163d 10b9 d63d 3650 8f3e 3ded 9cbe
000001e0: de13 803e 45b8 8dbd cd71 44be d2d5 de3d
000001f0: e288 1d3d 9dfc 093e ddc1 edbd 733b d9bd

layers.3.conv1.bias f4 [16]
-8.932128e-05 -0.0016450275 -0.00052953034 0.0012299151 -0.0010636568 0.00102104 0.0006624547 -0.0007695979
4.3099266e-05 0.0003018398 -0.00042750465 0.0006922945 0.0015226706 -0.007904307 0.0009631979 0.0016144607
00000000: ff51 bbb8 f79d d7ba 2ed0 0aba 1a35 a13a
00000010: 666a 8bba 6bd4 853a 95a8 2d3a d7be 49ba
00000020: 7cc5 3438 4140 9e39 b422 e0b9 197b 353a
00000030: 5994 c73a 1181 01bc 1e7f 7c3a 509c d33a

layers.3.conv2.weight f4 [16, 8, 3, 3]
0.12996401 0.101152815 0.13902435 0.10092616 0.18046291 0.18893634 0.040750332 -0.077079326
0.024663141 -0.011236166 0.17919596 -0.038942922 0.18844981 0.0904463 0.18233624 -0.10802061
-0.10915647 0.06382472 0.07784209 0.14976488 0.091238506 0.12335547 0.17115365 0.1373837
0.03422988 -0.11012319 0.031766847 0.11439408 -0.06342239 -0.031197552 0.10121881 0.11235269
-0.010075939 -0.10542159 0.0061502825 -0.030129014 0.028130598 -0.031793617 -0.009828445 0.09852437
0.07720103 0.027834976 0.09839782 -0.009913137 -0.015248778 -0.13296624 -0.072545625 -0.02267938
-0.08326054 0.0020786852 0.10243674 0.029282788 0.19270295 0.15438297 -0.021269416 -0.09700591
0.02027864 -0.12926088 -0.15589361 -0.044723283 0.050352972 0.028785573 0.14413187 -0.064477146
0.011868704 -0.0074049965 0.03602878 -0.18396343 -0.015139706 0.089723036 0.14586234 0.120815575
0.15303023 -0.07678079 0.04349328 -0.102002054 -0.09897478 -0.10725797 0.12949415 -0.14621578
-0.053467013 0.09995866 -0.05844896 -0.03967161 -0.038094904 0.044243317 0.015787141 0.053560663
-0.17730318 -0.06754131 -0.040234078 -0.107977115 0.085545406 -0.05636466 -0.13706844 -0.07307418
-0.0014243546 -0.094016634 -0.012558666 0.07083111 0.09881753 0.01864942 -0.11337712 0.023432387
-0.06884967 -0.019590853 -0.010697881 -0.086179234 0.084464416 -0.011232561 0.007333838 0.14908037
0.041000873 0.053789962 0.07221535 0.090780124 0.060617596 -0.028568827 0.09643433 0.049061585
0.16924211 0.1433289 0.025948351 0.042123657 0.0880788 -0.0075960956 0.02198384 0.16163076
-0.021528851 0.10051351 0.008971441 0.034439605 0.14568663 0.023843989 0.10222957 0.077352084
0.1486582 0.035798244 0.090887465 0.16879727 0.17076488 0.13745666 0.14927201 0.07474052
0.022049213 0.19571035 0.07172404 -0.11972847 0.04808618 0.07011075 -0.060079478 -0.014043759
0.06657858 0.157086 0.14249599 0.20458566 -0.027256645 -0.033972044 0.0013455594 -0.02900829
-0.1554833 -0.017830357 0.05833898 0.24516864 0.02315568 -0.082569845 -0.13425505 -0.10456261
-0.10025738 0.06601029 0.07469492 0.05565749 0.119016595 -0.01857567 0.081446484 0.014254399
0.11678539 0.039027568 -0.04462568 0.021620072 0.009063233 -0.12539932 -0.038068675 -0.0054030577
0.19169384 0.059677478 0.03474043 0.16428529 0.19134098 -0.015383209 0.03943214 -0.021538801
0.18445697 0.09255976 0.036490425 -0.01673682 -0.02908733 0.046519224 0.016360492 -0.08960168
-0.06863967 0.007214885 0.21790501 0.18058789 -0.011977206 0.06263099 0.04025395 -0.048212983
-0.16062336 -0.06504721 0.1966355 0.12535971 0.108275525 0.02614572 0.10450189 0.1441242
-0.067541964 0.13981062 -0.14333358 0.15531583 0.0056861043 -0.12188534 -0.038394373 -0.11931307
-0.014701042 0.04138156 0.15364236 -0.0798092 0.22295107 0.21149251 -0.055235103 -0.15971223
0.018457713 0.12764986 0.036400314 -0.02752517 -0.08592303 0.15686771 0.12529075 -0.027542166
0.028691811 -0.1262226 0.040180836 0.023754928 0.10588745 -0.14825481 -0.012111971 0.14082801
-0.06268537 -0.0049540712 0.010819992 0.034704413 -0.019596247 0.070366584 0.126485 -0.0890048
00000000: 4915 053e 3529 cf3d 665c 0e3e 60b2 ce3d
00000010: 45cb 383e 8778 413e d2e9 263d c4db 9dbd
00000020: 5b0a ca3c e517 38bc 257f 373e 9d82 1fbd
00000030: fdf8 403e e93b b93d 5ab6 3a3e e939 ddbd
00000040: 6d8d dfbd 89b6 823d ac6b 9f3d f75b 193e
00000050: 41db ba3d cba1 fc3d e742 2f3e 50ae 0c3e
00000060: a134 0c3d 4488 e1bd f41d 023d 7247 ea3d
00000070: 99e3 81bd 0292 ffbc cf4b cf3d 2b19 e63d
00000080: 8d15 25bc 46e7 d7bd 4f88 c93b 1fd1 f6bc
00000090: 2472 e63c 063a 02bd 7c07 21bc 25c7 c93d
000000a0: 931b 9e3d 2d06 e43c cc84 c93d b66a 22bc
000000b0: 03d6 79bc 4d28 08be cd92 94bd 1bca b9bc
000000c0: 8184 aabd 8d3a 083b 5bca d13d 75e2 ef3c
000000d0: ec53 453e 9216 1e3e 333d aebc 09ab c6bd
000000e0: 641f a63c f75c 04be 93a2 1fbe c32f 37bd
000000f0: eb3e 4e3d b9cf eb3c 4e97 133e 980c 84bd
00000100: f474 423c 9da5 f2bb ea92 133d e960 3cbe
00000110: 880c 78bc b6c0 b73d f05c 153e 286e f73d
00000120: f5b3 1c3e 3f3f 9dbd 0226 323d 74e6 d0bd
00000130: 4ab3 cabd 11aa dbbd 1d9a 043e 97b9 15be
00000140: 3a00 5bbd 20b7 cc3d 2d68 6fbd b37e 22bd
00000150: 6709 1cbd 7b38 353d 0954 813c 6d62 5b3d
00000160: f78e 35be 1953 8abd 7dcc 24bd 1b23 ddbd
00000170: 6e32 af3d a1de 66bd ab5b 0cbe eaa7 95bd
00000180: 69b1 baba cb8b c0bd ddc2 4dbc e70f 913d
00000190: d860 ca3d abc6 983c 4332 e8bd 47f5 bf3c
000001a0: 0e01 8dbd ff7c a0bc 2a46 2fbc bd7e b0bd
000001b0: aefb ac3d c708 38bc b150 f03b 86a8 183e
000001c0: 88f0 273d dd52 5c3d a4e5 933d eeea b93d
000001d0: 284a 783d 2c09 eabc 5d7f c53d cdf4 483d
000001e0: ce4d 2d3e d0c4 123e a391 d43c db89 2c3d
000001f0: a862 b43d abe8 f8bb 7417 b43c 8982 253e
00000200: 465d b0bc 07da cd3d f3fc 123c 8b10 0d3d
00000210: e02e 153e 7854 c33c bd5d d13d c56a 9e3d
00000220: db39 183e 2ea1 123d 3523 ba3d 31d9 2c3e
00000230: fddc 2e3e 70c1 0c3e c3da 183e 8f11 993d
00000240: 8da0 b43c 4b68 483e 0ee4 923d 3334 f5bd
00000250: 04f6 443d 3a96 8f3d e615 76bd cb17 66bc
00000260: 5a5a 883d 27db 203e 78ea 113e e77e 513e
00000270: 5449 dfbc 4526 0bbd 7b5d b03a cba2 edbc
00000280: 0437 1fbe f810 92bc dbf4 6e3d 7d0d 7b3e
00000290: fbb0 bd3c 611a a9bd 287a 09be ec24 d6bd
000002a0: be53 cdbd 6730 873d a6f9 983d 1cf9 633d
000002b0: f9be f33d 012c 98bc 6acd a63d 488b 693c
000002c0: 2e2d ef3d 5fdb 1f3d 6bc9 36bd 941c b13c
000002d0: f47d 143c ae68 00be e6ed 1bbd 220c b1bb
000002e0: 644b 443e 5f70 743d fb4b 0e3d 673a 283e
000002f0: e4ee 433e db09 7cbc 9883 213d 2472 b0bc
00000300: 4ae2 3c3e f98f bd3d fc76 153d a81b 89bc
00000310: 8d48 eebc f18a 3e3d 7006 863c 1681 b7bd
00000320: f592 8cbd d86a ec3b 7e22 5f3e 08ec 383e
00000330: 0b3c 44bc ad44 803d 53e1 243d fa7a 45bd
00000340: 737a 24be 7937 85bd d15a 493e 4c5e 003e
00000350: 8fbf dd3d 8d2f d63c 1605 d63d 4b95 133e
00000360: 7153 8abd 842a 0f3e 0ac6 12be 1d0b 1f3e
00000370: 8052 ba3b 059f f9bd 6b43 1dbd 695a f4bd
00000380: a4dc 70bc b67f 293d 6c54 1d3e 0173 a3bd
00000390: 494d 643e 7e91 583e 343e 62bd 9a8b 23be
000003a0: a134 973c a5b6 023e 7f18 153d 777c e1bc
000003b0: 6af8 afbd eea1 203e 384c 003e 1ca0 e1bc
000003c0: 170b eb3c 7f40 01be a994 243d b299 c23c
000003d0: 85db d83d 1cd0 17be 4a71 46bc 3835 103e
000003e0: 3061 80bd c355 a2bb 5646 313c 3726 0e3d
000003f0: 4f88 a0bc 5b1c 903d 4985 013e 2648 b6bd

layers.3.conv2.bias f4 [16]
0.079111196 0.07140821 0.10957698 0.052314453 0.05980938 0.07842449 0.101368375 0.12603351
0.076243214 0.08683357 0.12966093 0.09076512 0.088321134 0.09342664 0.117462926 0.0837217
00000000: 0d05 a23d 783e 923d e569 e03d ae47 563d
00000010: aefa 743d 059d a03d 399a cf3d ee0e 013e
00000020: 6725 9c3d ccd5 b13d d6c5 043e 10e3 b93d
00000030: b6e1 b43d 7756 bf3d 6790 f03d 4876 ab3d

layers.3.conv3.weight f4 [16, 16, 3, 3]
-0.048825245 -0.042098448 -0.11766029 -0.11746894 -0.082263455 -0.044979777 -0.06970491 -0.15402141
-0.09691245 0.1508685 0.21132307 0.033573482 0.119055435 -0.10879879 0.18794438 -0.043676946
-0.039463554 -0.029181657 0.0028042425 0.0056895902 0.0961146 -0.1148059 0.010886878 -0.07944558
-0.020832319 -0.07989274 -0.08176345 -0.066537075 -0.13557483 -0.13110168 -0.0034320469 -0.16631514
-0.12509792 0.0815332 -0.14677824 -0.062490843 0.06524278 0.012317167 0.06249513 -0.03143775
-0.14730686 0.0027953747 -0.10289901 -0.12978123 -0.15196688 0.06257097 0.059549313 0.032004375
0.20642635 0.1966159 0.1202342 0.08944993 0.10919081 0.09278196 -0.004272295 -0.096242964
-0.07575199 0.062695235 0.057201937 -0.03726935 0.16210257 0.03062728 0.19416857 -0.07051458
-0.106722236 -0.005917036 -0.11063068 -0.04193082 -0.12347584 0.16388188 0.025242513 -0.04247972
-0.031062098 -0.11329857 -0.07712446 0.053746875 0.090253584 -0.15931918 0.04740059 0.13660395
0.07469668 0.19120088 0.14223285 0.12993309 -0.09241751 0.024271097 0.02807831 -0.11179018
-0.07559053 -0.12141849 -0.051014416 -0.061542533 -0.08751664 -0.12536098 -0.17328727 -0.1427231
-0.043738887 -0.037594143 -0.052462727 -0.03484275 -0.15281332 0.020641474 -0.13696286 -0.1666625
-0.12868269 -0.044257455 -0.16264579 -0.08374776 -0.18812673 -0.1607355 -0.061423376 0.115366906
0.024132024 -0.09030065 0.06508336 0.087443255 0.081618175 0.11174916 0.008209436 0.02317402
0.20495453 0.039987896 0.050702598 0.10907239 0.041725513 0.120904274 0.003936735 0.03767342
0.07759228 -0.045035046 -0.06059763 0.021130174 -0.13048539 -0.08627844 -0.06341239 0.06366573
-0.065817595 -0.08568722 0.19806021 0.1508572 0.15174226 0.09122905 0.08635026 0.037925508
0.16415939 0.025804644 0.08490693 0.09398456 0.12552135 0.003029728 0.078492485 0.020198585
0.039001506 -0.020671867 0.013490742 -0.036510862 -0.10519965 0.06065644 -0.16930743 0.022598559
0.06447821 0.10239188 -0.08778377 -0.04771254 -0.042511154 0.092031784 -0.009749923 -0.001335595
0.11708225 0.03889166 0.06785376 0.023239529 0.10275351 0.027349817 0.114577845 -0.015519542
0.061603304 0.018521348 0.008348681 0.10550264 -0.16021554 0.04772481 -0.0468126 0.08999441
0.14678943 -0.12496969 -0.011130956 0.00024028627 0.047132798 0.09741202 0.037877217 -0.07992016
-0.1754012 -0.18313365 -0.124860115 -0.031201135 -0.052828554 -0.10474601 0.1113256 0.2003349
-0.012676708 -0.11778622 -0.031894054 0.00965009 -0.18661325 -0.08981723 -0.10073906 -0.0020833113
0.07953491 0.09983412 0.012006728 0.092931524 0.056367554 -0.01858123 -0.07387876 -0.018230995
-0.08150846 0.029072383 -0.045751706 -0.08865684 -0.063163325 -0.04628255 -0.033017643 -0.10238066
-0.15438816 -0.16647232 -0.13918456 -0.19970478 -0.024859957 0.06741603 0.022113252 0.12148102
0.07841085 0.08651975 0.14848532 0.012184975 -0.0749511 0.06343692 0.1012846 -0.01648702
0.11941215 0.12819122 0.033671252 0.011998059 0.0049193753 -0.020062046 0.15833773 0.15652932
-0.00091932487 0.026655074 0.11568543 0.11040865 -0.089875974 0.061136045 -0.0687912 0.0027671454
00000000: fbfc 47bd 6c6f 2cbd e1f7 f0bd 8e93 f0bd
00000010: be79 a8bd b73c 38bd 73c1 8ebd cab7 1dbe
00000020: 097a c6bd 467d 1a3e 1365 583e 5984 093d
00000030: 56d3 f33d e6d1 debd 7e74 403e 99e6 32bd
00000040: 89a4 21bd 5f0e efbc 62c7 373b be6f ba3b
00000050: bbd7 c43d 5b1f ebbd e05e 323c 5db4 a2bd
00000060: 8aa8 aabc ce9e a3bd 9873 a7bd 9744 88bd
00000070: 21d4 0abe 853f 06be 31ec 60bb 844e 2abe
00000080: ab19 00be e1fa a63d 094d 16be 66f6 7fbd
00000090: 029e 853d f1cd 493c e5fa 7f3d dfc4 00bd
000000a0: 9cd7 16be 9b32 373b b7bc d2bd 5fe5 04be
000000b0: 359d 1bbe 3525 803d fbe9 733d 0517 033d
000000c0: 6e61 533e ae55 493e 593d f63d 8631 b73d
000000d0: 6e9f df3d 7804 be3d 9cfe 8bbb 081b c5bd
000000e0: dc23 9bbd 5c66 803d 944c 6a3d bfa7 18bd
000000f0: 37fe 253e 10e6 fa3c 20d4 463e f369 90bd
00000100: 3091 dabd b2e3 c1bb 5792 e2bd a7bf 2bbd
00000110: e7e0 fcbd a7d0 273e 63c9 ce3c 37ff 2dbd
00000120: f175 febc 1509 e8bd 6ef3 9dbd af25 5c3d
00000130: dfd6 b83d 9124 23be 1f27 423d e8e1 0b3e
00000140: 93fa 983d 2aca 433e 7da5 113e 2e0d 053e
00000150: 6445 bdbd 2ed4 c63c 7c04 e63c 40f2 e4bd
00000160: 35cf 9abd 42aa f8bd 7ef4 50bd 0614 7cbd
00000170: ed3b b3bd a15e 00be 3872 31be 0126 12be
00000180: 8c27 33bd 51fc 19bd 28e3 56bd 45b7 0ebd
00000190: 187b 1cbe 4f18 a93c fe3f 0cbe 93a9 2abe
000001a0: 65c5 03be 4e47 35bd 9e8c 26be f283 abbd
000001b0: 4ba4 40be d997 24be 1497 7bbd 7c45 ec3d
000001c0: 86b0 c53c 8cef b8bd 6d4a 853d 7315 b33d
000001d0: 6e27 a73d bedc e43d df80 063c 71d7 bd3c
000001e0: 9adf 513e 59ca 233d 87ad 4f3d 5861 df3d
000001f0: 5fe8 2a3d a99c f73d baff 803b 724f 1a3d
00000200: b4e8 9e3d ab76 38bd 3835 78bd 3019 ad3c
00000210: f69d 05be c0b2 b0bd 5bde 81bd 2e63 823d
00000220: 60cb 86bd c87c afbd 4cd0 4a3e 4f7a 1a3e
00000230: 5362 1b3e 4cd6 ba3d 68d8 b03d c757 1b3d
00000240: 6619 283e 4364 d33c afe3 ad3d fa7a c03d
00000250: ab88 003e 678e 463b abc0 a03d 8177 a53c
00000260: 0bc0 1f3d 0c58 a9bc 4608 5d3c 6a8c 15bd
00000270: ea72 d7bd e372 783d ed5e 2dbe 9d20 b93c
00000280: 270d 843d d5b2 d13d fac7 b3bd 396e 43bd
00000290: 2d20 2ebd 297b bc3d 24be 1fbc 220f afba
000002a0: d2c8 ef3d dc4c 1f3d eaf6 8a3d d360 be3c
000002b0: 6f70 d23d b90c e03c caa7 ea3d ad45 7ebc
000002c0: bf53 7c3d 15ba 973c e8c8 083c c511 d83d
000002d0: 8b0f 24be 177b 433d 92be 3fbd fd4e b83d
000002e0: f84f 163e 1cf0 ffbd 9d5e 36bc 5bf5 7b39
000002f0: 520e 413d f47f c73d 2425 1b3d 2ead a3bd
00000300: 5f9c 33be 6387 3bbe a9b6 ffbd 8699 ffbc
00000310: c162 58bd 1385 d6bd adfe e33d 9824 4d3e
00000320: f8b1 4fbc e739 f1bd 57a3 02bd 691b 1e3c
00000330: 8b17 3fbe 19f2 b7bd 4850 cebd 2a88 08bb
00000340: 33e3 a23d d575 cc3d deb7 443c e252 be3d
00000350: aae1 663d aa37 98bc bf4d 97bd 2b59 95bc
00000360: e8ed a6bd 3529 ee3c 2466 3bbd b891 b5bd
00000370: c65b 81bd c592 3dbd 823d 07bd f4ac d1bd
00000380: ee17 1ebe b877 2abe 6686 0ebe 697f 4cbe
00000390: 1ca7 cbbc 6a11 8a3d da26 b53c 0acb f83d
000003a0: de95 a03d 4431 b13d 890c 183e 7da3 473c
000003b0: f67f 99bd 37eb 813d 4d6e cf3d c90f 87bc
000003c0: 5b8e f43d 8f44 033e deea 093d 8293 443c
000003d0: b632 a13b 2959 a4bc 4923 223e 3949 203e
000003e0: d9fe 70ba be5b da3c 7cec ec3d ee1d e23d
000003f0: e510 b8bd ca69 7a3d 67e2 8cbd ff58 353b

layers.3.conv3.bias f4 [16]
2.67469e-06 -1.5031259e-05 -4.5362893e-05 6.1097366e-05 -1.0685517e-05 4.5372384e-05 5.0113456e-05 3.1020634e-05
3.5970297e-05 3.3248205e-05 0.000121984325 0.00014805212 9.816769e-05 -0.00027515827 1.934996e-05 7.351254e-05
00000000: d37e 3336 c42e 7cb7 0944 3eb8 6621 8038
00000010: f245 33b7 3a4e 3e38 ea30 5238 271c 0238
00000020: d0de 1638 fd73 0b38 d6d1 ff38 703e 1b39
00000030: 61df cd38 1e43 90b9 b951 a237 bf2a 9a38

layers.3.batch_norm.weight f4 [16]
1.0279765 1.0737891 0.95452905 1.0851899 1.0176187 1.0292722 1.1099187 1.0432609
0.9918325 1.0654612 1.0751935 1.0757451 1.087008 1.0823988 1.0984006 1.0775117
00000000: bc94 833f ec71 893f 045c 743f 81e7 8a3f
00000010: 5441 823f 31bf 833f d111 8e3f 9389 853f
00000020: bce8 7d3f 0861 883f f19f 893f 04b2 893f
00000030: 1423 8b3f 0b8c 8a3f 6498 8c3f e7eb 893f

layers.3.batch_norm.bias f4 [16]
0.08597837 0.11537215 -0.024170717 0.06673792 0.002275833 0.048185147 0.12599255 0.09073426
-0.027653068 0.07214528 0.119235575 0.10166302 0.073087044 0.11326418 0.09215171 0.10161885
00000000: 6d15 b03d 3c48 ec3d ab01 c6bc e4ad 883d
00000010: 2426 153b ca5d 453d 3104 013e e2d2 b93d
00000020: b088 e2bc e8c0 933d c831 f43d b434 d03d
00000030: a9ae 953d 0df7 e73d 09ba bc3d 8b1d d03d

layers.3.batch_norm.running_mean f4 [16]
-0.053116817 0.24890575 -0.34245402 -0.22609735 -0.28728184 -0.013901685 -0.22021548 -0.30962554
-0.4061825 -0.6843613 -0.013612856 -0.17939614 0.041026663 0.053207368 0.21395297 -0.2833149
00000000: 0591 59bd 26e1 7e3e 2256 afbe 1086 67be
00000010: 9b16 93be e5c3 63bc 2b80 61be 3d87 9ebe
00000020: 27f7 cfbe 4d32 2fbf 7508 5fbc 9fb3 37be
00000030: 930b 283d f8ef 593d 7d16 5b3e a70e 91be

layers.3.batch_norm.running_var f4 [16]
0.3503015 0.27419463 0.29199564 0.31228772 0.081743516 0.14073789 0.16248702 0.32406422
0.20787928 0.20670271 0.29084453 0.28011042 0.29497254 0.14932819 0.21847448 0.16677012
00000000: b85a b33e 3d63 8c3e 7480 953e 2de4 9f3e
00000010: 2569 a73d 981d 103e ff62 263e bfeb a53e
00000020: 4ede 543e e0a9 533e 93e9 943e a26a 8f3e
00000030: a406 973e 7de9 183e c6b7 5f3e c9c5 2a3e

conv1.weight f4 [1, 16, 1, 1]
0.048467636 -0.32426974 0.17943709 0.22311322 -0.07207569 0.11971781 -0.09987608 -0.1436566
-0.19708827 0.049601868 -0.17590258 -0.23538482 0.28332794 -0.25527298 0.1982205 -0.09845545
00000000: 0086 463d af06 a6be 5bbe 373e cb77 643e
00000010: 6b9c 93bd 9c2e f53d d58b ccbd b71a 13be
00000020: 82d1 49be 542b 4b3d ce1f 34be b808 71be
00000030: 5c10 913e 24b3 82be 51fa 4a3e 03a3 c9bd
