networks/gan-is_best-step-2.pth (torch, 36299 bytes, 41 tensors)

layers.0.conv1.weight f4 [2, 1, 1, 1]
0	0x3d6dd836	0.058067523
1	0xbf32797e	-0.6971663

layers.0.conv1.bias f4 [2]
0	0x3a33a14d	0.0006852344
1	0xb8b2ac1e	-8.519761e-05

layers.0.conv2.weight f4 [2, 1, 3, 3]
0	0xbd61cb3c	-0.05512546
1	0xbea614c0	-0.32437706
2	0xbe5f47c4	-0.2180472
3	0xbe632cdf	-0.22185086
4	0xbe8a56f3	-0.27019462
5	0xbe86e0c6	-0.26343364
6	0xbe02d723	-0.1277738
7	0xbe2c6afe	-0.1683769
8	0x3e72694f	0.23672985
9	0xbe3c2462	-0.18373254
10	0xbe5205ce	-0.20510027
11	0x3e2ed011	0.17071559
12	0x3e05c8a4	0.1306482
13	0xbe11e3ea	-0.14247099
14	0x3d9919ee	0.07475649
15	0x3d98c95b	0.074602805
16	0x3e5d6eb0	0.21624255
17	0xbdf9928e	-0.12186156

layers.0.conv2.bias f4 [2]
0	0x00000000	0.0
1	0x00000000	0.0

layers.0.conv3.weight f4 [2, 2, 3, 3]
0	0x3db1c8d3	0.08680882
1	0xbc431841	-0.011907638
2	0xbd382960	-0.044961333
3	0xbe6412d2	-0.22272804
4	0x3e3ffef0	0.18749595
5	0x3d479016	0.048721395
6	0x3d07ebbf	0.03318381
7	0x3db05e08	0.08611685
8	0xbe603734	-0.21896058
9	0x3e498d3e	0.19682786
10	0xbc24c364	-0.01005635
11	0xbcf30f2b	-0.029670319
12	0xbe3b82f4	-0.18311673
13	0x3e2fcd4b	0.17168157
14	0xbe418d61	-0.18901588
15	0x3d9dadad	0.07699142
16	0xbe15f9f4	-0.14646131
17	0xbdf0a223	-0.11749675
18	0x3d100d8c	0.03516917
19	0x3d0b949b	0.034077268
20	0xbe3f6e70	-0.18694472
21	0x3e67e961	0.2264762
22	0x3d83e8ee	0.06440912
23	0x3e2df941	0.16989614
24	0xbe331bc9	-0.17491068
25	0xbd569215	-0.05238541
26	0x3e686a0d	0.22696705
27	0x3de5ecb0	0.11226785
28	0x3e1719ca	0.14755931
29	0x3d7b3a1d	0.061334718
30	0xbe3713f5	-0.17878707
31	0xbdd4807c	-0.10376069
32	0xbda520d3	-0.08062901
33	0x3d410683	0.04712535
34	0xbe411acd	-0.1885788
35	0x3df63c43	0.12023213

layers.0.conv3.bias f4 [2]
0	0x00000000	0.0
1	0x00000000	0.0

layers.0.batch_norm.weight f4 [2]
0	0x3f7fbb30	0.99895
1	0x3f801f21	1.00095

layers.0.batch_norm.bias f4 [2]
0	0x3a83122d	0.0009999924
1	0x3a83116f	0.0009999702

layers.0.batch_norm.running_mean f4 [2]
0	0x3bb8b2c0	0.005636543
1	0xbd87b2a1	-0.06625868

layers.0.batch_norm.running_var f4 [2]
0	0x3f4f5fb6	0.8100542
1	0x3f51536a	0.81767905

layers.1.conv1.weight f4 [4, 2, 1, 1]
0	0xbf258f5c	-0.64671874
1	0xbed7d644	-0.4215566
2	0x3e06669f	0.13125084
3	0x3e8e1a14	0.2775427
4	0xbe477642	-0.19478706
5	0x3f07d922	0.53065693
6	0x3e3a28fe	0.181797
7	0xbedd0eca	-0.43175346

layers.1.conv1.bias f4 [4]
0	0x37f8bf09	2.9652861e-05
1	0xb866b621	-5.5005894e-05
2	0x3691d901	4.3465993e-06
3	0xb81e909c	-3.7804813e-05

layers.1.conv2.weight f4 [4, 2, 3, 3]
0	0x3d868be9	0.065696545
1	0xbe44648c	-0.1917898
2	0x3bc2e0a1	0.005947188
3	0xbe1b71a9	-0.15180077
4	0xbd17a5ab	-0.037023228
5	0xbdf9561f	-0.121746294
6	0x3e3a425f	0.18189381
7	0x3c3c0dc8	0.011477895
8	0xbd6b2af1	-0.057414
9	0xbe26cd5b	-0.16289274
10	0xbe161bfc	-0.14659113
11	0xbd9ab081	-0.07553197
12	0x3e5f7efe	0.21825787
13	0xbe2c2eb4	-0.16814691
14	0xbe0d2449	-0.13783373
15	0x3deb492b	0.11488565
16	0xbe3066f7	-0.17226778
17	0x3d43e3b2	0.04782457
18	0x3e42e5f2	0.1903303
19	0x3e404401	0.18775941
20	0x3d0ebef8	0.03485009
21	0x3e49f39b	0.19721834
22	0xbe3439ad	-0.17600127
23	0xbe1e5dc8	-0.15465462
24	0xbd24ced0	-0.040236294
25	0x3d90a7f4	0.070632845
26	0xbdd707ad	-0.10499511
27	0xbcac8e1a	-0.021063853
28	0x3e2e052d	0.16994162
29	0x3e5c8478	0.21534908
30	0xbe58ad3b	-0.21159832
31	0x3d1923f6	0.03738781
32	0xbd760e42	-0.06007219
33	0x3ca5234b	0.02015843
34	0xbe52c567	-0.20583116
35	0xbe3e443c	-0.18580717
36	0x3e4e5bf1	0.2015226
37	0x3d755488	0.05989507
38	0xbcb0a30d	-0.021562124
39	0x3df84350	0.12122214
40	0x3d450b7e	0.048106663
41	0xbdbb80c7	-0.09155422
42	0xbe1f6e71	-0.15569474
43	0x3dc8efef	0.09811389
44	0xbdcca05f	-0.09991526
45	0xbd6e196c	-0.058129713
46	0xbe2f6a0e	-0.171303
47	0xbdd5f47f	-0.104470246
48	0x3e4c63a9	0.19959892
49	0x3e29d4c6	0.16585073
50	0xbcd2d60d	-0.025736833
51	0x3e659fe2	0.22424272
52	0x3d530ec0	0.05152774
53	0x3d32a7e2	0.043617137
54	0xbd8b4028	-0.06799346
55	0xbe031e7e	-0.128046
56	0xbc0f3dcb	-0.00874276
57	0x3e647a8c	0.22312373
58	0x3dfe5a64	0.124195844
59	0xbd305f5e	-0.0430597
60	0x3d3c3ba3	0.04595531
61	0xbe10e8a5	-0.14151247
62	0xbe6c8a79	-0.23099698
63	0xbe0f6efa	-0.14007178
64	0x3e0f0894	0.13968116
65	0x3d03df0c	0.032195136
66	0xbd85b08e	-0.06527816
67	0x3cf785bd	0.030215139
68	0xbd311bc0	-0.043239355
69	0x3e2bf1e5	0.16791494
70	0xbe2ddb48	-0.1697818
71	0xbd9a2dd9	-0.07528276

layers.1.conv2.bias f4 [4]
0	0x00000000	0.0
1	0x00000000	0.0
2	0x00000000	0.0
3	0x00000000	0.0

layers.1.conv3.weight f4 [4, 4, 3, 3]
0	0xbc79aebe	-0.015239416
1	0xbdcd565a	-0.10026236
2	0x3d1c11a4	0.03810276
3	0x3e03c0bb	0.1286649
4	0x3e124596	0.14284357
5	0x3d70acfb	0.058758717
6	0x3e261941	0.16220571
7	0xbdeb41f5	-0.1148719
8	0x3db9a9d5	0.09065596
9	0xbd7aed60	-0.061261535
10	0xbe27cc01	-0.16386415
11	0xbd847af1	-0.06468762
12	0xbd08b3cc	-0.033374593
13	0x3e0524e1	0.1300235
14	0xbda35c21	-0.079765566
15	0x3c22ad1b	0.009928967
16	0xbd40b56e	-0.047048025
17	0xbdd67349	-0.10471208
18	0xbdb98efb	-0.090604745
19	0xbddb58ac	-0.10710272
20	0xbdd5f6e1	-0.10447479
21	0xbd7f75cb	-0.062368196
22	0x3e1bfa62	0.15232232
23	0x3dbe6942	0.0929742
24	0x3e2593da	0.16169682
25	0x3dcf43eb	0.10120376
26	0xbde866ec	-0.11347756
27	0xbdbbb0b9	-0.091645665
28	0x3d35d5a8	0.04439321
29	0xbe2926f9	-0.16518773
30	0x3da1fbe3	0.07909372
31	0x3dedc267	0.11609345
32	0x3d1e97a8	0.03871885
33	0x3df82605	0.12116627
34	0xbe1a1b46	-0.15049466
35	0x3d3ffebb	0.04687379
36	0xbd07a5cf	-0.03311711
37	0x3decc1e2	0.11560418
38	0x3def63e1	0.11688972
39	0xbdf40510	-0.11915028
40	0xbdf72ea6	-0.12069444
41	0x3e02bb4d	0.12766762
42	0x3d977e55	0.07397143
43	0xbe10ffd7	-0.14160095
44	0x3da8ad55	0.082361855
45	0x3d5aa153	0.053376507
46	0xbdde5c0f	-0.108574025
47	0x3d3b3166	0.045701407
48	0x3dfde3f2	0.12396993
49	0xbdefbc29	-0.117058106
50	0x3e1efff0	0.1552732
51	0x3daa97db	0.083297454
52	0xbd803614	-0.062603146
53	0xbd1fa9d9	-0.03898034
54	0x3dd6548c	0.10465345
55	0xbd98ddd6	-0.07464187
56	0x3d404106	0.04693701
57	0xbdd652d8	-0.1046502
58	0x3dfd755f	0.123759024
59	0x3da71984	0.081591636
60	0x3c8bd6ae	0.01707014
61	0xbe167a8d	-0.14695187
62	0x3db8f068	0.09030229
63	0xbd9a7bae	-0.07543121
64	0x3cd7c145	0.026337275
65	0x3e269f31	0.16271664
66	0x3d6607b2	0.056159683
67	0xbdc0a557	-0.09406536
68	0x3de1d45e	0.11026834
69	0xbda58edc	-0.08083889
70	0x3d2f7135	0.042832572
71	0x3d34e0eb	0.04415981
72	0x3e183946	0.14865598
73	0xbd2b2d15	-0.04179104
74	0x3e2620a3	0.16223387
75	0x3d639b72	0.055568166
76	0x3c1988f9	0.009371036
77	0xbd94a149	-0.07257325
78	0x3d6d3db6	0.05792018
79	0xbdfad118	-0.12246913
80	0xbb2c0acc	-0.0026251553
81	0xbd8c401f	-0.06848168
82	0xbe2a49e9	-0.16629757
83	0x3d3886a3	0.045050275
84	0x3d427427	0.047474053
85	0x3e1daf30	0.1539886
86	0x3c0f849a	0.008759642
87	0x3a708fec	0.00091767195
88	0x3e204c68	0.15654147
89	0x3e14d5fd	0.14534755
90	0xbde2e483	-0.110787414
91	0xbdd9b9f1	-0.10631169
92	0x3e2177f2	0.15768412
93	0xbd78b7a7	-0.06072202
94	0x3da0155d	0.07816575
95	0xbe25d60a	-0.1619493
96	0xbc3e2411	-0.011605279
97	0xbd8f6442	-0.070015445
98	0x3cf3d321	0.02976376
99	0x3e193ef7	0.14965425
100	0xbd225350	-0.039630234
101	0xbdcccf74	-0.10000506
102	0x3e0f18f6	0.13974366
103	0x3df26314	0.11835304
104	0xbd7ba183	-0.061433326
105	0xbd219442	-0.03944803
106	0xbd0f9755	-0.03505643
107	0xbc6f71ff	-0.014614581
108	0xbd3cfab5	-0.04613753
109	0xbddecd86	-0.10879044
110	0xbd3f3399	-0.046680067
111	0xbcd62662	-0.02614135
112	0xbe10e6d8	-0.1415056
113	0xbda9f59e	-0.08298801
114	0x3e14c901	0.14529802
115	0xbd7a8a11	-0.061166827
116	0x3dff211a	0.124574855
117	0x3df8e8aa	0.12153752
118	0x3d6c9e5c	0.05776821
119	0xbe28dca9	-0.16490425
120	0xbcf3e549	-0.029772418
121	0xbd3a1e74	-0.0454392
122	0x3e1cc63b	0.15309994
123	0xbd62e088	-0.05538991
124	0xbbd653c2	-0.0065407464
125	0xbb459c78	-0.0030153077
126	0x3e243c8d	0.16038723
127	0x3dfbf654	0.12302843
128	0x3dd07d37	0.10180133
129	0x3e1f4733	0.15554504
130	0x3d9ae7d2	0.075637475
131	0xbe16c355	-0.14722951
132	0x3e24c8a9	0.16092171
133	0xbd4aabde	-0.04948031
134	0xbdc6cd3f	-0.09707116
135	0x3db4f8c5	0.088365115
136	0xbd922359	-0.07135648
137	0xbcec0043	-0.028808719
138	0x3e0a0483	0.13478284
139	0x3e1761b1	0.1478336
140	0xbd1dc85f	-0.038521167
141	0xbb3dd252	-0.0028964472
142	0xbb85e5c9	-0.0040862304
143	0xbdaa2ac5	-0.08308939

layers.1.conv3.bias f4 [4]
0	0x00000000	0.0
1	0x00000000	0.0
2	0x00000000	0.0
3	0x00000000	0.0

layers.1.batch_norm.weight f4 [4]
0	0x3f801f21	1.00095
1	0x3f7fbb30	0.99895
2	0x3f7fbb30	0.99895
3	0x3f7fbb30	0.99895

layers.1.batch_norm.bias f4 [4]
0	0x3a831259	0.0009999975
1	0xba830fe1	-0.0009999239
2	0xba831226	-0.0009999915
3	0xba831230	-0.0009999927

layers.1.batch_norm.running_mean f4 [4]
0	0xbdb02b6b	-0.08602031
1	0x3d078607	0.033086803
2	0x3ce2f0d4	0.027702726
3	0xbca82b30	-0.020528406

layers.1.batch_norm.running_var f4 [4]
0	0x3f534689	0.82529503
1	0x3f502150	0.8130083
2	0x3f56314d	0.8366898
3	0x3f542f0d	0.82884294

layers.2.conv1.weight f4 [8, 4, 1, 1]
0	0xbed52c29	-0.41635254
1	0xbe6c93cd	-0.23103257
2	0xbeac93a3	-0.33706388
3	0x3eae41c3	0.34034547
4	0xbeffe037	-0.4997575
5	0x3e6af413	0.2294467
6	0xbda0c391	-0.07849801
7	0x3eb9aeaf	0.36266086
8	0x3e93fa07	0.28901693
9	0x3e8817cc	0.26580656
10	0xbe357b0d	-0.17722721
11	0xbd3a7f1f	-0.04553139
12	0xbe36b45e	-0.17842242
13	0xbe41103f	-0.18853854
14	0xbde1ac1e	-0.11019157
15	0xbe672ed6	-0.2257646
16	0xbeff4d54	-0.49863684
17	0x3ec00bd4	0.37509024
18	0x3dc4d513	0.09610953
19	0xbd0efb8b	-0.03490786
20	0x3d96d9fe	0.073657975
21	0x3eb67146	0.35633296
22	0x3e0edd94	0.13951713
23	0x3ea7ca6a	0.32771617
24	0xbeca769e	-0.39543623
25	0xbd2e0206	-0.0424824
26	0x3dfba1f7	0.12286752
27	0xbe243f6d	-0.1603982
28	0x3edaad1b	0.42710194
29	0x3df52664	0.11970213
30	0xbeae4bef	-0.34042308
31	0x3e15218b	0.14563577

layers.2.conv1.bias f4 [8]
0	0x37d61e3b	2.5524865e-05
1	0x3642bee7	2.9019373e-06
2	0xb83d6812	-4.5158034e-05
3	0x37d61e3b	2.5524865e-05
4	0x371d3457	9.370116e-06
5	0x3795dca7	1.7864933e-05
6	0xb6c22ea5	-5.7870807e-06
7	0x38021ca6	3.1021096e-05

layers.2.conv2.weight f4 [8, 4, 3, 3]
0	0x3d4aa7e8	0.049476534
1	0xbe00ed4b	-0.1259052
2	0x3dde232e	0.10846554
3	0x3dec5653	0.115399025
4	0xbe10ae88	-0.14129078
5	0x3da63bcf	0.08116876
6	0xbc852644	-0.016253598
7	0xbc449f0c	-0.01200081
8	0xbd7309f3	-0.05933566
9	0x3dd70745	0.104994334
10	0x3dc28a24	0.094990045
11	0x3e210abf	0.15726756
12	0xbe0131fb	-0.12616722
13	0x3de94a45	0.11391119
14	0x3e0e6baa	0.13908258
15	0x3e1eb15b	0.15497343
16	0x3d36349f	0.044483777
17	0x3e289fec	0.16467255
18	0xbe10e787	-0.1415082
19	0xbd29c0e0	-0.041443706
20	0x3e236d9f	0.15959786
21	0xbdb66945	-0.08906797
22	0xbde164d0	-0.110055566
23	0x3c27c84a	0.010240624
24	0x3e17c7f8	0.14822376
25	0xbe0278eb	-0.12741439
26	0x3e159e2d	0.1461112
27	0x3dcffa50	0.10155165
28	0xbd95576d	-0.07292066
29	0x3d93a3ec	0.07209
30	0xbd8c71cf	-0.06857645
31	0xbcac142c	-0.021005712
32	0xbdb4e7e5	-0.08833293
33	0x3d9df0a4	0.07711914
34	0x3c35009f	0.011047511
35	0xbe17f3e1	-0.14839126
36	0xbdacb895	-0.08433644
37	0x3c8910d7	0.016731663
38	0x3e11c9ed	0.14237185
39	0xbdd91ec6	-0.10601573
40	0x3dcee484	0.1010218
41	0x3e0f5443	0.13996987
42	0xbda19e16	-0.078914806
43	0xbdf5a531	-0.119943984
44	0xbce1faa3	-0.027585333
45	0xbc96fdd9	-0.01843159
46	0x3d28369d	0.04106771
47	0xbdc8952f	-0.097940795
48	0xbd37950c	-0.044819877
49	0xbc9b7cea	-0.018980462
50	0xbe01380a	-0.12619033
51	0x3e24f1cc	0.16107863
52	0xbc79a2de	-0.0152365845
53	0x3dd0962e	0.101848945
54	0xbe15375f	-0.14571904
55	0xb92a29d2	-0.00016228043
56	0x3d17b92b	0.037041824
57	0xbe1f1527	-0.15535413
58	0xbe0cb313	-0.13740186
59	0x3da28ed1	0.07937396
60	0xbdf50af5	-0.119649805
61	0x3d9142e6	0.07092838
62	0x3d3fa4d8	0.046788067
63	0x3d0cbda7	0.034360554
64	0x3e15a053	0.1461194
65	0x3d19cd2c	0.037549183
66	0x3d602da1	0.054731015
67	0xbe2535fa	-0.16133872
68	0x3cb8e882	0.022571806
69	0x3e264f70	0.1624124
70	0x3dd398e4	0.10331896
71	0x3d318386	0.04333832
72	0x3d25af91	0.040450636
73	0xbaf6035a	-0.0018769309
74	0xbcf6e62f	-0.030139057
75	0xbe045896	-0.12924418
76	0x3e0b8484	0.1362477
77	0x3e19720e	0.14984915
78	0xbe207d66	-0.15672836
79	0xbdad6ad0	-0.084676385
80	0x3c647f53	0.013946372
81	0xbd8a04e2	-0.067392126
82	0x3e12110a	0.14264312
83	0x3e0a70df	0.1351962
84	0xbe137377	-0.14399515
85	0x3dd16030	0.102234244
86	0xbdcff1b9	-0.10153527
87	0xbd2d0109	-0.042237315
88	0xbde7988c	-0.11308393
89	0xbd8df817	-0.06932085
90	0x3dc6fd6e	0.097163066
91	0xbe1fe40b	-0.15614335
92	0x3e0bd71f	0.13656281
93	0x3d6c2d5e	0.057660453
94	0x3e1efc7c	0.15526003
95	0x3e0d4dd0	0.13799214
96	0xbd03ee10	-0.032209456
97	0x3e15652d	0.14589377
98	0x3d105dd3	0.035245728
99	0xbe1421a6	-0.14465961
100	0xbcd2f16d	-0.025749886
101	0x3e12b188	0.14325535
102	0x3ce6a4d4	0.028154768
103	0x3bb494b0	0.005510889
104	0xbdb889ae	-0.09010635
105	0x3dd868f5	0.10566894
106	0xbd6db1bb	-0.058030825
107	0xbdb8d8f5	-0.09025756
108	0x3da09878	0.07841581
109	0x3e219fab	0.15783565
110	0x3da06b9c	0.07833025
111	0x3dda7826	0.10667448
112	0xbe27b914	-0.16379195
113	0x3d860941	0.06544734
114	0xbd3fa67c	-0.04678963
115	0xbc3e6100	-0.011619806
116	0xbdcfd77d	-0.10148523
117	0x3e12200c	0.14270037
118	0x3d780203	0.060548794
119	0xbe0aeae4	-0.13566166
120	0xbe1d3b21	-0.15354587
121	0x3e214122	0.15747502
122	0x3b2be20d	0.0026227266
123	0xbe1f36d8	-0.15548265
124	0x3d1fb9f0	0.038995683
125	0xbdde6727	-0.108595185
126	0xbda8c3b2	-0.08240451
127	0xbd6ddf50	-0.058074296
128	0xbd86e0e6	-0.06585865
129	0x3df3c0eb	0.119020306
130	0xbd76ac68	-0.060223013
131	0xbd97b2cf	-0.07407152
132	0x3d584a47	0.05280521
133	0x3e2a2035	0.16613849
134	0x3c867a47	0.016415728
135	0xbdbf4a13	-0.093403004
136	0x3e248952	0.16068009
137	0xbe199061	-0.14996482
138	0x3e29cdb2	0.16582373
139	0x3c8ddd37	0.017317398
140	0xbd9f46d1	-0.07777179
141	0x3cc6b135	0.02425442
142	0xbd7fbc5a	-0.062435485
143	0xbe14a6d1	-0.1451676
144	0xbda8fd6c	-0.082514614
145	0xbe262f81	-0.16229059
146	0xbe138ba4	-0.14408737
147	0xbdbbc9ff	-0.09169387
148	0x3d6f985b	0.058494907
149	0x3d67af49	0.05656365
150	0x3ca06e5a	0.01958387
151	0xbd4da92a	-0.050210156
152	0xbd57e56c	-0.052709028
153	0x3dd8c05c	0.10583565
154	0xbe0e7f2d	-0.13915701
155	0x3dca1dec	0.098689884
156	0xbe20d0b7	-0.15704618
157	0x3daed5b5	0.08536855
158	0x3e26f520	0.16304445
159	0x3d5232b3	0.05131788
160	0x3c0f78da	0.008756841
161	0xbb830a73	-0.0039990484
162	0xbdc6f84c	-0.097153276
163	0xbce2fe50	-0.027709156
164	0x3e0342af	0.12818407
165	0x3dbdd8ac	0.092698425
166	0x3e0b60b8	0.13611114
167	0xbd880e8a	-0.06643398
168	0xbd030cd2	-0.03199465
169	0xbbda7dd4	-0.006667832
170	0xbd9e95e8	-0.07743436
171	0x3da87f92	0.08227457
172	0x3e0a71fd	0.13520046
173	0x3d8cfc30	0.068840384
174	0x3d6be5c7	0.05759218
175	0xbdb3d06b	-0.08779987
176	0xbdfce9f1	-0.12349308
177	0x3db1e4fb	0.08686253
178	0xbdd54ff3	-0.1041564
179	0x3d134b3d	0.035960425
180	0x3e0fe63f	0.14052676
181	0xbd8d9d76	-0.06914799
182	0x3da371e0	0.07980704
183	0x3dced49c	0.10099146
184	0x3d9407b1	0.072280295
185	0xbe298457	-0.1655439
186	0xbdb50332	-0.088385
187	0xbe0ca9c1	-0.13736631
188	0x3e02f794	0.12789756
189	0x3d63b98a	0.055596866
190	0x3dd4a99d	0.10383914
191	0x3d0d6dc0	0.034528494
192	0xbdee909a	-0.11648674
193	0x3ddd8694	0.10816684
194	0x3e06aa60	0.1315093
195	0xbe0d20e8	-0.13782084
196	0xbdc74073	-0.097290896
197	0x3d65c05f	0.056091662
198	0x3e14ee0d	0.14543934
199	0x3e1ab8be	0.15109536
200	0xbdde305b	-0.10849067
201	0xbdd4a47d	-0.10382936
202	0xbd820106	-0.063478515
203	0xbb7c8f04	-0.0038537392
204	0x3dc53c08	0.09630591
205	0xbdc41b28	-0.09575492
206	0xbe16c420	-0.14723253
207	0xbd84cf5b	-0.064848624
208	0xbddcd44c	-0.1078268
209	0xbd4a3a55	-0.049372036
210	0xbd878bfa	-0.06618495
211	0x3d43bbaa	0.047786392
212	0x3decfaa1	0.11571241
213	0xbe25b9cf	-0.16184162
214	0x3aab9d4e	0.0013093145
215	0x3d21e509	0.039525066
216	0xbdb97e0b	-0.09057244
217	0x3c3b4bda	0.011431659
218	0xbdfc0299	-0.12305183
219	0x3dd796ef	0.10526835
220	0x3ddb3604	0.10703662
221	0xbdea9382	-0.11453916
222	0x3d36c5e9	0.044622336
223	0xbd805479	-0.06266112
224	0xbdac449b	-0.08411523
225	0x3e13d093	0.14435034
226	0xbd31d77f	-0.043418404
227	0xbd873383	-0.06601622
228	0xbddb2bd8	-0.10701722
229	0x3def6411	0.11689008
230	0xbe0b4cfe	-0.13603589
231	0x3e08e5f6	0.13368973
232	0xbe102a7e	-0.1407871
233	0x3d4f9088	0.050674945
234	0x3dd5526b	0.104161106
235	0xbe24dccf	-0.16099857
236	0xbe221fe8	-0.15832484
237	0x3c95959e	0.01825982
238	0xbba302ca	-0.0049746977
239	0xbafe5f3e	-0.0019407046
240	0xbe0d304b	-0.13787954
241	0xbde0d1a2	-0.10977484
242	0xbd6b3bd3	-0.0574301
243	0x3e0d28a2	0.13785031
244	0x3e24e791	0.1610396
245	0x3dd9a285	0.10626701
246	0x3e044002	0.12915042
247	0x3da9a40a	0.08283241
248	0xbe00f170	-0.12592101
249	0xbc5af5e2	-0.013364287
250	0x3c0fa859	0.008768165
251	0x3db78209	0.08960349
252	0xbd5637b8	-0.05229923
253	0x3dd61354	0.10452905
254	0xba7f35bc	-0.0009735485
255	0x3e1f9d04	0.1558724

layers.2.conv2.bias f4 [8]
0	0x00000000	0.0
1	0x00000000	0.0
2	0x00000000	0.0
3	0x00000000	0.0
4	0x00000000	0.0
5	0x00000000	0.0
6	0x00000000	0.0
7	0x00000000	0.0

layers.2.conv3.weight f4 [8, 8, 3, 3]
0	0xbda7f95b	-0.08201858
1	0x3d739e00	0.059476852
2	0x3dad7389	0.08469302
3	0x3d507663	0.050894152
4	0xbd82b6ec	-0.06382546
5	0x3dd445fb	0.1036491
6	0x3da3be28	0.07995254
7	0x3d263d71	0.04058594
8	0x3c42d649	0.01189191
9	0xbdc576ac	-0.096417755
10	0x3c7869aa	0.015161911
11	0xbddf5d75	-0.109064974
12	0xbdd39495	-0.10331074
13	0xbce83243	-0.02834428
14	0x3ce7f684	0.02831579
15	0x3d2306ec	0.039801523
16	0x3cb0602a	0.02153023
17	0x3cb4c2ec	0.022065602
18	0xbde2639c	-0.11054155
19	0x3c9131f8	0.017724022
20	0x3d57a237	0.052644935
21	0x3d3a481f	0.045478936
22	0xbd8d3485	-0.06894783
23	0x3d97876a	0.07398875
24	0xbd273d48	-0.040829927
25	0xbddf4641	-0.10902072
26	0xbd8b3f14	-0.067991406
27	0x3d490cc3	0.049084436
28	0xbdd1d5fa	-0.10245891
29	0x3dd2b608	0.10288626
30	0x3daadc4b	0.08342799
31	0x3c8e8689	0.017398136
32	0x3aceab5b	0.0015767621
33	0x3dbe6e4b	0.092983805
34	0xbd725a8b	-0.05916838
35	0xbdcc1794	-0.09965435
36	0x3de67fc2	0.112548366
37	0xbc275df3	-0.01021527
38	0xbd2cf1a1	-0.042222623
39	0x3d92a10c	0.071596235
40	0xbc82746c	-0.015924655
41	0x3d969eb3	0.07354488
42	0x3ddd1ffa	0.10797115
43	0x3d8648e9	0.06556875
44	0xbdb73bc4	-0.08946946
45	0x3c806b07	0.015676035
46	0xbcf3d151	-0.029762896
47	0xbaaba9cd	-0.0013096869
48	0x3c4aabc0	0.01237005
49	0x3d121eb3	0.03567381
50	0xbdcf9403	-0.10135653
51	0xbd3599b3	-0.044336032
52	0x3d8eef03	0.069791816
53	0xbc3fbae4	-0.011702273
54	0xbd44a2ba	-0.04800675
55	0x3c18ccc3	0.009326163
56	0xbcf99226	-0.030465197
57	0xbdb5805f	-0.088623755
58	0x3cf5ce8e	0.03000572
59	0xbcd0d608	-0.025492683
60	0x3dd98792	0.10621561
61	0x3ca67b92	0.020322595
62	0xba697183	-0.0008905159
63	0x3cb32d39	0.02187215
64	0xbcc9e0da	-0.02464335
65	0xbd97ab75	-0.0740575
66	0x3d88381d	0.06651328
67	0x3de0873f	0.10963296
68	0x3d4ec398	0.0504795
69	0x3d01662e	0.031591587
70	0xbb2c7d4b	-0.0026319798
71	0xbdbf1baa	-0.093314484
72	0xbbaf6581	-0.0053526764
73	0xbd7e9fad	-0.062163997
74	0x3dd33bf5	0.1031417
75	0xbd482bee	-0.04887002
76	0xbc7fc77a	-0.015611524
77	0x3cecc3c4	0.028901942
78	0x3d81c12a	0.06335671
79	0xbd76fcd4	-0.06029971
80	0xbc90ca3d	-0.01767456
81	0x3d882fd7	0.0664975
82	0xbc3edb36	-0.011648944
83	0x3d50d3fe	0.05098342
84	0xbda89347	-0.08231216
85	0xbd87d750	-0.066328645
86	0xbd2867ea	-0.041114725
87	0xba8122d9	-0.0009852304
88	0x3da041b8	0.07825035
89	0xbd3a7333	-0.04552002
90	0xbd5e6799	-0.054298017
91	0xbd064d28	-0.032788426
92	0x3d176d26	0.036969326
93	0xbdba6022	-0.09100367
94	0x3cecb34c	0.02889409
95	0xbd7ff0ef	-0.06248563
96	0xbdc51eb9	-0.096250005
97	0xbd9d49a6	-0.07680063
98	0xbdef2523	-0.11677005
99	0x3cd9e062	0.026596252
100	0x3d8a9081	0.06765843
101	0xbcc61fc3	-0.024185067
102	0x3ce6ad00	0.028158665
103	0x3ce3ba42	0.027798776
104	0x3daaf765	0.08347968
105	0x3c949035	0.01813517
106	0x3d829ab9	0.06377167
107	0xbcc88873	-0.024479127
108	0x3d9e99f9	0.07744212
109	0xbcc5ab90	-0.024129659
110	0x3ddd5226	0.10806684
111	0xbdb476c4	-0.08811715
112	0xbddc31e0	-0.107517004
113	0x3cc80f64	0.024421401
114	0xbd382a58	-0.044962257
115	0x3d548cd5	0.05189212
116	0x3de7506b	0.112946354
117	0xbdeb9986	-0.11503892
118	0x3bee03c4	0.0072636325
119	0x3d79f8cf	0.061028298
120	0xbdd459af	-0.10368668
121	0x3b94515a	0.0045262994
122	0xbdcddc43	-0.10051777
123	0xbde549b8	-0.11195701
124	0x3df04875	0.1173257
125	0x3d7f75d5	0.062368233
126	0x3d666eef	0.05625814
127	0x3cbb1077	0.022835
128	0xbcc75173	-0.02433083
129	0xbdd3ddda	-0.10345049
130	0x3dbd5c4c	0.0924612
131	0x3db6cac6	0.08925395
132	0x3dd9ed3b	0.10640951
133	0xbd550ea2	-0.052015908
134	0x3d858b13	0.06520667
135	0x3cf2367a	0.029566992
136	0x3d8ce8cd	0.06880341
137	0xbde4ed98	-0.1117813
138	0x3cb03013	0.021507299
139	0xbdc869be	-0.09785794
140	0x3d3d050a	0.046147384
141	0xbd8eb517	-0.06968134
142	0x3dd2d4fc	0.1029453
143	0x3d7f8241	0.06238008
144	0x3db030a8	0.086030304
145	0xbdb51dc8	-0.08843571
146	0xbd53f4cf	-0.05174714
147	0x3ddab9d0	0.10679972
148	0xbd9464ae	-0.072457656
149	0x3d718492	0.05896432
150	0xbd5a976a	-0.053367056
151	0x3d17efa0	0.03709376
152	0x3d1af26e	0.037828855
153	0x3de14399	0.10999221
154	0x3de885a7	0.11353617
155	0xbd30a207	-0.04312327
156	0xbdcaccfc	-0.09902379
157	0x3dd3814c	0.10327396
158	0x3d790fea	0.060806192
159	0x3db23299	0.08701057
160	0x3db4e03a	0.0883183
161	0x3dd17c58	0.10228795
162	0xbc4187be	-0.011812149
163	0xbb49644c	-0.0030729948
164	0x3dd5d6c0	0.10441351
165	0x3ddf687b	0.109086
166	0x3d8556ea	0.06510718
167	0x3d3da570	0.04630035
168	0xbd54a24f	-0.051912602
169	0x3dae55a8	0.085124314
170	0xbdc8e4c8	-0.098092616
171	0x3d4ad6d1	0.04952127
172	0xbcc2778b	-0.023738643
173	0xbddf3aa3	-0.10899856
174	0xbdb0fa08	-0.0864144
175	0x3d5a4ce3	0.05329598
176	0xbd38fabe	-0.045161
177	0xbddf6f77	-0.10909932
178	0xbd4df2bd	-0.05028032
179	0x3ddca1f0	0.107730746
180	0x3dabb21e	0.083835825
181	0x3dd25b76	0.10271351
182	0x3d4aabb2	0.049480148
183	0xbdd71a73	-0.10503092
184	0x3bd6ca40	0.006554872
185	0xbddf7313	-0.109106205
186	0x3dbb8626	0.09156446
187	0xbd1dd857	-0.038536396
188	0xbdce6a4e	-0.1007887
189	0x3c707264	0.01467571
190	0x3d86345b	0.06552955
191	0x3d989ca1	0.074517496
192	0x3de41217	0.11136263
193	0xbd8314ee	-0.064004764
194	0x3d09abcf	0.033611115
195	0xbde5eb61	-0.112265356
196	0xbc014028	-0.007888831
197	0xbd1562ea	-0.036471285
198	0xbd85ef58	-0.06539792
199	0x3d6a3fd6	0.057189785
200	0xbdde3857	-0.1085059
201	0xbc89326a	-0.016747672
202	0x3ded5b35	0.11589662
203	0x3dd4d6d1	0.103925355
204	0xbdf098c5	-0.117478885
205	0xbd25b749	-0.040457997
206	0x3d80dfdd	0.062926985
207	0xbcae3bdd	-0.02126878
208	0xba8a993a	-0.001057423
209	0xbde951e9	-0.11392576
210	0xbd9de32c	-0.07709345
211	0xbd43caf4	-0.047800973
212	0xbd7d0453	-0.061771702
213	0x3daa380f	0.083114736
214	0x3daa3c27	0.083122544
215	0x3c9e3ad5	0.019315163
216	0xbdb89fb4	-0.09014836
217	0x3d1849d7	0.037179794
218	0xbd874093	-0.066041134
219	0xbdde28db	-0.10847636
220	0x3bf2fbb4	0.0074152593
221	0x3dee9025	0.11648587
222	0x3d972b8a	0.07381351
223	0x3d9dc6fc	0.07703969
224	0x3d8ad214	0.067783505
225	0x3d4b145c	0.049579963
226	0x3d4fff98	0.050780863
227	0x3dd42ce6	0.10360126
228	0x3dd3f992	0.10350336
229	0x3cddf205	0.027092943
230	0x3d615aa3	0.05501808
231	0xbd230e60	-0.03980863
232	0x3da3dfe6	0.080016896
233	0xbd080ec8	-0.03321722
234	0x3c1ba10a	0.009498844
235	0xbc3b3b6a	-0.01142774
236	0xbdd8f0ab	-0.10592779
237	0x3d481a4a	0.048853196
238	0x3d80f322	0.06296374
239	0x3d45ebed	0.0483207
240	0xbc4c0bcb	-0.012453984
241	0xbd9cf33c	-0.07663581
242	0x3d5d770c	0.05406861
243	0xbdc5e6b3	-0.09663143
244	0x3c7fae22	0.015605481
245	0xbdcd5537	-0.10026019
246	0x3de5bf74	0.112181574
247	0xbdc35c48	-0.095390856
248	0xbd2cb6f2	-0.042166658
249	0x3d28d4a9	0.041218434
250	0x3d5cd832	0.053917117
251	0x3d19056c	0.037358686
252	0x3d314db1	0.043286983
253	0x3db7a9e5	0.08967952
254	0x3dc3141a	0.095253184
255	0x3d97abf8	0.07405847

layers.2.conv3.bias f4 [8]
0	0x00000000	0.0
1	0x00000000	0.0
2	0x00000000	0.0
3	0x00000000	0.0
4	0x00000000	0.0
5	0x00000000	0.0
6	0x00000000	0.0
7	0x00000000	0.0

layers.2.batch_norm.weight f4 [8]
0	0x3f801f21	1.00095
1	0x3f7fbb33	0.9989502
2	0x3f7fbb30	0.99895
3	0x3f801f21	1.00095
4	0x3f801f21	1.00095
5	0x3f7fbb30	0.99895
6	0x3f7fbb30	0.99895
7	0x3f801f21	1.00095

layers.2.batch_norm.bias f4 [8]
0	0x3a831232	0.000999993
1	0x3a8311ed	0.0009999849
2	0xba831252	-0.0009999967
3	0x3a83120b	0.0009999884
4	0x3a8310c4	0.0009999503
5	0xba83121b	-0.0009999903
6	0x3a83119f	0.0009999758
7	0x3a831186	0.0009999729

layers.2.batch_norm.running_mean f4 [8]
0	0xbd4d51ca	-0.05012683
1	0x3ab4efd9	0.001380439
2	0x3cc9af99	0.024619864
3	0xbd652376	-0.05594202
4	0xbbc10ce3	-0.005891429
5	0x3d91cccb	0.07119139
6	0xbd18f8f3	-0.03734679
7	0x3cda0334	0.026612855

layers.2.batch_norm.running_var f4 [8]
0	0x3f5b01b1	0.85549456
1	0x3f56afa4	0.83861756
2	0x3f5065a4	0.8140509
3	0x3f500a1b	0.8126542
4	0x3f5b1c2c	0.8558986
5	0x3f528c8c	0.8224571
6	0x3f51f6ea	0.82017386
7	0x3f543ce1	0.82905394

layers.3.conv1.weight f4 [16, 8, 1, 1]
0	0x3de83b9d	0.11339495
1	0xbe4cf7bf	-0.20016383
2	0xbd759008	-0.059951812
3	0xbe172437	-0.14759909
4	0x3e89018f	0.26759002
5	0xbeaa6a34	-0.33284152
6	0xbe94adb6	-0.2903878
7	0x3e89adf8	0.2689054
8	0x3d37b10b	0.044846576
9	0xbe1e0112	-0.15430096
10	0x3e27f4ab	0.16401927
11	0xbd46b52b	-0.04851262
12	0xbe37342f	-0.17891
13	0xbeae3413	-0.34024104
14	0x3eb38b90	0.35067415
15	0x3e92eceb	0.2869638
16	0x3ea63fa6	0.32470435
17	0xbca6eacd	-0.020375634
18	0x3e3a1bd8	0.18174684
19	0x3e8c12fa	0.27358228
20	0xbe26a708	-0.16274655
21	0xbbf3ffdb	-0.007446272
22	0xbe8b75d7	-0.27238342
23	0x3e175c0e	0.1478121
24	0x3e4c006e	0.19922039
25	0xbe626238	-0.2210778
26	0x3e51da0f	0.20493339
27	0x3e04bf93	0.12963705
28	0x3e0b043c	0.13575834
29	0xbbb094ff	-0.0053888555
30	0x3d9024a0	0.07038236
31	0xbea99738	-0.33123183
32	0x3e56d0cd	0.20978089
33	0xbe463afd	-0.1935844
34	0xbc32af15	-0.010906001
35	0x3e279b9e	0.16367957
36	0xbea89468	-0.32925725
37	0xbe892440	-0.2678547
38	0xbe0cb80e	-0.13742086
39	0x3c456c7c	0.0120497905
40	0x3e979a78	0.29610038
41	0x3ca29a5b	0.019848993
42	0xbe470d4a	-0.19438663
43	0xbda4c7a0	-0.08045888
44	0xbe8091cb	-0.2511123
45	0x3de5e0cc	0.11224517
46	0xbeb538f7	-0.35395023
47	0x3e14d2f1	0.14533593
48	0xbe7c1ee1	-0.24621154
49	0xbe9b4abd	-0.30330458
50	0xbe316393	-0.17323141
51	0x3cbe53b0	0.023233265
52	0xbe506fe2	-0.2035518
53	0xbead0a41	-0.33796886
54	0x3e8ab5d1	0.2709184
55	0x3b29be5a	0.0025900812
56	0xbd530964	-0.051522627
57	0xbe994f12	-0.29943138
58	0x3b1fe4e8	0.0024397913
59	0xbe534fcf	-0.20635913
60	0x3dac2945	0.08406309
61	0x3e4c5d7f	0.19957541
62	0x3e3c80c1	0.1840849
63	0x3e8086ef	0.25102946
64	0x3d771817	0.06032571
65	0x3dfb1b4d	0.122610666
66	0x3e43e2cc	0.19129485
67	0xbe3e7caa	-0.18602243
68	0x3e726574	0.23671514
69	0xbde91a7d	-0.11382005
70	0x3dfa6419	0.12226123
71	0x3e2a7363	0.16645579
72	0xbe03f8c4	-0.12887865
73	0x3eb1ca67	0.34724733
74	0x3c10cc84	0.008837823
75	0xbe55e8f2	-0.20889643
76	0x3e26ed23	0.16301398
77	0x3e0c0ce7	0.13676797
78	0xbe2263b4	-0.15858346
79	0xbddb56ef	-0.10709941
80	0x3e173ac6	0.14768514
81	0xbe08de39	-0.13366021
82	0x3e5db0f8	0.2164954
83	0x3e806b24	0.25081742
84	0x3e812eaa	0.25230914
85	0x3dc48249	0.095951624
86	0x3d14157c	0.0361533
87	0x3da6867a	0.08131118
88	0x3d9e1472	0.077187434
89	0x3daf7085	0.08566383
90	0xbeaf1cc2	-0.34201628
91	0xbe545381	-0.20734979
92	0x3e809009	0.2510989
93	0xbe2177c5	-0.15768345
94	0xbdd48f30	-0.10378873
95	0x3e0cbaf4	0.13743192
96	0xbe426609	-0.18984236
97	0xbe051187	-0.12994967
98	0x3e0cd249	0.13752092
99	0xbe0bb5d5	-0.13643582
100	0xbe07193b	-0.13193218
101	0x3e6429d3	0.2228158
102	0xbe8cd3c1	-0.27505305
103	0xbe267ca3	-0.16258483
104	0x3cec771a	0.028865386
105	0x3e738724	0.23782021
106	0x3df38662	0.11890866
107	0xbe4d0472	-0.20021227
108	0xbe005484	-0.1253224
109	0x3db4c5ef	0.08826815
110	0x3e30cb3a	0.17265025
111	0xbe778494	-0.24171668
112	0x3b8037f4	0.00391292
113	0xbcea56e8	-0.028605893
114	0xbcfebdf1	-0.03109643
115	0xbe89f634	-0.2694565
116	0xbe2d34e6	-0.1691471
117	0x3e57cc99	0.21074142
118	0xbc1e91ab	-0.009678285
119	0x3d95f47a	0.07322021
120	0x3ea6bcd9	0.32565954
121	0xbe0bd460	-0.13655233
122	0xbe27535b	-0.16340391
123	0x3d4d71f8	0.050157517
124	0x3da7ff2f	0.08202969
125	0xbe2705f0	-0.16310859
126	0x3e827d9b	0.25486454
127	0xbea3bf81	-0.31982043

layers.3.conv1.bias f4 [16]
0	0xb3434db9	-4.5472664e-08
1	0xb4c33dd2	-3.636656e-07
2	0x37b331ad	2.1361595e-05
3	0xb82ca47b	-4.116118e-05
4	0x34aad813	3.1822182e-07
5	0xb7f8bf09	-2.9652861e-05
6	0xb74110a0	-1.1507567e-05
7	0x379171ab	1.7338278e-05
8	0x38d5c5d9	0.000101934835
9	0xb65b026e	-3.2634957e-06
10	0xb8beba27	-9.0945796e-05
11	0x37053610	7.940005e-06
12	0x3810636d	3.4424873e-05
13	0x3770a38c	1.43431935e-05
14	0x367f5f47	3.805342e-06
15	0x361e5129	2.3591076e-06

layers.3.conv2.weight f4 [16, 8, 3, 3]
0	0x3d3a775f	0.045523997
1	0x3c3af3f3	0.011410701
2	0xbd9d6c5e	-0.07686685
3	0x3d1e3a4b	0.03862981
4	0x3da6d278	0.081456125
5	0x3d67b78f	0.05657154
6	0x3d45a6aa	0.048254646
7	0x3d1cc708	0.03827575
8	0xbd0dcfb7	-0.03462192
9	0xbd7f82cc	-0.062380597
10	0xbd511a1d	-0.051050294
11	0xbd794d50	-0.060864747
12	0xbcb78cee	-0.022406068
13	0x3d93d496	0.07218282
14	0xbde9374f	-0.113875024
15	0x3db6bf2e	0.089231834
16	0x3dc4d05c	0.09610054
17	0x3da7c9a7	0.08192759
18	0xbd9d785a	-0.07688971
19	0x3d8a4b24	0.06752613
20	0x3de8735d	0.11350129
21	0x3d13ddf5	0.036100347
22	0xba919463	-0.0011106845
23	0xbd6a61e0	-0.057222247
24	0x3dd61699	0.10453529
25	0x3dd6420d	0.10461817
26	0xbdcd59b1	-0.10026873
27	0xbc7077d4	-0.014677007
28	0xbc4308d9	-0.011903965
29	0xbd09e198	-0.03366241
30	0xbd112d96	-0.035443865
31	0xbd8d73c0	-0.06906843
32	0xbd276551	-0.040868107
33	0xbd7549d6	-0.05988487
34	0xbddf76a7	-0.10911303
35	0xbde0a5f9	-0.10969157
36	0xbddfb73d	-0.10923622
37	0xbd9e070e	-0.07716189
38	0xbcba85dd	-0.02276891
39	0x3c11dbea	0.008902529
40	0xbbc76ae2	-0.0060857395
41	0xbc4c213b	-0.012459095
42	0xbdba065f	-0.090832464
43	0xbc3a207e	-0.011360286
44	0xbdb2b87e	-0.08726595
45	0xbded7122	-0.11593844
46	0x3ddc3757	0.10752743
47	0x3dc5f244	0.09665349
48	0xbc8c0831	-0.01709375
49	0xbcdc6fa2	-0.0269087
50	0xbdd3e154	-0.10345712
51	0x3b74a4de	0.0037329714
52	0xbd47ecfb	-0.048809987
53	0x3d8644c9	0.065560885
54	0xbd517bbb	-0.05114339
55	0xbdc41022	-0.095733896
56	0xbd02b290	-0.03190857
57	0xbd16fdc1	-0.036863092
58	0xbddee838	-0.10884136
59	0x3d33324f	0.04374915
60	0x3deb6288	0.11493403
61	0xbd859e4c	-0.06524333
62	0x3db9d452	0.090737
63	0x3dd89403	0.10575106
64	0x3d3313d7	0.043720093
65	0x3d8472ad	0.06467185
66	0xbaf5de1a	-0.0018758208
67	0x3d0ec066	0.034851454
68	0xbdcb7bc9	-0.099357195
69	0xbda6e3ee	-0.08148943
70	0xbd6ea42e	-0.058262043
71	0x3d73a7df	0.059486266
72	0xbd89941d	-0.067177035
73	0xbd9683d3	-0.07349362
74	0xbd1a26bb	-0.037634593
75	0xbde75309	-0.112951346
76	0xbd86ea79	-0.06587691
77	0x3d2496af	0.040182766
78	0x3dc4279a	0.09577866
79	0x3c661366	0.014042711
80	0xbdc3621c	-0.09540197
81	0xbd9d1473	-0.07669916
82	0xbcbf0992	-0.023319993
83	0x3d4be942	0.049783
84	0x3d6a6ce6	0.05723276
85	0x3dd08ca9	0.10183079
86	0x3dd90f24	0.10598591
87	0xbd79fab5	-0.06103011
88	0xbca7c936	-0.020481687
89	0x3db49801	0.08818055
90	0x3d2783f1	0.040897314
91	0x3d95a26f	0.073063724
92	0xbd51b019	-0.05119333
93	0x3ca51edf	0.020156322
94	0xbd9c0361	-0.07617832
95	0x3dc525d5	0.096263565
96	0x3cb49f64	0.02204866
97	0x3d037ce3	0.032101523
98	0x3dbd814c	0.09253177
99	0xbde26773	-0.110548876
100	0xbd0862ff	-0.033297535
101	0xbd8df255	-0.06930987
102	0xbd035908	-0.03206733
103	0x3cdda726	0.027057242
104	0x3dee2d82	0.11629774
105	0x3dc42f14	0.09579292
106	0xbd8b1640	-0.06791353
107	0x3d18f9ed	0.037347723
108	0x3dedf60d	0.11619196
109	0x3ce4736f	0.027887074
110	0x3dc634a7	0.096780114
111	0xbdecc4c3	-0.11560967
112	0xbdc7b4cc	-0.09751281
113	0xbd39fe78	-0.045408696
114	0x3d1ade32	0.03780956
115	0xbdb4f4fe	-0.08835791
116	0x3cdb10ce	0.026741412
117	0xbc1bea99	-0.009516382
118	0x3dac937d	0.08426569
119	0x3dd94283	0.10608389
120	0xbda2a87d	-0.07942293
121	0x3d949200	0.0725441
122	0xbde61de8	-0.11236173
123	0xbd0cfd02	-0.034420975
124	0xbdb34d64	-0.087549955
125	0xbd2286e5	-0.039679427
126	0xbd3941bd	-0.04522871
127	0xbda2d1a2	-0.079501405
128	0xbd8ffd28	-0.070307076
129	0x3da54edb	0.08071681
130	0xbd899fde	-0.06719945
131	0x3d6c8f3b	0.057753783
132	0x3c223864	0.00990114
133	0xbda64e13	-0.0812036
134	0xbc94d8b4	-0.018169738
135	0xbd9315d2	-0.07181896
136	0xbdecee87	-0.11568933
137	0xbc8bb872	-0.017055724
138	0xbdef90aa	-0.11697514
139	0x3d1843c7	0.037174013
140	0x3c754f74	0.014972556
141	0x3dd5b9ef	0.10435855
142	0xbb1e4bf9	-0.002415417
143	0xbdaae2a6	-0.08344011
144	0xbde284eb	-0.11060508
145	0xbd2e8a7e	-0.042612545
146	0xbd1a0d3f	-0.03761029
147	0x3d39ceb9	0.04536316
148	0xbc87ddd7	-0.016585274
149	0x3cbb9e65	0.022902677
150	0x3d2391b6	0.039933883
151	0x3c95c8d1	0.018284233
152	0xbc9e4951	-0.01932207
153	0xbc975ed8	-0.018477842
154	0xbd99660d	-0.07490168
155	0x3d56c4da	0.052433826
156	0xbd527b06	-0.051386856
157	0x3da75a0b	0.08171471
158	0xbce96143	-0.02848876
159	0x3c54fdbe	0.01299995
160	0x3dbce0ae	0.09222542
161	0x3de98a5c	0.11403343
162	0x3dea3d81	0.11437512
163	0x3ce07474	0.02739928
164	0x3ddd36aa	0.10801442
165	0x3d5a0038	0.053222865
166	0x3dd0f0f4	0.10202208
167	0xbdc97f8b	-0.0983878
168	0xbd42420b	-0.047426265
169	0x3d4dc5f0	0.050237596
170	0xbdc14dfc	-0.094387025
171	0x3dca01d5	0.09863631
172	0x3debafc1	0.11508132
173	0xbc20e861	-0.009821028
174	0xbba00564	-0.004883455
175	0xbdaac86c	-0.08339009
176	0xbded9750	-0.11601126
177	0xbd3e705a	-0.046493866
178	0xbdb62b27	-0.088949494
179	0x3cecd1bc	0.028908603
180	0x3def6b7a	0.116904214
181	0x3db1f1a8	0.086886704
182	0x3dc19880	0.09452915
183	0x3dde9b29	0.10869438
184	0xbd0bd638	-0.03413984
185	0x3dafff36	0.085935995
186	0x3dc9ed5d	0.098597266
187	0x3db80efa	0.089872316
188	0x3d6d3521	0.057911996
189	0xbdd085c6	-0.10181765
190	0x3d5e8959	0.054330204
191	0x3d320a6a	0.043466963
192	0xbd5258b5	-0.05135413
193	0xbdaf74cd	-0.085672
194	0x3d146b70	0.036235273
195	0xbd41b89f	-0.04729521
196	0xbdc50c93	-0.09621539
197	0xbd670e4c	-0.05641012
198	0x3d8903d6	0.06690185
199	0xbdaf8c6e	-0.08571707
200	0x3c5479d0	0.0129684955
201	0x3ceb9470	0.028757304
202	0x3ded5e15	0.1159021
203	0xbd21966e	-0.0394501
204	0x3cf51ce9	0.029921012
205	0x3d158e18	0.036512464
206	0x3cf9fce1	0.03051609
207	0x3d67678c	0.056495234
208	0x3dac35db	0.084087096
209	0x3dda28b2	0.10652293
210	0x3d2a820f	0.04162794
211	0xbd995a75	-0.074879564
212	0xbd1c2d50	-0.03812915
213	0x3dcb583b	0.09928938
214	0xbc577266	-0.013149833
215	0x3d22eb24	0.03977503
216	0xbd7d6493	-0.061863493
217	0x3d1f420c	0.038881347
218	0x3d97f8ff	0.07420539
219	0xbd71adb9	-0.059003565
220	0x3cf18ae4	0.029485174
221	0xbd4a1d38	-0.04934427
222	0xbc997481	-0.018732311
223	0xbd8c0067	-0.06836014
224	0x3db7826e	0.08960424
225	0xbda7c750	-0.08192313
226	0x3dc8cfbf	0.098052494
227	0xbdc77892	-0.09739794
228	0xbc9dd3f3	-0.019266104
229	0xbdee46fe	-0.116346344
230	0x3d5e95b0	0.054341972
231	0x3dd70df8	0.10500711
232	0x3c7ec565	0.015549992
233	0xbd3f54df	-0.0467118
234	0x3d8387f4	0.064224154
235	0xbcb83930	-0.022488207
236	0xb9da4235	-0.00041629528
237	0x3cbcdc09	0.02305414
238	0x3dc36389	0.09540469
239	0xbc74763f	-0.01492077
240	0x3d963b11	0.07335485
241	0x3dd591f9	0.10428233
242	0xbd8fba37	-0.070179395
243	0xbd938ea4	-0.07204941
244	0x3db84311	0.08997167
245	0xbc1fb145	-0.009746854
246	0xbdca7a20	-0.09886575
247	0x3d854ac0	0.06508398
248	0xbda87ebb	-0.08227297
249	0xbdbbc655	-0.09168688
250	0x3da1e6e8	0.0790537
251	0x3da5530d	0.08072481
252	0xbdaf286a	-0.0855263
253	0x3dbef533	0.09324112
254	0xbd8d8bee	-0.06911455
255	0xbd4c32c7	-0.049853113

layers.3.conv2.bias f4 [16]
0	0x00000000	0.0
1	0x00000000	0.0
2	0x00000000	0.0
3	0x00000000	0.0
4	0x00000000	0.0
5	0x00000000	0.0
6	0x00000000	0.0
7	0x00000000	0.0
8	0x00000000	0.0
9	0x00000000	0.0
10	0x00000000	0.0
11	0x00000000	0.0
12	0x00000000	0.0
13	0x00000000	0.0
14	0x00000000	0.0
15	0x00000000	0.0

layers.3.conv3.weight f4 [16, 16, 3, 3]
0	0x3d8304f4	0.06397429
1	0xbd810bb5	-0.06301061
2	0xbda25d5f	-0.079279654
3	0x3cc25fb3	0.023727274
4	0x3cfe389f	0.031032858
5	0xbb836dc1	-0.0040108864
6	0xbda640cb	-0.08117827
7	0xbc80741f	-0.01568037
8	0x3d1f81a5	0.038941998
9	0xbd24fb53	-0.040278744
10	0x3da5d4c5	0.08097223
11	0xbc92e23f	-0.017930148
12	0x3cd44024	0.02590949
13	0x3d748669	0.059698496
14	0xbd12931b	-0.035784822
15	0x3da2aad8	0.07942742
16	0xbd1ebc88	-0.038754016
17	0xbc44e9f3	-0.012018668
18	0x3b4289e2	0.0029684235
19	0xbcda9e59	-0.026686834
20	0x3d3afcd9	0.04565129
21	0x3d1656e1	0.036703948
22	0xbc73318b	-0.014843355
23	0xbc6f2a70	-0.01459752
24	0x3ca3b6f7	0.019984705
25	0xbd9a8046	-0.075439975
26	0xbd38f665	-0.045156855
27	0xbda0624c	-0.07831249
28	0x3d204afd	0.039134014
29	0x3bae2c95	0.005315373
30	0x3d2b8638	0.041876048
31	0xbcc98941	-0.02460158
32	0xbd83850c	-0.06421861
33	0xbc78f0f8	-0.01519417
34	0x3c437a27	0.011930979
35	0xbd7751e5	-0.060380835
36	0x3d96880c	0.07350168
37	0xbd315e93	-0.043303084
38	0x3d5ac715	0.053412516
39	0xbd9ecd14	-0.07753959
40	0xbcb74493	-0.022371566
41	0xbda8ee08	-0.08248526
42	0xbd34eb0d	-0.044169474
43	0xbd1cf6b9	-0.03832123
44	0x3d936b3a	0.07198186
45	0x3b472a13	0.0030390068
46	0x3d65f538	0.056142062
47	0x3d02bc1c	0.031917676
48	0x3d6706fd	0.05640315
49	0xbd4288d0	-0.047493756
50	0xbd1bdb47	-0.038050916
51	0x3c437607	0.011929995
52	0xbd26c87d	-0.040718544
53	0xbbcde81d	-0.0062837736
54	0x3c0db3c8	0.00864882
55	0xbcc7a942	-0.0243727
56	0x3d01f3d8	0.03172669
57	0xbc3d357c	-0.011548396
58	0x3d36d71f	0.04463875
59	0x3c633597	0.013867757
60	0x3d9c9440	0.07645464
61	0x3da30c0f	0.07961284
62	0xbc251d43	-0.010077777
63	0xbd44b9f6	-0.04802891
64	0xbbebe5bb	-0.007199017
65	0x3bbbc1e9	0.005729903
66	0x3d80b73b	0.062849484
67	0xbbf86622	-0.0075805346
68	0xbd210210	-0.039308608
69	0xbd81e009	-0.063415594
70	0xbcd29e1a	-0.025710154
71	0xbd199487	-0.037495162
72	0x3d8a2b9a	0.067465976
73	0xbd3fb28a	-0.046801127
74	0xbd6cd7b3	-0.057822894
75	0xbc62bfd1	-0.013839678
76	0x3d67e5f2	0.056615777
77	0x3d9259b5	0.071460165
78	0xbd865fec	-0.065612644
79	0x3d54ab89	0.0519214
80	0xbcbf8a0c	-0.023381256
81	0x3d2538ba	0.0403373
82	0xbc95a9e9	-0.018269496
83	0xbc9e8e3c	-0.019354932
84	0x3cdb6d2d	0.026785458
85	0x3c375427	0.011189497
86	0x3d9bb12f	0.076021545
87	0xbd812780	-0.06306362
88	0x3d604813	0.054756235
89	0x3cea3f24	0.02859456
90	0x3d1ba400	0.0379982
91	0xbd08bb86	-0.03338196
92	0xbd93c0d6	-0.07214515
93	0xbd38087b	-0.044929963
94	0x3d9d643d	0.076851346
95	0x3d69fe9b	0.057127576
96	0x3d813eeb	0.06310829
97	0xbda148ae	-0.07875191
98	0x3d6318ea	0.05544368
99	0xbd4d9aa1	-0.050196294
100	0x3c876e04	0.016531952
101	0xbc4416a5	-0.0119682895
102	0x3d765a13	0.060144495
103	0xbd615543	-0.055012953
104	0x3d374f29	0.044753227
105	0xbda0390f	-0.07823383
106	0xbcd9302e	-0.026512232
107	0xbd9a268d	-0.07526884
108	0xbcaa8f65	-0.020820329
109	0x3cdfd1a6	0.027321648
110	0x3d0ce928	0.034402043
111	0x3d268c74	0.04066129
112	0xbced618c	-0.028977178
113	0xbd854e85	-0.06509117
114	0xbceffd69	-0.02929564
115	0xbd10bdfe	-0.03533744
116	0x3bd87d6a	0.0066067474
117	0x3c776655	0.015100081
118	0x3d54fa78	0.051996678
119	0x3d2b7608	0.04186061
120	0xbbcb0e26	-0.006196755
121	0x3c2988f4	0.010347594
122	0x3c647e6b	0.013946156
123	0x3cd8a5ee	0.026446309
124	0x3ba12bf0	0.004918568
125	0xbc786c4a	-0.015162537
126	0x3cb37408	0.021905914
127	0xbd800073	-0.06250086
128	0x3d496cfe	0.04917621
129	0xbd108af9	-0.035288785
130	0x3d56d02e	0.05244463
131	0xbbfd4152	-0.007728734
132	0x3d803541	0.062601574
133	0x3aa8e9d6	0.0012887071
134	0xbd72410c	-0.059144065
135	0xbcab5005	-0.02091218
136	0x3c9a2663	0.018817132
137	0x3c766d40	0.015040696
138	0xbc827784	-0.01592613
139	0xbc72c8e4	-0.014818404
140	0xbb479dd2	-0.0030459058
141	0x3cf3aa51	0.0297443
142	0x3d899478	0.06717771
143	0x3bab9d5e	0.0052372655
144	0x3d2f9093	0.042862486
145	0x3c32f5cd	0.010922861
146	0x3d6f33ba	0.05839894
147	0xbd615e83	-0.055021774
148	0x3be73e5a	0.0070569934
149	0xbd9b22e3	-0.075750135
150	0x3cce1509	0.025156515
151	0x3d848cb1	0.06472147
152	0x3d479be4	0.048732653
153	0xbcc0a629	-0.023516731
154	0xbba1f82d	-0.004942915
155	0xbb8b8b07	-0.0042585167
156	0x3da3e6d6	0.08003013
157	0x3da38d0d	0.07985888
158	0xbcb577b9	-0.022151815
159	0xbc757d73	-0.014983523
160	0x3ca98688	0.020694032
161	0x3d6b312f	0.057419952
162	0x3da3c354	0.0799624
163	0xbc56b218	-0.013103984
164	0x3d684265	0.056703944
165	0xbb46fc94	-0.003036295
166	0xbb100128	-0.0021973345
167	0xbd537e2e	-0.051634006
168	0xbc72d87c	-0.014822122
169	0xbda835e4	-0.08213404
170	0x3bb1d2b9	0.0054267314
171	0x3d7def5a	0.06199584
172	0xbd202bdb	-0.039104324
173	0xbd375307	-0.044756915
174	0xbd90cc44	-0.070702106
175	0x3b8f515a	0.0043737115
176	0x3d207082	0.039169796
177	0xbb398a00	-0.0028311014
178	0x3d3e72e2	0.04649628
179	0xbd0e2824	-0.03470625
180	0x3d705426	0.058674
181	0x3da7896a	0.081805065
182	0xbd28e144	-0.041230455
183	0xbd2b44d5	-0.04181369
184	0xbcc20864	-0.023685642
185	0xbd741638	-0.059591502
186	0x3d61a312	0.055087157
187	0xbbcdbfde	-0.006278976
188	0x3d2fd6ba	0.04292939
189	0xbcc5949e	-0.024118718
190	0xbd44a6e6	-0.04801073
191	0xbd428715	-0.047492106
192	0xbd4c6d15	-0.049908716
193	0xbd5d72c8	-0.054064542
194	0x3d8a6f2f	0.06759488
195	0x3d8c689d	0.06855891
196	0x3d639534	0.055562213
197	0x3cc8ee31	0.024527641
198	0x3cd2eb09	0.02574684
199	0xbcda2235	-0.02662764
200	0xbc5f734c	-0.013638329
201	0x3da9607c	0.08270356
202	0xbb75bbdb	-0.0037496004
203	0x3d8df0e4	0.06930712
204	0x3d060d3f	0.032727476
205	0xbc788ce9	-0.015170314
206	0xbc01e2de	-0.0079276245
207	0x3bdffc72	0.0068355137
208	0xbd1f884d	-0.038948346
209	0xbd333b4d	-0.043757726
210	0x3d66cd7e	0.056348316
211	0x3d3563c7	0.04428461
212	0x3c258661	0.010102839
213	0xbd8ec416	-0.06970994
214	0xbd879978	-0.06621069
215	0xbd22bb7b	-0.039729577
216	0x3da4002f	0.080078475
217	0xbab369b4	-0.0013688118
218	0xbcdfe9be	-0.027333137
219	0xbd4fe68f	-0.050756987
220	0x3d7a3966	0.061089896
221	0x3c60e6ff	0.013726949
222	0xbd936313	-0.07196631
223	0x3d4b2b6c	0.049601957
224	0xbc0e2d6e	-0.0086778235
225	0x3d7c7a7e	0.061640255
226	0x3cf014bd	0.029306764
227	0xbd533152	-0.051560707
228	0x3c7e5646	0.015523499
229	0xbd27db78	-0.040980786
230	0xbd96711d	-0.073457934
231	0x3cf9569f	0.030436812
232	0xbd4a0c7a	-0.049328305
233	0x3d88ed78	0.066859186
234	0xbd1f4734	-0.038886264
235	0xbd3638e3	-0.044487845
236	0x3d865d7f	0.06560802
237	0x3d0cfa60	0.034418464
238	0x3d9e37d4	0.07725492
239	0xbd8bf6fc	-0.06834218
240	0x3d588114	0.052857473
241	0xbda21bf3	-0.07915487
242	0xbd8c154d	-0.0684
243	0x3adeb866	0.0016992211
244	0xbd96f489	-0.0737086
245	0x3cce0eb1	0.02515349
246	0x3ce05331	0.027383419
247	0x3c8e3d4e	0.017363217
248	0x3da82c34	0.08211556
249	0x3d69d7a4	0.057090417
250	0x3d8294b9	0.06376023
251	0x3b9bb9f2	0.004752391
252	0xbd9202c7	-0.07129436
253	0xbd75bab3	-0.059992503
254	0x3da39e95	0.079892315
255	0x3c598ed7	0.013278685

layers.3.conv3.bias f4 [16]
0	0x00000000	0.0
1	0x00000000	0.0
2	0x00000000	0.0
3	0x00000000	0.0
4	0x00000000	0.0
5	0x00000000	0.0
6	0x00000000	0.0
7	0x00000000	0.0
8	0x00000000	0.0
9	0x00000000	0.0
10	0x00000000	0.0
11	0x00000000	0.0
12	0x00000000	0.0
13	0x00000000	0.0
14	0x00000000	0.0
15	0x00000000	0.0

layers.3.batch_norm.weight f4 [16]
0	0x3f801f20	1.0009499
1	0x3f801f21	1.00095
2	0x3f801f21	1.00095
3	0x3f801f21	1.00095
4	0x3f801f20	1.0009499
5	0x3f7fbb30	0.99895
6	0x3f7fbb30	0.99895
7	0x3f801f21	1.00095
8	0x3f801f21	1.00095
9	0x3f801f21	1.00095
10	0x3f801f21	1.00095
11	0x3f7fbb30	0.99895
12	0x3f801f21	1.00095
13	0x3f7fbb31	0.99895006
14	0x3f801f21	1.00095
15	0x3f7fbb30	0.99895

layers.3.batch_norm.bias f4 [16]
0	0xba830c58	-0.0009998186
1	0x3a8311f4	0.0009999857
2	0x3a83123f	0.0009999945
3	0x3a8311d2	0.0009999818
4	0x3a830ec5	0.0009998908
5	0xba831255	-0.000999997
6	0xba8311ed	-0.0009999849
7	0x3a831234	0.0009999932
8	0x3a831239	0.0009999938
9	0xba831140	-0.0009999648
10	0x3a831231	0.0009999928
11	0xba83123e	-0.0009999943
12	0x3a83121d	0.0009999905
13	0x3a831242	0.0009999948
14	0x3a8310ab	0.0009999474
15	0xba83116b	-0.0009999698

layers.3.batch_norm.running_mean f4 [16]
0	0xbcf1eb05	-0.029531011
1	0x3c1d6ac8	0.009607978
2	0x3d19d51c	0.037556753
3	0x3c5f9ae1	0.013647766
4	0xbd243253	-0.040087055
5	0xbca105e8	-0.019656137
6	0xbd9cdc4f	-0.07659208
7	0x3c086b3b	0.008326347
8	0x3d4074d4	0.046986416
9	0x3bce44f0	0.006294839
10	0x3d8dbe16	0.06921022
11	0xbc9fa167	-0.019486142
12	0xbd4feb31	-0.050761405
13	0x3c2ae744	0.010431115
14	0xbc80786e	-0.015682425
15	0xbb8dd727	-0.0043286267

layers.3.batch_norm.running_var f4 [16]
0	0x3f54daa3	0.83146113
1	0x3f56dc4d	0.839299
2	0x3f59bbb6	0.8505205
3	0x3f506286	0.81400335
4	0x3f60d1d7	0.8782019
5	0x3f577227	0.8415856
6	0x3f562e0d	0.8366402
7	0x3f563012	0.836671
8	0x3f522ff5	0.82104427
9	0x3f53d67b	0.82749146
10	0x3f51473d	0.81749326
11	0x3f513da7	0.817347
12	0x3f50c65c	0.8155267
13	0x3f5240d5	0.82130176
14	0x3f502bbd	0.8131674
15	0x3f5683ca	0.83794844

conv1.weight f4 [1, 16, 1, 1]
0	0xbcb013b0	-0.021493763
1	0xbe37b078	-0.17938411
2	0x3e0139d1	0.12619711
3	0x3d2170ff	0.039414402
4	0x3be7c50d	0.007073051
5	0xbe412d4b	-0.18864934
6	0xbe797d01	-0.24364091
7	0xbe2935ca	-0.16524425
8	0xbe43bff5	-0.19116195
9	0xbe4f4125	-0.20239694
10	0xbe369bb0	-0.17832828
11	0xbdc5abbb	-0.096518956
12	0xbe197f2f	-0.14989923
13	0x3e3c9385	0.18415649
14	0xbce076e1	-0.027400436
15	0xbc882cd0	-0.01662293
