networks/target_model-is_best-valid-loss.pth (torch, 21386 bytes, 30 tensors)

layers.0.conv1.weight f4 [2, 1, 1, 1]
000000 f0 c5 bd 3e dc 0c 7f 3f
       0.37065077 0.99628997

layers.0.conv1.bias f4 [2]
000000 00 00 00 00 00 00 00 00
       0.0 0.0

layers.0.conv2.bias f4 [2]
000000 00 00 00 00 00 00 00 00
       0.0 0.0

layers.0.conv2.weight_g f4 [2, 1, 1, 1]
000000 1c fd 2a 3f 1d d5 23 3f
       0.66792464 0.6399706

layers.0.conv2.weight_v f4 [2, 1, 3, 3]
000000 8c d0 e7 bd 75 4a 9e 3e 64 ec b2 3d 02 ac 49 3e
       -0.11319074 0.3091618 0.08736494 0.19694522
000010 34 5b 9a bd 62 33 77 3e 15 66 97 3e 08 c6 82 be
       -0.07536927 0.24140695 0.2957007 -0.2554171
000020 cb e9 8b 3e 6b 95 61 be b8 ff 6a be aa 9f 8e be
       0.27326807 -0.22029655 -0.22949111 -0.2785619
000030 60 43 c5 3d 26 24 80 be 4b 7d 00 be 5b 95 2b be
       0.096319914 -0.2502758 -0.12547795 -0.16756193
000040 00 74 b6 3d cc 8d a7 be
       0.08908844 -0.3272537

layers.0.conv3.bias f4 [2]
000000 00 00 00 00 00 00 00 00
       0.0 0.0

layers.0.conv3.weight_g f4 [2, 1, 1, 1]
000000 a2 09 09 3f 21 e1 24 3f
       0.53530324 0.6440602

layers.0.conv3.weight_v f4 [2, 2, 3, 3]
000000 88 65 ad 3c e0 01 da bd c2 f0 ac 3d d6 3c 1f be
       0.021166578 -0.10644889 0.084443584 -0.15550551
000010 91 67 4c be 50 40 09 bd 8b 7d 02 be fd 22 18 3e
       -0.19961382 -0.0335086 -0.12743203 0.14857097
000020 36 f9 24 be e8 19 a2 bc b2 7f c8 3d 1a 5e 53 be
       -0.16110691 -0.019787744 0.09789981 -0.20641366
000030 45 d7 3a 3e ce 55 db bd 02 5b 83 bd 88 a4 13 be
       0.18246181 -0.10709725 -0.06413843 -0.14418232
000040 08 e1 b3 bd 92 21 ba bd a7 c7 56 be ce f2 a4 3d
       -0.08783156 -0.09088434 -0.20974599 0.08054124
000050 00 f0 45 ba db 1a 6c 3e db d6 22 3e 6d f7 51 3e
       -0.00075507164 0.2305712 0.15902273 0.20504542
000060 52 07 8e 3d 12 a6 fd 3d 49 01 62 3e 57 2a 46 3e
       0.0693499 0.12385191 0.22070803 0.19352089
000070 c8 75 39 be 8c 7a 58 bd 4b c8 68 be d0 17 12 3c
       -0.18111336 -0.052851245 -0.22732656 0.00891681
000080 ba 7d aa bd c5 7a 51 3e fc a3 18 3d 00 02 2a 3b
       -0.08324762 0.20456989 0.037265763 0.0025941133

layers.1.conv1.weight f4 [4, 2, 1, 1]
000000 60 f9 e3 3d f9 e3 b3 be 64 44 a6 be 46 f2 fd 3e
       0.11131549 -0.35134867 -0.32474053 0.49598902
000010 ce bc bc be 29 25 a1 be ef fc 0a 3f b4 72 8d 3e
       -0.36862797 -0.31473663 0.54292196 0.27626574

layers.1.conv1.bias f4 [4]
000000 00 00 00 00 00 00 00 00 00 00 00 00 00 00 00 00
       0.0 0.0 0.0 0.0

layers.1.conv2.bias f4 [4]
000000 00 00 00 00 00 00 00 00 00 00 00 00 00 00 00 00
       0.0 0.0 0.0 0.0

layers.1.conv2.weight_g f4 [4, 1, 1, 1]
000000 c6 4e 1a 3f 27 0b 02 3f 59 e0 0c 3f ee ed 0a 3f
       0.6027645 0.5079827 0.5502983 0.542693

layers.1.conv2.weight_v f4 [4, 2, 3, 3]
000000 bc 59 34 3d bc 92 5c 3d 60 67 16 bc 55 6a 67 3e
       0.04403089 0.053850874 -0.00917992 0.22599156
000010 56 88 1f be 43 d8 02 3e c5 36 00 be 0a a1 4e be
       -0.15579352 0.1277781 -0.12520893 -0.20178619
000020 9f 7d 24 3e 18 92 e7 bd a0 81 35 3c da dc fd 3d
       0.16063546 -0.11307162 0.011078268 0.1239564
000030 dc 73 49 be ca 99 4e be c2 58 a4 3d 7f 72 52 3e
       -0.19673103 -0.20175853 0.08024742 0.2055149
000040 28 51 cc bc 67 f8 29 3e a2 a0 a9 3d 8a b8 89 3d
       -0.024941042 0.16598664 0.082825914 0.06724651
000050 40 e2 19 be b7 b4 65 3e c2 1a dd 3d 74 47 15 3d
       -0.15027714 0.22432218 0.10796119 0.036445096
000060 dd b6 2a 3e e1 61 4f be 3c 09 50 3d b3 3a e3 bd
       0.1667132 -0.20252182 0.050790057 -0.1109518
000070 58 13 c4 bc 8a 27 9e 3d 5e cb d5 3d 34 7a 5d 3d
       -0.023935005 0.07722385 0.1043918 0.05407162
000080 f4 cc 3a be e6 0c 17 be 40 db 86 3b 88 34 27 bd
       -0.18242246 -0.14751014 0.004115492 -0.040821582
000090 62 05 4a be 63 c7 6d 3e 18 df f2 3c 6e 7f 2b be
       -0.19728616 0.23220591 0.029647395 -0.1674783
0000a0 a6 b6 d3 3d 9a bd d1 3d 14 ce ec bd 66 0e f2 3d
       0.10337572 0.10241242 -0.11562744 0.118191525
0000b0 be b9 15 be b6 40 a7 3d ab 44 65 3e 21 54 1f 3e
       -0.14621636 0.081666395 0.22389476 0.15559436
0000c0 0a 50 ee 3d 54 6b 44 bd f4 3e 35 3d be 73 a8 3d
       0.1163636 -0.04795392 0.04424949 0.08225201
0000d0 04 ce 6b 3d 00 97 43 bd 64 b4 06 3d 12 84 c3 bd
       0.05756952 -0.047751427 0.032886878 -0.09546675
0000e0 b0 6e 08 be 26 bc 5e be 3f c8 44 be 3a 81 17 be
       -0.13323474 -0.2175146 -0.19217013 -0.1479539
0000f0 7b b6 66 3e cc 32 41 3d a2 56 5a be 26 c0 f6 bd
       0.22530548 0.047167584 -0.2132211 -0.12048368
000100 8c 81 61 3d 08 7b 90 bd 6c a3 88 bd 94 44 b5 bd
       0.055055186 -0.07054716 -0.06671795 -0.08850971
000110 4c cc 6b bd 58 1a de 3c 80 af 64 3c a1 11 1b 3e
       -0.05756788 0.027112171 0.013957858 0.15143444

layers.1.conv3.bias f4 [4]
000000 00 00 00 00 00 00 00 00 00 00 00 00 00 00 00 00
       0.0 0.0 0.0 0.0

layers.1.conv3.weight_g f4 [4, 1, 1, 1]
000000 1b b2 09 3f cc b7 1d 3f 31 8c 0b 3f 36 ef 0f 3f
       0.5378739 0.61608577 0.5451079 0.5622438

layers.1.conv3.weight_v f4 [4, 4, 3, 3]
000000 00 17 15 3a 2b 09 e2 bd 98 a5 8b 3d 60 ba a4 bc
       0.0005687326 -0.11036905 0.06818694 -0.020108402
000010 60 a4 5a bd 77 b1 10 be 80 7e a4 3d 1e 86 be 3d
       -0.053379416 -0.14130197 0.080319405 0.093029246
000020 cd af 1b 3e 30 d9 71 bd d4 b1 4d 3d e0 dc cd 3b
       0.15203781 -0.059045017 0.05021842 0.006282434
000030 4e 6b d9 bd 56 62 d5 bd aa ca ae 3d 26 09 c4 bd
       -0.1061617 -0.10419147 0.08534749 -0.095720574
000040 a6 8d f8 3d fc 7e 6e 3d f0 22 69 3d 36 cb e0 3d
       0.12136392 0.05822657 0.056918085 0.109762594
000050 d2 0d a7 3d 0a 36 93 3d 16 19 b1 3d be d9 90 bd
       0.08156933 0.071880415 0.08647363 -0.07072781
000060 b3 00 b5 bd 88 21 fa bc 5a 7f bd 3d da df ee 3d
       -0.08838024 -0.030533567 0.09252806 0.1166379
000070 aa 5c fb 3d 90 56 57 bd 68 3d ad bc 40 6f ea bd
       0.12273534 -0.052572787 -0.021147445 -0.114470005
000080 02 77 d2 3d eb 58 e2 bd 6b 74 8c bd 3f ee 0c 3e
       0.10276605 -0.11052116 -0.068581425 0.13762759
000090 94 e5 25 3d 96 e4 8e bd 20 d8 e5 bd e0 b9 ea bd
       0.040502146 -0.06977193 -0.11222863 -0.11461234
0000a0 7d bb 09 3e 76 fd 1b be 63 7a 13 3e 05 87 08 3e
       0.13450427 -0.15233406 0.14402156 0.13332756
0000b0 c0 32 29 3c 50 e0 5a bc 31 bb 04 3e 22 85 96 3d
       0.010327041 -0.013359144 0.12962033 0.07349612
0000c0 05 5e 21 3e dd dd 09 3e 26 d5 df bd ba a4 d2 3d
       0.15758522 0.1346354 -0.10929327 0.10285325
0000d0 02 25 ac 3d d3 59 f2 bd ca ee a3 3d eb 4a b1 bd
       0.08405496 -0.11833539 0.0800453 -0.086568676
0000e0 1b 5d cb bd 00 c6 4b 3b 28 c6 a7 bc 76 8e 37 bd
       -0.09929868 0.003109336 -0.02048023 -0.044813596
0000f0 56 d9 df bd ea b8 ba 3d a7 2a 2a 3e 3c 44 17 bd
       -0.109301254 0.09117301 0.16617833 -0.036930308
000100 46 fb e5 bd 00 ce 0c bc e6 46 14 be 43 97 0a be
       -0.11229567 -0.008594036 -0.1448017 -0.13534264
000110 56 69 63 bd 1e 76 d6 3d 0a c0 02 be 68 e2 d9 bc
       -0.055520378 0.10471748 -0.1276857 -0.026597217
000120 86 3e b1 bd e6 25 1d be f4 ac 19 bd 70 10 1f bc
       -0.086545035 -0.15346488 -0.037518457 -0.009708509
000130 80 91 e5 bc 96 8f f9 3d aa b9 88 3d 2a 83 d4 3d
       -0.028023481 0.1218559 0.066760376 0.1037658
000140 52 b2 85 3d 58 3f 8f 3c 06 43 b9 3d e3 c0 d9 bd
       0.065281525 0.01748626 0.09045987 -0.10632493
000150 ba eb ad 3d ee 94 a2 3d 3b dd 90 bd a0 6f bb bb
       0.08492227 0.07938562 -0.07073446 -0.005720094
000160 f7 1a 01 be 6f 57 15 be 00 10 41 b9 60 78 f4 3c
       -0.12607943 -0.14584135 -0.00018411875 0.029842556
000170 50 41 13 bd f0 e8 52 3d 4b c1 03 be fb 9f bb bd
       -0.03595096 0.051491678 -0.12866704 -0.09161373
000180 36 96 eb 3d 8a 16 26 be f8 62 d6 3c 3f 64 03 3e
       0.1150326 -0.16219535 0.026170239 0.1283121
000190 ae e4 ff 3d c4 de 68 3d dc 75 1b be d8 c4 af 3c
       0.12494789 0.05685307 -0.15181679 0.021456167
0001a0 c0 10 70 bd 7c e7 3f bd 75 c3 02 3e c6 ff 67 bd
       -0.058609724 -0.04685162 0.12769873 -0.05664041
0001b0 f6 73 f4 bd 2a 00 09 be 2a 83 d7 3d 00 c3 03 3c
       -0.1193618 -0.13378969 0.105230644 0.008042097
0001c0 bd 8f 28 3e 90 9b 0b 3d 27 0c 1f be a0 e5 28 3d
       0.16461082 0.034083903 -0.1553198 0.041234612
0001d0 e3 2a 1c 3e 7e b4 d3 3d 74 dc 4c 3d fa 38 00 be
       0.15250735 0.103371605 0.050014928 -0.12521735
0001e0 de ac cc bd 2e c5 e7 3d 38 3c e4 bd 34 bd 1b 3d
       -0.09993909 0.11316906 -0.11144298 0.038022235
0001f0 40 ee ae bc 94 bf 64 3d 50 ac 32 3c e3 fd 01 be
       -0.02135384 0.055846766 0.01090534 -0.12694506
000200 e6 0e 88 bd 9d da 14 3e a0 b8 a0 3c 26 13 ad 3d
       -0.06643467 0.1453652 0.019619286 0.08450918
000210 20 34 ac bd 4f 1b 07 3e 60 22 12 bd 2c 1a 66 bd
       -0.084083796 0.13194011 -0.035677314 -0.056177303
000220 64 7b 0a 3d cc 9b 74 bd 26 2a 89 bd 68 5f c3 bc
       0.03380908 -0.059718892 -0.06697492 -0.023849204
000230 10 e5 1b bc 76 22 c2 bd 40 58 69 3d 3a 68 25 be
       -0.009515062 -0.09479229 0.056968927 -0.1615304

layers.2.conv1.weight f4 [8, 4, 1, 1]
000000 7a 78 ea be bc 6f 70 3e e8 c2 d1 3e 66 dc da 3e
       -0.4579504 0.23480123 0.40969014 0.42746276
000010 d0 9e 36 3d 68 38 2a 3e 38 4d f5 3e 70 d7 98 3d
       0.04458505 0.1662308 0.47910476 0.074629664
000020 94 2d 77 be bc 0d f3 be 1c da 5f 3e 3c 72 47 3e
       -0.2413848 -0.47471416 0.21860546 0.1947717
000030 d2 80 e3 3e ba 54 82 be 74 ea 5b 3e bc 65 29 be
       0.4443422 -0.25455266 0.21476156 -0.16542715
000040 f8 7f fe bd 60 5f 95 3e 68 ab ea be 06 b5 bc 3e
       -0.12426752 0.29174328 -0.45833898 0.3685686
000050 64 21 6e 3e 50 25 98 be ba a2 82 3e d8 c8 00 be
       0.23254925 -0.29715967 0.25514776 -0.12576616
000060 60 50 38 3d 88 0a 09 be 2a a7 fa be 70 1b 54 bd
       0.044998527 -0.13382924 -0.4895566 -0.05178398
000070 98 d0 79 3e 40 47 6e bd 88 1d 7c be c0 c8 81 3c
       0.24395978 -0.058173418 -0.2462064 0.015842795

layers.2.conv1.bias f4 [8]
000000 00 00 00 00 00 00 00 00 00 00 00 00 00 00 00 00
       0.0 0.0 0.0 0.0
000010 00 00 00 00 00 00 00 00 00 00 00 00 00 00 00 00
       0.0 0.0 0.0 0.0

layers.2.conv2.bias f4 [8]
000000 00 00 00 00 00 00 00 00 00 00 00 00 00 00 00 00
       0.0 0.0 0.0 0.0
000010 00 00 00 00 00 00 00 00 00 00 00 00 00 00 00 00
       0.0 0.0 0.0 0.0

layers.2.conv2.weight_g f4 [8, 1, 1, 1]
000000 81 57 0a 3f 00 fa 0f 3f 77 38 1b 3f 79 a6 24 3f
       0.5403977 0.56240845 0.60633034 0.6431652
000010 0a 14 10 3f 66 d3 0a 3f 1d 74 08 3f 84 b7 06 3f
       0.5628058 0.5422882 0.53302175 0.5262377

layers.2.conv2.weight_v f4 [8, 4, 3, 3]
000000 64 6c 74 3d b2 64 c4 3d c8 d6 94 bd 36 85 62 bd
       0.05967368 0.095895186 -0.07267529 -0.05530282
000010 8e 68 e2 3d 02 64 f4 3d 90 c3 21 3d 62 e3 03 be
       0.110550985 0.119331375 0.039493144 -0.12879708
000020 76 bc c1 3d 1f 0e 0d be 26 9b aa 3d c0 cf a1 3c
       0.09459774 -0.13774918 0.083303735 0.019752383
000030 ec 82 5c 3d 63 5b 26 be 3c 02 70 bd 8e f6 90 3d
       0.053835794 -0.16245799 -0.05859588 0.070782766
000040 1b 5c 03 3e e6 70 43 bd 25 31 18 3e d4 57 18 bd
       0.12828104 -0.04771509 0.14862497 -0.037193134
000050 be df cd bd eb cf 93 bd d0 eb 29 3c 48 aa f2 bc
       -0.10052441 -0.072173916 0.0103711635 -0.029622212
000060 e8 34 a5 3d be e6 bc bd d6 32 42 bd 06 22 29 be
       0.08066732 -0.09223698 -0.047411762 -0.16516885
000070 37 4e 0b 3e dc 73 00 bd e2 89 06 be 10 c4 03 bc
       0.13604055 -0.031360492 -0.13138536 -0.00804235
000080 00 80 9f b9 84 98 3d 3d 40 dc 95 bc 62 b8 d6 3d
       -0.0003042221 0.04628803 -0.0182935 0.10484387
000090 46 89 6b bd 50 54 4c bd dc 1c 22 bd c0 c0 f3 3c
       -0.05750396 -0.049885094 -0.039578304 0.029754996
0000a0 d9 bd 08 3e 80 4b fb bb dd 50 03 3e 0d 11 06 3e
       0.13353671 -0.0076689124 0.12823816 0.13092442
0000b0 16 b7 b1 bd 90 9e 6a bc 26 21 a1 bd 5e fc 8d 3d
       -0.08677499 -0.014320031 -0.07867651 0.06932901
0000c0 26 01 70 bd 54 3f 50 3d 80 24 23 3c d3 12 e0 bd
       -0.058594845 0.050841644 0.009957433 -0.109410904
0000d0 f6 79 e5 bd c3 b1 26 be 80 ef be bd b4 b4 3e 3d
       -0.11204903 -0.16278748 -0.09323025 0.04655905
0000e0 40 5e 26 3c d7 5b 00 3e d6 11 16 be 00 97 9f bb
       0.010154307 0.12535034 -0.14655241 -0.0048702955
0000f0 3b 07 19 be 00 c0 7f 3a 70 b8 78 3d 6c 18 19 be
       -0.14944164 0.0009756088 0.06072277 -0.14950722
000100 85 b9 16 3e b6 07 54 bd 83 37 17 3e 38 2c e5 bc
       0.14719208 -0.051765166 0.1476727 -0.027975187
000110 ba a4 c1 3d 29 26 1b 3e 76 8a 78 bd 7c f2 25 bd
       0.09455247 0.15151276 -0.06067892 -0.040514454
000120 16 0a b3 3d ef 1c 12 be 76 0b ca 3d 60 65 d6 bd
       0.08742158 -0.1426885 0.09865467 -0.104685545
000130 4b 82 1e 3e b3 b2 df bd 6b 76 8c bd ae b2 fe 3d
       0.1547939 -0.10922756 -0.06858524 0.12436424
000140 ae 9c 94 bd 83 49 12 3e 12 d8 ea 3d c5 fd 1b 3e
       -0.07256447 0.14285855 0.114669934 0.15233524
000150 94 6c 25 be 80 d6 f4 3a d0 89 60 bd 1c 9d 22 3d
       -0.161547 0.0018679649 -0.05481893 0.039700612
000160 b0 dc 00 be 10 f7 8b 3d b0 5c 01 bc 2b 58 a1 bd
       -0.12584186 0.06834233 -0.007895634 -0.07878145
000170 48 88 19 be 66 8a b2 3d 86 0f 77 bd 9e dc fb 3d
       -0.14993393 0.08717804 -0.06031754 0.12297939
000180 88 0c f3 3c 60 a0 4f 3d 88 12 cf bc a0 21 bd bc
       0.029669061 0.050690055 -0.025277391 -0.023087323
000190 90 e8 67 bd ca c7 13 be 52 98 d6 3d 9b f3 d6 bd
       -0.056618273 -0.14431682 0.104782715 -0.10495683
0001a0 22 f1 c6 3d 66 40 66 bd b2 d5 d5 3d df 43 12 3e
       0.09713961 -0.05621376 0.1044115 0.14283703
0001b0 f6 c2 d0 bd 81 ec 0c 3e 20 1b 85 3b a8 60 02 be
       -0.10193436 0.13762094 0.0040620714 -0.12732184
0001c0 16 56 8b 3d be 46 c1 3d d5 71 16 3e 08 76 22 be
       0.06803529 0.09437321 0.14691861 -0.15865338
0001d0 07 1b 1a 3e 35 62 01 3e 33 e5 27 3e 5e 07 ba 3d
       0.15049373 0.1263512 0.16396026 0.090834364
0001e0 36 ed a5 bd 41 78 01 3e a5 f9 1b 3e fe 83 82 bd
       -0.08101885 0.1264353 0.1523195 -0.06372832
0001f0 88 2d df bc 5b 8d 05 3e 39 62 09 3e f2 7a e1 3d
       -0.02724339 0.13042204 0.13416375 0.11009778
000200 d5 c0 02 3e 20 69 af bd 60 8a eb bc 9e 5d 88 bd
       0.12768872 -0.08564973 -0.028752506 -0.06658481
000210 6a 67 b1 3d 04 21 2a 3d fe d4 03 be 78 80 ab bc
       0.08662303 0.041535392 -0.12874219 -0.020935282
000220 c7 2b 0b be 06 9e 20 be a1 95 1b 3e a6 b2 ab bd
       -0.13590918 -0.15685281 0.15193798 -0.08383684
000230 e2 58 98 3d e4 03 18 bd 50 3d 0a bd 00 c0 e1 b8
       0.07438828 -0.037113085 -0.03374988 -0.00010764599
000240 8f 1b 05 3e f8 df bc bc 87 38 0d 3e 82 b7 c7 3d
       0.12998794 -0.023056015 0.13791095 0.09751798
000250 5a 28 ea 3d d4 c8 1a be 1b 9b 9f bd da 0b 0b be
       0.11433478 -0.15115672 -0.07793256 -0.1357874
000260 9c fd 10 bd 30 65 0d bd 70 b8 0a 3d 8f e9 18 3e
       -0.03539811 -0.034520328 0.0338673 0.14932846
000270 ee 39 99 3d f8 84 ed bd a0 10 d6 bd 11 df 00 3e
       0.07481752 -0.115976274 -0.1045239 0.12585093
000280 28 e9 87 3c 4c db 40 3d 86 87 b2 bd 58 80 a6 bc
       0.01659067 0.047084138 -0.08717255 -0.020324871
000290 cc 5b 42 3d d8 fd df bd 6e c6 de 3d f8 19 aa 3d
       0.047450826 -0.10937089 0.10877691 0.083057344
0002a0 5e 0e c7 bd 6b f9 8b bd e0 7e 20 bd 48 7b d4 3c
       -0.09719537 -0.06834682 -0.039183497 0.025937691
0002b0 70 6a 7a bd 6b 43 23 3e 42 63 24 be e3 eb c0 bd
       -0.061136663 0.15943687 -0.16053489 -0.09419992
0002c0 98 2e cf bd 64 94 38 3d 18 c0 c1 3c b0 87 42 bd
       -0.10116309 0.04506339 0.023651168 -0.047492683
0002d0 27 a8 11 3e 1b 54 13 be 20 9b 70 3d b8 d1 bb bd
       0.14224301 -0.14387552 0.05874169 -0.0917086
0002e0 f4 72 1b bd 22 5a 24 be c8 ce fe bd 50 cd 10 be
       -0.037951425 -0.16050008 -0.12441784 -0.1414082
0002f0 32 ea 94 3d 43 2c 80 bd 3e 8d b2 3d 38 fc b8 bd
       0.07271232 -0.06258442 0.08718346 -0.09032482
000300 00 24 29 bd 00 45 a5 3c 7d 01 0f 3e ec fc 37 bd
       -0.041294098 0.020174503 0.13965411 -0.04491894
000310 de e0 c5 3d 1c 54 3c 3d 8e 99 cf 3d 82 9f d7 3d
       0.09662031 0.04597865 0.1013671 0.105284706
000320 be 84 8a 3d 36 db 4d bd 06 9a 3f bd aa e1 84 3d
       0.067636 -0.050257884 -0.046777748 0.064883545
000330 8a 0a ba 3d c0 be 11 bc 1e 1a ab 3d 48 5a cd bd
       0.090840414 -0.008895576 0.08354591 -0.100269854
000340 32 65 c0 3d f8 8b a7 bc 60 e5 ea bd 33 d9 a5 bd
       0.093943015 -0.020452484 -0.11469531 -0.08098068
000350 7c 56 02 be ac b4 09 3d 70 6e ca bd a6 7d 43 bd
       -0.12728304 0.033619568 -0.098843455 -0.04772725
000360 00 17 2b bc a8 44 d0 bd 00 3c 8c 3b 28 47 ad bc
       -0.010442495 -0.10169345 0.0042796135 -0.021152094
000370 b0 3a 58 3d f2 94 f6 3d 6b 0d ce bd 6a 9f ba 3d
       0.052790344 0.12040128 -0.10061153 0.09112437
000380 c0 6a 67 bb 3b 17 c3 bd a6 cc 9a bd bc c3 2d 3d
       -0.003531143 -0.09525915 -0.07558565 0.042422995
000390 f0 23 0e 3d 00 67 b0 bb 68 ee a9 bd 0a 22 ac 3d
       0.03470224 -0.0053833723 -0.082974255 0.0840493
0003a0 60 93 ca 3c 0e e9 25 be 78 4a f1 bc 4c 37 39 bd
       0.024728477 -0.16202185 -0.029454455 -0.04521875
0003b0 73 a6 91 bd 3b 56 bd bd 98 74 0a be 1d 17 28 3e
       -0.07111826 -0.09244963 -0.1352104 0.16415067
0003c0 b2 e3 1b be db a5 1e 3e 67 29 06 be 7c a0 25 bd
       -0.15223578 0.15492956 -0.13101731 -0.040436253
0003d0 38 d5 8b bd db b2 b6 bd 54 b6 72 3d c2 d5 c5 3d
       -0.068277776 -0.08920833 0.059255913 0.09659912
0003e0 f3 38 e0 bd d3 f9 9e bd ca 39 ae 3d 40 09 a5 bc
       -0.10948362 -0.07762494 0.08507116 -0.020146012
0003f0 44 43 26 3d 92 77 b2 3d d0 55 7c bd 5e 6e bd bd
       0.040591493 0.087142125 -0.061605275 -0.092495665

layers.2.conv3.bias f4 [8]
000000 00 00 00 00 00 00 00 00 00 00 00 00 00 00 00 00
       0.0 0.0 0.0 0.0
000010 00 00 00 00 00 00 00 00 00 00 00 00 00 00 00 00
       0.0 0.0 0.0 0.0

layers.2.conv3.weight_g f4 [8, 1, 1, 1]
000000 97 0b 12 3f 9a b0 19 3f cd 82 20 3f 43 b1 0c 3f
       0.57048935 0.600351 0.62699586 0.5495798
000010 84 19 13 3f 47 41 21 3f ce 38 0f 3f 10 d7 0d 3f
       0.5746081 0.6299023 0.5594605 0.55406284

layers.2.conv3.weight_v f4 [8, 8, 3, 3]
000000 cb 02 70 bd d0 3f da bb a4 f8 8f 3c c8 7c c6 bd
       -0.058596414 -0.006660439 0.017574616 -0.09691769
000010 62 ca 9e bd b0 ef 38 bc d4 31 8b bc 4c 3d d0 3c
       -0.07753445 -0.011287615 -0.016991533 0.025419854
000020 18 5a 75 3c 34 0d c6 3c 18 01 00 3c d8 ed 5d 3c
       0.014975093 0.024176218 0.007812761 0.013545476
000030 30 e5 de bb e6 5a 2d 3d 0b ba a4 3d 92 e6 70 bd
       -0.0068022236 0.042323016 0.080432974 -0.05881364
000040 a2 12 7a bd 52 df 53 3d f0 88 ae bd 63 d9 9c 3d
       -0.061052926 0.051726647 -0.085222125 0.07658651
000050 6a 01 5f 3d 0c a2 8b 3c 54 91 51 bd e0 97 67 3b
       0.054444708 0.017045043 -0.051163986 0.0035338327
000060 dc d4 be bd 79 25 d9 bd eb 49 e3 3d 39 7b d8 bd
       -0.093179435 -0.106028505 0.11098083 -0.10570378
000070 c9 44 c8 bd b6 82 3b bd 90 dd d8 3b 2c 1e dd 3c
       -0.09778745 -0.045778953 0.006618209 0.026991926
000080 06 e0 6d bd a8 5e 3b bc 64 97 d7 bc 89 f3 c9 3d
       -0.058074974 -0.011436142 -0.026317306 0.09860904
000090 15 7d d1 3d ce 66 46 3d 00 6f 3e ba d7 00 b5 3d
       0.10228936 0.048437886 -0.0007264465 0.08838051
0000a0 9d de c2 bd 22 b0 49 3d b8 4a 8c bd 09 3a bc 3d
       -0.09515116 0.04924024 -0.06850189 0.09190757
0000b0 c7 5b d5 bd f2 5a 33 3d 05 71 c6 bd 6b de 8c 3d
       -0.10417896 0.043787904 -0.096895255 0.0687836
0000c0 9c 87 b0 3c 71 18 cf 3d 89 09 b6 bd 45 57 9b 3d
       0.021549039 0.10112084 -0.088885374 0.07585005
0000d0 02 13 a1 bd 36 48 82 bd ea 9a 37 3d 64 81 a2 bc
       -0.078649536 -0.063614294 0.044825472 -0.019837089
0000e0 9f 8f be bd 29 60 cd bd c8 a6 fa bc 72 a7 05 3d
       -0.09304737 -0.10028107 -0.030597106 0.03263039
0000f0 b9 ff d3 3d 59 82 b1 3d c0 27 fd 3a 58 0c 94 bd
       0.103515096 0.0866744 0.0019314215 -0.07228917
000100 48 2f d7 bd 6f a1 d7 3d 89 91 86 bd 30 cb a9 bc
       -0.10507065 0.10528838 -0.065707274 -0.02072677
000110 9b c1 c2 bd 80 d4 a6 bd 34 54 bb 3c 18 ad ee bc
       -0.095095836 -0.08146 0.0228673 -0.029135272
000120 98 1c 5d 3c 00 45 6c ba 10 c0 c4 3b c4 4b bf bc
       0.013495587 -0.00090129673 0.006004341 -0.023351558
000130 80 55 95 bb 76 d2 51 3d 3d 51 b0 3d fd 00 cc 3d
       -0.0045573115 0.0512261 0.08609245 0.09961126
000140 c9 ea c4 bd ed 05 cc bd d0 49 90 bc b8 4c 13 bc
       -0.09615094 -0.09962068 -0.017613322 -0.008990459
000150 15 37 85 3d 9f 34 e3 3d f4 eb f7 3c 6d 6d ab bd
       0.06504647 0.11094021 0.030263878 -0.08370481
000160 20 8e 5a bc fd 17 9c 3d ce 19 32 3d 45 b1 aa bd
       -0.013339549 0.07621763 0.04348164 -0.08334593
000170 00 67 e1 3b 49 0c e9 bd 0a 84 42 bd b1 ce a8 3d
       0.0068787336 -0.11379296 -0.047489204 0.08242548
000180 34 65 51 bd 5b 5d 93 3d d4 de c4 bd fb 62 d5 3d
       -0.051121905 0.071955405 -0.096128136 0.1041927
000190 5e 42 66 3d 31 67 9c 3d b2 d3 03 3d c8 cb 08 3c
       0.056215636 0.0763687 0.03218431 0.0083493665
0001a0 50 bb 6d bd 24 2e 85 bd fa be a5 bd 57 78 c7 3d
       -0.058039963 -0.06502941 -0.080930665 0.0973975
0001b0 aa 8a 27 bd 80 29 3c 3b 43 e7 e2 bd 46 8e 01 3d
       -0.040903725 0.002871126 -0.11079266 0.031629823
0001c0 54 8d 24 bd bf 0b c1 bd 78 f8 6e 3c ee 57 de bd
       -0.040173844 -0.094260685 0.014585607 -0.10856615
0001d0 80 3d 3e bc ab 1a c5 bd 8d 96 98 3d c4 ad bf bd
       -0.011611342 -0.09624227 0.0745059 -0.09359315
0001e0 2c ae 9d 3c 16 04 6f 3d 66 d9 c0 bd 4b 3f 9c 3d
       0.01924809 0.058353506 -0.094164655 0.0762926
0001f0 ef 90 c4 3d d0 f3 93 bd 78 af 21 3c 8a 61 12 3d
       0.095979564 -0.07224238 0.009868495 0.03573755
000200 13 e5 c7 3d 07 91 bc 3d 74 74 ca bd 4f b9 c4 bd
       0.09760489 0.09207349 -0.09885493 -0.09605657
000210 04 6a d5 bd 3e af 56 bd 64 e1 c2 bc 66 33 2d bd
       -0.104206115 -0.052413218 -0.023789115 -0.042285345
000220 79 09 9f 3d 8a 56 a6 bd 94 a2 c0 bd a7 ac bc bd
       0.07765479 -0.08121975 -0.09406009 -0.09212618
000230 c6 76 8e bd 19 67 ec 3d 58 d5 73 3c f8 08 a9 bc
       -0.06956248 0.11543102 0.014882408 -0.02063416
000240 84 dc 0d bd de dc b8 bd f8 c6 23 bd c6 4e 7e 3d
       -0.03463413 -0.09026502 -0.039984673 0.062086843
000250 7f 1f a3 3d 67 16 ae 3d 68 77 09 3c be 96 83 bd
       0.07964992 0.08500367 0.008390285 -0.06425236
000260 8c 7d 8e bd d3 90 ea 3d c7 d9 d9 bd d4 8f e4 3c
       -0.0695754 0.11453404 -0.10637241 0.027900614
000270 68 4e 36 bc 31 18 e0 3d db 60 8d 3d 00 e8 f3 bc
       -0.011127092 0.10942114 0.06903239 -0.029773712
000280 22 45 c8 bd b8 a3 7d 3c f6 d0 a8 bd a0 a4 4b bc
       -0.09778811 0.015480928 -0.08242981 -0.012429386
000290 f4 b9 f1 3c 8e b9 6b 3d fe 8d 02 bd ee ec a2 bd
       0.029507615 0.057550006 -0.031873696 -0.07955347
0002a0 e1 8e cd bd 61 9d e4 bd e8 31 72 3c 90 e6 92 bd
       -0.100370176 -0.1116283 0.014782406 -0.071728826
0002b0 20 0d 8c 3b 8a b0 64 bd b1 55 a3 bd 27 bf a2 3d
       0.0042740256 -0.055832423 -0.07975329 0.07946616
0002c0 e5 96 88 3d cb 77 a9 3d 73 86 e7 3d f9 a1 ae bd
       0.06669406 0.08274802 0.11304941 -0.085269876
0002d0 a3 7a 80 bd b6 b4 b5 bd 2f 11 a2 3d df 35 8e 3d
       -0.06273391 -0.088723585 0.07913434 0.06943869
0002e0 b9 a7 c3 3d f8 e1 a8 bd 48 70 81 bd a7 4b eb 3d
       0.09553475 -0.08246225 -0.06320244 0.11489039
0002f0 5f a8 bf bd 28 bf a0 bd 8a b6 31 3d 27 fc d2 bd
       -0.09358286 -0.0784896 0.043386973 -0.103020005
000300 3c 7b 08 bd 32 1c 4d 3d cd ba c5 3d 88 18 5b bc
       -0.03332065 0.050075717 0.0965477 -0.013372548
000310 a7 96 d5 bd 81 a1 88 3d bf 9e f0 3d 04 2e b3 bd
       -0.10429125 0.066714294 0.117490284 -0.08749011
000320 e0 9b aa bb f4 97 ae bd 38 7c 76 bd 8a 72 22 3d
       -0.00520657 -0.085250765 -0.060177058 0.039660014
000330 02 85 61 3d 22 9c 47 3d 15 55 e3 bd 28 0c ea bc
       0.055058487 0.048732884 -0.111002125 -0.02857025
000340 32 bb 4d 3d 08 3a 33 bc c6 3b 15 bd 7e 59 79 bd
       0.05022735 -0.010939129 -0.036433958 -0.060876362
000350 ef d9 e4 3d a6 32 c1 bd 75 1f be bd c3 e1 af 3d
       0.1117438 -0.094334885 -0.09283344 0.085879825
000360 42 9a 92 bd 45 d9 91 3d 1a 0c 85 bd 18 9a 82 bc
       -0.071583286 0.07121519 -0.06496449 -0.015942618
000370 a8 3b 69 bd 25 6a c7 3d 5f 53 a7 3d b0 8f b9 3b
       -0.05694166 0.09737042 0.08170199 0.005662881
000380 e0 30 39 3b ca 2c 36 bd f0 02 81 bd 80 96 36 bd
       0.0028257892 -0.044476308 -0.062993884 -0.04457712
000390 2a 11 1e 3d 88 a6 ad bc 49 d4 a3 3d bc 00 8b 3c
       0.038590588 -0.021197572 0.079994746 0.016968124
0003a0 80 84 aa 3a d0 fc 95 bd 06 bc 42 3d 49 42 df bd
       0.0013009459 -0.07323611 0.047542594 -0.10901315
0003b0 dc 90 e1 3c d2 33 2d 3d 14 b7 ae 3c b3 dc a9 3d
       0.027534895 0.042285748 0.021327533 0.08294048
0003c0 0c b6 e7 3c 24 51 05 bd 6a e4 a8 bd a9 01 e0 bd
       0.028285049 -0.032548085 -0.082466915 -0.10937817
0003d0 92 9e 73 3d 7f 61 83 3d 6f 1a b8 bd 8e 3c 01 3d
       0.059477396 0.0641508 -0.08989417 0.03155189
0003e0 68 81 31 bd 2b 49 cb 3d 98 62 26 bd bd c8 c7 3d
       -0.043336302 0.09926065 -0.04062137 0.09755085
0003f0 81 b7 aa 3d 7b 7e 85 3d 29 f2 a4 3d de 8c 16 3d
       0.08335782 0.06518265 0.08054001 0.036755435

conv1.weight f4 [8, 8, 1, 1]
000000 20 cc 66 3d e8 08 c2 3d ee f0 3b 3e b2 a8 d5 bd
       0.056347013 0.09474355 0.18353626 -0.10432567
000010 04 31 8e bd d2 f7 92 be ea 09 5c 3e 6e ae 71 3e
       -0.06942943 -0.28704697 0.21488157 0.23601696
000020 02 d4 29 3e 6a fe 37 3e ce d7 58 3e 31 a1 aa 3e
       0.16584781 0.17968145 0.21176073 0.33326104
000030 94 20 ed 3d a2 b0 02 3e 5c bf e3 3d 64 73 4c be
       0.115784794 0.12762693 0.11120483 -0.19965893
000040 5c ab b5 3d 98 28 da 3d 35 15 90 be 82 4b d6 bd
       0.08870575 0.10652274 -0.2814118 -0.10463621
000050 39 60 5f be f0 53 67 be 7e 98 7b 3e cb 67 8e 3e
       -0.2181405 -0.22590613 0.2456989 0.27813563
000060 f8 a1 47 bd 40 ef dd 3d 04 95 a9 bd 88 84 99 3d
       -0.04873845 0.10836649 -0.082803756 0.074959815
000070 60 6e 72 bd 76 56 3c be 96 52 18 be 09 cf b3 3e
       -0.059187293 -0.18392357 -0.14875254 0.35118893
000080 88 1b 74 3d a0 fb 45 be b8 63 24 3d 42 98 b4 be
       0.05959657 -0.19334269 0.04013416 -0.35272413
000090 00 64 4c 3b c9 f5 8a 3e 90 08 27 3d d0 84 ac 3d
       0.0031187534 0.27140644 0.04077965 0.084237695
0000a0 bd 83 aa be d8 30 88 bd 16 a2 55 3e 50 b9 84 be
       -0.33303633 -0.06649941 0.20862612 -0.25922632
0000b0 67 5d 29 be f2 aa 74 3e 84 f0 cf 3d 52 3e 29 3e
       -0.16539536 0.23893335 0.101532966 0.1652768
0000c0 ba cd a8 be 56 6b 66 3e 2c ee 9d bd 24 2d 98 3d
       -0.32969457 0.22501883 -0.07711443 0.07430485
0000d0 73 51 92 3e f6 d1 a6 be cc 2a cf 3d 49 a5 a3 be
       0.28577766 -0.32582062 0.10115585 -0.3196204
0000e0 fd 03 86 3e a8 9c d4 3d a8 22 21 3d 70 09 11 be
       0.26174918 0.10381442 0.03933969 -0.14163756
0000f0 58 80 08 3e f3 ea 3b be b0 69 8a 3d 5d 04 98 3e
       0.1333021 -0.18351345 0.067584395 0.2969083

conv1.bias f4 [8]
000000 9e df 87 be cc 98 ce bd 0c 1f a9 3d 48 5e 7b 3d
       -0.26537794 -0.100877374 0.08257875 0.06136921
000010 80 51 9f 3b 0b bc 9b 3e 50 29 bc bd fc c6 ba 3d
       0.0048620105 0.30416903 -0.09187567 0.091199845

lin_00.weight f4 [64, 8]
000000 02 de 3f 3e 84 64 8c bd 62 91 6c 3e 86 72 6c 3e
       0.18737033 -0.06855109 0.23102334 0.23090562
000010 36 37 21 3e d0 a6 b0 bd 31 3c 9d 3e ac 31 51 be
       0.15743718 -0.08625567 0.30709985 -0.20429105
000020 98 c9 df 3d 40 63 91 3d 6a 89 7f 3e 0d 60 94 be
       0.10927123 0.070990086 0.24954763 -0.2897953
000030 28 77 7c 3d 9e 7e 50 be 56 e4 3f 3e b8 a4 f8 3d
       0.061637074 -0.203608 0.18739447 0.121407926
000040 ee cf 8c be f0 53 b5 bc a0 8c ca 3d 96 39 1a 3e
       -0.27502388 -0.022134751 0.09890103 0.1506103
000050 a5 0a a1 3e ae 96 22 3e c0 16 8a 3d b2 1f 41 3e
       0.31453434 0.15877792 0.067426205 0.18859747
000060 e4 49 ab be 9e 61 71 3e 00 44 2a bd 96 e6 4c 3e
       -0.33454812 0.23572394 -0.041568756 0.20009837
000070 54 59 cf 3d e0 bc 98 bc be d7 7e 3e 96 0d 53 be
       0.1012446 -0.01864475 0.24886987 -0.20610651
000080 e0 30 cc 3d 7a b5 1e 3e d6 d7 00 be 96 27 03 3e
       0.0997026 0.15498915 -0.12582335 0.1280807
000090 35 0e b3 be b9 da 36 be 6a 06 30 3e 16 9a 3a 3e
       -0.34971777 -0.17856874 0.17189947 0.18222842
0000a0 3f 28 a6 be 80 94 fa 3d f0 2a 08 3d 79 b3 b0 3e
       -0.3245258 0.122353554 0.033244073 0.34511927
0000b0 42 90 b0 be b4 92 ac bd 49 09 4d be f0 4a 5c be
       -0.3448506 -0.08426419 -0.20023073 -0.21512961
0000c0 c8 85 6c bd d9 5e a6 be ed d1 8d 3e ed 16 00 be
       -0.05774477 -0.32494238 0.27699223 -0.12508745
0000d0 04 b6 fd 3d cb 08 55 be 00 e0 f9 3a 77 3d 80 be
       0.12388232 -0.20804136 0.001906395 -0.25046894
0000e0 01 b3 91 3e e1 aa 98 3e c7 83 8e 3e 14 7b fd bd
       0.28456882 0.2981787 0.27834913 -0.12376991
0000f0 02 54 61 3e fc 3d 97 be 36 1e 26 3e 40 c0 32 bd
       0.22004703 -0.29539478 0.16222462 -0.043640375
000100 88 01 96 be fc 46 91 be 54 65 a9 be 88 af 87 3d
       -0.29298043 -0.2837447 -0.3308512 0.06625277
000110 e6 f1 02 be e7 bd 26 be cb 54 ac 3e e4 9b dc bd
       -0.1278759 -0.1628338 0.33658442 -0.10771921
000120 b8 3a f4 3d e0 ef 7e bd 82 56 5a 3e 74 13 d8 3d
       0.11925262 -0.06224048 0.21322063 0.105505854
000130 b2 43 65 3e ec 11 bd 3d e0 b1 9e bd 85 fd 9f 3e
       0.22389105 0.09231934 -0.07748771 0.31248108
000140 40 7b ce bc 69 bb 58 be c4 53 e1 3d 58 ba 2f bd
       -0.025205255 -0.21165241 0.11002305 -0.04290232
000150 e6 3f 86 be 98 70 3d 3d 20 3d a8 bd dd 2c 10 be
       -0.26220626 0.046249956 -0.08214784 -0.14079614
000160 ed c9 2c be bb 11 1a be b2 9c 12 be 48 4b 0e 3d
       -0.16873904 -0.15045826 -0.14317587 0.034739763
000170 83 e0 ae 3e 1e 34 54 be f2 e5 28 be 05 b1 72 be
       0.34155664 -0.20723006 -0.16493967 -0.2370034
000180 00 ce 5b bc 50 12 cb 3c 3e 80 78 be 46 5e 25 3e
       -0.013415813 0.024789006 -0.2426767 0.16149244
000190 b0 59 a2 be 71 8b a7 3e 4c 43 88 3d e8 f3 11 bd
       -0.3170905 0.32723573 0.06653461 -0.035632998
0001a0 36 a2 01 be 2a 8e 22 3e bb 2f 84 3e 27 ce 6c be
       -0.12659535 0.15874544 0.25817665 -0.23125516
0001b0 dc 7e b5 bd 29 42 85 3e 74 b2 87 bd b5 4a 85 be
       -0.08862087 0.2602704 -0.06625834 -0.2603356
0001c0 98 b1 e8 bd 40 18 48 3c f0 2c 87 bd 88 1a 78 be
       -0.11361998 0.012212813 -0.06600368 -0.24228871
0001d0 7b d0 62 be 48 c8 c3 3d c2 68 78 3e 57 ad a4 3e
       -0.22149841 0.09559685 0.24258712 0.32163498
0001e0 18 af 23 bd a8 4b 0b 3e f5 c4 8f be 22 eb 40 3e
       -0.039961904 0.1360308 -0.28079954 0.18839696
0001f0 29 f9 ac 3e a6 87 3c 3e a0 24 0f be a9 96 93 3e
       0.33783844 0.18411121 -0.13978815 0.28825882
000200 7a 70 ab be 10 c6 2d bd a8 68 b3 bd 8b 8f b4 be
       -0.3348425 -0.042425215 -0.08760196 -0.35265765
000210 c8 88 4e be 5c e3 83 be 68 9c c2 3d 90 ea f0 bc
       -0.20169365 -0.257594 0.095024884 -0.029408723
000220 5a 46 26 3e 6c e2 a2 bd b7 51 95 3e a0 07 24 3d
       0.16237774 -0.07953343 0.29163906 0.040046334
000230 f3 0d 96 3e 15 ff 92 3e 86 83 99 be 77 22 73 be
       0.29307517 0.28710237 -0.29983157 -0.23743616
000240 ca 10 5a 3e a1 05 ab 3e b0 80 9a be 80 8f a9 3b
       0.21295467 0.33402732 -0.30176306 0.0051745772
000250 94 30 0b be 49 6c aa 3e 87 60 96 3e 11 bf 83 3e
       -0.1359275 0.3328574 0.2937052 0.2573171
000260 2e d4 42 3e a0 d6 07 bd 8d 08 a7 3e 81 6a 29 be
       0.19026253 -0.033163667 0.3262371 -0.16544534
000270 d0 25 8f 3c 60 84 be bd fe 0d 84 be b6 90 2b be
       0.017474085 -0.09302592 -0.25791925 -0.16754422
000280 48 8f af 3d b8 34 01 bd 30 d5 6f be 18 1b 38 bd
       0.085722506 -0.031544417 -0.23421168 -0.044947714
000290 e0 1a 7a 3d 04 4d 7d be ea a5 5a 3e 84 e6 99 be
       0.061060786 -0.2473641 0.21352354 -0.30058682
0002a0 80 ae 5d 3b f6 13 94 be 29 3c a3 be 60 e4 33 bd
       0.0033825934 -0.2892148 -0.31881836 -0.043918967
0002b0 e5 49 a4 3e 1b 20 ab 3e ac 1e 02 3e d1 4e 8c 3e
       0.32087627 0.33422932 0.12707013 0.27403882
0002c0 71 e8 45 be 42 d3 4b 3e 46 e7 5c 3e 0b 00 ad be
       -0.1932695 0.19904807 0.21572599 -0.33789095
0002d0 85 b8 8a be a2 68 1c 3e 78 d1 05 3d 86 0e 75 be
       -0.27093902 0.15274289 0.032670468 -0.23931322
0002e0 b2 d8 8e be f5 d3 82 3e c8 32 1e 3d 00 1e 4d ba
       -0.278997 0.25552335 0.038622648 -0.00078246
0002f0 7d fe ae be 39 d3 9e 3e 48 54 6f be e6 51 21 3e
       -0.34178534 0.31020525 -0.23371994 0.15753898
000300 90 21 2e bd c0 c1 3c 3c c6 c3 31 3e ec e2 c0 bd
       -0.042512476 0.011520803 0.17359838 -0.09418282
000310 10 23 cb bd 41 4e 90 3e 26 b6 8a be 3e 1c 21 3e
       -0.09918797 0.28184703 -0.27092093 0.1573343
000320 f8 dc ba bd e6 ef f1 bd da 5a 72 3e 18 7c 74 3d
       -0.09124178 -0.11813335 0.2366747 0.059688658
000330 1f 88 a8 be 57 c3 a1 3e 08 a5 33 be 15 7d 9c 3e
       -0.32916352 0.31594345 -0.17543423 0.3056418
000340 5a 3f e3 bd 3b 80 b0 3e a0 9a d5 3d 20 ea 8b bc
       -0.11096068 0.34472832 0.10429883 -0.017079413
000350 be 33 0a 3e 20 22 34 bc b6 90 33 be d6 09 46 3e
       0.134963 -0.010994464 -0.17535672 0.1933969
000360 4e d3 6a 3e 48 6c 35 bd 35 45 aa 3e c0 ee b7 3c
       0.22932169 -0.04429272 0.33255926 0.022452712
000370 3d 77 3f be ef 4a 45 be 16 97 73 3e 47 a8 12 be
       -0.1869783 -0.19266866 0.23788103 -0.14322005
000380 92 aa 64 3e 4d d7 af be e0 89 47 3c 27 26 7a be
       0.22330692 -0.3434395 0.012178868 -0.24428616
000390 6e 6c 00 3e 87 02 93 3e 6e 77 0e 3e 04 f5 f8 bd
       0.12541363 0.28712866 0.13912746 -0.12156108
0003a0 f1 d0 a9 be b3 88 2b be 57 89 55 be c7 db ac 3e
       -0.33167222 -0.16751365 -0.20853172 0.33761427
0003b0 a3 a7 42 be c6 fb 0b 3e ef 50 91 3e 7a 85 02 3e
       -0.19009261 0.13670263 0.2838206 0.1274623
0003c0 72 d8 9e be 20 81 24 bd a0 e7 d6 bd 12 44 69 3e
       -0.3102451 -0.040162206 -0.10493398 0.22779873
0003d0 b8 d7 07 bd b0 c3 98 bc 93 07 a1 3e 8c 4d ac 3d
       -0.03316471 -0.018647999 0.3145109 0.084132284
0003e0 1e d3 27 3e 50 16 e9 bd 8a c3 6c 3e 98 37 50 3d
       0.16389129 -0.11381209 0.23121467 0.05083427
0003f0 a8 72 91 bd 10 8a 8b 3d 09 7d 8e be a0 fe 54 3c
       -0.07101947 0.06813443 -0.2782977 0.01300016

lin_00.bias f4 [64]
000000 9d 76 83 3e b8 c4 96 3d 22 f4 7f 3e 2e 45 f5 bd
       0.25676432 0.0736174 0.24995473 -0.119760856
000010 ff 38 64 be b0 2a 77 be 96 8c 4b be 95 09 88 be
       -0.22287367 -0.24137378 -0.19877848 -0.2656981
000020 4e 6a 33 3e 18 9f c2 3d 24 a4 67 be f7 eb a5 3e
       0.17521021 0.09503001 -0.22621208 0.3240659
000030 e8 24 ce 3d 3c bc 06 3e ce 8b 18 be 32 a7 7a 3e
       0.10065633 0.13157743 -0.14897081 0.24477842
000040 c6 60 7f be 2b f3 83 3e a4 bc 44 be 56 c5 19 3e
       -0.2493926 0.2577146 -0.19212586 0.15016684
000050 f8 f8 02 be 92 34 6b 3e d2 d0 97 be 00 2e 8d bd
       -0.12790287 0.22969273 -0.29651505 -0.068935394
000060 b4 70 c3 bd 2f 7d 58 be ce d4 31 be 04 2e cb bd
       -0.09542981 -0.21141504 -0.17366335 -0.09920886
000070 68 28 16 3d 15 7d 80 3e a8 f8 6d bd 6d 6f b1 3e
       0.03665963 0.2509543 -0.058098465 0.34655324
000080 8c 48 2c be 05 62 3a be 40 14 97 bc 10 15 83 bd
       -0.1682455 -0.18201454 -0.018442273 -0.06400502
000090 98 fd e5 3d 65 42 a7 3e b8 ea f7 3d b1 78 97 be
       0.1123001 0.32667843 0.12105316 -0.29584268
0000a0 28 63 f7 bd 30 d9 8f bd e8 d5 a4 be 50 e0 df 3d
       -0.120794594 -0.07023847 -0.32194448 0.10931456
0000b0 47 03 9e 3e ce ce 33 3e 40 67 e5 bb 00 80 dc bc
       0.30861875 0.17559358 -0.0070008337 -0.026916504
0000c0 59 8a 29 be 70 e1 20 bd b9 c2 9e 3e d6 21 3a be
       -0.16556682 -0.039277494 0.31007937 -0.1817697
0000d0 18 af 67 3d 5a d1 84 be e8 01 c6 bd 40 b7 a7 3c
       0.056563467 -0.25940973 -0.09668332 0.020473123
0000e0 05 b0 88 be 28 bb c4 3d 13 72 9b be ed e4 13 be
       -0.26696792 0.0960601 -0.3036047 -0.14442797
0000f0 26 f1 7b 3e 51 ce a9 3e 00 72 e2 bc d0 61 81 be
       0.2460371 0.3316522 -0.02764225 -0.25269938

lin_01.weight f4 [10, 64]
000000 d8 31 d2 bd 70 a6 fb bc 8c a3 82 bd 4c 7f cb 3d
       -0.10263413 -0.030719012 -0.0637885 0.09936389
000010 94 7e b6 bd 50 18 9a 3d 30 b1 c2 3c d0 b9 1b bd
       -0.089108616 0.075241685 0.02376613 -0.038019
000020 7e ad d0 3d 14 76 8e 3d 60 42 8f bb dc 82 ad bd
       0.10189341 0.06956115 -0.004371926 -0.08472225
000030 d8 b1 16 bd 30 15 25 3d fc d0 dd 3d 4c c7 2c bd
       -0.0367907 0.04030341 0.10830876 -0.04218225
000040 50 c7 54 bd 00 20 fa bd 4e 59 9d 3d d6 dc f9 3d
       -0.05194789 -0.12213135 0.07683049 0.12200324
000050 24 40 b0 3d 6a a5 8e bd 8e 64 b7 3d e4 38 1b bd
       0.08605984 -0.06965144 0.08954726 -0.037896052
000060 78 d7 85 3d e8 af 95 3d 28 b7 d0 bd 58 68 fd 3c
       0.06535238 0.07308942 -0.10191184 0.030933544
000070 f0 66 4c 3d 22 e6 99 bd 40 af ec 3d 58 da c7 3d
       0.049902856 -0.075145975 0.11556864 0.09758443
000080 b2 f4 d5 3d 00 cd 93 ba 4a f8 88 bd 0e e6 8b bd
       0.104470626 -0.0011276305 -0.066879824 -0.06830989
000090 10 f7 34 3d c8 6f cb bc 30 79 cb 3d b4 66 d6 3d
       0.04418093 -0.024833575 0.09935224 0.10468808
0000a0 d0 0a 1e 3c 54 95 d1 bd 74 3a 4b 3d d8 17 e5 3d
       0.009646133 -0.1023356 0.049616292 0.111861885
0000b0 48 99 00 bd 54 fa 85 bd 80 8a ef bc 70 b5 92 3c
       -0.03139618 -0.06541887 -0.029240847 0.017908782
0000c0 5a f1 bd bd a2 b6 88 3d 44 da 5a 3d fc c0 43 bd
       -0.0927455 0.066754594 0.05343081 -0.047791466
0000d0 f4 aa 3d bd 8c f0 72 bd 40 1d c8 3d fc d4 97 3d
       -0.04630561 -0.059311435 0.09771204 0.074136704
0000e0 8c 86 11 3d e0 b5 b7 bb 20 cf ff 3c 24 fd f6 3d
       0.035528705 -0.005606398 0.031226695 0.120600015
0000f0 b8 1b 22 3d 94 59 7f bd 9c 0e 46 3d b4 2e 4b bd
       0.039577216 -0.062341288 0.048353776 -0.049605086
000100 00 72 91 bb 40 e2 a4 bd 40 ad 6f bb 20 af d5 3b
       -0.0044386387 -0.08050966 -0.003657177 0.0065211207
000110 1c 42 9b bd 1c 95 a4 3d 50 70 ec 3d b4 20 d6 bd
       -0.07580969 0.08036253 0.115448594 -0.104554564
000120 04 5c 14 3d 84 d8 b0 bd 20 87 cb bc a0 41 75 3d
       0.036220565 -0.08635047 -0.024844706 0.059877038
000130 c0 cd 0f bb 04 27 1b 3d 38 e3 25 bd 94 4e f4 3d
       -0.0021942705 0.037879005 -0.040499896 0.1192905
000140 d0 60 70 bd 48 a8 bf 3c d0 38 52 3c a2 61 ae 3d
       -0.058686078 0.023395672 0.012830928 0.08514716
000150 20 23 51 3c ea 58 9a 3d 20 eb 03 3d f0 3a a3 3d
       0.012764722 0.0753649 0.032206655 0.07970226
000160 00 13 cf 3a 6c d8 2a 3d 04 86 fc 3d b4 ce 26 bd
       0.0015798509 0.041710302 0.12330249 -0.04072447
000170 ec 58 50 bd 34 d5 b9 3d d0 c9 43 3d fe a3 f1 bd
       -0.050866053 0.090738684 0.047799885 -0.11798857
000180 70 19 36 3d b6 12 fb bd fc fc 8a bd 3c 5e 48 3d
       0.044457853 -0.12259428 -0.06786534 0.048917994
000190 ba da 86 3d c8 36 e7 bc 02 b2 d8 3d a0 68 fe 3d
       0.065846875 -0.028224364 0.10580827 0.124222994
0001a0 50 9f c7 3d 06 20 eb bd d4 3b 3a bd 40 34 f9 3b
       0.09747183 -0.11480717 -0.045467213 0.0076051056
0001b0 d4 11 d0 3d 00 c6 ab bc b0 e9 d5 3c 58 be 86 3d
       0.101596504 -0.020968437 0.026112407 0.06579274
0001c0 64 f0 85 bd 4e 08 9b bd c8 2a fd 3d 00 cb 36 bb
       -0.065399915 -0.07569943 0.123616755 -0.0027891994
0001d0 7a 24 b5 3d a0 9f f9 bd 08 6e 43 bd bc a1 b3 3d
       0.08844848 -0.12188649 -0.047712356 0.08771083
0001e0 80 46 46 bc 58 74 2c 3d d2 74 d6 bd f0 2b f9 3d
       -0.012101769 0.04210314 -0.104715005 0.121665835
0001f0 6c 8b 7f bd a0 1c cf bb d8 ad a7 bd 2c 29 63 bd
       -0.062388822 -0.006320551 -0.08187455 -0.055459186
000200 2c 77 db bd de 12 e0 bd e8 32 d1 bc 78 d6 61 bd
       -0.107160896 -0.10941099 -0.02553697 -0.055136174
000210 58 1b bd 3d 00 8a 1e ba 90 10 c7 3d 60 82 ab bc
       0.09233731 -0.0006047785 0.09719956 -0.020936191
000220 28 3f d9 3c f2 dc f5 3d c6 17 c6 bd 14 cd 5d bd
       0.026519373 0.120050326 -0.09672503 -0.054150656
000230 d6 da da 3d f8 c4 ea bc 84 e3 09 bd 20 5c 24 3c
       0.10686271 -0.028658375 -0.03366424 0.01003173
000240 7c 6e 89 bd b0 49 13 3c 54 cd 54 bd 38 6d 22 3d
       -0.06710526 0.008989736 -0.05195363 0.03965494
000250 c0 5e d9 bc 08 cf 2b bd a8 df 40 bd 9c 05 05 3d
       -0.026534438 -0.041945487 -0.047088295 0.032476053
000260 94 78 80 3d a2 0b ea bd c2 8a b2 bd 0e b0 f5 bd
       0.062729985 -0.11428 -0.08717872 -0.119964704
000270 e8 ff 6e 3d 70 fe bf 3d 16 f7 f5 bd 8c 19 05 3d
       0.05834952 0.09374702 -0.120100185 0.032495067
000280 d8 ab cf 3c c0 60 89 bd b8 3c dd 3c 4c 65 c5 3d
       0.025350496 -0.06707907 0.027006492 0.096384615
000290 42 1a fb 3d dc 66 5d 3d 28 0b cb bc b8 a8 91 bd
       0.12260868 0.054053172 -0.024785593 -0.07112259
0002a0 e8 ff 42 bd 80 61 86 3a c0 65 16 bc 6e cc ba 3d
       -0.047607332 0.0010252446 -0.0091795325 0.09121023
0002b0 80 59 e7 bd 00 cc 36 3c 48 d7 22 bd 30 c9 2a 3c
       -0.11296368 0.011157036 -0.03975609 0.010423943
0002c0 24 2e f6 3d 00 a7 6f 3b b8 99 b1 bc 14 89 2d bd
       0.120205194 0.0036568046 -0.021679744 -0.042367056
0002d0 de 78 ff bd 4a f0 e7 bd 88 16 5f 3d ac 54 9c bd
       -0.124742255 -0.113251284 0.054464847 -0.076333374
0002e0 dc 57 91 3d 88 28 11 bd 68 b7 38 3d fa e0 ba 3d
       0.07096836 -0.035439044 0.045096785 0.09124942
0002f0 50 cc 95 3c c0 cc 2f 3d e0 56 d8 3d 6c e3 20 bd
       0.0182859 0.042919874 0.10563445 -0.039279386
000300 7e 44 bc 3d 78 4d d7 bd 0e 6b ea 3d 7c f1 27 bd
       0.09192751 -0.10512823 0.114462 -0.04100178
000310 20 2a 9a bb e6 9c 8f 3d 70 5b 16 3c 96 d9 df 3d
       -0.0047047287 0.07012348 0.009177074 0.10930173
000320 6c 08 61 bd 80 19 8d bd 3c 88 e4 3d fa 84 9a bd
       -0.054939672 -0.06889629 0.11158797 -0.075448945
000330 e0 2c b0 3d d8 8e f6 3d 62 4b ad 3d f0 92 41 bd
       0.08602309 0.12038964 0.08461644 -0.04725927
000340 80 31 f2 ba 12 b5 e6 bd 52 65 8b bd 30 f2 d3 bc
       -0.0018477887 -0.11265005 -0.06806435 -0.02587232
000350 7c 23 a9 bd 94 b0 93 3d 58 24 86 3d f4 83 12 bd
       -0.08258721 0.07211414 0.06549901 -0.03577037
000360 38 0b a1 bc 34 49 f7 3d 60 4a fc bb ea 6f d9 3d
       -0.01965867 0.12074509 -0.007699296 0.10617049
000370 d4 22 ed 3d 04 99 33 bd 4c 80 f4 bd d2 c9 ee 3d
       0.115789086 -0.0438471 -0.11938533 0.11659588
000380 9c a3 89 bd 62 ce f4 3d f6 6d a3 bd d0 b9 b9 3c
       -0.06720659 0.11953427 -0.07979958 0.02267161
000390 f0 61 17 3d 90 e3 f1 bc e8 a1 c7 3d c6 1b e8 bd
       0.036958635 -0.029527456 0.09747678 -0.11333422
0003a0 5c c1 54 bd e0 30 a1 bc f2 10 c4 3d f0 21 6d 3d
       -0.051942214 -0.019676626 0.095735446 0.057893693
0003b0 48 ac a4 3d a4 62 5c 3d f6 40 e6 3d e0 04 ff bc
       0.080406725 0.05380501 0.11242859 -0.031130254
0003c0 78 0f 1e bd 50 9d 8c bc 14 6a 49 3d f4 24 16 bd
       -0.03858897 -0.017164856 0.04917343 -0.036656335
0003d0 44 0c 3c 3d ec 5f 0c 3d 40 c6 f0 3c e0 92 d0 3d
       0.045910135 0.034271166 0.029391408 0.10184264
0003e0 e0 18 a3 3c 98 e0 a9 3d 18 bf 0e bd a4 0c e6 bd
       0.019909322 0.08294791 -0.03485021 -0.1123288
0003f0 fa 74 9c 3d cc 57 54 3d 20 0f d7 3d b0 a1 43 3d
       0.07639499 0.051841542 0.10500932 0.04776162

lin_01.bias f4 [10]
000000 c0 79 38 3c c0 18 86 bd 8a a1 c0 bd b4 cf f2 3d
       0.011259496 -0.065476894 -0.09405811 0.118560225
000010 50 a2 be bd 12 0b a0 bd 94 48 f7 bd ee 18 c4 bd
       -0.093083024 -0.078146115 -0.1207439 -0.095750675
000020 70 c5 e8 3c 58 c0 75 3d
       0.028414458 0.059997886
