nets/gan-not-best-step-1.pth (torch, 36351 bytes, 41 tensors)

layers.0.conv1.weight f4 [2, 1, 1, 1]
0.85735166 -0.5815816
00000000: 667b 5b3f 88e2 14bf

layers.0.conv1.bias f4 [2]
0.0 0.0
00000000: 0000 0000 0000 0000

layers.0.conv2.weight f4 [2, 1, 3, 3]
0.01112774 0.15579128 -0.013793975 -0.27558395 -0.19771788 0.13530695 -0.2644955 0.30686358
0.20176104 -0.17643413 0.021890014 -0.25058326 0.27975634 0.3302584 -0.2924509 0.24023846
0.13106397 0.08198014
00000000: 2051 363c c087 1f3e 2000 62bc 5719 8dbe
00000010: 8e76 4abe e88d 0a3e f46b 87be 391d 9d3e
00000020: 729a 4e3e 26ab 34be b052 b33c 734c 80be
00000030: 393c 8f3e a117 a93e 20bc 95be 1201 763e
00000040: a235 063e 34e5 a73d

layers.0.conv2.bias f4 [2]
0.0 0.0
00000000: 0000 0000 0000 0000

layers.0.conv3.weight f4 [2, 2, 3, 3]
0.033987626 -0.20292592 -0.1567702 0.17712973 -0.029132798 -0.1494806 0.2050723 -0.21242096
-0.026543468 -0.17334206 -0.13536581 -0.06336649 -0.22809821 0.026058063 0.1343955 -0.0022497475
0.010731593 0.16022755 0.21475683 -0.06248641 -0.11446441 0.19014077 0.19669457 -0.0016017258
-0.12734288 0.10550837 -0.090407684 0.18034296 0.09526409 0.1800241 -0.15718782 0.14351086
-0.03632392 -0.08681686 0.018948272 -0.21109775
00000000: 9c36 0b3d d0cb 4fbe 5e88 20be 7f61 353e
00000010: e8a7 eebc 7111 19be 79fe 513e e184 59be
00000020: b071 d9bc 9580 31be 569d 0abe 4ac6 81bd
00000030: 9492 69be b877 d53c f99e 093e 8070 13bb
00000040: 90d3 2f3c b112 243e 37e9 5b3e c0f1 7fbd
00000050: 516c eabd 43b4 423e 4d6a 493e 00f1 d1ba
00000060: 2c66 02be c614 d83d aa27 b9bd d3ab 383e
00000070: d219 c33d 3d58 383e d8f5 20be 83f4 123e
00000080: 64c8 14bd 0acd b1bd 6839 9b3c 022a 58be

layers.0.conv3.bias f4 [2]
0.0 0.0
00000000: 0000 0000 0000 0000

layers.0.batch_norm.weight f4 [2]
1.0 1.0
00000000: 0000 803f 0000 803f

layers.0.batch_norm.bias f4 [2]
0.0 0.0
00000000: 0000 0000 0000 0000

layers.0.batch_norm.running_mean f4 [2]
0.0 0.0
00000000: 0000 0000 0000 0000

layers.0.batch_norm.running_var f4 [2]
1.0 1.0
00000000: 0000 803f 0000 803f

layers.1.conv1.weight f4 [4, 2, 1, 1]
-0.26157346 -0.6359603 -0.6955002 0.23157537 0.13177884 0.32871586 -0.67509437 0.3389706
00000000: f5ec 85be 4bce 22bf 4d0c 32bf 1822 6d3e
00000010: 08f1 063e 724d a83e fcd2 2cbf 8e8d ad3e

layers.1.conv1.bias f4 [4]
0.0 0.0 0.0 0.0
00000000: 0000 0000 0000 0000 0000 0000 0000 0000

layers.1.conv2.weight f4 [4, 2, 3, 3]
0.18423717 -0.20456912 0.20764501 -0.16430393 0.15632965 -0.1371132 -0.119952485 -0.22133991
-0.21215384 0.03387265 0.051046893 -0.034678265 -0.040110394 -0.016688809 0.20414172 0.012133688
0.068593726 0.18690066 -0.1365099 -0.14242092 0.122302845 0.18156458 -0.15134922 0.12797211
0.065662965 -0.10360946 0.0792772 -0.14197363 -0.0931222 -0.04638657 0.23137663 0.105634764
0.11659558 0.22499497 0.16516562 -0.08542748 0.010124907 -0.0769677 -0.05907142 -0.03319432
0.07671912 -0.171003 -0.007007554 -0.21935277 -0.01914464 -0.08113055 0.22549774 -0.019459337
0.11117859 0.16126852 0.08831985 0.04945843 -0.13058482 0.039346173 0.013589412 -0.03124708
0.12824838 0.09132789 0.2135802 -0.07960959 0.2055261 0.18061851 -0.14879611 0.04290168
-0.17832576 0.20476191 0.2003947 0.088590816 0.14945336 0.06597261 0.109008 -0.1183207
00000000: aba8 3c3e 917a 51be e5a0 543e 4a3f 28be
00000010: e114 203e 6767 0cbe a6a9 f5bd eea6 62be
00000020: db3e 59be 0cbe 0a3d 8c16 513d cc0a 0ebd
00000030: cc4a 24bd f8b6 88bc 870a 513e 60cc 463c
00000040: de7a 8c3d e362 3f3e 40c9 0bbe cad6 11be
00000050: ea79 fa3d 11ec 393e 4afb 1abe 1f0b 033e
00000060: 4e7a 863d 3231 d4bd 165c a23d 8961 11be
00000070: dab6 bebd d8ff 3dbd ffed 6c3e 0a57 d83d
00000080: aac9 ee3d 1565 663e 2d21 293e 9af4 aebd
00000090: f0e2 253c 3ea1 9dbd e0f4 71bd c4f6 07bd
000000a0: ea1e 9d3d 691b 2fbe a09f e5bb 039e 60be
000000b0: 38d5 9cbc c627 a6bd e1e8 663e 3069 9fbc
000000c0: 9ab1 e33d 9323 253e 0ae1 b43d ec94 4a3d
000000d0: 07b8 05be 7429 213d 20a6 5e3c e0f9 ffbc
000000e0: 8b53 033e 1e0a bb3d c5b4 5a3e 5a0a a3bd
000000f0: 6f75 523e 0ff4 383e 025e 18be acb9 2f3d
00000100: 079b 36be 1bad 513e 4534 4d3e 1a6f b53d
00000110: 4d0a 193e a61c 873d 963f df3d 2052 f2bd

layers.1.conv2.bias f4 [4]
0.0 0.0 0.0 0.0
00000000: 0000 0000 0000 0000 0000 0000 0000 0000

layers.1.conv3.weight f4 [4, 4, 3, 3]
0.15445311 0.10642357 0.14128168 -0.10432371 0.08775909 0.021818459 -0.032777146 0.15186165
0.12742342 0.11380838 -0.009762779 -0.060172245 0.11340819 0.10370441 0.15807171 0.07595463
0.030287698 0.11611609 0.133204 -0.022106841 0.037275985 0.014260724 -0.07171824 0.05724132
-0.051498078 0.102206156 -0.03366393 -0.09701105 0.14150335 -0.043738805 0.04016669 0.15503035
0.14910851 0.033075556 0.038463905 -0.017238185 -0.1031224 0.02460055 -0.13284606 0.1177703
0.05208403 0.07439314 0.03559135 -0.14902899 -0.07008694 0.11348511 0.046405658 -0.12148955
-0.016903713 0.08966769 -0.08054751 -0.031552613 0.0014879107 0.04884994 -0.046945892 -0.084087834
-0.02845186 -0.00939478 0.09293173 0.080684945 0.12019993 0.062296614 -0.037684694 -0.006752059
-0.1581848 -0.015293285 -0.02157776 -0.0080394 -0.11074716 0.05414939 -0.037139907 0.09768398
0.07736458 -0.07669729 -0.092185676 -0.012669012 0.02131635 0.065424636 0.14396836 -0.09671788
0.13083686 0.0001039654 0.044034794 0.092610195 -0.1622781 0.09346934 -0.16320112 -0.16265629
-0.03764595 0.12568708 -0.12738596 -0.1520369 -0.12529579 -0.02066727 0.07423031 -0.044214472
-0.12590376 -0.0037949234 0.03870201 0.1445293 -0.06632751 -0.06411134 0.13377346 -0.16308133
0.08062573 0.14563186 0.1392489 0.0035280436 -0.00038708746 -0.0793463 0.058066055 -0.060611174
-0.120154366 -0.028002486 0.080258116 -0.12084615 0.035126507 0.027480736 0.000455603 -0.05129212
-0.15068513 0.058422744 -0.1428272 0.055403247 -0.09602642 0.10593809 0.102671936 -0.02327244
0.15272386 -0.06499368 -0.14357617 -0.10303291 -0.02528961 0.016401991 -0.0015045255 -0.059982657
0.10317521 0.04767312 0.061114892 -0.12054531 0.057699546 -0.13144094 -0.060774826 -0.13953614
00000000: f528 1e3e 9af4 d93d 25ac 103e aba7 d5bd
00000010: 0abb b33d a0bc b23c 5441 06bd 9f81 1b3e
00000020: 497b 023e 5e14 e93d 10f4 1fbc 2c77 76bd
00000030: 8e42 e83d fa62 d43d 8ddd 213e 1a8e 9b3d
00000040: e81d f83c 46ce ed3d a166 083e 6819 b5bc
00000050: b4ae 183d d0a5 693c 03e1 92bd e075 6a3d
00000060: a6ef 52bd 7651 d13d 30e3 09bd bbad c6bd
00000070: 41e6 103e 7627 33bd d485 243d 47c0 1e3e
00000080: e7af 183e 3c7a 073d 548c 1d3d 1837 8dbc
00000090: d631 d3bd 1887 c93c cc08 08be 8e31 f13d
000000a0: 1056 553d 6e5b 983d 3cc8 113d 0e9b 18be
000000b0: be89 8fbd e26a e83d dc13 3e3d 83cf f8bd
000000c0: a879 8abc b2a3 b73d 18f6 a4bd 503d 01bd
000000d0: 0006 c33a e016 483d 564a 40bd 3e36 acbd
000000e0: e013 e9bc 90ec 19bc fe52 be3d 263e a53d
000000f0: 622b f63d bc2a 7f3d 445b 1abd 6040 ddbb
00000100: 32fb 21be b090 7abc d8c3 b0bc b0b7 03bc
00000110: 68cf e2bd c0cb 5d3d 0420 18bd 8a0e c83d
00000120: 5271 9e3d 7813 9dbd d8cb bcbd b091 4fbc
00000130: a09f ae3c 5afd 853d 716c 133e 0614 c6bd
00000140: 19fa 053e 0008 da38 d45d 343d 6aaa bd3d
00000150: 3b2c 26be da6c bf3d 321e 27be 5f8f 26be
00000160: a432 1abd 1db4 003e 7771 02be 90af 1bbe
00000170: 8a4d 00be 684e a9bc 1006 983d 3c1a 35bd
00000180: eaec 00be 40b4 78bb 0086 1e3d 7dff 133e
00000190: b8d6 87bd ce4c 83bd e9fb 083e cbfe 26be
000001a0: 1a1f a53d 8520 153e 4397 0e3e c036 673b
000001b0: 00f2 cab9 5080 a2bd acd6 6d3d 6c43 78bd
000001c0: 7e13 f6bd 7865 e5bc 5e5e a43d 307e f7bd
000001d0: d0e0 0f3d 481f e13c 00de ee39 b017 52bd
000001e0: 344d 1abe b04c 6f3d 4b41 12be 84ee 623d
000001f0: 80a9 c4bd 12f6 d83d aa45 d23d d8a5 bebc
00000200: a563 1c3e 681b 85bd a205 13be eb02 d3bd
00000210: 282c cfbc 785d 863c 8033 c5ba 60b0 75bd
00000220: 864d d33d e444 433d 9c53 7a3d 76e0 f6bd
00000230: 5c56 6c3d 7498 06be 06ef 78bd 90e2 0ebe

layers.1.conv3.bias f4 [4]
0.0 0.0 0.0 0.0
00000000: 0000 0000 0000 0000 0000 0000 0000 0000

layers.1.batch_norm.weight f4 [4]
1.0 1.0 1.0 1.0
00000000: 0000 803f 0000 803f 0000 803f 0000 803f

layers.1.batch_norm.bias f4 [4]
0.0 0.0 0.0 0.0
00000000: 0000 0000 0000 0000 0000 0000 0000 0000

layers.1.batch_norm.running_mean f4 [4]
0.0 0.0 0.0 0.0
00000000: 0000 0000 0000 0000 0000 0000 0000 0000

layers.1.batch_norm.running_var f4 [4]
1.0 1.0 1.0 1.0
00000000: 0000 803f 0000 803f 0000 803f 0000 803f

layers.2.conv1.weight f4 [8, 4, 1, 1]
0.4824692 0.31696558 -0.08001846 0.34592175 -0.27351117 -0.44605213 0.21638012 -0.46622527
-0.056647778 0.24646169 -0.31260955 0.28917354 0.069049954 -0.16721815 0.19024497 0.05785626
0.03875166 0.47306663 -0.009118617 -0.3451767 0.06192249 -0.35675955 0.4431947 -0.3378461
0.04478866 -0.48777133 0.4905495 0.017451525 0.3049506 0.38680118 -0.41520107 -0.05027747
00000000: 3406 f73e 5049 a23e b8e0 a3bd a81c b13e
00000010: a809 8cbe f260 e4be c092 5d3e 14b5 eebe
00000020: 8007 68bd 7460 7c3e 5c0e a0be 8e0e 943e
00000030: 106a 8d3d 3c3b 2bbe 94cf 423e b0fa 6c3d
00000040: 10ba 1e3d ca35 f23e 4066 15bc 00bb b0be
00000050: 70a2 7d3d 30a9 b6be 6aea e23e 2afa acbe
00000060: 5074 373d 2abd f9be 4e29 fb3e 80f6 8e3c
00000070: 7c22 9c3e ce0a c63e 3c95 d4be c0ef 4dbd

layers.2.conv1.bias f4 [8]
0.0 0.0 0.0 0.0 0.0 0.0 0.0 0.0
00000000: 0000 0000 0000 0000 0000 0000 0000 0000
00000010: 0000 0000 0000 0000 0000 0000 0000 0000

layers.2.conv2.weight f4 [8, 4, 3, 3]
-0.060019612 -0.16107796 0.047202706 0.14970283 -0.09699617 -0.05938576 -0.06684645 -0.088175654
0.15308751 -0.06332104 -0.12174424 0.0821107 -0.06224422 0.018848956 -0.057686567 -0.042360626
0.15767877 0.06648362 0.072784245 0.12734078 -0.08247831 -0.091304526 0.06755711 0.031465784
-0.031001851 -0.056212053 0.095681146 0.022190824 -0.097578585 -0.15597138 -0.039706394 0.094701245
-0.07251644 0.0006212443 -0.021679997 -0.066955134 -0.06282812 0.013005242 0.13004644 -0.066250846
-0.02917236 0.031026438 -0.0020816475 0.10848816 -0.05858644 -0.15067974 -0.07166766 0.05655746
-0.12373787 0.08735861 -0.14286326 0.047305033 -0.13730882 -0.09779841 -0.065534115 0.13450141
0.03517282 -0.055173397 -0.062068723 0.16601567 0.11902718 -0.1072858 0.09222062 0.08093159
-0.048264585 0.09366961 0.093236044 0.14018805 -0.028659478 -0.10242915 0.004152 0.0024371594
-0.10500189 0.12623863 -0.09547963 0.0031944364 0.03947705 -0.14661704 0.12008561 -0.033931732
0.04319264 -0.13643174 0.1403908 0.06638776 0.12878029 -0.16124819 -0.026158094 -0.07834755
0.034210935 -0.032786176 -0.032569274 -0.1548039 -0.009905994 -0.009843871 -0.16067581 0.06166838
0.13311176 0.018277094 0.02419962 -0.07641014 -0.099768266 0.09042831 -0.10865875 0.15124463
-0.11055784 -0.11877555 0.054488838 0.041729912 0.086876705 -0.050511464 -0.01579474 0.017095223
-0.029734507 0.060186073 0.04059674 -0.10554012 -0.07292467 -0.106142186 -0.037067235 -0.15774159
0.110561684 0.11914538 -0.07879089 0.15403287 -0.052802905 -0.04211746 0.01731439 -0.0256968
0.1477 0.0582505 -0.09433204 -0.10690147 0.045968637 -0.121247195 0.019883558 0.006496653
0.08575179 -0.12972844 -0.050657175 0.09445347 -0.04760264 -0.0844728 -0.04108928 0.0696948
0.10794507 0.017030254 0.0017562062 0.07078357 0.032074988 -0.0010335892 -0.031344905 -0.07607198
-0.13097864 -0.10166218 -0.0045011044 0.021511778 0.02298607 0.062026158 -0.01017867 0.16408662
-0.11330013 -0.09355079 0.048875883 0.0811227 0.14711143 0.10134922 -0.14796303 0.034977138
-0.033253953 0.103835836 0.00016529858 0.06295134 0.07144256 -0.026712999 0.13369663 0.0075625777
-0.14488646 0.07238744 -0.05273728 0.06056212 0.10119487 0.04048507 -0.06220486 0.088465735
-0.14470065 -0.03840357 -0.042745613 0.12706603 0.071156025 0.0889857 -0.087575 -0.16577113
-0.05982145 0.098710015 0.110430405 0.14118679 -0.09474518 -0.033502534 -0.004520178 0.075227395
0.12252171 0.0045599192 0.16036637 -0.05043626 0.14979143 0.028603777 0.045805693 -0.074183166
-0.10564723 0.041280434 -0.15464088 -0.0007957667 0.15272067 -0.057518862 0.11062084 0.07710774
-0.14184467 -0.06314498 -0.08294716 0.04686652 0.071589455 0.106920525 -0.14631253 -0.03953111
0.08889021 0.0512657 0.04771854 -0.1337024 0.0030766875 0.10897668 -0.14505999 0.103110686
-0.15953356 -0.07201062 -0.1284653 -0.14639072 0.11373015 0.030841053 0.05357623 0.060644567
-0.007097259 -0.08099455 -0.021247685 -0.13710785 0.12625612 -0.017207459 -0.02709876 -0.1490114
0.122600034 0.16050304 0.10016067 -0.09983128 0.061955094 0.16475584 0.12875022 -0.1564874
00000000: 20d7 75bd 9ff1 24be a057 413d b34b 193e
00000010: eea5 c6bd 7c3e 73bd cbe6 88bd 7095 b4bd
00000020: f9c2 1c3e 76ae 81bd 0b55 f9bd a829 a83d
00000030: ccf3 7ebd 2069 9a3c c048 6cbd 5682 2dbd
00000040: 8b76 213e 9028 883d e80f 953d 9f65 023e
00000050: 63ea a8bd defd babd 625b 8a3d 44e2 003d
00000060: 98f7 fdbc 9c3e 66bd 7af4 c33d 88c9 b53c
00000070: 48d7 c7bd f6b6 1fbe 2ca3 22bd baf2 c13d
00000080: 8083 94bd 00db 223a 409a b1bc c61f 89bd
00000090: 08ac 80bd f013 553c e52a 053e 86ae 87bd
000000a0: e0fa eebc 282b fe3c 406c 08bb 0a2f de3d
000000b0: 56f8 6fbd ca4b 1abe 7ec6 92bd cca8 673d
000000c0: 486a fdbd 12e9 b23d bf4a 12be ecc2 413d
000000d0: af9a 0cbe 884a c8bd c036 86bd bdba 093e
000000e0: 6011 103d 80fd 61bd c63b 7ebd 0300 2a3e
000000f0: 86c4 f33d a8b8 dbbd 2ade bc3d 76bf a53d
00000100: 16b1 45bd dad5 bf3d 8af2 be3d 758d 0f3e
00000110: 48c7 eabc 60c6 d1bd 800d 883b c0b8 1f3b
00000120: 3b0b d7bd b344 013e d38a c3bd c059 513b
00000130: b0b2 213d c722 16be 72ef f53d 00fc 0abd
00000140: c4ea 303d c3b4 0bbe 9bc2 0f3e 4ef6 873d
00000150: fbde 033e 3f1e 25be 8049 d6bc ae74 a0bd
00000160: c420 0c3d cc4a 06bd 5c67 05bd ea84 1ebe
00000170: c04c 22bc 3048 21bc 3388 24be fc97 7c3d
00000180: 734e 083e d8b9 953c 483e c63c eb7c 9cbd
00000190: 4e53 ccbd 7a32 b93d 7b88 debd dfdf 1a3e
000001a0: 266c e2bd 9840 f3bd b02f 5f3d fcec 2a3d
000001b0: 6aec b13d 1ce5 4ebd f863 81bc 480b 8c3c
000001c0: c895 f3bc ac85 763d c448 263d 6b25 d8bd
000001d0: 8859 95bd 1361 d9bd d0d3 17bd 0387 21be
000001e0: 2a6e e23d 7e02 f43d 1e5d a1bd cbba 1d3e
000001f0: dc47 58bd 5c83 2cbd e8d6 8d3c 1882 d2bc
00000200: ab3e 173e 1498 6e3d 2831 c1bd 28ef dabd
00000210: 9c49 3c3d 7350 f8bd d8e2 a23c e0e1 d43b
00000220: a29e af3d 88d7 04be e67d 4fbd d270 c13d
00000230: fcfa 42bd 1300 adbd 3c4d 28bd 26bc 8e3d
00000240: 4e12 dd3d 0883 8b3c 8030 e63a faf6 903d
00000250: 1061 033d 8079 87ba 8463 00bd a0cb 9bbd
00000260: 441f 06be 4334 d0bd 007e 93bb 7839 b03c
00000270: 484d bc3c 240f 7e3d 70c4 26bc 5306 283e
00000280: e609 e8bd 8e97 bfbd 1432 483d a823 a63d
00000290: 61a4 163e 2e90 cf3d 9f83 17be 3044 0f3d
000002a0: 4c35 08bd e2a7 d43d 0054 2d39 a2ec 803d
000002b0: 7a50 923d 38d5 dabc c5e7 083e 80cf f73b
000002c0: 1e5d 14be de3f 943d 0c03 58bd fc0f 783d
000002d0: 423f cf3d acd3 253d 86ca 7ebd 862d b53d
000002e0: 682c 14be 104d 1dbd 0616 2fbd 991d 023e
000002f0: 40ba 913d 223e b63d 865a b3bd e8bf 29be
00000300: 5607 75bd 7a28 ca3d 5629 e23d 4593 103e
00000310: c309 c2bd f439 09bd 001e 94bb d210 9a3d
00000320: aaec fa3d 606b 953b 1537 243e 4096 4ebd
00000330: ed62 193e 7852 ea3c c09e 3b3d 58ed 97bd
00000340: 935d d8bd ac15 293d 2e5a 1ebe 009b 50ba
00000350: cf62 1c3e e698 6bbd 2e8d e23d aaea 9d3d
00000360: bb3f 11be 2852 81bd 33e0 a9bd 1cf7 3f3d
00000370: 7e9d 923d 26f9 da3d f4d2 15be 60eb 21bd
00000380: 120c b63d fcfb 513d 8474 433d 48e9 08be
00000390: 40a2 493b 2a2f df3d 9b8a 14be b22b d33d
000003a0: c45c 23be 4e7a 93bd 688c 03be 73e7 15be
000003b0: 5aeb e83d 60a6 fc3c c072 5b3d 7066 783d
000003c0: 2090 e8bb 78e0 a5bd a00f aebc 0066 0cbe
000003d0: 4949 013e a8f6 8cbc 38fe ddbc 7296 18be
000003e0: ba15 fb3d e95a 243e 0a21 cd3d 5874 ccbd
000003f0: a0c4 7d3d c1b5 283e 19d7 033e 3c3e 20be

layers.2.conv2.bias f4 [8]
0.0 0.0 0.0 0.0 0.0 0.0 0.0 0.0
00000000: 0000 0000 0000 0000 0000 0000 0000 0000
00000010: 0000 0000 0000 0000 0000 0000 0000 0000

layers.2.conv3.weight f4 [8, 8, 3, 3]
0.02660618 -0.0035307407 0.046585985 0.054608576 0.0917101 0.11539396 0.047621824 -0.04278963
0.10045778 0.033909954 -0.06549755 0.035223357 0.09524315 0.10803866 0.004160948 -0.07303157
-0.043583736 -0.057635296 -0.06014972 -0.114815086 0.115454115 -0.10370274 -0.0060678124 0.0011898875
-0.098820984 0.08396896 -0.03485839 0.008821286 0.09877338 -0.04237964 -0.05009535 0.022451706
0.08618661 0.028951116 -0.11398989 -0.044280574 0.03167375 0.0041770637 0.06800831 0.026726075
-0.04615531 -0.019312024 -0.08234839 0.014186285 -0.017651834 -0.05485008 -0.09067931 0.04433071
-0.1010375 0.11232785 0.11733427 0.10318399 -0.034442842 -0.04486639 0.09001035 -7.330626e-05
-0.055982042 -0.1035893 -0.02176018 0.10042312 0.06877523 0.049496002 -0.04646843 0.0866183
0.051804043 0.025188021 0.05683195 -0.07376286 -0.034849644 0.036595963 0.009966202 -0.11454708
0.010570414 -0.088430636 -0.08999423 -0.105913445 -0.11167235 0.02266518 0.08833601 0.06275762
0.11663883 -0.009025201 0.06372858 0.08018764 -0.032236382 -0.1102244 -0.0542612 0.0012259111
0.097817935 -0.020576343 0.09338539 -0.07888831 0.0019226149 0.054038875 0.013960816 -0.06415014
-0.020614877 0.023323841 0.056332834 -0.05955 0.036606736 0.094640665 0.017906405 -0.044896424
0.09014327 0.09023098 0.072342254 -0.11741109 -0.11141879 0.058658652 0.005628139 -0.034769744
0.054876797 0.048022665 -0.10866607 0.018992387 -0.09568207 -0.075327486 0.001794979 0.109979816
-0.034931757 -0.092550516 0.10892034 0.0497038 0.09325623 0.013824321 -0.11109378 0.06867296
-0.009904958 0.11113877 0.048138224 -0.019744523 -0.079371706 0.0164629 0.045749523 0.06069576
0.018259473 0.0016891584 0.054440983 -0.037764184 -0.11607634 0.059738226 -0.0731016 0.06354473
0.10494981 -0.025668107 -0.11352761 -0.112852864 -0.015970469 -0.031349905 0.05532021 -0.048903927
-0.013764039 -0.11384909 -0.11562402 0.08146679 0.06712232 -0.020112209 -0.09571267 -0.008092985
-0.07144752 0.0075091794 0.043170087 -0.05179242 -0.046823405 0.08390612 0.08841749 -0.035696417
-0.10684046 -0.098625466 0.08762876 -0.10497631 0.005971648 -0.025487944 0.10307696 0.06405624
-0.030070975 -0.053571902 0.024752669 -0.10518465 -0.010397151 0.05183702 0.04178331 0.083402745
-0.08913474 0.022958644 0.088119365 -0.07980494 -0.0026476085 -0.036691822 -0.117651395 -0.004272118
0.06655612 -0.09033546 0.08877174 0.057729922 -0.03233783 0.016549475 0.043211617 0.00031074882
-0.072007805 0.108538665 0.012572385 -0.035505682 -0.082586005 0.0919578 0.04402978 0.020929284
0.008872353 0.04901614 -0.0221252 0.05033324 0.10276339 -0.028620198 0.085338734 0.043463193
0.008577831 0.07842516 0.05093213 0.08164454 -0.089960426 -0.047711425 -0.088365674 -0.08270947
0.081756465 -0.060040433 0.029279776 0.0029386878 -0.039559737 -0.060883496 0.09416475 -0.06758722
0.045123048 0.10568505 0.055833407 -0.079015225 -0.09072357 -0.0598186 -0.086269006 -0.01332242
-0.021731704 -0.07827334 0.025809906 -0.07623693 0.036152296 0.062378146 0.116662435 0.041428603
-0.021423101 0.10572184 -0.07019552 0.0012613833 -0.07126947 -0.075802326 0.098784395 0.032974325
00000000: 34f5 d93c 0064 67bb f2d0 3e3d 3ead 5f3d
00000010: 81d2 bb3d ab53 ec3d 1a0f 433d 2e44 2fbd
00000020: cfbc cd3d 2ae5 0a3d 9423 86bd 5e46 103d
00000030: d70e c33d 5f43 dd3d 9058 883b 9391 95bd
00000040: dc84 32bd fd12 6cbd 8e5f 76bd 2c24 ebbd
00000050: 3573 ec3d 1a62 d4bd 80d4 c6bb 00f6 9b3a
00000060: a862 cabd ebf7 ab3d acc7 0ebd 2887 103c
00000070: b349 ca3d 4696 2dbd c830 4dbd a4ec b73c
00000080: 9b82 b03d e42a ed3c 8873 e9bd 8c5f 35bd
00000090: 56bc 013d c0df 883b f147 8b3d a4f0 da3c
000000a0: 5a0d 3dbd 4034 9ebc 46a6 a8bd 986d 683c
000000b0: 949a 90bc 7aaa 60bd 13b6 b9bd 1e94 353d
000000c0: c0ec cebd 250c e63d f34c f03d 2152 d33d
000000d0: f013 0dbd d2c5 37bd 5957 b83d 00bc 99b8
000000e0: 6d4d 65bd a026 d4bd 6842 b2bc a3aa cd3d
000000f0: 07da 8c3d 52bc 4a3d ae55 3ebd ef64 b13d
00000100: 7a30 543d 1c57 ce3c 9ec8 683d fb10 97bd
00000110: 80be 0ebd a6e5 153d 4849 233c a997 eabd
00000120: 882f 2d3c 1f1b b5bd e54e b8bd 26e9 d8bd
00000130: 79b4 e4bd 54ac b93c 83e9 b43d 1187 803d
00000140: 57e0 ee3d 70de 13bc 2184 823d 6b39 a43d
00000150: 4c0a 04bd 55bd e1bd fe40 5ebd c0ae a03a
00000160: c554 c83d b88f a8bc d740 bf3d 3290 a1bd
00000170: 4000 fc3a de57 5d3d e8bb 643c 2661 83bd
00000180: 88e0 a8bc a411 bf3c 42bd 663d b3ea 73bd
00000190: f2f0 153d f7d2 c13d 74b0 923c 50e5 37bd
000001a0: 099d b83d 05cb b83d 2d28 943d 3a75 f0bd
000001b0: 892f e4bd 0e44 703d 406c b83b b86a 0ebd
000001c0: 7ec6 603d 6ab3 443d 518c debd ec95 9b3c
000001d0: f6f4 c3bd 4c45 9abd 8045 eb3a 193d e13d
000001e0: 9a14 0fbd 208b bdbd a111 df3d 3696 4b3d
000001f0: 1ffd be3d 687f 623c 2385 e3bd 69a4 8c3d
00000200: 6848 22bc b99c e33d 962c 453d 44bf a1bc
00000210: a28d a2bd 34dd 863c da63 3b3d 1e9c 783d
00000220: e494 953c c066 dd3a 82fd 5e3d 9eae 1abd
00000230: 6fb9 edbd 12b0 743d 4bb6 95bd bd23 823d
00000240: edef d63d ec45 d2bc 2a81 e8bd 671f e7bd
00000250: 80d4 82bc c268 00bd 7297 623d 7c4f 48bd
00000260: 9082 61bc b629 e9bd 49cc ecbd 0fd8 a63d
00000270: 6d77 893d 5cc2 a4bc 0105 c4bd 7098 04bc
00000280: 1453 92bd 900f f63b 1ed3 303d 4a24 54bd
00000290: e6c9 3fbd f9d6 ab3d 3b14 b53d 6836 12bd
000002a0: 2ccf dabd 26fc c9bd b576 b33d d2fd d6bd
000002b0: d0ad c33b 18cc d0bc 031a d33d eb2f 833d
000002c0: 6857 f6bc 366e 5bbd 1cc6 ca3c 0d6b d7bd
000002d0: d058 2abc 0e53 543d fa24 2b3d 0fcf aa3d
000002e0: 468c b6bd c413 bc3c ed77 b43d c670 a3bd
000002f0: 8083 2dbb 2a4a 16bd 37f3 f0bd 20fd 8bbb
00000300: 934e 883d cc01 b9bd f5cd b53d 3676 6c3d
00000310: ac74 04bd c492 873c aafe 303d 00ec a239
00000320: d478 93bd 8549 de3d 68fc 4d3c 686e 11bd
00000330: da22 a9bd 5f54 bc3d 9258 343d e473 ab3c
00000340: 585d 113c 26c5 483d e83f b5bc 3a2a 4e3d
00000350: 9d75 d23d e874 eabc 13c6 ae3d 7606 323d
00000360: 088a 0c3c 5f9d a03d 369e 503d 4135 a73d
00000370: 2c3d b8bd 0e6d 43bd 10f9 b4bd 9563 a9bd
00000380: ef6f a73d f5ec 75bd 24dc ef3c 0097 403b
00000390: 6409 22bd f960 79bd 73d9 c03d 2b6b 8abd
000003a0: f2d2 383d 6771 d83d 92b1 643d bcd2 a1bd
000003b0: 47cd b9bd 5904 75bd cead b0bd 4846 5abc
000003c0: b006 b2bc c64d a0bd 4c6f d33c 1c22 9cbd
000003d0: 6e14 143d 3a80 7f3d b7ec ee3d 0ab1 293d
000003e0: 807f afbc b184 d83d abc2 8fbd 0055 a53a
000003f0: baf5 91bd 403e 9bbd 794f ca3d 1610 073d

layers.2.conv3.bias f4 [8]
0.0 0.0 0.0 0.0 0.0 0.0 0.0 0.0
00000000: 0000 0000 0000 0000 0000 0000 0000 0000
00000010: 0000 0000 0000 0000 0000 0000 0000 0000

layers.2.batch_norm.weight f4 [8]
1.0 1.0 1.0 1.0 1.0 1.0 1.0 1.0
00000000: 0000 803f 0000 803f 0000 803f 0000 803f
00000010: 0000 803f 0000 803f 0000 803f 0000 803f

layers.2.batch_norm.bias f4 [8]
0.0 0.0 0.0 0.0 0.0 0.0 0.0 0.0
00000000: 0000 0000 0000 0000 0000 0000 0000 0000
00000010: 0000 0000 0000 0000 0000 0000 0000 0000

layers.2.batch_norm.running_mean f4 [8]
0.0 0.0 0.0 0.0 0.0 0.0 0.0 0.0
00000000: 0000 0000 0000 0000 0000 0000 0000 0000
00000010: 0000 0000 0000 0000 0000 0000 0000 0000

layers.2.batch_norm.running_var f4 [8]
1.0 1.0 1.0 1.0 1.0 1.0 1.0 1.0
00000000: 0000 803f 0000 803f 0000 803f 0000 803f
00000010: 0000 803f 0000 803f 0000 803f 0000 803f

layers.3.conv1.weight f4 [16, 8, 1, 1]
-0.23556173 -0.2761252 -0.08239359 -0.26476383 0.18262342 -0.19096455 0.11388096 -0.19855043
0.052644998 -0.33007148 -0.27533385 0.022040695 -0.07382926 0.34060636 -0.27498555 0.2175307
0.09922218 0.0939154 -0.25512245 -0.19133249 0.31590673 -0.053408116 -0.1740527 0.030991077
-0.25154096 -0.28544858 -0.3272375 0.123637974 0.22171268 0.08140269 0.11172986 0.103738636
0.1801574 0.22915062 -0.3251948 -0.23177572 0.20852998 0.07471502 0.24345282 -0.2200854
0.08375448 0.35201994 0.31396028 -0.30787557 0.08777106 -0.22854723 -0.21485667 -0.29579264
0.006918192 0.17763159 0.35001495 -0.17666335 -0.30110505 -0.20847778 0.034390867 -0.028825372
-0.30951932 0.12569964 0.3146467 -0.20418762 -0.16413765 0.05864927 -0.26795477 0.15678045
0.14378929 -0.0733681 -0.14435746 0.0021372736 -0.0070263147 0.29120514 0.16052827 0.18297324
0.09967661 -0.34451735 -0.34779376 0.18214461 0.10237974 0.30746683 -0.0045987666 -0.2561974
-0.22270028 -0.31543556 -0.034915626 -0.2556466 0.32169053 -0.0049507916 -0.27719072 0.17391494
0.19427839 0.26934502 -0.13145526 0.31962326 -0.06893101 -0.1490165 -0.19095321 -0.15531884
-0.3273131 -0.17281194 0.19719371 0.017020822 0.3092228 0.33769974 0.28631625 0.23554543
-0.22709738 -0.21466616 -0.1335881 -0.11438191 0.22300014 0.21811184 -0.2552761 -0.25662875
0.16187552 0.15163073 -0.18802105 0.30005535 -0.3146355 0.31110212 -0.06356108 0.34096465
0.26482657 0.35116747 0.113817364 -0.19903006 0.24262252 0.10514194 0.087831765 -0.110268
00000000: 1837 71be 4860 8dbe f8bd a8bd 208f 87be
00000010: a201 3b3e 368c 43be 6c3a e93d ce50 4bbe
00000020: 48a2 573d 21ff a8be 8ff8 8cbe b08e b43c
00000030: cc33 97bd f563 ae3e e8ca 8cbe 5ec0 5e3e
00000040: 0035 cb3d b856 c03d 699f 82be aaec 43be
00000050: 87be a13e 78c2 5abd df3a 32be 00e1 fd3c
00000060: fac9 80be 5126 92be ac8b a7be e835 fd3d
00000070: a608 633e 74b6 a63d a0d2 e43d ec74 d43d
00000080: 2e7b 383e 76a6 6a3e ef7f a6be 9d56 6dbe
00000090: e288 553e 3004 993d b24b 793e 115e 61be
000000a0: 7887 ab3d f53b b43e 67bf a03e dea1 9dbe
000000b0: 50c1 b33d 4908 6abe 6303 5cbe 2272 97be
000000c0: 00b2 e23b 0ee5 353e 2935 b33e 3de7 34be
000000d0: 712a 9abe 337b 55be 70dd 0c3d 3023 ecbc
000000e0: 5179 9ebe 68b7 003e 5f19 a13e 8f16 51be
000000f0: b313 28be 383a 703d 5e31 89be 0e8b 203e
00000100: 803d 133e 0442 96bd 71d2 13be 8011 0c3b
00000110: 003d e6bb d718 953e 8661 243e 565d 3b3e
00000120: 4023 cc3d 9464 b0be 0612 b2be 1e84 3a3e
00000130: 78ac d13d 4b6c 9d3e 40b1 96bb 4e2c 83be
00000140: 8b0b 64be c580 a1be b003 0fbd 1ce4 82be
00000150: 9fb4 a43e 403a a2bb f1eb 8dbe c216 323e
00000160: eaf0 463e 97e7 893e 359c 06be a9a5 a33e
00000170: b42b 8dbd c897 18be 3d89 43be e70b 1fbe
00000180: 9595 a7be 9df5 30be 26ed 493e 406f 8b3c
00000190: 7352 9e3e fbe6 ac3e 0b98 923e d232 713e
000001a0: 378c 68be 72d1 5bbe 52cb 08be 1041 eabd
000001b0: 265a 643e b658 5f3e 8db3 82be d864 83be
000001c0: b2c2 253e 1645 1b3e 9788 40be dba0 993e
000001d0: e717 a1be c748 9f3e 502c 82bd eb92 ae3e
000001e0: 5997 873e 39cc b33e 1419 e93d 89ce 4bbe
000001f0: 0a72 783e a854 d73d 24e1 b33d 30d4 e1bd

layers.3.conv1.bias f4 [16]
0.0 0.0 0.0 0.0 0.0 0.0 0.0 0.0
0.0 0.0 0.0 0.0 0.0 0.0 0.0 0.0
00000000: 0000 0000 0000 0000 0000 0000 0000 0000
00000010: 0000 0000 0000 0000 0000 0000 0000 0000
00000020: 0000 0000 0000 0000 0000 0000 0000 0000
00000030: 0000 0000 0000 0000 0000 0000 0000 0000

layers.3.conv2.weight f4 [16, 8, 3, 3]
0.002998352 0.057391457 -0.02897384 -0.05534984 -0.09618467 -0.053199098 0.10876889 0.07236574
-0.084535435 -0.080065005 0.07518346 -0.047284313 -0.09845641 0.01892037 -0.063591234 -0.061848
-0.013427801 0.09191922 -0.051761135 -0.05156813 -0.1045037 0.077455185 -0.054702073 0.09573009
-0.07864401 0.004984021 0.10067306 -0.07552517 0.0023058653 -0.07341783 0.014902167 0.057487257
-0.10276111 0.0822371 -0.061135422 -0.09418729 0.002833128 -0.0435806 0.08466219 0.11072258
0.0046429634 -0.054084733 0.044894613 -0.042756937 0.01755827 -0.026389591 0.10686051 0.08117705
-0.08744804 0.019319303 0.05430033 0.0562649 -0.065749854 -0.090766035 -0.04392963 0.03365115
0.091013454 2.9601157e-05 -0.090818 0.11615311 0.032902755 0.032043107 -0.06355633 0.009773605
0.0055024847 0.09626702 0.076551594 -0.096674435 -0.10672098 -0.0382863 0.10125638 -0.035169438
0.06437916 0.1083829 0.04186385 -0.07209854 -0.026427098 -0.045645982 0.08656355 0.038849153
0.030241124 0.10842087 -0.093157224 -0.026919462 -0.08805283 0.10355889 0.06898437 0.06178718
-0.022153847 0.0028922707 0.07629854 -0.11198791 -0.08552731 0.08290828 0.057631426 -0.085624784
0.11449603 0.08221536 0.055391423 0.0027853847 0.097169496 0.062251084 -0.038271263 0.0043102056
-0.0529162 0.04014357 -0.010061279 -0.028942116 -0.007797718 -0.106189154 0.019296102 0.03478404
-0.07691606 0.036891215 0.07787568 0.04018841 0.11287657 -0.033906706 0.020097114 -0.024337612
-0.016229302 -0.08431661 0.0012167394 -0.006234713 -0.039999254 -0.027018867 -0.01716435 0.11322888
0.0054296553 0.05365359 0.11386091 0.10127599 0.11321358 0.023380063 0.009584151 0.0724623
-0.07621006 -0.06957537 0.06827093 -0.057774 -0.06999752 0.104174055 -0.08408421 -0.049410984
-0.023294047 -0.07154169 0.10892872 -0.07978768 -0.10768438 0.011235677 0.01649145 0.024939634
-0.010357015 -0.06704752 -0.0012045577 -0.0081669465 0.034253545 0.09132633 0.06973801 0.012612231
-0.095109195 0.114114664 -0.077601746 -0.08490946 0.029233567 -8.59797e-06 -0.0130038485 -0.055846233
-0.012562178 0.052788563 0.008741669 -0.09860796 -0.072910935 -0.06622553 0.0363772 -0.07538846
0.019403733 0.022921555 0.0029488206 -0.10627273 0.08645063 -0.1157302 0.013714306 0.031056814
0.05238489 0.04016281 0.10333251 0.08500136 0.07203872 0.012590133 0.0049364343 -0.011182919
-0.017112523 0.07190538 0.0701708 0.075156726 -0.10173673 0.04481972 0.113764875 0.11644874
-0.06312217 -0.033973746 -0.08653504 0.06129218 0.060771324 0.105657704 0.09596575 -0.10756459
-0.014938138 -0.0676198 0.08684667 -0.02699899 -0.054056115 0.036906116 0.0055132434 -0.020122916
0.0936945 -0.102720104 0.08875143 0.064132564 -0.062385302 0.04167209 -0.030520499 -0.0051205307
0.06082634 -0.049678758 0.06830553 -0.08186819 0.043134548 -0.11201464 -0.10693861 -0.054907985
-0.055833727 0.034633867 -0.07663162 -0.046846434 -0.025444418 0.079477124 0.016174398 0.08271169
0.09751394 0.013424315 -0.037123166 -0.055628754 0.008755125 0.08351604 -0.045255035 0.027102433
-0.0053789318 0.05907824 -0.030913629 -0.023540854 0.036981173 0.03888429 -0.008719645 0.05724574
00000000: 0080 443b 4e13 6b3d 8c5a edbc 84b6 62bd
00000010: 78fc c4bd 4ce7 59bd 39c2 de3d 7d34 943d
00000020: ea20 adbd 1ff9 a3bd c9f9 993d 32ad 41bd
00000030: 84a3 c9bd e4fe 9a3c 1f3c 82bd 5454 7dbd
00000040: 4800 5cbc 2540 bc3d 7c03 54bd 1a39 53bd
00000050: 0906 d6bd d3a0 9e3d 480f 60bd 230e c43d
00000060: 1c10 a1bd 0051 a33b ad2d ce3d f1ac 9abd
00000070: 001e 173b 165c 96bd 3828 743c c277 6b3d
00000080: 6b74 d2bd ed6b a83d 2369 7abd 44e5 c0bd
00000090: 00ac 393b 9281 32bd 5f63 ad3d 85c2 e23d
000000a0: 0024 983b f487 5dbd 6ae3 373d e621 2fbd
000000b0: 5cd6 8f3c fc2e d8bc afd9 da3d 2740 a63d
000000c0: f517 b3bd 8443 9e3c 066a 5e3d 0676 663d
000000d0: dca7 86bd 8be3 b9bd 8eef 33bd cad5 093d
000000e0: 4365 ba3d 0050 f837 cafe b9bd afe1 ed3d
000000f0: 0ac5 063d a23f 033d d229 82bd 7821 203c
00000100: 304e b43b a527 c53d 15c7 9c3d 3ffd c5bd
00000110: 8790 dabd 18d2 1cbd 815f cf3d d40d 10bd
00000120: 39d9 833d dbf7 dd3d 6e79 2b3d 66a8 93bd
00000130: a47d d8bc 48f7 3abd 3b48 b13d 4a20 1f3d
00000140: 3cbc f73c c30b de3d 37c9 bebd 3486 dcbc
00000150: 0b55 b4bd af16 d43d ad47 8d3d 8e14 7d3d
00000160: fc7b b5bc 408c 3d3b 6942 9c3d eb59 e5bd
00000170: f128 afbd d1cb a93d ee0e 6c3d 0c5c afbd
00000180: e57c ea3d 8760 a83d 1ee2 623d 008b 363b
00000190: cd00 c73d fefa 7e3d 54c2 1cbd a03c 8d3b
000001a0: a8be 58bd 966d 243d 10d8 24bc 0418 edbc
000001b0: 0084 ffbb b379 d9bd dc12 9e3c b679 0e3d
000001c0: 2b86 9dbd 3e1b 173d 497d 9f3d 9a9c 243d
000001d0: d52b e73d c2e1 0abd b4a2 a43c ac5f c7bc
000001e0: 50f3 84bc 30ae acbd 007b 9f3a 904c ccbb
000001f0: 42d6 23bd ac56 ddbc 409c 8cbc 8be4 e73d
00000200: 40eb b13b dec3 5b3d e92f e93d c969 cf3d
00000210: 85dc e73d 8c87 bf3c d806 1d3c 1d67 943d
00000220: 0514 9cbd 887d 8ebd a1d1 8b3d 6ea4 6cbd
00000230: dc5a 8fbd 3559 d53d 5834 acbd 2c63 4abd
00000240: 28d3 bebc 7384 92bd 0516 df3d b967 a3bd
00000250: a189 dcbd d815 383c 1419 873c 344e cc3c
00000260: 78b0 29bc 3650 89bd 40e2 9dba a8ce 05bc
00000270: 724d 0c3d 4d09 bb3d cdd2 8e3d 88a3 4e3c
00000280: 9cc8 c2bd f3b4 e93d aaed 9ebd 03e5 adbd
00000290: 3c7b ef3c 0040 10b7 180e 55bc 05bf 64bd
000002a0: 98d1 4dbc d238 583d 3839 0f3c f8f2 c9bd
000002b0: 5452 95bd 40a1 87bd 4200 153d 4465 9abd
000002c0: 94f4 9e3c fcc5 bb3c 0041 413b 84a5 d9bd
000002d0: 070d b13d f503 edbd f8b1 603c dc6a fe3c
000002e0: 8a91 563d c281 243d ff9f d33d 3115 ae3d
000002f0: 0989 933d d846 4e3c d0c1 a13b 9038 37bc
00000300: 902f 8cbc 2143 933d b5b5 8f3d c5eb 993d
00000310: 595b d0bd e294 373d 8ffd e83d ad7c ee3d
00000320: 3246 81bd 0e28 0bbd 4839 b1bd 820d 7b3d
00000330: 5aeb 783d 1163 d83d b189 c43d d34a dcbd
00000340: 18bf 74bc 407c 8abd abdc b13d fc2c ddbc
00000350: f269 5dbd de2a 173d 70a8 b43b d0d8 a4bc
00000360: e7e2 bf3d eb5e d2bd 4fc3 b53d ef57 833d
00000370: bb87 7fbd 5ab0 2a3d 2006 fabc 20ca a7bb
00000380: 0a25 793d f47b 4bbd c5e3 8b3d 82aa a7bd
00000390: daad 303d ee67 e5bd a102 dbbd 32e7 60bd
000003a0: e8b1 64bd 3edc 0d3d 0af1 9cbd 0ce2 3fbd
000003b0: d070 d0bc e7c4 a23d 2c80 843c bf64 a93d
000003c0: 63b5 c73d a8f1 5b3c 760e 18bd fada 63bd
000003d0: a871 0f3c 750a ab3d 585d 39bd ec05 de3c
000003e0: c041 b0bb 06fc 713d 943e fdbc c0d8 c0bc
000003f0: 9279 173d 2245 1f3d d8dc 0ebc 827a 6a3d

layers.3.conv2.bias f4 [16]
0.0 0.0 0.0 0.0 0.0 0.0 0.0 0.0
0.0 0.0 0.0 0.0 0.0 0.0 0.0 0.0
00000000: 0000 0000 0000 0000 0000 0000 0000 0000
00000010: 0000 0000 0000 0000 0000 0000 0000 0000
00000020: 0000 0000 0000 0000 0000 0000 0000 0000
00000030: 0000 0000 0000 0000 0000 0000 0000 0000

layers.3.conv3.weight f4 [16, 16, 3, 3]
-0.068380736 -0.033769768 -0.018181778 -0.037856232 -0.009596132 -0.053967606 0.06039492 0.013046809
0.00011057407 0.025122367 0.020466298 -0.0010269657 0.045273952 -0.038753062 0.018518887 0.055381186
-0.068570286 0.017671041 -0.06625715 0.078480385 -0.02029273 0.036267884 0.009059556 0.05336032
-0.041689605 0.05807764 -0.06922283 0.061226137 -0.022432469 0.08109512 -0.07256707 -0.050772857
-0.022444367 0.04462371 0.0790756 0.033495493 -0.038039654 -0.04946377 -0.056426536 -0.07641678
-0.074447274 0.063276716 0.05239118 -0.00505057 0.048776515 0.034169354 -0.059796385 0.0016336963
0.0007871911 -0.08088647 -0.0051617324 0.0006462112 0.02635187 0.06399993 -0.020582378 0.06839817
0.08218042 0.062874444 -0.026251227 -0.041447937 0.031811625 -0.054022722 0.07348543 0.0130744055
-0.0035658106 -0.07113786 0.009192713 0.05419735 0.014679663 0.049073227 -0.07522152 -0.047343373
0.034188055 0.07802836 0.020847194 -0.060674082 -0.04679957 0.078604944 -0.07856777 0.026565172
-0.03521823 0.025628567 -0.062041633 -0.08300536 -0.047067903 -0.03139798 -0.06886347 0.0031030178
0.08085949 0.06682069 -0.0037006065 0.029554218 0.008018315 -0.013089232 0.046088375 0.07384933
-0.046306442 0.05080507 0.023379527 -0.046865474 -0.009271711 0.044551633 -0.0020552948 -0.019291438
-0.016619802 -0.0015994236 -0.0074036717 0.07404896 -0.079457015 0.07759834 0.004224062 -0.049339257
0.004738368 -0.0067725778 0.057647146 -0.0025711283 -0.048035882 -0.03949214 0.07547779 0.07917572
-0.026604496 -0.06892274 0.04226158 0.052352287 -0.00929179 0.06019468 0.068942375 0.026825659
0.011731327 0.07380777 0.044163533 0.035818495 -0.045301348 -0.046139657 0.026473172 0.009387188
-0.02499817 -0.010888748 -0.052733593 0.018957436 -0.017620742 0.022149682 0.0736588 0.08321542
-0.05044801 -0.07465621 0.00097355247 -0.06418432 0.03254509 -0.023909293 -0.030838959 -0.005728252
0.044677965 0.06134429 0.022999883 -0.050625116 -0.038644146 0.0056797564 -0.05315011 0.009934746
-0.047151946 -0.045004647 -0.053252093 0.07406636 0.08270798 0.062746055 0.006829612 -0.05325234
0.071328886 -0.032844435 0.060409613 -0.010067485 -0.0499054 -0.034294825 -0.011488937 0.013053887
-0.045135926 0.0029211268 0.0012240037 -0.02073928 -0.034555793 -0.0077467933 -0.0034831166 0.00036269426
-0.029761367 -0.016941272 -0.066342145 0.044896938 0.038477264 0.04727278 -0.074435495 0.05010595
0.0389857 0.0358131 -0.041490864 0.00847996 -0.0011863485 0.039190702 -0.05991009 0.02095282
0.04322108 0.05304221 -0.03187579 0.011114188 0.009924144 0.08015693 0.016361602 0.08146957
-0.05377858 0.006755084 -0.055266492 0.028362237 -0.02127906 -0.06300555 -0.0038415864 -0.0069814697
0.0019594133 -0.0429098 0.0797228 -0.06984945 0.044794373 -0.031228147 -0.067547694 0.037570573
0.06595374 0.036572628 0.062334247 0.076761074 0.023424663 -0.02436196 -0.024721902 0.075444795
-0.077791095 0.024239637 -0.020676814 -0.055470806 -0.0139228925 0.016193561 -0.0039433464 -0.055886786
-0.008495979 0.0007888898 0.043203495 -0.07888466 -0.009916723 -0.07921277 -0.0073961318 -0.0058823004
-0.04703335 -0.011432402 -0.020493537 0.012871683 -0.06770679 -0.03438451 -0.079386264 -0.035155356
00000000: 330b 8cbd 2b52 0abd f4f1 94bc 230f 1bbd
00000010: 1839 1dbc 230d 5dbd aa60 773d 48c2 553c
00000020: 00e4 e738 6ccd cd3c f0a8 a73c 409b 86ba
00000030: 2e71 393d 88bb 1ebd ecb4 973c 62d7 623d
00000040: 946e 8cbd dcc2 903c d4b1 87bd 53ba a03d
00000050: f03c a6bc a28d 143d 886e 143c 5a90 5a3d
00000060: b8c2 2abd d2e2 6d3d b3c4 8dbd 42c8 7a3d
00000070: 4cc4 b7bc 3315 a63d 0b9e 94bd 33f7 4fbd
00000080: 40dd b7bc 5ac7 363d 63f2 a13d 9232 093d
00000090: 78cf 1bbd 869a 4abd 831f 67bd 6780 9cbd
000000a0: d077 98bd 3997 813d 2298 563d 407f a5bb
000000b0: e2c9 473d 2af5 0b3d 0eed 74bd c021 d63a
000000c0: 805b 4e3a cea7 a5bd c023 a9bb 8066 293a
000000d0: e0df d73c 6512 833d 609c a8bc 5714 8c3d
000000e0: 354e a83d 51c4 803d d00c d7bc 50c5 29bd
000000f0: e84c 023d ee46 5dbd 877f 963d 0836 563c
00000100: 60b0 69bb bab0 91bd 089d 163c 0afe 5d3d
00000110: f882 703c 0201 493d be0d 9abd 20eb 41bd
00000120: c608 0c3d 55cd 9f3d bcc7 aa3c 6385 78bd
00000130: e8b0 3fbd a1fb a03d 24e8 a0bd 349f d93c
00000140: fe40 10bd 00f3 d13c 5e1f 7ebd b7fe a9bd
00000150: 46ca 40bd 2b9b 00bd 4a08 8dbd 005c 4b3b
00000160: a999 a53d 49d9 883d e085 72bb b01b f23c
00000170: 405f 033c 3874 56bc 2ac7 3c3d 513e 973d
00000180: d3ab 3dbd fa18 503d 6c86 bf3c 03f6 3fbd
00000190: 60e8 17bc c67b 363d 20b2 06bb 1409 9ebc
000001a0: 4026 88bc c0a3 d1ba 809a f2bb fba6 973d
000001b0: 5cba a2bd e1eb 9e3d 006a 8a3b f617 4abd
000001c0: 5044 9b3b 80ec ddbb 6a1f 6c3d 6080 28bb
000001d0: 46c1 44bd 83c2 21bd 1994 9a3d e126 a23d
000001e0: acf1 d9bc 5e27 8dbd 7a1a 2d3d 5a6f 563d
000001f0: 983c 18bc b28e 763d a931 8d3d 7cc1 db3c
00000200: c034 403c 8728 973d d2e4 343d 6ab6 123d
00000210: e88d 39bd f0fc 3cbd 44de d83c b8cc 193c
00000220: f6c8 ccbc b866 32bc 2eff 57bd a04c 9b3c
00000230: 6059 90bc 4073 b53c 6dda 963d d96c aa3d
00000240: 93a2 4ebd 5be5 98bd 0036 7f3a 1273 83bd
00000250: 004e 053d 6cdd c3bc fca1 fcbc 10b4 bbbb
00000260: 3e00 373d 2644 7b3d 406a bc3c 485c 4fbd
00000270: 5349 1ebd 401d ba3b eeb3 59bd 58c5 223c
00000280: 6622 41bd cb56 38bd de1e 5abd 1bb0 973d
00000290: cd62 a93d 0181 803d f0ca df3b 201f 5abd
000002a0: e114 923d e387 06bd 1270 773d 18f2 24bc
000002b0: 9b69 4cbd bb78 0cbd 183c 3cbc f8df 553c
000002c0: 73e0 38bd 6070 3f3b c06e a03a 6ce5 a9bc
000002d0: 608a 0dbd d0d8 fdbb 0045 64bb 0028 be39
000002e0: 1cce f3bc 6cc8 8abc 64de 87bd dae5 373d
000002f0: 569a 1d3d 1aa1 413d a371 98bd e63b 4d3d
00000300: 78af 1f3d c2b0 123d 53f2 29bd 88ef 0a3c
00000310: 407f 9bba 6e86 203d 4864 75bd 40a5 ab3c
00000320: 9608 313d ca42 593d 3090 02bd 4818 363c
00000330: e098 223c 5129 a43d c408 863c 85d9 a63d
00000340: ee46 5cbd c059 dd3b 1e5f 62bd ec57 e83c
00000350: 6c51 aebc 0e09 81bd 20c3 7bbb d0c4 e4bb
00000360: 8069 003b 30c2 2fbd b545 a33d 3a0d 8fbd
00000370: 4e7a 373d 2cd2 ffbc 7256 8abd 9ae3 193d
00000380: c112 873d 2ecd 153d 3252 7f3d e934 9d3d
00000390: 14e5 bf3c bc92 c7bc 9685 cabc cd82 9a3d
000003a0: f050 9fbd 3492 c63c 6c62 a9bc 5b35 63bd
000003b0: d81c 64bc 5ca8 843c 3037 81bb 8be9 64bd
000003c0: b832 0bbc 80cd 4e3a 26f6 303d 488e a1bd
000003d0: c079 22bc 4e3a a2bd 405b f2bb 50c0 c0bb
000003e0: 0ba6 40bd f84e 3bbc 10e2 a7bc c0e3 523c
000003f0: dca9 8abd c6d6 0cbd 4495 a2bd 10ff 0fbd

layers.3.conv3.bias f4 [16]
0.0 0.0 0.0 0.0 0.0 0.0 0.0 0.0
0.0 0.0 0.0 0.0 0.0 0.0 0.0 0.0
00000000: 0000 0000 0000 0000 0000 0000 0000 0000
00000010: 0000 0000 0000 0000 0000 0000 0000 0000
00000020: 0000 0000 0000 0000 0000 0000 0000 0000
00000030: 0000 0000 0000 0000 0000 0000 0000 0000

layers.3.batch_norm.weight f4 [16]
1.0 1.0 1.0 1.0 1.0 1.0 1.0 1.0
1.0 1.0 1.0 1.0 1.0 1.0 1.0 1.0
00000000: 0000 803f 0000 803f 0000 803f 0000 803f
00000010: 0000 803f 0000 803f 0000 803f 0000 803f
00000020: 0000 803f 0000 803f 0000 803f 0000 803f
00000030: 0000 803f 0000 803f 0000 803f 0000 803f

layers.3.batch_norm.bias f4 [16]
0.0 0.0 0.0 0.0 0.0 0.0 0.0 0.0
0.0 0.0 0.0 0.0 0.0 0.0 0.0 0.0
00000000: 0000 0000 0000 0000 0000 0000 0000 0000
00000010: 0000 0000 0000 0000 0000 0000 0000 0000
00000020: 0000 0000 0000 0000 0000 0000 0000 0000
00000030: 0000 0000 0000 0000 0000 0000 0000 0000

layers.3.batch_norm.running_mean f4 [16]
0.0 0.0 0.0 0.0 0.0 0.0 0.0 0.0
0.0 0.0 0.0 0.0 0.0 0.0 0.0 0.0
00000000: 0000 0000 0000 0000 0000 0000 0000 0000
00000010: 0000 0000 0000 0000 0000 0000 0000 0000
00000020: 0000 0000 0000 0000 0000 0000 0000 0000
00000030: 0000 0000 0000 0000 0000 0000 0000 0000

layers.3.batch_norm.running_var f4 [16]
1.0 1.0 1.0 1.0 1.0 1.0 1.0 1.0
1.0 1.0 1.0 1.0 1.0 1.0 1.0 1.0
00000000: 0000 803f 0000 803f 0000 803f 0000 803f
00000010: 0000 803f 0000 803f 0000 803f 0000 803f
00000020: 0000 803f 0000 803f 0000 803f 0000 803f
00000030: 0000 803f 0000 803f 0000 803f 0000 803f

conv1.weight f4 [1, 16, 1, 1]
-0.20069045 0.09385976 0.009346783 -0.014739096 -0.20693779 0.21508077 -0.2438404 0.14751858
-0.13302508 0.11916968 -0.10486084 -0.19460988 0.20772979 0.16342294 -0.1873588 -0.1689829
00000000: cc81 4dbe 8c39 c03d 4023 193c 407c 71bc
00000010: 80e7 53be 223e 5c3e 4cb1 79be 1c0f 173e
00000020: ba37 08be 3c0f f43d 48c1 d6bd d047 47be
00000030: 1eb7 543e 5858 273e fcda 3fbe da09 2dbe
