nets/gan-best-step-1.pth (torch, 36143 bytes, 41 tensors)

layers.0.conv1.weight f4 [2, 1, 1, 1]
0.8654322 -0.5600074
00000000: f78c 5d3f a55c 0fbf

layers.0.conv1.bias f4 [2]
-0.006726513 -0.012214647
00000000: 156a dcbb f11f 48bc

layers.0.conv2.weight f4 [2, 1, 3, 3]
0.00766608 0.15553348 -0.019037267 -0.28409362 -0.19710976 0.12778996 -0.27036384 0.31009188
0.1969122 -0.17354481 0.019081585 -0.258232 0.27249032 0.3283273 -0.29223296 0.23259772
0.1261398 0.0857518
00000000: bd33 fb3b 2b44 1f3e 0bf4 9bbc b874 91be
00000010: 24d7 49be 5fdb 023e 216d 8abe 5dc4 9e3e
00000020: 5aa3 493e bbb5 31be fc50 9c3c fc36 84be
00000030: da83 8b3e 841a a83e 8f9f 95be 192e 6e3e
00000040: cb2a 013e a49e af3d

layers.0.conv2.bias f4 [2]
-0.0016964659 -0.0041361027
00000000: f35b deba 2588 87bb

layers.0.conv3.weight f4 [2, 2, 3, 3]
0.030395066 -0.20437649 -0.16397308 0.17360222 -0.03086714 -0.15092225 0.21091945 -0.21897072
-0.019482179 -0.16784966 -0.13125351 -0.06484671 -0.220653 0.029918227 0.14126557 0.00046553562
0.012493114 0.15107329 0.21778637 -0.05203196 -0.10523754 0.19645795 0.20170327 -0.0020407094
-0.122436814 0.106428474 -0.093044505 0.17600763 0.0916771 0.17766838 -0.16464615 0.1368473
-0.040912222 -0.09195286 0.024518866 -0.20645969
00000000: 13ff f83c 1248 51be 8fe8 27be c8c4 313e
00000010: 16dd fcbc 5d8b 1abe 45fb 573e dc39 60be
00000020: 1799 9fbc c8e0 2bbe 5267 06be 5ace 84bd
00000030: dcf2 61be 1217 f53c eca7 103e 2213 f439
00000040: ebaf 4c3c f5b2 1a3e 6403 5f3e 771f 55bd
00000050: c886 d7bd 462c 493e 4d8b 4e3e 6cbd 05bb
00000060: 27c0 fabd 2cf7 d93d 1e8e bebd 583b 343e
00000070: 34c1 bb3d b3ee 353e 0099 28be b321 0c3e
00000080: 9393 27bd c851 bcbd cadb c83c 2b6a 53be

layers.0.conv3.bias f4 [2]
-4.6100038e-05 -4.4807977e-05
00000000: 8a5b 41b8 33f0 3bb8

layers.0.batch_norm.weight f4 [2]
1.0193439 0.9781799
00000000: dc79 823f ff69 7a3f

layers.0.batch_norm.bias f4 [2]
-0.007865916 -0.018153626
00000000: 0be0 00bc eab6 94bc

layers.0.batch_norm.running_mean f4 [2]
0.39465976 -0.2714187
00000000: d810 ca3e 64f7 8abe

layers.0.batch_norm.running_var f4 [2]
0.129471 0.09662765
00000000: 0c94 043e b8e4 c53d

layers.1.conv1.weight f4 [4, 2, 1, 1]
-0.2824528 -0.61386085 -0.70400006 0.22194153 0.1327252 0.3273214 -0.6740556 0.33883208
00000000: a79d 90be fc25 1dbf 5939 34bf a444 633e
00000010: 1de9 073e ac96 a73e e88e 2cbf 667b ad3e

layers.1.conv1.bias f4 [4]
0.00015819405 -0.0044108555 0.0068793073 0.0029550504
00000000: e4e0 2539 f088 90bb d06b e13b 85a9 413b

layers.1.conv2.weight f4 [4, 2, 3, 3]
0.20229286 -0.19803053 0.20411505 -0.16935377 0.16241606 -0.13231058 -0.11533189 -0.22052608
-0.20550723 0.030555137 0.052715026 -0.018378288 -0.026633544 -0.004540594 0.21748136 0.02347611
0.08854716 0.18975778 -0.11401458 -0.14309052 0.12442558 0.18671085 -0.13692148 0.12719773
0.047022406 -0.10858635 0.08966923 -0.1264515 -0.07901084 -0.028970813 0.23754132 0.12339092
0.12763879 0.23936051 0.17879629 -0.075023495 -0.0069338237 -0.07004805 -0.06625126 -0.040113177
0.07859176 -0.16001217 -0.000714589 -0.22147642 -0.009752738 -0.07629352 0.21714427 -0.018600103
0.1055409 0.16029403 0.08535602 0.05099469 -0.13160479 0.03188948 -0.002190102 -0.021975636
0.13633047 0.10505418 0.21481925 -0.084196866 0.20330542 0.17672426 -0.15999287 0.060564958
-0.17544419 0.20140444 0.19948943 0.09928216 0.16413522 0.07738705 0.12065043 -0.10400064
00000000: dc25 4f3e 84c8 4abe 8903 513e 136b 2dbe
00000010: 6550 263e 6d7c 07be 2033 ecbd 97d1 61be
00000020: 7d70 52be c44e fa3c b6eb 573d 108e 96bc
00000030: 972e dabc 43c9 94bb 6fb3 5e3e f950 c03c
00000040: 3758 b53d dd4f 423e 7a80 e9bd 5286 12be
00000050: d7d2 fe3d 2131 3f3e 2535 0cbe 1f40 023e
00000060: 919a 403d 8562 debd 80a4 b73d 817c 01be
00000070: 6fd0 a1bd 3354 edbc 083e 733e 61b4 fc3d
00000080: beb3 023e ec1a 753e 6016 373e eba5 99bd
00000090: 2135 e3bb 5a75 8fbd beae 87bd b74d 24bd
000000a0: b7f4 a03d 3bda 23be 4253 3bba b7ca 62be
000000b0: f3c9 1fbc c73f 9cbd 115b 5e3e 3e5f 98bc
000000c0: d425 d83d 1e24 243e 23cf ae3d cfdf 503d
000000d0: 68c3 06be 8b9e 023d d087 0fbb 4006 b4bc
000000e0: 379a 0b3e a526 d73d 94f9 5b3e 686f acbd
000000f0: 4c2f 503e 34f7 343e 2cd5 23be f612 783d
00000100: a4a7 33be f73c 4e3e f546 4c3e 7254 cb3d
00000110: 1013 283e 1a7d 9e3d 9317 f73d 4afe d4bd

layers.1.conv2.bias f4 [4]
0.011326485 0.007293605 -0.007814369 0.004487578
00000000: b992 393c 31ff ee3b d707 00bc 880c 933b

layers.1.conv3.weight f4 [4, 4, 3, 3]
0.14421755 0.10305101 0.15331502 -0.09327239 0.106170475 0.02621878 -0.01642874 0.15434329
0.14934072 0.114265114 -0.017282639 -0.050558876 0.11386772 0.112181045 0.17568342 0.07888886
0.034173597 0.12113652 0.13328709 -0.018230617 0.049744077 0.023066116 -0.051013656 0.05761266
-0.040353566 0.10169421 -0.013942451 -0.08399641 0.15917711 -0.025308533 0.04850067 0.16989784
0.15230834 0.04661617 0.044938125 -0.019136304 -0.09736115 0.0266784 -0.14089404 0.11104944
0.043489054 0.07433055 0.033621684 -0.15151192 -0.07730733 0.12252396 0.056782804 -0.11505661
-0.012957642 0.08833646 -0.077235915 -0.025898006 0.0048081907 0.056190617 -0.03395301 -0.08554877
-0.030222813 -0.013475788 0.08514662 0.08294824 0.11437672 0.06201348 -0.045875136 -0.021872897
-0.1618589 -0.020657586 -0.030713772 -0.0031537667 -0.10391978 0.05370926 -0.031884372 0.10530747
0.065086976 -0.08246224 -0.0949069 -0.01035531 0.021338398 0.05583182 0.1416967 -0.1017188
0.135862 -0.006001453 0.03834857 0.090394475 -0.16656777 0.087523974 -0.15894887 -0.1689284
-0.047505602 0.115138724 -0.13728298 -0.15591823 -0.12182716 -0.017635271 0.08777927 -0.04530995
-0.12851775 -0.004783734 0.03960859 0.15185244 -0.054693658 -0.06307922 0.13790026 -0.1566804
0.071180314 0.14066896 0.13165681 -0.0046608783 -0.0068062376 -0.08864789 0.05733437 -0.05111239
-0.11255246 -0.03256815 0.07707838 -0.120978445 0.047793023 0.011874921 -0.0048629683 -0.052053016
-0.16279924 0.051335916 -0.13576433 0.03784354 -0.11335727 0.08650447 0.090087146 -0.037376367
0.14918374 -0.059946496 -0.12913199 -0.104932055 -0.03432512 0.02588214 -0.0047219885 -0.061842483
0.11289011 0.052572418 0.070367 -0.12325352 0.054058246 -0.1251068 -0.08135631 -0.15417644
00000000: c4ad 133e 680c d33d 9dfe 1c3e 9805 bfbd
00000010: e86f d93d c4c8 d63c 9195 86bc 2b0c 1e3e
00000020: c6ec 183e d403 ea3d 5294 8dbc d316 4fbd
00000030: 7b33 e93d 2dbf e53d 5be6 333e 7c90 a13d
00000040: 9df9 0b3d 6c16 f83d 697c 083e 6058 95bc
00000050: 72c0 4b3d 27f5 bc3c b2f3 50bd 41fb 6b3d
00000060: c849 25bd 0e45 d03d e16e 64bc 4f06 acbd
00000070: 53ff 223e d753 cfbc a3a8 463d b3f9 2d3e
00000080: b8f6 1b3e 99f0 3e3d 0a11 383d bdc3 9cbc
00000090: 4865 c7bd a98c da3c 8746 10be e46d e33d
000000a0: 9421 323d 9e3a 983d e4b6 093d f125 1bbe
000000b0: 4e53 9ebd d8ed fa3d 1695 683d cda2 ebbd
000000c0: 4a4c 54bc bfe9 b43d dd2d 9ebd 0e28 d4bc
000000d0: 078e 9d3b 2228 663d 5012 0bbd 3234 afbd
000000e0: d595 f7bc 8dc9 5cbc 5a61 ae3d c4e0 a93d
000000f0: 573e ea3d d901 7e3d 91e7 3bbd ca2e b3bc
00000100: 57be 25be 193a a9bc 739b fbbc 6daf 4ebb
00000110: e5d3 d4bd 3efe 5b3d 3099 02bd 71ab d73d
00000120: 524c 853d f6e1 a8bd 8c5e c2bd 51a9 29bc
00000130: ddcd ae3c e8af 643d f118 113e f251 d0bd
00000140: 681f 0b3e d6a7 c4bb 6413 1d3d bd20 b93d
00000150: be90 2abe c53f b33d 7ec3 22be 91fb 2cbe
00000160: 3c95 42bd dacd eb3d e993 0cbe 07a9 1fbe
00000170: 8580 f9bd d877 90bc 9ec5 b33d ed96 39bd
00000180: 289a 03be dfc0 9cbb 9e3c 223d 357f 1b3e
00000190: 7506 60bd ae2f 81bd ba35 0d3e d470 20be
000001a0: fcc6 913d 860b 103e 0bd1 063e 48ba 98bb
000001b0: dc06 dfbb 068d b5bd 72d7 6a3d 3a5b 51bd
000001c0: e781 e6bd 2e66 05bd 45db 9d3d 8cc3 f7bd
000001d0: 9ec2 433d 078f 423c 8959 9fbb 8b35 55bd
000001e0: d8b4 26be 9c45 523d ce05 0bbe d401 1b3d
000001f0: db27 e8bd 4129 b13d 9c7f b83d f617 19bd
00000200: 9fc3 183e 758a 75bd 2d3b 04be 9ee6 d6bd
00000210: 7f98 0cbd c806 d43c e9ba 9abb 8b4e 7dbd
00000220: ee32 e73d 2d56 573d 931c 903d 576c fcbd
00000230: 2e6c 5d3d ff1b 00be 239e a6bd 6ee0 1dbe

layers.1.conv3.bias f4 [4]
-1.2930846e-05 5.2523377e-05 -2.8289585e-05 -3.2936427e-05
00000000: 90f1 58b7 8c4c 5c38 6c4f edb7 3825 0ab8

layers.1.batch_norm.weight f4 [4]
0.9888297 0.9830232 1.0078068 1.01509
00000000: f123 7d3f 69a7 7b3f d0ff 803f 78ee 813f

layers.1.batch_norm.bias f4 [4]
-0.010215797 -0.015436019 0.0089591965 0.021608122
00000000: 2960 27bc 5be7 7cbc 98c9 123c 8403 b13c

layers.1.batch_norm.running_mean f4 [4]
-0.3559508 -0.19724715 0.1835979 -0.13294846
00000000: 2f3f b6be 28fb 49be 1701 3c3e a423 08be

layers.1.batch_norm.running_var f4 [4]
0.14280966 0.2881029 0.09169199 0.31982777
00000000: b23c 123e 3982 933e 03c9 bb3d 77c0 a33e

layers.2.conv1.weight f4 [8, 4, 1, 1]
0.46050468 0.3374741 -0.06509819 0.36601242 -0.2941388 -0.4244789 0.23716743 -0.44442
-0.038435116 0.2422585 -0.32194558 0.2801391 0.05691298 -0.15398082 0.20243762 0.070982076
0.059377268 0.45643213 -0.016774805 -0.36003518 0.08477589 -0.35645393 0.4296282 -0.34407526
0.029977435 -0.4766812 0.5010475 0.027850393 0.29441074 0.39286268 -0.4296113 -0.046149675
00000000: 45c7 eb3e 68c9 ac3e 3352 85bd fb65 bb3e
00000010: 5c99 96be 4c55 d9be 05dc 723e 058b e3be
00000020: 246e 1dbd 9d12 783e 0dd6 a4be 646e 8f3e
00000030: 961d 693d 26ad 1dbe cf4b 4f3e 0d5f 913d
00000040: 9435 733d 79b1 e93e 516b 89bc 8856 b8be
00000050: fb9e ad3d 2181 b6be 3af8 db3e a22a b0be
00000060: 3d93 f53c 8f0f f4be a644 003f 8226 e43c
00000070: 01bd 963e 4c25 c93e 03f6 dbbe 7107 3dbd

layers.2.conv1.bias f4 [8]
4.2457203e-05 -0.00080176763 -0.0009561234 0.003246249 -0.0065824427 0.0052865194 -0.0054091895 -0.0016514602
00000000: 1314 3238 b72d 52ba 5ba4 7aba 05bf 543b
00000010: 88b1 d7bb 8a3a ad3b 923f b1bb cf75 d8ba

layers.2.conv2.weight f4 [8, 4, 3, 3]
-0.056047697 -0.17090547 0.043543324 0.14065199 -0.10157926 -0.054882567 -0.087386146 -0.0717621
0.16303949 -0.07367221 -0.11904957 0.0812227 -0.054114334 0.028800359 -0.07129519 -0.02050727
0.14470114 0.061872512 0.062287588 0.12964891 -0.086596 -0.0935865 0.076535 0.01996417
-0.0101526715 -0.06702368 0.09228553 0.0120497225 -0.094694585 -0.15648472 -0.03284842 0.104481496
-0.08544729 0.022578826 -0.034406982 -0.07112065 -0.054050032 0.009493959 0.13119887 -0.058556683
-0.017357755 0.033940006 0.0019784537 0.11776588 -0.04895951 -0.15952526 -0.06442341 0.061720002
-0.11917689 0.09404686 -0.14220029 0.041911084 -0.13231261 -0.09968847 -0.06457065 0.13292967
0.04592113 -0.056012858 -0.07454437 0.1689906 0.105682634 -0.10064895 0.09407379 0.07267379
-0.041785777 0.099479735 0.097383514 0.1456741 -0.027265904 -0.10900187 0.009403233 0.0007507631
-0.08960971 0.13070105 -0.087574385 0.010283054 0.04941051 -0.13081565 0.12609091 -0.02111373
0.048729952 -0.15372375 0.15438806 0.08116261 0.13865535 -0.16657172 -0.018558139 -0.07212044
0.043864686 -0.020970315 -0.042922053 -0.1437602 -0.006920121 0.0034101948 -0.15821448 0.0646552
0.13726583 0.021097811 0.035233315 -0.094508626 -0.08546542 0.10397099 -0.098691024 0.14684252
-0.10389679 -0.11338433 0.06320836 0.053037055 0.07069868 -0.058549944 -0.016565124 0.015461493
-0.04598017 0.045677207 0.022468071 -0.11888674 -0.0668389 -0.096895866 -0.05393788 -0.17622548
0.09110712 0.10535337 -0.09402519 0.14214751 -0.04862679 -0.060440414 0.028819565 -0.039425284
0.13025357 0.040078834 -0.11049928 -0.10421107 0.028360132 -0.1336494 0.0019141936 0.016068658
0.069096394 -0.14815727 -0.069633946 0.08059371 -0.06323741 -0.09701451 -0.037399106 0.051120766
0.101061344 -0.0025330717 -0.0017627485 0.062677085 0.03748994 0.01487008 -0.012856945 -0.06632457
-0.1134037 -0.118990466 -0.018244073 0.009846603 0.0071763475 0.042053625 -0.027891994 0.14380938
-0.13521808 -0.11350806 0.03933291 0.07248937 0.14370811 0.085603744 -0.1676047 0.015907148
-0.041577004 0.08512232 -0.01848814 0.04606016 0.058365382 -0.038653117 0.11782439 -0.01233669
-0.16290537 0.052401774 -0.07475892 0.04057203 0.100186676 0.039819293 -0.07153529 0.07266342
-0.16492693 -0.051581603 -0.065959476 0.103728965 0.059193738 0.098090656 -0.0828595 -0.14883558
-0.0366773 0.12187623 0.13147354 0.16458923 -0.07127073 -0.011361387 0.0069077476 0.07777692
0.13621603 0.027456308 0.18340415 -0.029992865 0.1689942 0.051595714 0.067550726 -0.06467119
-0.10113704 0.057670157 -0.13144822 0.02247882 0.17371508 -0.033897042 0.13385071 0.09922583
-0.12697941 -0.048789036 -0.061911393 0.047743034 0.06422673 0.11027794 -0.15456517 -0.04590364
0.100393556 0.07212084 0.066075444 -0.12328438 0.020825043 0.13097343 -0.12345372 0.12529007
-0.13860913 -0.0499807 -0.12558344 -0.13601135 0.12277579 0.04714128 0.0751192 0.07945934
0.0149362255 -0.060064994 0.0003520759 -0.11653802 0.14335231 -0.007554454 -0.009470253 -0.12670751
0.1434917 0.18262082 0.120809965 -0.07782469 0.06867539 0.16618545 0.120225735 -0.1723372
00000000: 4592 65bd d801 2fbe 7c5a 323d 1307 103e
00000010: c908 d0bd 8bcc 60bd 82f7 b2bd 02f8 92bd
00000020: d3f3 263e 75e1 96bd 43d0 f3bd 1658 a63d
00000030: fea6 5dbd bbee eb3c 3603 92bd ddfe a7bc
00000040: 892c 143e 086e 7d3d 4521 7f3d afc2 043e
00000050: 3e59 b1bd 47aa bfbd 62be 9c3d e68b a33c
00000060: 6457 26bc b643 89bd 3200 bd3d 336c 453c
00000070: 3cef c1bd 883d 20be 118c 06bd 65fa d53d
00000080: fdfe aebd 3bf7 b83c 56ee 0cbd b4a7 91bd
00000090: 9163 5dbd 8d8c 1b3c ff58 063e 22d9 6fbd
000000a0: da31 8ebc ad04 0b3d f2a8 013b 3d2f f13d
000000b0: c489 48bd 975a 23be 6cf0 83bd 1dce 7c3d
000000c0: 0313 f4bd a49b c03d f49c 11be f5aa 2b3d
000000d0: f57c 07be 7829 ccbd 9e3d 84bd b71e 083e
000000e0: cb17 3c3d bd6d 65bd b8aa 98bd df0b 2d3e
000000f0: 2370 d83d 0921 cebd c2a9 c03d ffd5 943d
00000100: 9027 2bbd 08bc cb3d 0271 c73d 972b 153e
00000110: bf5c dfbc 5f3c dfbd 0510 1a3c dcce 443a
00000120: 4c85 b7bd 7fd6 053e 335a b3bd 417a 283c
00000130: ad62 4a3d 8af4 05be fa1d 013e b3f6 acbc
00000140: 0f99 473d c269 1dbe e717 1e3e 9538 a63d
00000150: abfb 0d3e c791 2abe 3d07 98bc e2b3 93bd
00000160: 75ab 333d f0c9 abbc 09cf 2fbd e035 13be
00000170: 2fc2 e2bb 937d 5f3b fa02 22be f269 843d
00000180: 6a8f 0c3e 51d5 ac3c cf50 103d bd8d c1bd
00000190: 7e08 afbd beee d43d 851e cabd e35d 163e
000001a0: d7c7 d4bd 0b36 e8bd 6273 813d 623d 593d
000001b0: 78ca 903d 11d2 6fbd 95b3 87bc 3452 7d3c
000001c0: b455 3cbd 0618 3b3d f60e b83c e47a f3bd
000001d0: d5e2 88bd 5771 c6bd f7ed 5cbd 7474 34be
000001e0: 5f96 ba3d 82c3 d73d 4790 c0bd 1e8f 113e
000001f0: e32c 47bd 5e90 77bd 0217 ec3c 687c 21bd
00000200: 3161 053e b429 243d 724d e2bd 9d6c d5bd
00000210: 8253 e83c 63db 08be aee5 fa3a 6ba2 833c
00000220: 6982 8d3d 8ab6 17be 3e9c 8ebd 510e a53d
00000230: 9d82 81bd 8baf c6bd ce2f 19bd 0264 513d
00000240: 40f9 ce3d e401 26bb 060c e7ba d85c 803d
00000250: 0d8f 193d a3a1 733c f0a5 52bc 2dd5 87bd
00000260: 3340 e8bd 46b1 f3bd 9874 95bc a553 213c
00000270: 9127 eb3b 6c40 2c3d c07d e4bc c442 133e
00000280: 9c76 0abe ea76 e8bd 8c1b 213d 4f75 943d
00000290: 3828 133e 0451 af3d 91a0 2bbe b54f 823c
000002a0: a64c 2abd 9c54 ae3d 7174 97bc 94a9 3c3d
000002b0: 8a10 6f3d bb52 1ebd ea4d f13d d41f 4abc
000002c0: aad0 26be 3ea3 563d 341b 99bd db2e 263d
000002d0: ac2e cd3d 8e19 233d 1881 92bd 8fd0 943d
000002e0: 9be2 28be 3b47 53bd c315 87bd da6f d43d
000002f0: 2275 723d c1e3 c83d 3eb2 a9bd 5b68 18be
00000300: f03a 16bd 3f9a f93d 00a1 063e 148a 283e
00000310: 63f6 91bd 1c25 3abc 635a e23b 8149 9f3d
00000320: 377c 0b3e 0dec e03c 4cce 3b3e 99b3 f5bc
00000330: d10c 2d3e 0756 533d 0958 8a3d 5472 84bd
00000340: f020 cfbd 8b37 6c3d 5d9a 06be 8125 b83c
00000350: 5ee2 313e a0d7 0abd 2910 093e e936 cb3d
00000360: e406 02be 03d7 47bd cd96 7dbd 338e 433d
00000370: 4e89 833d 67d9 e13d 5546 1ebe 7505 3cbd
00000380: 239b cd3d 17b4 933d 9052 873d 857c fcbd
00000390: 4899 aa3c e61d 063e 4ed5 fcbd 0a4c 003e
000003a0: 8def 0dbe 90b8 4cbd f298 00be 8f46 0bbe
000003b0: e071 fb3d 3717 413d 18d8 993d 94bb a23d
000003c0: 12b7 743c b606 76bd d496 b839 7cab eebd
000003d0: f3ca 123e 5a8b f7bb 1f29 1bbc 9dbf 01be
000003e0: 7def 123e f400 3b3e 376b f73d 8d62 9fbd
000003f0: afa5 8c3d 852c 2a3e e938 f63d 2a79 30be

layers.2.conv2.bias f4 [8]
-0.0010214733 0.009738414 0.014548504 -0.019498479 -0.018363299 0.020094218 0.021707062 0.022517767
00000000: f5e2 85ba de8d 1f3c d95c 6e3c 46bb 9fbc
00000010: a16e 96bc a19c a43c 02d3 b13c 2e77 b83c

layers.2.conv3.weight f4 [8, 8, 3, 3]
0.012039837 0.016135346 0.057053324 0.043258864 0.11300845 0.11501153 0.03261607 -0.029034693
0.08440476 0.029638698 -0.084540844 0.024429321 0.10617049 0.11424885 0.021493683 -0.059737783
-0.061470382 -0.04456324 -0.06883998 -0.1230843 0.11140029 -0.09672211 -0.009353298 -0.0067460975
-0.09168884 0.07855733 -0.050915115 0.013788897 0.1171827 -0.027382689 -0.06465265 0.038092904
0.10026701 0.022360994 -0.09561714 -0.033926766 0.051509537 0.017177587 0.08637044 0.04253671
-0.029089281 -0.0075571975 -0.062355876 0.02577689 0.00057195156 -0.043241486 -0.08273029 0.05474668
-0.079381764 0.13305198 0.1326848 0.12500094 -0.013733216 -0.030860407 0.08523939 0.002947674
-0.047687072 -0.11045056 -0.022052905 0.12134115 0.07085373 0.059177816 -0.024761532 0.108850956
0.0732325 0.034076907 0.07941856 -0.053792 -0.012993779 0.058954302 0.030832257 -0.09260288
-0.0030018175 -0.07456449 -0.0800564 -0.11487014 -0.08884353 0.036152657 0.07845968 0.08285124
0.10314179 -0.0033979232 0.05837538 0.07087078 -0.039506286 -0.12800175 -0.03552452 0.0024818548
0.09641955 -0.0015196642 0.10333541 -0.08260757 0.010073582 0.05900091 0.011076306 -0.070967555
-0.021605425 0.023059797 0.06518279 -0.06496344 0.05706234 0.10568197 0.006806766 -0.04283578
0.105579905 0.0959585 0.09282718 -0.10027629 -0.09626493 0.071463495 0.010272638 -0.027460836
0.059594788 0.047374293 -0.09805738 0.02714751 -0.07352943 -0.0647891 0.0071374476 0.11070086
-0.011781809 -0.06921831 0.13078007 0.07286361 0.116419524 0.03480939 -0.113018736 0.06868514
-0.012535164 0.110245615 0.05376859 0.001029808 -0.0782335 0.020780021 0.06813618 0.08208668
0.037023712 0.011754801 0.0710826 -0.023622677 -0.09459021 0.0824699 -0.049874656 0.08632379
0.121637195 -0.04302824 -0.12404766 -0.113235705 -0.030078884 -0.02394542 0.07267034 -0.048390847
-0.016728573 -0.11675587 -0.099919476 0.07335977 0.048101187 -0.03347167 -0.11415622 -0.0028180748
-0.0668482 -0.00921632 0.063512124 -0.036855634 -0.03898921 0.06643658 0.088869184 -0.037989937
-0.09963952 -0.079022504 0.07768815 -0.11856819 -0.011733446 -0.03643614 0.09616407 0.06196697
-0.03947087 -0.068951555 0.0266844 -0.10770482 -0.027116755 0.035377022 0.027053226 0.06748576
-0.102021895 0.026429558 0.068675324 -0.08377517 -0.008116135 -0.030642787 -0.10969282 -0.011875311
0.073070146 -0.09929883 0.083085045 0.05150334 -0.046075534 0.009909242 0.032047145 -0.010159735
-0.07884642 0.09605836 0.019090151 -0.04486667 -0.10384949 0.07614669 0.026623195 -0.0005094649
-0.005272232 0.04635968 -0.040330432 0.037732355 0.08273693 -0.03863173 0.101588376 0.04873611
-0.0028869875 0.08375319 0.052263938 0.07309475 -0.07733745 -0.03732809 -0.09842387 -0.07318007
0.071356766 -0.047150586 0.025540588 -0.0073551973 -0.045802336 -0.07292174 0.10386459 -0.058325585
0.040170178 0.115268394 0.06028962 -0.07178763 -0.080790356 -0.04799911 -0.07865847 -0.018451339
-0.010659824 -0.06630454 0.022534462 -0.07697644 0.038814895 0.07105459 0.10606996 0.041870818
-0.010416356 0.10322461 -0.059776213 0.013730463 -0.06581385 -0.07710815 0.105958104 0.033155575
00000000: bd42 453c 462e 843c bfb0 693d 3530 313d
00000010: f970 e73d 2a8b eb3d 6e98 053d 2ada edbc
00000020: 67dc ac3d dbcc f23c c023 adbd 0020 c83c
00000030: ea6f d93d 4dfb e93d 8513 b03c 9baf 74bd
00000040: 5ec8 7bbd f287 36bd fafb 8cbd 9f13 fcbd
00000050: d625 e43d 3e16 c6bd 933e 19bc 5e0e ddbb
00000060: 5cc7 bbbd aae2 a03d 5e8c 50bd d3ea 613c
00000070: 7cfd ef3d a951 e0bc 9c68 84bd 4e07 1c3d
00000080: ca58 cd3d 672e b73c ebd2 c3bd cbf6 0abd
00000090: aafb 523d 03b8 8c3c fce2 b03d f93a 2e3d
000000a0: a54c eebc 5ea2 f7bb e068 7fbd 0e2a d33c
000000b0: 05ef 153a fc1d 31bd 806e a9bd 0e3e 603d
000000c0: e892 a2bd c73e 083e 86de 073e 3f00 003e
000000d0: 4801 61bc f7ce fcbc fd91 ae3d c32d 413b
000000e0: 8553 43bd e733 e2bd 4ba8 b4bc b581 f83d
000000f0: c31b 913d 7064 723d b2d8 cabc 40ed de3d
00000100: ecfa 953d 3a94 0b3d 33a6 a23d 0055 5cbd
00000110: dce3 54bc 117a 713d ee93 fc3c 94a6 bdbd
00000120: 24ba 44bb 44b5 98bd 9cf4 a3bd 0941 ebbd
00000130: 99f3 b5bd cf14 143d 78af a03d e9ad a93d
00000140: 013c d33d b1af 5ebb 061b 6f3d b324 913d
00000150: 58d1 21bd e412 03be 2982 11bd 9da6 223b
00000160: 9d77 c53d 782f c7ba 84a1 d33d 282e a9bd
00000170: aa0b 253c f0aa 713d 6579 353c 7057 91bd
00000180: dcfd b0bc e6e7 bc3c 8e7e 853d 8d0b 85bd
00000190: 33ba 693d ca6f d83d 4b0b df3b 9274 2fbd
000001a0: 473a d83d e485 c43d 2d1c be3d a85d cdbd
000001b0: 8c26 c5bd 745b 923d 914e 283c 8cf5 e0bc
000001c0: aa19 743d 8c0b 423d 4fd2 c8bd 7464 de3c
000001d0: 9996 96bd 26b0 84bd 40e1 e93b 22b7 e23d
000001e0: 7d08 41bc 54c2 8dbd 36eb 053e 8439 953d
000001f0: 5c6d ee3d 4a94 0e3d 5e76 e7bd cbaa 8c3d
00000200: 4a60 4dbc 74c8 e13d 743c 5c3d 9ffa 863a
00000210: e338 a0bd dd3a aa3c fb8a 8b3d 101d a83d
00000220: 2da6 173d 3597 403c c193 913d 5884 c1bc
00000230: 83b8 c1bd fbe5 a83d 5e49 4cbd 87ca b03d
00000240: ec1c f93d 613e 30bd b30c febd 1fe8 e7bd
00000250: fe67 f6bc 2f29 c4bc 30d4 943d 7b35 46bd
00000260: 5c0a 89bc b41d efbd 95a2 ccbd a63d 963d
00000270: c005 453d 9719 09bd bcca e9bd 73af 38bb
00000280: b6e7 88bd 0c00 17bc a512 823d eff5 16bd
00000290: 26b3 1fbd e70f 883d 0c01 b63d 569b 1bbd
000002a0: ce0f ccbd 8dd6 a1bd f71a 9f3d e1d3 f2bd
000002b0: a43d 40bc 103e 15bd abf1 c43d 14d1 7d3d
000002c0: 35ac 21bd 7936 8dbd 3e99 da3c 5894 dcbd
000002d0: f523 debc 7fe7 103d ba9e dd3c f935 8a3d
000002e0: dbf0 d0bd cd82 d83c a6a5 8c3d 5192 abbd
000002f0: 8af9 04bc 9506 fbbc a1a6 e0bd aa90 42bc
00000300: cda5 953d 2f5d cbbd 7e28 aa3d 2bf5 523d
00000310: b3b9 3cbd 605a 223c de43 033d 0475 26bc
00000320: 3b7a a1bd 3fba c43d f362 9c3c 1dc6 37bd
00000330: 0baf d4bd ccf2 9b3d e318 da3c 9c8d 05ba
00000340: b0c2 acbb a6e3 3d3d 8631 25bd 3e8d 1a3d
00000350: fb71 a93d 4e3c 1ebd 910d d03d 849f 473d
00000360: 9d33 3dbb cb86 ab3d b612 563d b3b2 953d
00000370: 1963 9ebd 57e5 18bd 7492 c9bd 6fdf 95bd
00000380: 7f23 923d f920 41bd 7f3a d13c de03 f1bb
00000390: 3b9b 3bbd fe57 95bd f5b6 d43d cfe6 6ebd
000003a0: 7c89 243d d611 ec3d 40f2 763d 6505 93bd
000003b0: 6a75 a5bd b79a 44bd b117 a1bd 4327 97bc
000003c0: 8ba6 2ebc adca 87bd 319a b83c d3a5 9dbd
000003d0: 5efc 1e3d 1285 913d 353b d93d bc80 2b3d
000003e0: 5da9 2abc 6d67 d33d e7d7 74bd bcf5 603c
000003f0: 69c9 86bd e1ea 9dbd 9000 d93d 24ce 073d

layers.2.conv3.bias f4 [8]
2.434357e-07 7.595998e-05 1.2215022e-05 2.0909107e-05 -1.2333829e-05 0.00010799679 -6.299704e-05 2.8096574e-05
00000000: 8cb1 8234 b44c 9f38 1fef 4c37 f765 af37
00000010: 64ed 4eb7 567c e238 471d 84b8 efb0 eb37

layers.2.batch_norm.weight f4 [8]
1.0171136 1.0101538 0.97494364 0.9748709 0.9780209 1.0225626 0.9857915 0.97529435
00000000: c730 823f b84c 813f e895 793f 2491 793f
00000010: 945f 7a3f 55e3 823f d55c 7c3f e4ac 793f

layers.2.batch_norm.bias f4 [8]
0.014594023 -0.018939588 -0.02241163 -0.01143348 -0.014427568 0.023800693 -0.013650971 -0.02350888
00000000: c51b 6f3c 3227 9bbc 9898 b7bc 7e53 3bbc
00000010: 9b61 6cbc acf9 c23c 53a8 5fbc b295 c0bc

layers.2.batch_norm.running_mean f4 [8]
0.42282274 -0.3710877 0.07432739 0.06968025 0.04002473 -0.08593007 0.022001948 0.0806386
00000000: 397c d83e 35ff bdbe f538 983d 85b4 8e3d
00000010: f9f0 233d 1bfc afbd 6e3d b43c da25 a53d

layers.2.batch_norm.running_var f4 [8]
0.13804393 0.1391265 0.08865704 0.082370564 0.07375393 0.10174414 0.11739241 0.1509551
00000000: 635b 0d3e 2d77 0e3e d291 b53d e6b1 a83d
00000010: 4d0c 973d 3b5f d03d 6f6b f03d f993 1a3e

layers.3.conv1.weight f4 [16, 8, 1, 1]
-0.22613224 -0.27189037 -0.06970045 -0.24106568 0.1782401 -0.20826688 0.13324353 -0.20957574
0.03234255 -0.31968388 -0.25678656 0.010911044 -0.09485499 0.3605231 -0.28510034 0.19631976
0.07770513 0.09294792 -0.27763912 -0.21038105 0.29352003 -0.031257864 -0.19351786 0.050189607
-0.23354246 -0.3008521 -0.30976534 0.14117011 0.23761046 0.06378814 0.1295286 0.0864689
0.19768335 0.2243287 -0.30476034 -0.21208711 0.21927114 0.05507588 0.26304188 -0.2406868
0.06665997 0.359407 0.30445823 -0.32508704 0.07595408 -0.21583167 -0.23252563 -0.30014688
0.025051896 0.17049225 0.35976952 -0.16355738 -0.28768006 -0.22635505 0.046315882 -0.023601418
-0.3318424 0.12348728 0.2904646 -0.20635778 -0.18668889 0.08122011 -0.26404527 0.17368469
0.16424769 -0.08871165 -0.12344607 0.022992019 0.011427435 0.26972377 0.18143699 0.16139758
0.07730902 -0.3222196 -0.3688351 0.15972707 0.08200647 0.32911515 -0.026886689 -0.23460796
-0.20074858 -0.3320577 -0.010862738 -0.23241484 0.343517 -0.027608128 -0.25887698 0.15469693
0.2045854 0.2617481 -0.11561419 0.32837576 -0.05624291 -0.16120188 -0.18073028 -0.15017205
-0.3472214 -0.15534762 0.1801027 0.0009933714 0.2857129 0.3597173 0.27036175 0.2533881
-0.23272446 -0.23776397 -0.15594535 -0.09146803 0.20328924 0.23897061 -0.232536 -0.23594455
0.1811112 0.16821481 -0.16834469 0.32006276 -0.3005284 0.28975287 -0.04292869 0.3188109
0.27230233 0.35034528 0.11678606 -0.18529272 0.24037139 0.10013691 0.100124605 -0.11413179
00000000: 368f 67be 3735 8bbe 1cbf 8ebd ecd9 76be
00000010: 9384 363e ea43 55be fe70 083e 069b 56be
00000020: 9f79 043d 9bad a3be 8779 83be 3cc4 323c
00000030: 5543 c2bd 7c96 b83e acf8 91be 0c08 493e
00000040: de23 9f3d 7b5b be3d b726 8ebe 216e 57be
00000050: 4248 963e 3f08 00bd 8c29 46be 9e93 4d3d
00000060: c125 6fbe 4909 9abe 9099 9ebe e68e 103e
00000070: 2850 733e 5ba3 823d 25a3 043e 9b16 b13d
00000080: 816d 4a3e 6cb6 653e 8c09 9cbe 5d2d 59be
00000090: 9d88 603e 3f97 613d 6dad 863e 9a76 76be
000000a0: 0685 883d 3204 b83e f3e1 9b3e cf71 a6be
000000b0: d08d 9b3d fa02 5dbe 331b 6ebe daac 99be
000000c0: a239 cd3c 8595 2e3e b633 b83e 967b 27be
000000d0: cd4a 93be 9ec9 67be b9b5 3d3d c357 c1bc
000000e0: 3fe7 a9be e6e6 fc3d c7b7 943e 744f 53be
000000f0: 5f2b 3fbe bb56 a63d f130 87be 66da 313e
00000100: 8c30 283e 74ae b5bd 4bd1 fcbd c259 bc3c
00000110: 233a 3b3c 3c19 8a3e 9eca 393e 6845 253e
00000120: 3154 9e3d f8f9 a4be f4d7 bcbe 7e8f 233e
00000130: 02f3 a73d c881 a83e 7941 dcbc 123d 70be
00000140: 0991 4dbe 7803 aabe a0f9 31bc 28fe 6dbe
00000150: 76e1 af3e 712a e2bc 868b 84be df68 1e3e
00000160: d67e 513e d903 863e 22c7 ecbd de20 a83e
00000170: f75e 66bd 1b12 25be 5c11 39be b4c6 19be
00000180: 01c7 b1be 7213 1fbe d86c 383e 0334 823a
00000190: f648 923e de2c b83e db6c 8a3e 16bc 813e
000001a0: 524f 6ebe 6678 73be 23b0 1fbe 9753 bbbd
000001b0: 0e2b 503e b6b4 743e eb1d 6ebe 739b 71be
000001c0: 3775 393e 8140 2c3e 8d62 2cbe 44df a33e
000001d0: dcde 99be 7d5a 943e fed5 2fbd 2f3b a33e
000001e0: 366b 8b3e 7560 b33e 882d ef3d 60bd 3dbe
000001f0: eb23 763e 9514 cd3d 210e cd3d eebd e9bd

layers.3.conv1.bias f4 [16]
0.0016067015 0.0027814251 -7.521888e-05 -5.436768e-05 7.540179e-05 -0.0023755871 0.0020487206 0.00050585426
-0.0030879944 0.0020476494 -0.001366093 0.0015262064 0.0018725747 0.005768394 0.00043608592 -0.0023533378
00000000: f597 d23a 9248 363b d4be 9db8 da08 64b8
00000010: 0721 9e38 bdaf 1bbb d443 063b 4e9b 043a
00000020: f35f 4abb db31 063b 7a0e b3ba fd0a c83a
00000030: 2e71 f53a cc04 bd3b 76a2 e439 753a 1abb

layers.3.conv2.weight f4 [16, 8, 3, 3]
0.015290257 0.06306318 -0.029444478 -0.055621985 -0.10005329 -0.04969429 0.100585714 0.06572133
-0.09864631 -0.087318115 0.07180359 -0.054117274 -0.115710385 0.025070362 -0.068800315 -0.055505916
-0.0057202224 0.09692681 -0.046921704 -0.04577437 -0.10509255 0.09669721 -0.04050427 0.08466909
-0.06587162 -0.005924979 0.084129766 -0.066002876 0.008061804 -0.07526187 0.0011726649 0.051830254
-0.08959282 0.07445794 -0.064847805 -0.085460514 0.013319008 -0.03937191 0.08308795 0.11898164
0.0114405295 -0.06253125 0.043651473 -0.05229964 0.0005780608 -0.04002289 0.103938535 0.0799082
-0.108341925 0.010578919 0.055960596 0.049936157 -0.055190872 -0.07942574 -0.03506813 0.039348673
0.087890536 -0.014091556 -0.09789368 0.12913089 0.024990287 0.028206969 -0.055639323 0.011802094
0.006272641 0.099795826 0.081936665 -0.10182745 -0.119158186 -0.03924427 0.091882475 -0.04131257
0.08470374 0.12638046 0.04349136 -0.063953064 -0.025505401 -0.044427432 0.09123703 0.04313359
0.035121042 0.09874058 -0.093743406 -0.020184498 -0.08206361 0.11806001 0.07100855 0.053923365
-0.0037790413 0.014706295 0.097553186 -0.08972879 -0.08501451 0.084416255 0.06618909 -0.07458411
0.13484049 0.08997782 0.048092637 0.016194979 0.100105934 0.058758557 -0.02926919 -0.008383861
-0.05695957 0.038424015 -0.0072714426 -0.025206868 0.011818574 -0.08701954 0.023071824 0.03836402
-0.06831933 0.049466133 0.09775158 0.04568339 0.11224664 -0.04527587 0.0030782588 -0.009014576
-0.017415788 -0.09473166 0.0020600096 -0.027877957 -0.04799646 -0.011105784 -0.0066736573 0.11429948
0.0030310173 0.06309996 0.10124654 0.096629746 0.111058645 0.025988575 0.01368364 0.07646028
-0.07973567 -0.053935822 0.07113369 -0.06494382 -0.053064458 0.108662166 -0.08675326 -0.037998628
-0.026767988 -0.050115846 0.12984817 -0.07455932 -0.08970521 0.02344181 0.031296052 0.03984659
0.0115116285 -0.05590661 -0.004028178 -0.009192043 0.04179065 0.09166988 0.0775803 0.0019515764
-0.111932434 0.12125798 -0.08053161 -0.063343786 0.041844156 0.0114614405 0.008496465 -0.04188591
0.009336923 0.075454146 0.020217832 -0.103919394 -0.05288526 -0.045420732 0.043211207 -0.070063084
0.03182906 0.029374616 0.0034755187 -0.08575532 0.0818808 -0.09736526 0.023779405 0.032885812
0.07267797 0.051502146 0.12314358 0.107079186 0.08396916 0.017830085 -0.010603366 -0.018650012
-0.02373375 0.05352008 0.054962005 0.05621316 -0.12367378 0.03264034 0.10773024 0.13596392
-0.04242453 -0.025242744 -0.082198545 0.07215447 0.06655275 0.10569186 0.116228014 -0.11029695
-0.027671937 -0.078845486 0.07011809 -0.027248308 -0.06644386 0.034652755 0.017332638 -0.039754353
0.099333785 -0.10952034 0.08640307 0.06373055 -0.06919891 0.030253327 -0.03553037 -0.020161359
0.054642208 -0.0575558 0.07529139 -0.086661085 0.03944789 -0.10348638 -0.10460015 -0.054086067
-0.05359236 0.027156644 -0.07932013 -0.063376695 -0.013465685 0.07557147 0.0043442138 0.07486844
0.08464393 -0.006661052 -0.036460172 -0.036695752 0.0046636104 0.06739111 -0.051887132 0.024345068
-0.020166306 0.0621586 -0.0343083 -0.028015316 0.028242154 0.029621918 0.0038140672 0.05955856
00000000: fc83 7a3c 4527 813d 8c35 f1bc e1d3 63bd
00000010: bde8 ccbd 3d8c 4bbd e2ff cd3d e898 863d
00000020: 1407 cabd d7d3 b2bd c30d 933d 13aa 5dbd
00000030: 91f9 ecbd 5c60 cd3c 2ee7 8cbd 2c5a 63bd
00000040: b470 bbbb 9081 c63d f930 40bd e87d 3bbd
00000050: c33a d7bd 3009 c63d cee7 25bd fd66 ad3d
00000060: b3e7 86bd 5426 c2bb 3a4c ac3d 842c 87bd
00000070: a815 043c e522 9abd 1bb4 993a f64b 543d
00000080: 717c b7bd 687d 983d edce 84bd ec05 afbd
00000090: f837 5a3c 7144 21bd 042a aa3d a5ac f33d
000000a0: 0f71 3b3c 6210 80bd e3cb 323d 2638 56bd
000000b0: 0189 173a 0bef 23bd badd d43d e9a6 a33d
000000c0: 5fe2 ddbd 3453 2d3c f036 653d db89 4c3d
000000d0: d30f 62bd f6a9 a2bd 99a3 0fbd 132c 213d
000000e0: f4ff b33d 45e0 66bc 7b7c c8bd e33a 043e
000000f0: 6eb8 cc3c 4d12 e73c 0fe6 63bd 925d 413c
00000100: ba8a cd3b c161 cc3d 69ce a73d e98a d0bd
00000110: 3509 f4bd 9abe 20bd e12c bc3d 5f37 29bd
00000120: 2879 ad3d e169 013e ff23 323d d3f9 82bd
00000130: b4f0 d0bc 8af9 35bd 7bda ba3d d9ac 303d
00000140: 15db 0f3d 8038 ca3d 8bfc bfbd f659 a5bc
00000150: f710 a8bd 72c9 f13d ee6c 913d bfde 5c3d
00000160: cba9 77bb acf2 703c f7c9 c73d bac3 b7bd
00000170: 161c aebd 6ee2 ac3d 258e 873d 8ebf 98bd
00000180: a013 0a3e 4b46 b83d c9fc 443d 55ab 843c
00000190: 5704 cd3d d0ac 703d f1c5 efbc 765c 09bc
000001a0: 704e 69bd 8062 1d3d 4845 eebb a27e cebc
000001b0: b1a2 413c 4d37 b2bd 1f01 bd3c 9723 1d3d
000001c0: 01eb 8bbd 009d 4a3d fb31 c83d 821e 3b3d
000001d0: 91e1 e53d 3173 39bd 9dbc 493b dfb1 13bc
000001e0: 8eab 8ebc ac02 c2bd 3a01 073b 5060 e4bc
000001f0: f097 44bd 09f5 35bc b2ae dabb d915 ea3d
00000200: 08a4 463b 8d3a 813d 595a cf3d d1e5 c53d
00000210: b772 e33d fee5 d43c 5931 603c 3597 9c3d
00000220: 744c a3bd cfeb 5cbd 8aae 913d 4401 85bd
00000230: 1e5a 59bd 458a de3d b1ab b1bd 73a4 1bbd
00000240: 8a48 dbbc 4646 4dbd ebf6 043e 8fb2 98bd
00000250: 5db7 b7bd 0a09 c03c 4a30 003d 2e36 233d
00000260: 459b 3c3c 54fe 64bd cefe 83bb 399a 16bc
00000270: ac2c 2b3d 6bbd bb3d 6ce2 9e3d 0acc ff3a
00000280: d53c e5bd 1b56 f83d c2ed a4bd 63ba 81bd
00000290: c764 2b3d c4c8 3b3c c234 0b3c 8f90 2bbd
000002a0: e5f9 183c b487 9a3d de9f a53c b1d3 d4bd
000002b0: 379e 58bd 170b 3abd 3cfe 303d 3c7d 8fbd
000002c0: 305f 023d 09a3 f03c 87c5 633b 7ca0 afbd
000002d0: 1fb1 a73d 7067 c7bd 07cd c23c 46b3 063d
000002e0: 30d8 943d eaf3 523d b432 fc3d 554c db3d
000002f0: 06f8 ab3d 6610 923c beb9 2dbc e9c7 98bc
00000300: 486d c2bc df37 5b3d d71f 613d c53f 663d
00000310: ae48 fdbd e1b1 053d aca1 dc3d 203a 0b3e
00000320: 58c5 2dbd dfc9 cebc b657 a8bd b9c5 933d
00000330: cf4c 883d f974 d83d f408 ee3d 5ee3 e1bd
00000340: 42b0 e2bc be79 a1bd 139a 8f3d d837 dfbc
00000350: b813 88bd 0cf0 0d3d 2dfd 8d3c 76d5 22bd
00000360: 836f cb3d 334c e0bd 18f4 b03d 2a85 823d
00000370: 28b8 8dbd d3d5 f73c 4b88 11bd 6f29 a5bc
00000380: 82d0 5f3d a1bf 6bbd 5f32 9a3d 5e7b b1bd
00000390: 1c94 213d abf0 d3bd 9a38 d6bd 5a89 5dbd
000003a0: aa83 5bbd 9c77 de3c 9872 a2bd a4cb 81bd
000003b0: 2d9f 5cbc 37c5 9a3d e859 8e3b a054 993d
000003c0: cc59 ad3d f444 dabb 4357 15bd 494e 16bd
000003d0: 33d1 983b 5a04 8a3d 9a87 54bd 4f6f c73c
000003e0: cf33 a5bc 049a 7e3d dc86 0cbd 6080 e5bc
000003f0: 175c e73c aaa9 f23c 6ef5 793b adf3 733d

layers.3.conv2.bias f4 [16]
-0.0014906207 0.009738136 0.013839229 -0.0048804656 0.018895349 0.008206265 0.008070673 0.0023415682
-0.01637095 -0.002302266 0.00836178 0.017313698 0.013707962 0.02219311 0.00878096 0.0023196589
00000000: ee60 c3ba b48c 1f3c efbd 623c 50ec 9fbb
00000010: 6bca 9a3c 9273 063c db3a 043c ff74 193b
00000020: 5f1c 86bc 9de1 16bb d9ff 083c 75d5 8d3c
00000030: 5c97 603c 53ce b53c 04de 0f3c 6b05 183b

layers.3.conv3.weight f4 [16, 16, 3, 3]
-0.05376164 -0.024729874 -0.0066685635 -0.03505757 -0.026834376 -0.07097695 0.0747846 0.020569384
-0.006636396 0.0079711275 0.0013960069 -0.019107107 0.02534793 -0.059395388 -0.0003513144 0.037613213
-0.08086091 -0.0014652234 -0.08086422 0.06500794 -0.02993441 0.018084722 -0.0037184258 0.041367915
-0.05043952 0.070287205 -0.076376334 0.053786315 -0.031148417 0.074631475 -0.065949515 -0.05490533
-0.03657918 0.051292162 0.08528385 0.03022987 -0.018208908 -0.044653457 -0.05810168 -0.059350066
-0.06920811 0.08328783 0.05278871 -0.020186046 0.037561055 0.048182953 -0.04302963 0.0057318527
0.019912839 -0.061576582 0.015475125 0.016127879 0.0397401 0.07048683 -0.010981991 0.075945444
0.07072508 0.07517027 -0.0057987147 -0.027259018 0.05111592 -0.033713743 0.06532792 -0.0037659663
-0.01930962 -0.0816508 -0.011960883 0.04087788 -0.0058363 0.027448602 -0.09666004 -0.063747756
0.03629592 0.07709925 0.027812937 -0.058764018 -0.047165234 0.09377291 -0.06797003 0.040424313
-0.04515674 0.018294998 -0.06788032 -0.09352933 -0.045938037 -0.014432546 -0.053087894 -0.004579136
0.06746549 0.07593016 0.007921866 0.025390971 0.014665188 -0.001094009 0.048411228 0.08504432
-0.040269937 0.052145444 0.003891074 -0.05405992 0.0005010193 0.055110127 -0.010869291 -0.02981219
-0.02447826 -0.017263228 -0.02513637 0.08166373 -0.06775157 0.08585018 0.0059608105 -0.0432634
-0.013517676 -0.020091865 0.049886785 -0.021158421 -0.046597697 -0.061192 0.058805715 0.0683512
-0.04710154 -0.089675575 0.042230427 0.032408785 -0.023695886 0.0471149 0.061432485 0.0139943
0.018170943 0.08532624 0.054840457 0.0556003 -0.039045926 -0.048696958 0.042503867 0.016009517
-0.03450004 -0.017417783 -0.041405454 0.01881334 -0.03443719 0.019107083 0.053412005 0.06948704
-0.061135616 -0.06447624 0.0048095696 -0.07465303 0.033892985 -0.016451871 -0.020627653 0.005774904
0.065923676 0.07867262 0.044253297 -0.036250997 -0.022242967 0.02785074 -0.031261254 0.032122724
-0.024512421 -0.024765847 -0.039778084 0.09011804 0.10188458 0.083515726 0.02789478 -0.03592522
0.090800874 -0.018601926 0.0743778 -0.010747874 -0.046430457 -0.030972991 -0.016620586 0.0073470566
-0.025718262 0.0013870739 0.002929172 -0.0025549913 -0.050909605 -0.019981282 0.005261602 -0.016011208
-0.047439124 -0.035067804 -0.068676576 0.029486457 0.058635242 0.04632581 -0.08581465 0.057866216
0.04048242 0.014628824 -0.047054358 0.0052156122 -0.01605226 0.020299459 -0.080060296 0.025244683
0.037921622 0.037510056 -0.023009345 0.00010390973 -0.003242557 0.0921884 -0.0057492084 0.09354282
-0.035636887 0.020013813 -0.036554318 0.04772035 -0.014837259 -0.042802546 0.014063282 0.015559345
0.017519578 -0.03643154 0.08017139 -0.06711808 0.04235984 -0.020333514 -0.06663393 0.028661741
0.058540385 0.026021143 0.058725603 0.075866245 0.0064593647 -0.0050191004 -0.031989735 0.060717277
-0.07148345 0.023541674 -0.014085039 -0.0626342 -0.012377697 0.025017193 -0.0020862888 -0.07205129
5.985876e-05 0.013015575 0.035688404 -0.08874821 -0.0019880864 -0.0817386 -0.0066508437 -0.021261403
-0.05474227 0.0061037014 -0.025115063 0.009691029 -0.047975484 -0.023262473 -0.073714875 -0.0141957775
00000000: 2a35 5cbd 4e96 cabc f783 dabb 8798 0fbd
00000010: c4d3 dbbc 5d5c 91bd ab28 993d 2081 a83c
00000020: 2076 d9bb 5599 023c 38fa b63a 8286 9cbc
00000030: 76a6 cf3c 9448 73bd 9f30 b8b9 5010 1a3d
00000040: 689a a5bd bd0c c0ba 249c a5bd e222 853d
00000050: 0239 f5bc 6926 943c d5b0 73bb 6771 293d
00000060: ac99 4ebd bdf2 8f3d 326b 9cbd 0a4f 5c3d
00000070: f72a ffbc 63d8 983d 8a10 87bd 69e4 60bd
00000080: 0dd4 15bd bb17 523d 4da9 ae3d a2a4 f73c
00000090: d92a 95bc 8be6 36bd 07fc 6dbd 0e19 73bd
000000a0: fbbc 8dbd cf92 aa3d f938 583d 355d a5bc
000000b0: 9fd9 193d 7d5b 453d d63f 30bd 44d2 bb3b
000000c0: 4020 a33c ba37 7cbd 618b 7d3c 9d1e 843c
000000d0: 84c6 223d 665b 903d cfed 33bc 4989 9b3d
000000e0: 50d8 903d dff2 993d 2503 bebb 4e4e dfbc
000000f0: ed5e 513d 6c17 0abd a5ca 853d 6ece 76bb
00000100: 352f 9ebc 8938 a7bd 94f7 43bc 906f 273d
00000110: 6f3e bfbb e4db e03c b3f5 c5bd 2f8e 82bd
00000120: 08ab 143d 36e6 9d3d f5d7 e33c 8ab2 70bd
00000130: 5530 41bd 030c c03d df33 8bbd f793 253d
00000140: 46f6 38bd 64df 953c d604 8bbd 4e8c bfbd
00000150: 8629 3cbd 7c76 6cbc b172 59bd 940c 96bb
00000160: 592b 8a3d 4681 9b3d b7ca 013c ba00 d03c
00000170: 4246 703c da64 8fba da4a 463d b72b ae3d
00000180: 17f2 24bd 7696 553d 6401 7f3b ef6d 5dbd
00000190: d656 033a 28bb 613d 1c15 32bc b238 f4bc
000001a0: a286 c8bc 9d6b 8dbc caea cdbc 503f a73d
000001b0: 56c1 8abd 38d2 af3d e752 c33b f734 31bd
000001c0: 3e79 5dbc b297 a4bc 1656 4c3d 6d54 adbc
000001d0: 3add 3ebd 76a4 7abd 43de 703d b7fb 8b3d
000001e0: 8bed 40bd d4a7 b7bd d0f9 2c3d 13bf 043d
000001f0: e01d c2bc 8efb 403d a1a0 7b3d 5948 653c
00000200: 3bdb 943c 86bf ae3d 63a0 603d 24bd 633d
00000210: 9fee 1fbd 7676 47bd 8918 2e3d 6426 833c
00000220: ea4f 0dbd bdaf 8ebc c498 29bd 6f1e 9a3c
00000230: 030e 0dbd 7586 9c3c 8cc6 5a3d 394f 8e3d
00000240: 5769 7abd 1e0c 84bd 9899 9d3b b0e3 98bd
00000250: 5fd3 0a3d 13c6 86bc 53fb a8bc 683b bd3b
00000260: fe02 873d 1c1f a13d f242 353d ed7b 14bd
00000270: e236 b6bc 3c27 e43c cd0b 00bd 1e93 033d
00000280: 46ce c8bc bfe1 cabc 58ee 22bd cf8f b83d
00000290: dda8 d03d 4b0a ab3d 9883 e43c 5326 13bd
000002a0: cff5 b93d 1163 98bc 6353 983d da17 30bc
000002b0: dd2d 3ebd 12bb fdbc e527 88bc 94bf f03b
000002c0: 1baf d2bc 7ace b53a 5af7 3f3b a471 27bb
000002d0: 9786 50bd c9af a3bc 8469 ac3b f029 83bc
000002e0: 874f 42bd 42a3 0fbd 4ea6 8cbd 958d f13c
000002f0: 822b 703d 22c0 3d3d 97bf afbd 2005 6d3d
00000300: e5d0 253d bcad 6f3c 12bc 40bd bae7 aa3b
00000310: 0780 83bc 0d4b a63c a7f6 a3bd f0cd ce3c
00000320: b453 1b3d 25a4 193d 187e bcbc 1dea d938
00000330: 1481 54bb 46cd bc3d db63 bcbb 6193 bf3d
00000340: fcf7 11bd 02f4 a33c fbb9 15bd 6a76 433d
00000350: fa17 73bc b951 2fbd ae69 663c 9fec 7e3c
00000360: 3885 8f3c 3d39 15bd e630 a43d 3475 89bd
00000370: 8381 2d3d 7892 a6bc 5f77 88bd 07cc ea3c
00000380: 0bc8 6f3d 4b2a d53c 428a 703d c35f 9b3d
00000390: 14a9 d33b 4477 a4bb ab07 03bd aeb2 783d
000003a0: ea65 92bd 78da c03c efc4 66bc 5c46 80bd
000003b0: d3cb 4abc dbf0 cc3c 1eba 08bb a08f 93bd
000003c0: db10 7b38 473f 553c 012e 123d 9fc1 b5bd
000003d0: 8e4a 02bb 9166 a7bd 52ef d9bb 652c aebc
000003e0: 6e39 60bd 8f01 c83b 1bbe cdbc 1fc7 1e3c
000003f0: f181 44bd f190 bebc d3f7 96bd 6895 68bc

layers.3.conv3.bias f4 [16]
1.8984623e-05 -2.6071364e-05 -2.5210643e-06 1.4631365e-06 -1.4338092e-05 1.5922775e-05 -1.213353e-06 -2.1165575e-05
2.8193506e-05 -3.349168e-05 3.9572346e-06 1.6243334e-06 -1.9703912e-05 -0.00016709266 -1.5456135e-05 9.648419e-07
00000000: 2b41 9f37 d4b3 dab7 8e2f 29b6 fd60 c435
00000010: a38d 70b7 e691 8537 7eda a2b5 ba8c b1b7
00000020: 1881 ec37 6b79 0cb8 63c8 8436 ac03 da35
00000030: d449 a5b7 9835 2fb9 cca7 81b7 b77f 8135

layers.3.batch_norm.weight f4 [16]
0.99989194 1.0200262 1.0157342 0.9829059 0.9939529 0.9921275 1.0053006 1.0133461
0.97986746 1.0153836 0.9871966 1.020891 1.0058961 1.0193675 0.9803826 1.0126674
00000000: ebf8 7f3f 3890 823f 9403 823f b99f 7b3f
00000010: b273 7e3f 11fc 7d3f b1ad 803f 53b5 813f
00000020: 98d8 7a3f 17f8 813f ebb8 7c3f 8eac 823f
00000030: 34c1 803f a27a 823f 5bfa 7a3f 169f 813f

layers.3.batch_norm.bias f4 [16]
-0.0045788474 0.019910635 0.018514575 -0.016589122 -0.016571088 0.00046786887 0.00054555293 0.015950276
-0.019771472 0.021004807 -0.017535063 -0.0007750295 0.016819345 0.018583056 -0.01891295 0.0044769417
00000000: 280a 96bb a11b a33c e1ab 973c e9e5 87bc
00000010: 17c0 87bc 4c4c f539 7003 0f3a 27aa 823c
00000020: c8f7 a1bc 4612 ac3c b1a5 8fbc 592b 4bba
00000030: b9c8 893c 7e3b 983c 55ef 9abc 4fb3 923b

layers.3.batch_norm.running_mean f4 [16]
-0.36956552 -0.11838268 -0.05094599 -0.113787584 0.0783565 -0.042064287 -0.023253074 -0.09111046
0.21397747 -0.119670995 -0.21620403 0.054124814 0.28844136 -0.26258484 0.28513688 0.36036497
00000000: b137 bdbe 9e72 f2bd beac 50bd 7709 e9bd
00000010: 5f79 a03d 9a4b 2cbd 3b7d bebc 1f98 babd
00000020: e91c 5b3e 1116 f5bd 9764 5dbe fbb1 5d3d
00000030: 96ae 933e 8571 86be 76fd 913e c281 b83e

layers.3.batch_norm.running_var f4 [16]
0.09810688 0.12344687 0.22424944 0.15336016 0.15160063 0.35166827 0.16377553 0.33622006
0.1392932 0.20433904 0.36353755 0.122019 0.12648909 0.119708605 0.21409689 0.114831366
00000000: 43ec c83d b6d1 fc3d a5a1 653e 720a 1d3e
00000010: 323d 1b3e dd0d b43e c6b4 273e 0925 ac3e
00000020: e0a2 0e3e 413e 513e 9821 ba3e 19e5 f93d
00000030: 5b86 013e c929 f53d 373c 5b3e b52c eb3d

conv1.weight f4 [1, 16, 1, 1]
-0.20158702 0.114839196 0.025933525 0.004771902 -0.20219961 0.20813617 -0.25004128 0.16183607
-0.11383245 0.13569757 -0.09315611 -0.21632308 0.21469197 0.18373509 -0.1686518 -0.18251778
00000000: d46c 4ebe d030 eb3d 8b72 d43c 9e5d 9c3b
00000010: 6a0d 4fbe a621 553e 6905 80be 5bb8 253e
00000020: fd20 e9bd 4ef4 0a3e a1c8 bebd cc83 5dbe
00000030: 36d8 5b3e 0d25 3c3e 0fb3 2cbe f1e5 3abe
