nets/gan-not-best-step-2.pth (torch, 36351 bytes, 41 tensors)

layers.0.conv1.weight f4 [2, 1, 1, 1]
0.81497496 -0.31410244
00000000: 33a2 503f 09d2 a0be

layers.0.conv1.bias f4 [2]
-0.014618974 -0.022312887
00000000: 6c84 6fbc 84c9 b6bc

layers.0.conv2.weight f4 [2, 1, 3, 3]
0.09762674 0.25198948 -0.11153666 -0.28646174 -0.09270526 0.21950865 -0.31447902 0.25487092
0.3728791 -0.34009832 0.07189807 -0.22018287 0.36332253 0.45042533 -0.28464082 0.40930766
0.1270582 0.27595225
00000000: 87f0 c73d c404 813e 556d e4bd 1dab 92be
00000010: 41dc bdbd e0c6 603e 6503 a1be 717e 823e
00000020: 02ea be3e 5e21 aebe 4c3f 933d 9e77 61be
00000030: 6905 ba3e 269e e63e 71bc 91be c690 d13e
00000040: 8b1b 023e 9d49 8d3e

layers.0.conv2.bias f4 [2]
0.12582754 0.12826182
00000000: efd8 003e 1157 033e

layers.0.conv3.weight f4 [2, 2, 3, 3]
0.009710493 -0.22513849 -0.11275715 0.17334063 -0.005440722 -0.115517415 0.25801545 -0.25706464
-0.051342823 -0.17900336 -0.116240405 -0.100548446 -0.16857906 0.08945534 0.15638763 0.04286683
0.080900036 0.23730378 0.32145107 -0.040695015 -0.30261588 0.30889782 0.080732 -0.037963174
-0.22606619 0.19072609 0.06574767 0.28886274 -0.037723765 0.30491644 -0.30312887 0.091986835
-0.025868427 -0.21504357 -0.09457709 -0.40076044
00000000: c218 1f3c b48a 66be 38ed e6bd 3580 313e
00000010: 1648 b2bb 6594 ecbd 9a1a 843e fa9d 83be
00000020: da4c 52bd a84c 37be 730f eebd 58ec cdbd
00000030: fd9f 2cbe 5c34 b73d 1424 203e 2195 2f3d
00000040: ebae a53d c3ff 723e 3c95 a43e d1af 26bd
00000050: 78f0 9abe db27 9e3e d256 a53d 467f 1bbd
00000060: e57d 67be b34d 433e b7a6 863d d1e5 933e
00000070: 3c84 1abd 021e 9c3e b533 9bbe 9863 bc3d
00000080: 06ea d3bc 6234 5cbe a2b1 c1bd 7930 cdbe

layers.0.conv3.bias f4 [2]
-0.0005806249 -0.0033668906
00000000: 1435 18ba 0da7 5cbb

layers.0.batch_norm.weight f4 [2]
0.9945133 0.9844108
00000000: 6c98 7e3f 5902 7c3f

layers.0.batch_norm.bias f4 [2]
-0.04200191 -0.0059430213
00000000: 320a 2cbd adbd c2bb

layers.0.batch_norm.running_mean f4 [2]
0.38113528 -0.19755158
00000000: 2a24 c33e f64a 4abe

layers.0.batch_norm.running_var f4 [2]
0.054638006 0.0051899417
00000000: 1acc 5f3d 6310 aa3b

layers.1.conv1.weight f4 [4, 2, 1, 1]
-0.28065556 -0.5730293 -0.68606514 0.2244135 0.11294553 0.3326042 -0.6723997 0.3045148
00000000: 16b2 8fbe 0cb2 12bf f7a1 2fbf a7cc 653e
00000010: fc4f e73d 194b aa3e 6322 2cbf 5de9 9b3e

layers.1.conv1.bias f4 [4]
-0.0028641878 -0.0006212919 0.013753776 0.011201711
00000000: 19b5 3bbb 32de 22ba 8557 613c 6287 373c

layers.1.conv2.weight f4 [4, 2, 3, 3]
0.16599658 -0.15597472 0.15841153 -0.191681 0.09281727 -0.16269705 -0.116062194 -0.19915883
-0.20578769 0.16152781 0.17099819 0.117541276 0.106200114 0.14352904 0.34822688 0.12483553
0.19246349 0.31888038 -0.1682272 -0.1980061 0.022532634 0.09839172 -0.24007927 0.05281076
-0.014944681 -0.20043772 0.015530095 0.0016261227 0.04997646 0.09897892 0.3399168 0.25913516
0.24598905 0.32467133 0.28856358 0.048407346 0.0012739642 -0.096107654 -0.06371431 -0.058039736
0.0035709536 -0.13741513 -0.004613278 -0.17594299 -0.02475043 0.045787342 0.35410425 0.12192041
0.2254753 0.30953696 0.22855517 0.14175047 -0.011060949 0.15492459 -0.091213696 -0.12865318
0.035864804 0.015607887 0.087212875 -0.18778887 0.09471286 0.060803283 -0.22595516 0.17476337
-0.048305627 0.31973818 0.32780138 0.22703552 0.29794434 0.17933577 0.24306296 0.008771706
00000000: 02fb 293e d6b7 1fbe a236 223e 0648 44be
00000010: fb16 be3d 0e9a 26be 04b2 edbd 4bf0 4bbe
00000020: 02ba 52be 8c67 253e 261a 2f3e 7bb9 f03d
00000030: 727f d93d 47f9 123e cb4a b23e c5a9 ff3d
00000040: 2615 453e 4a44 a33e c043 2cbe 1cc2 4abe
00000050: 5c96 b83c 9981 c93d 57d7 75be 1850 583d
00000060: 89da 74bc 8c3f 4dbe f171 7e3c a023 d53a
00000070: 1eb4 4c3d 76b5 ca3d 9309 ae3e 5dad 843e
00000080: 8ee4 7b3e 523b a63e 9bbe 933e c846 463d
00000090: 25fb a63a 17d4 c4bd a67c 82bd 13bb 6dbd
000000a0: a906 6a3b 8db6 0cbe fb2a 97bb 662a 34be
000000b0: 6ac1 cabc 828b 3b3d 274d b53e 68b1 f93d
000000c0: ffe2 663e a17b 9e3e 5e0a 6a3e 0927 113e
000000d0: fc38 35bc 8da4 1e3e 3fce babd a9bd 03be
000000e0: f9e6 123d 39b8 7f3c aa9c b23d ba4b 40be
000000f0: d1f8 c13d dd0c 793d ca60 67be 2bf5 323e
00000100: 1fdc 45bd b9b4 a33e 95d5 a73e 007c 683e
00000110: 298c 983e cca3 373e 7fe5 783e 34b7 0f3c

layers.1.conv2.bias f4 [4]
0.13169724 0.119917884 0.11428277 0.08004914
00000000: a4db 063e 8297 f53d 160d ea3d cef0 a33d

layers.1.conv3.weight f4 [4, 4, 3, 3]
0.26047322 0.21195845 0.25241512 0.023509806 0.20372528 0.12996182 0.04476059 0.2710021
0.22036618 0.20803584 0.096371025 0.06595351 0.21181259 0.21028438 0.2648499 0.17541844
0.1243223 0.2156611 0.264588 0.10403781 0.17899635 0.15278468 0.065879434 0.17293447
0.07710676 0.23492919 0.08215062 0.020663612 0.27144322 0.069911994 0.14669292 0.25773478
0.24708153 0.14524098 0.1400246 0.08215958 -0.19361627 -0.0777129 -0.22894447 0.005396594
-0.08689216 -0.012155443 -0.070603415 -0.22519135 -0.15556978 0.016914833 -0.049521152 -0.21466002
-0.11698857 -0.030506255 -0.18622921 -0.114134915 -0.0956589 -0.027910046 -0.16352315 -0.20935054
-0.14740764 -0.1368216 -0.059244834 -0.036633655 -0.0007918777 -0.05135586 -0.16084498 -0.11771238
-0.27352464 -0.12463359 -0.12151212 -0.11932194 -0.18246005 -0.039824277 -0.12295182 0.04101867
-0.021610131 -0.21478087 -0.19748393 -0.10722308 -0.09954673 -0.042825934 0.10155238 -0.1841183
0.08879836 -0.059651546 -0.0760012 -0.03386534 -0.19437386 -0.035313286 -0.25230497 -0.16933385
-0.12500161 0.020562174 -0.24829304 -0.29845133 -0.21582395 -0.12427569 -0.06953531 -0.17441455
-0.20079876 -0.11630007 -0.07175835 0.057348415 -0.121668614 -0.09469785 0.053456232 -0.24379465
-0.020217586 0.09751246 0.03421943 -0.060035147 -0.122028776 -0.23224859 -0.080769874 -0.16052146
-0.25621393 -0.14799905 -0.042465728 -0.22241075 -0.05898978 -0.12515295 -0.13382928 -0.1764136
-0.27305558 -0.07659706 -0.24131061 -0.078487106 -0.24517706 -0.041463945 -0.06597842 -0.2064074
-1.8907679e-06 -0.18910477 -0.2663277 -0.24228112 -0.1648148 -0.08346822 -0.14693524 -0.19046892
-0.02126954 -0.08014637 -0.016639302 -0.24926887 -0.022012671 -0.21298802 -0.21801445 -0.23642877
00000000: bf5c 853e a30b 593e 8e3c 813e a397 c03c
00000010: 5c9d 503e b614 053e e156 373d cac0 8a3e
00000020: aca7 613e 5907 553e 2c5e c53d a212 873d
00000030: 66e5 583e ca54 573e 689a 873e e4a0 333e
00000040: b19c fe3d 43d6 5c3e 1478 873e c611 d53d
00000050: d24a 373e 9673 1c3e cceb 863d bc15 313e
00000060: 26ea 9d3d 4791 703e 963e a83d bc46 a93c
00000070: 9bfa 8a3e 052e 8f3d ab36 163e d0f5 833e
00000080: f102 7d3e 0dba 143e 9c62 0f3e 4843 a83d
00000090: 5843 46be f127 9fbd 6b70 6abe e9d5 b03b
000000a0: 84f4 b1bd a027 47bc 8698 90bd 9098 66be
000000b0: af4d 1fbe fa90 8a3c b1d6 4abd d6cf 5bbe
000000c0: b497 efbd 41e8 f9bc dfb2 3ebe 91bf e9bd
000000d0: d0e8 c3bd 9ca3 e4bc 9d72 27be fd5f 56be
000000e0: 07f2 16be f61a 0cbe b6aa 72bd 2c0d 16bd
000000f0: 0396 4fba 865a 52bd 8cb4 24be 3013 f1bd
00000100: 6c0b 8cbe e53f ffbd 59db f8bd 105f f4bd
00000110: cfd6 3abe c81e 23bd 2ace fbbd 3103 283d
00000120: bb07 b1bc 84ef 5bbe 3a39 4abe c697 dbbd
00000130: 28df cbbd 3f6a 2fbd b2fa cf3d 8289 3cbe
00000140: eadb b53d 2e55 74bd 84a6 9bbd 62b6 0abd
00000150: f109 47be aaa4 10bd 1e2e 81be da65 2dbe
00000160: 6c00 00be 0172 a83c 8840 7ebe 9dce 98be
00000170: f400 5dbe 4184 febd 8768 8ebd ba99 32be
00000180: 319e 4dbe bb2e eebd 0bf6 92bd 2ce6 6a3d
00000190: 652d f9bd f2f0 c1bd ecf4 5a3d 4ea5 79be
000001a0: 5a9f a5bc 9db4 c73d ac29 0c3d 6ae7 75bd
000001b0: 39ea f9bd 93d2 6dbe ad6a a5bd bd5f 24be
000001c0: 792e 83be 108d 17be 8bf0 2dbd a5bf 63be
000001d0: 449f 71bd 1828 00be 8b0a 09be c4a5 34be
000001e0: f1cd 8bbe ebde 9cbd 211a 77be d9bd a0bd
000001f0: b20f 7bbe 19d6 29bd b21f 87bd 765c 53be
00000200: 4ac6 fdb5 aea4 41be 1b5c 88be 8b18 78be
00000210: 36c5 28be 63f1 aabd 3176 16be 490a 43be
00000220: 753d aebc c823 a4bd 254f 88bc 5740 7fbe
00000230: eb53 b4bc 8819 5abe 2e3f 5fbe 621a 72be

layers.1.conv3.bias f4 [4]
0.0005788505 -0.0002585892 -0.00015008368 -0.0006990253
00000000: 00be 173a 4193 87b9 c85f 1db9 cb3e 37ba

layers.1.batch_norm.weight f4 [4]
0.9902354 0.9667955 0.97702307 1.0203502
00000000: 1180 7d3f e97f 773f 2f1e 7a3f d69a 823f

layers.1.batch_norm.bias f4 [4]
-0.010229736 -0.031197999 0.018388223 0.041784238
00000000: 9f9a 27bc f292 ffbc e6a2 963c f325 2b3d

layers.1.batch_norm.running_mean f4 [4]
-0.81782126 0.116729714 0.45534688 0.2806066
00000000: bc5c 51bf fd0f ef3d 3a23 e93e abab 8f3e

layers.1.batch_norm.running_var f4 [4]
0.20312646 0.29218054 0.07250596 0.38587877
00000000: 6200 503e b098 953e 017e 943d e791 c53e

layers.2.conv1.weight f4 [8, 4, 1, 1]
0.44326568 0.34632832 -0.06621254 0.3740972 -0.30061242 -0.41282305 0.23872441 -0.4334722
-0.017413788 0.2765408 -0.28813308 0.31193614 0.048049025 -0.20546915 0.13469246 0.015279204
0.06872844 0.44105396 -0.029814802 -0.36763886 0.10037031 -0.334095 0.41069502 -0.32834455
0.017795093 -0.48796976 0.4838474 0.01178998 0.29539788 0.36614043 -0.4479098 -0.07202926
00000000: b8f3 e23e f251 b13e 719a 87bd ab89 bf3e
00000010: dfe9 99be 8b5d d3be 2c74 743e 11f0 ddbe
00000020: 5ca7 8ebc c196 8d3e 2e86 93be 18b6 9f3e
00000030: 0ecf 443d 8166 52be d2ec 093e a055 7a3c
00000040: 7fc1 8c3d d3d1 e13e 2c3e f4bc 293b bcbe
00000050: f38e cd3d 800e abbe 9e46 d23e c71c a8be
00000060: 04c7 913c 2cd7 f9be d9ba f73e c32a 413c
00000070: 643e 973e c276 bb3e 6f54 e5be 1484 93bd

layers.2.conv1.bias f4 [8]
-4.2450672e-05 -0.0017067939 -9.276796e-05 0.0036610784 -0.00435754 0.004168145 -0.0047553848 -0.004280026
00000000: 100d 32b8 80b6 dfba 6b8c c2b8 b4ee 6f3b
00000010: b2c9 8ebb ef94 883b 0fd3 9bbb 763f 8cbb

layers.2.conv2.weight f4 [8, 4, 3, 3]
-0.14976883 -0.2006589 0.01947575 0.02776152 -0.15654352 -0.06259955 -0.11801251 -0.06569916
0.18365923 0.016173778 -0.031381987 0.18081409 0.051547583 0.10548342 0.022932392 0.031705193
0.19065998 0.12673815 0.14191788 0.20986596 0.008969237 -0.009255206 0.15022962 0.10970274
0.012972916 -0.036924776 0.14564265 0.103240445 -0.0057390435 -0.05424095 0.07729842 0.18597043
0.0128882965 0.07535179 0.015323125 -0.0032692456 0.009700415 0.10449184 0.23612656 0.013453818
0.045282975 0.12439396 0.08133308 0.19643408 0.026186794 -0.14231437 -0.08693504 0.011946035
-0.1306439 0.082047254 -0.18490008 0.03016802 -0.10343909 -0.11596024 -0.069465876 0.08143723
0.00067285815 -0.089236476 -0.10099545 0.09769986 0.11209254 -0.10261884 0.047960434 0.08260397
-0.073742695 0.04567181 0.07761916 0.12621209 -0.078597896 -0.12663148 0.026638689 -0.026063586
0.046833515 0.26180556 0.054669302 0.14702705 0.18354468 0.0027195893 0.25787798 0.09261885
0.1643149 -0.16123447 0.16582997 0.056787413 0.13238871 -0.23743479 0.0037377202 -0.09439222
0.07730469 -0.03551156 -0.05481582 -0.13498323 -0.05629709 -0.027915778 -0.22168371 0.058968168
0.10626079 0.037607294 -0.012686504 -0.11889574 -0.08065196 0.072109304 -0.12187076 0.05945544
-0.094403066 -0.14787266 0.08386446 0.023590365 0.044475332 -0.06906031 -0.0178561 0.0086051
-0.055210516 0.02894741 0.013269041 -0.12657784 -0.07554143 -0.10160288 -0.06504004 -0.18116665
0.07129236 0.08471358 -0.097372256 0.12272224 -0.05852624 -0.07322065 0.024883598 -0.05415998
0.11898934 0.020629726 -0.12467897 -0.12935549 0.01336352 -0.14651884 -0.0109686265 0.011185736
0.056567214 -0.15393133 -0.08910143 0.05927746 -0.0690736 -0.11490564 -0.04796481 0.03704778
0.01396906 -0.0756245 -0.051170595 -0.035608057 -0.058654875 -0.028175794 -0.07647293 -0.07034183
-0.095409654 -0.035580903 0.052663848 0.084005706 0.093918204 0.11278819 0.061068155 0.17827009
-0.12916231 -0.055885326 0.10996403 0.13984887 0.20937434 0.15919992 -0.098527804 0.10230119
-0.024438616 0.07501658 0.03310335 0.13095812 0.13101342 0.03758898 0.20920262 0.06854664
-0.06809936 0.0916377 -0.064168856 0.10312508 0.0006655085 -0.06290082 -0.14025943 -0.028284032
-0.2578237 -0.11938926 -0.13590087 0.03689234 0.03390967 0.17741658 0.0015550369 -0.070809804
0.041160308 0.18790573 0.200372 0.21130042 -0.028035492 0.03656226 0.08457858 0.15994768
0.20752592 0.10010528 0.24711177 0.04204944 0.209952 0.090011336 0.11384956 0.018658115
-0.014338923 0.13481373 -0.04917151 0.09480421 0.24734142 0.017218184 0.17882146 0.15047309
-0.21467936 -0.118566506 -0.08050857 -0.066757336 -0.038519423 0.06759796 -0.23831958 -0.04118084
0.081630886 0.15898629 0.14546339 -0.03368309 0.09649933 0.20135817 -0.046012316 0.17730486
-0.09287034 0.020964028 -0.04318469 -0.05487154 0.19932206 0.111948214 0.1364464 0.15727466
0.05665515 -0.025274213 0.07048923 -0.02557437 0.2252187 0.08158367 0.07117606 -0.048662603
0.2244497 0.2367617 0.16826284 -0.0024556997 -0.035054445 0.062640786 0.036694642 -0.27761397
00000000: 005d 19be 8779 4dbe 9c8b 9f3c 216c e33c
00000010: f24c 20be 3134 80bd 8bb0 f1bd 488d 86bd
00000020: 2a11 3c3e df7e 843c 668a 00bd 5427 393e
00000030: 8f23 533d b107 d83d b6dc bb3c 4edd 013d
00000040: 5f3c 433e a5c7 013e ec52 113e 1ae7 563e
00000050: b5f3 123c 26a3 17bc cbd5 193e d5ab e03d
00000060: 5a8c 543c 6f3e 17bd 5923 153e ba6f d33d
00000070: 960e bcbb c22b 5ebd a24e 9e3d 086f 3e3e
00000080: 6f29 533c 0a52 9a3d d80d 7b3c d740 56bb
00000090: 7dee 1e3c d1ff d53d 29cb 713e 676d 5c3c
000000a0: a47a 393d 43c2 fe3d f591 a63d 0426 493e
000000b0: b085 d63c dcba 11be 000b b2bd 4db9 433c
000000c0: 84c7 05be 6408 a83d 7256 3dbe ec22 f73c
000000d0: e0d7 d3bd 907c edbd 2044 8ebd 90c8 a63d
000000e0: bf62 303a 9dc1 b6bd b4d6 cebd dd16 c83d
000000f0: c690 e53d d429 d2bd 2972 443d 452c a93d
00000100: 6906 97bd 5d12 3b3d cbf6 9e3d be3d 013e
00000110: eff7 a0bd afab 01be 6139 da3c 4d83 d5bc
00000120: 80d4 3f3d 610b 863e ebec 5f3d 428e 163e
00000130: 23f3 3b3e 233b 323b 9508 843e f4ae bd3d
00000140: 2a42 283e a61a 25be 55cf 293e eb99 683d
00000150: e890 073e 1b22 73be 8af4 743b b550 c1bd
00000160: ec51 9e3d 9274 11bd 8e86 60bd 0b39 0abe
00000170: c797 66bd a1af e4bc 0e01 63be 9b88 713d
00000180: 429f d93d 1b0a 1a3d 0edb 4fbc 9c7f f3bd
00000190: db2c a5bd 0bae 933d 6197 f9bd 8c87 733d
000001a0: 6556 c1bd ee6b 17be 21c1 ab3d 9540 c13c
000001b0: c42b 363d 7e6f 8dbd f546 92bc 68fc 0c3c
000001c0: 6c24 62bd 1e23 ed3c 6466 593c 9f9d 01be
000001d0: 77b5 9abd 2c15 d0bd b633 85bd c083 39be
000001e0: bb01 923d 507e ad3d 1b6b c7bd cc55 fb3d
000001f0: 36b9 6fbd b5f4 95bd b0d8 cb3c dbd6 5dbd
00000200: afb0 f33d acff a83c b057 ffbd c475 04be
00000210: aaf2 5a3c 0909 16be c1b5 33bc 6144 373c
00000220: 06b3 673d 2da0 1dbe cf7a b6bd eccc 723d
00000230: 7676 8dbd a653 ebbd c076 44bd 6abf 173d
00000240: 7cde 643c 05e1 9abd 4298 51bd c1d9 11bd
00000250: 1840 70bd ecd0 e6bc d79d 9cbd 610f 90bd
00000260: 2366 c3bd 48bd 11bd 0cb6 573d 2f0b ac3d
00000270: 3058 c03d 7ffd e63d 9a22 7a3d 6f8c 363e
00000280: 2043 04be 03e8 64bd d234 e13d 8b34 0f3e
00000290: 3a66 563e 4e05 233e f2c8 c9bd 4983 d13d
000002a0: 7e33 c8bc 4ba2 993d 6197 073d e319 063e
000002b0: 6228 063e e7f6 193d 3639 563e 2e62 8c3d
000002c0: ad77 8bbd 8cac bb3d f66a 83bd 3e33 d33d
000002d0: 8575 2e3a 25d2 80bd 2ba0 0fbe eab3 e7bc
000002e0: 7801 84be 5b82 f4bd 9929 0bbe 6c1c 173d
000002f0: dee4 0a3d b1ac 353e 61d2 cb3a bb04 91bd
00000300: b697 283d 5c6a 403e 512e 4d3e 235f 583e
00000310: b0aa e5bc 4fc2 153d 8937 ad3d 53c9 233e
00000320: ad81 543e ff03 cd3d de0a 7d3e 093c 2c3d
00000330: a8fd 563e dd57 b83d f529 e93d e7d8 983c
00000340: cded 6abc 9c0c 0a3e 1168 49bd b628 c23d
00000350: 1247 7d3e 260d 8d3c f91c 373e 9e15 1a3e
00000360: e8d4 5bbe ffd2 f2bd ade1 a4bd 12b8 88bd
00000370: 8bc6 1dbd cd70 8a3d 0c0a 74be 3ead 28bd
00000380: 182e a73d 4dcd 223e 5bf4 143e 48f7 09bd
00000390: 71a1 c53d d630 4e3e 6977 3cbd 688f 353e
000003a0: ce32 bebd c1bc ab3c 6ee2 30bd fbc0 60bd
000003b0: 151b 4c3e 1b45 e53d 9bb8 0b3e 9c0c 213e
000003c0: 3b0f 683d de0b cfbc a85c 903d 5781 d1bc
000003d0: bb9f 663e 5715 a73d c1c4 913d 7052 47bd
000003e0: 24d6 653e a971 723e 184d 2c3e ceef 20bb
000003f0: 4095 0fbd d049 803d 1f4d 163d 6b23 8ebe

layers.2.conv2.bias f4 [8]
0.10640238 0.071159415 0.12318406 -0.042278804 0.06918191 0.1085941 0.11556263 0.113653444
00000000: 7ee9 d93d 07bc 913d ed47 fc3d 8a2c 2dbd
00000010: 3faf 8d3d 9566 de3d 1aac ec3d 23c3 e83d

layers.2.conv3.weight f4 [8, 8, 3, 3]
0.021296445 0.068177894 0.06514562 0.08694484 0.13838862 0.16549033 0.045621056 -0.017120777
0.07646035 -0.04692422 -0.1055454 -0.037211068 0.016294627 0.08202982 0.018851642 -0.12320959
-0.027684594 -0.009830716 -0.12829362 -0.20459105 0.017936748 -0.1787799 -0.07285119 -0.11030484
-0.17821428 0.000523856 -0.074469924 0.009928657 0.13262282 -0.02736708 -0.06858343 0.04789848
0.09259954 0.017925646 -0.084619366 -0.040623154 0.051084615 0.032393176 0.09889717 0.061329935
0.011873902 -0.012170554 -0.10031194 -0.00451419 -0.016941855 0.0058171228 -0.02275083 0.08650906
-0.023602586 0.17033753 0.18570688 0.15265384 0.00959667 -0.022018384 0.13302197 0.06708162
-0.014008623 -0.049651474 0.05145596 0.18625817 0.11086633 0.100879386 0.014357773 0.15829109
0.13917263 0.087471105 0.1395657 0.011473456 0.04292164 0.09248952 0.06336592 -0.07345224
0.020619214 -0.054554977 -0.06727432 -0.11961508 -0.14697988 0.075408526 0.07917748 0.01641126
0.08536 -0.064428195 0.092793375 0.08963089 -0.09476608 -0.14965636 -0.02418094 0.026133958
0.110789604 0.02090372 0.078285135 -0.13936138 -0.027484618 -0.009231011 -0.047022387 -0.13414982
-0.07882751 -0.0102538215 0.0074781226 -0.06747902 0.06501037 0.098347135 0.010770055 -0.031441208
0.08880595 0.08861206 0.100435756 -0.09897674 -0.09591714 0.06635556 0.034111533 -0.019700166
0.07761339 0.02365376 -0.09879596 0.033143986 -0.10644885 -0.014087449 0.057995398 0.16463333
0.027716449 -0.056917846 0.16671094 0.1050019 0.1296988 0.06532379 -0.06597307 0.11064876
0.04170825 0.15748897 0.09294046 0.039753262 -0.040818766 0.048434045 0.05934882 0.12966222
0.079255536 0.07567285 0.115393765 0.0113665 -0.06239447 0.12392027 -0.010949222 0.11324128
0.15306494 0.0002787642 -0.080056764 -0.081227824 0.04591533 0.048861913 0.05777061 -0.047239155
-0.04046122 -0.1758064 -0.10890698 0.0032876756 0.0053629396 -0.11184948 -0.20438406 -0.008552151
-0.01603102 -0.051406525 0.06501394 -0.09501034 -0.079721026 0.0028554637 0.0132701835 -0.16013314
-0.16530754 -0.15364084 -0.007598385 -0.1366758 -0.040230937 -0.046375528 0.07574566 0.012060666
-0.048854534 -0.0645759 0.016093157 -0.09108604 -0.08753121 0.021562843 0.029535417 0.06240315
-0.07942615 0.069898814 0.037798483 -0.07621568 0.022906078 0.009217367 -0.040169243 0.03624519
0.121434 -0.036342043 0.14274251 0.068332456 -0.026262974 0.012155267 0.047321584 0.037592176
-0.05053752 0.15555474 0.106508985 0.02895692 -0.09336004 0.08962579 0.013765315 0.034025583
0.03463243 0.10627967 0.012319962 0.11101978 0.11890875 -0.028899424 0.14139706 0.060259398
0.05300505 0.16686949 0.101572365 0.1707054 -0.007217377 0.061144657 -0.04255604 -0.048206367
0.05463005 -0.14054696 0.022497585 -0.088312626 -0.12043503 -0.18638395 0.0664388 -0.13075632
-0.011060378 0.13016546 0.014470188 -0.18649237 -0.16430831 -0.13661648 -0.13605832 -0.16632852
-0.12629719 -0.15599787 -0.062050916 -0.118485674 0.050445072 0.045968607 0.08992857 -0.02012942
-0.028567366 0.09706064 -0.05669984 0.018759774 -0.043569837 0.016733652 0.11665879 0.1160987
00000000: e275 ae3c daa0 8b3d 116b 853d 2310 b23d
00000010: bfb5 0d3e 4c76 293e 25dd 3a3d df40 8cbc
00000020: 3e97 9c3d 9c33 40bd 3028 d8bd a26a 18bd
00000030: 4f7c 853c 40ff a73d c26e 9a3c 4f55 fcbd
00000040: cdca e2bc 0311 21bc 675f 03be 5180 51be
00000050: 16f0 923c 1412 37be 0133 95bd 81e7 e1bd
00000060: ce7d 36be 6253 093a b083 98bd ceab 223c
00000070: 47ce 073e ed30 e0bc 7875 8cbd 3231 443d
00000080: d4a4 bd3d ced8 923c eb4c adbd 7764 26bd
00000090: 1a3e 513d b5ae 043d 998a ca3d 1935 7b3d
000000a0: c18a 423c 0167 47bc 5970 cdbd c5eb 93bb
000000b0: a5c9 8abc 909d be3b f35f babc a92b b13d
000000c0: 365a c1bc f66c 2e3e f229 3e3e 4a51 1c3e
000000d0: 5a3b 1d3c e65f b4bc e936 083e 1762 893d
000000e0: 6c84 65bc 585f 4bbd 7cc3 523d 76ba 3e3e
000000f0: e30d e33d da99 ce3d dd3c 6b3c 0f17 223e
00000100: 4583 0e3e 0d24 b33d 50ea 0e3e 2afb 3b3c
00000110: 9ace 2f3d 256b bd3d fec5 813d 216e 96bd
00000120: a0e9 a83c 0a75 5fbd 1ec7 89bd c0f8 f4bd
00000130: e581 16be c96f 9a3d cd27 a23d e870 863c
00000140: 39d1 ae3d eef2 83bd 740a be3d 6690 b73d
00000150: b814 c2bd 843f 19be 1b17 c6bc e216 d63c
00000160: a9e5 e23d 473e ab3c f553 a03d c0b4 0ebe
00000170: 6c27 e1bc ab3d 17bc 8c9a 40bd 925e 09be
00000180: 5170 a1bd a5ff 27bc 0a0b f53b 7132 8abd
00000190: 2824 853d 396a c93d e374 303c 7fc8 00bd
000001a0: e5df b53d 3d7a b53d 43b1 cd3d 51b4 cabd
000001b0: 3570 c4bd 6de5 873d 89b8 0b3d 3e62 a1bc
000001c0: c5f3 9e3d 88c5 c13c 8955 cabd fdc1 073d
000001d0: db01 dabd 0bcf 66bc 958c 6d3d a495 283e
000001e0: 9b0d e33c b022 69bd 46b6 2a3e 3c0b d73d
000001f0: c3cf 043e 7bc8 853d e41c 87bd d19b e23d
00000200: 45d6 2a3d ca44 213e 9157 be3d 51d4 223d
00000210: 9431 27bd c762 463d c017 733d 2cc6 043e
00000220: ba50 a23d 5efa 9a3d 9153 ec3d 8e3a 3a3c
00000230: 5891 7fbd e9c9 fd3d 5e64 33bc 0beb e73d
00000240: 0ebd 1c3e 1927 9239 cdf4 a3bd c65a a6bd
00000250: b711 3c3d 6e23 483d e0a0 6c3d d87d 41bd
00000260: aaba 25bd 9806 34be 9f0a dfbd 0b76 573b
00000270: 99bb af3b 5711 e5bd 0e4a 51be 521e 0cbc
00000280: 7c53 83bc a68f 52bd 0726 853d c894 c2bd
00000290: c744 a3bd bb22 3b3b 2f6b 593c f1f9 23be
000002a0: 6146 29be 0654 1dbe e0fb f8bb bef4 0bbe
000002b0: 32c9 24bd 44f4 3dbd 8a20 9b3d 1a9a 453c
000002c0: b11b 48bd 5f40 84bd ccd5 833c 518b babd
000002d0: 9043 b3bd 8fa4 b03c 42f4 f13c 729a 7f3d
000002e0: 2daa a2bd 1c27 8f3d 95d2 1a3d f716 9cbd
000002f0: 87a5 bb3c 7004 173c 8188 24bd d675 143d
00000300: 64b2 f83d 65db 14bd 182b 123e e3f1 8b3d
00000310: 7325 d7bc e326 473c 47d4 413d 41fa 193d
00000320: 6e00 4fbd be49 1f3e 6221 da3d 1037 ed3c
00000330: 8c33 bfbd ba8d b73d ea87 613c 695e 0b3d
00000340: bcda 0d3d 28a9 d93d aad9 493c 575e e33d
00000350: 6e86 f33d 7cbe ecbc 64ca 103e 8fd2 763d
00000360: d31b 593d d6df 2a3e 2c05 d03d 65cd 2e3e
00000370: bf7f ecbb d272 7a3d 3e4f 2ebd 0a74 45bd
00000380: c2c3 5f3d 8beb 0fbe db4c b83c 40dd b4bd
00000390: a4a6 f6bd 6fdb 3ebe 1111 883d fce4 05be
000003a0: 9636 35bc 184a 053e 5e14 6d3c dbf7 3ebe
000003b0: 7040 28be 31e5 0bbe df52 0bbe 0652 2abe
000003c0: 0d54 01be e8bd 1fbe 1a29 7ebd 9ea8 f2bd
000003d0: 7e9f 4e3d 9449 3c3d 782c b83d 74e6 a4bc
000003e0: 1c06 eabc bbc7 c63d 173e 68bd 19ae 993c
000003f0: 4976 32bd 0315 893c ceea ee3d 28c5 ed3d

layers.2.conv3.bias f4 [8]
-0.000120714314 -0.0001762751 0.00015832666 0.00018074442 0.00027087622 8.938482e-05 0.00012197726 -0.00010193373
00000000: 0128 fdb8 7dd6 38b9 7d04 2639 3686 3d39
00000010: 6404 8e39 1c74 bb38 0bce ff38 41c5 d5b8

layers.2.batch_norm.weight f4 [8]
1.0258301 1.0322785 0.93770427 0.9266435 0.9533124 1.0426381 0.9465572 0.9448153
00000000: 674e 833f b421 843f 630d 703f 8238 6d3f
00000010: 480c 743f 2a75 853f 9351 723f 6adf 713f

layers.2.batch_norm.bias f4 [8]
0.04232666 -0.020748256 -0.046208262 -0.0136819845 -0.014500439 0.040435284 0.003707868 -0.043951027
00000000: b85e 2d3d 3ff8 a9bc e044 3dbd 672a 60bc
00000010: 4093 6dbc 789f 253d b4ff 723b fe05 34bd

layers.2.batch_norm.running_mean f4 [8]
0.642151 -0.22309364 0.21471009 0.21502341 -0.193094 -0.4979932 0.0902757 -0.28826854
00000000: 0264 243f a972 64be f6dc 5b3e 192f 5c3e
00000010: 6fba 45be f7f8 febe 77e2 b83d ef97 93be

layers.2.batch_norm.running_var f4 [8]
0.1427449 0.06439205 0.050732564 0.043387864 0.045380678 0.16640295 0.054010633 0.24519081
00000000: b82b 123e fbdf 833d f3cc 4f3d 79b7 313d
00000010: 17e1 393d 8965 2a3e 413a 5d3d 4d13 7b3e

layers.3.conv1.weight f4 [16, 8, 1, 1]
-0.18680371 -0.27035066 -0.045426045 -0.2246252 0.15001854 -0.23868567 0.14454564 -0.22252966
0.016019026 -0.33195442 -0.22993858 0.04816862 -0.10852527 0.38284582 -0.23990797 0.1705495
0.061858 0.01646853 -0.28804868 -0.15489781 0.30300298 0.009057677 -0.13214114 0.084595546
-0.25261572 -0.2702559 -0.28700605 0.115653865 0.27142957 0.09912337 0.101828314 0.09229718
0.21171 0.24202606 -0.28402293 -0.19628064 0.18347594 0.01915653 0.27595022 -0.2637906
0.03855932 0.34637734 0.2767712 -0.3458695 0.10408144 -0.15873387 -0.25130597 -0.26297432
0.012832014 0.18567115 0.3462227 -0.202408 -0.28430697 -0.20868662 0.007881986 -0.019494835
-0.34790653 0.07247709 0.26415002 -0.19104508 -0.16420178 0.114549525 -0.23712961 0.21180429
0.18451959 -0.09430042 -0.10096346 0.041350905 0.000482247 0.23587081 0.19901451 0.1382625
0.048977915 -0.31379372 -0.3693348 0.12647322 0.11430135 0.35502395 -0.060549513 -0.20182815
-0.17252398 -0.3439267 0.014487663 -0.219783 0.3358124 -0.060376197 -0.24919255 0.122877225
0.18591869 0.26883903 -0.11581467 0.29468247 -0.07421706 -0.16414618 -0.2102071 -0.17168602
-0.3713338 -0.11796227 0.15786597 -0.019477636 0.26050165 0.3797158 0.24645658 0.23757476
-0.18564542 -0.26821944 -0.16305247 -0.061559387 0.20971715 0.25148553 -0.2005173 -0.21107632
0.19423114 0.20604526 -0.14742564 0.32952133 -0.32320234 0.25531286 -0.030722946 0.29592577
0.2774377 0.35559943 0.13090704 -0.17028578 0.19306304 0.04851523 0.1131021 -0.14266673
00000000: 7949 3fbe 676b 8abe a910 3abd 2604 66be
00000010: 769e 193e 046a 74be c603 143e d1de 63be
00000020: 553a 833c eef5 a9be 0575 6bbe 754c 453d
00000030: 7f42 debd 5e04 c43e 6faa 75be 87a4 2e3e
00000040: d05e 7d3d 03e9 863c 1e7b 93be 889d 1ebe
00000050: 3523 9b3e a766 143c 0250 07be 6e40 ad3d
00000060: d956 81be fb5e 8abe 75f2 92be efdb ec3d
00000070: d1f8 8a3e 3201 cb3d 5d8b d03d 4e06 bd3d
00000080: 82ca 583e aed5 773e 746b 91be cbfd 48be
00000090: 1ee1 3b3e 28ee 9c3c 5949 8d3e 900f 87be
000000a0: 61f0 1d3d 5f58 b13e f4b4 8d3e cf15 b1be
000000b0: a628 d53d 228b 22be 2dab 80be 92a4 86be
000000c0: 5e3d 523c 9420 3e3e 1a44 b13e 0b44 4fbe
000000d0: af90 91be f2b1 55be 7223 013c a2b3 9fbc
000000e0: ce20 b2be de6e 943d ac3e 873e 52a1 43be
000000f0: 8324 28be f198 ea3d 1bd2 72be 39e3 583e
00000100: b4f2 3c3e 9420 c1bd eec5 cebd 915f 293d
00000110: 19d6 fc39 1e88 713e 76ca 4b3e af94 0d3e
00000120: 119d 483d 92a9 a0be 7319 bdbe 3282 013e
00000130: d416 ea3d b3c5 b53e c402 78bd 0aac 4ebe
00000140: 20aa 30be 2917 b0be aa5d 6d3c cb0e 61be
00000150: 9aef ab3e 084d 77bd 552c 7fbe 0ea7 fb3d
00000160: 7861 3e3e 45a5 893e 3e30 edbd 9fe0 963e
00000170: 1dff 97bd f015 28be 8840 57be 76ce 2fbe
00000180: 771f bebe 3496 f1bd 9ea7 213e 908f 9fbc
00000190: 7960 853e 1c6a c23e 1d5f 7c3e cc46 733e
000001a0: d519 3ebe 0f54 89be 3af7 26be b225 7cbd
000001b0: 18c0 563e b6c2 803e 6854 4dbe 6424 58be
000001c0: 87e4 463e 87fd 523e bff6 16be 05b7 a83e
000001d0: c77a a5be 5eb8 823e b0ae fbbc 9583 973e
000001e0: 500c 8e3e 2111 b63e 7f0c 063e 655f 2ebe
000001f0: 51b2 453e e8b7 463d 13a2 e73d 3a17 12be

layers.3.conv1.bias f4 [16]
0.0030233636 0.007030617 0.00040894127 0.0003867658 0.00038330228 -0.0034806696 0.004134692 0.0016841505
-0.0031226599 0.005589089 -0.0019427094 0.004053672 0.0020633687 0.010978724 0.0014742052 -0.0021512632
00000000: a023 463b 1761 e63b 2b67 d639 d4c6 ca39
00000010: f6f5 c839 f21b 64bb 4f7c 873b b7be dc3a
00000020: 8aa5 4cbb ad24 b73b 83a2 feba aad4 843b
00000030: 9539 073b 1be0 333c 1e3a c13a 35fc 0cbb

layers.3.conv2.weight f4 [16, 8, 3, 3]
0.123932146 0.18246756 0.0016296763 0.0576566 -0.011735056 -0.0046505206 0.13550581 0.021032775
-0.10153164 -0.0410588 0.1264876 -0.054508522 -0.0511454 0.11682298 -0.028809223 -0.040281635
0.044973016 0.0699586 0.05737962 0.07535106 -0.056905784 0.21095891 0.0605891 0.12787075
-0.0041744346 -0.0030889988 0.07390818 0.01568097 0.104748994 -0.060673747 0.09825875 0.09870988
-0.07751858 0.075604364 -0.16264942 -0.12385581 -0.02341388 -0.11530376 0.09264321 0.0450359
-0.0793918 -0.017733254 0.018877918 -5.8225716e-05 0.12888774 -0.09696288 0.017316276 0.09179694
-0.20980702 -0.07594689 0.11284898 -0.018693889 0.03708379 0.055135187 0.052869987 0.13700376
0.11011797 0.07920058 -0.07950439 0.13873477 0.029879268 -0.069260284 -0.072207704 0.010940065
-0.042834055 0.14505698 0.034105476 -0.13624012 -0.052185 -0.03702005 0.17855553 0.09300225
0.107632495 0.19938628 0.10020909 -0.00205533 0.03889835 0.02865548 0.12406837 0.068026975
0.06695713 0.15847245 -0.012197578 0.01746356 0.012631556 0.22019127 0.13041712 0.12390955
0.079534754 0.06447232 0.13564637 -0.010501157 -0.021424867 0.16226827 0.14589576 0.0047761537
0.18458907 0.13160257 0.088825464 0.02771893 0.14717606 0.08730278 0.027577542 0.039150525
-0.0056355884 0.07067363 0.0068088374 -0.023677854 -0.011293319 -0.15612072 -0.011482163 -0.03751624
-0.1530331 0.0106276935 0.033038314 0.0034788335 0.124839455 -0.030275006 -0.07260258 -0.06775107
-0.103575915 -0.17762595 -0.05201944 -0.10137615 -0.09553236 0.015160205 0.012707052 0.16786678
0.041870963 0.11589995 0.13755742 0.14887844 0.14273241 0.04022092 0.025802188 0.10932954
-0.11492468 -0.05026561 -0.0025524183 -0.118589014 -0.052768562 0.03976687 -0.11464782 0.008295825
-0.024750985 0.026997048 0.21456121 0.0053410274 -0.004518191 0.11764063 0.081448324 0.08405357
0.090282395 -0.027103804 0.036017116 0.039234214 0.10693047 0.1970394 0.14577945 0.055014633
-0.039638676 0.16477598 -0.056423537 0.015091853 0.1205593 0.10258497 0.10359724 0.054394506
0.07481242 0.13269563 0.09203343 -0.124473505 0.0023332732 0.018199261 0.11884365 0.015925664
0.10824119 0.078864254 0.045836315 -0.042972494 0.11161064 -0.13128676 -0.027039105 -0.034680825
-0.012046592 -0.013037994 0.049853906 0.043161098 0.06075172 0.06047729 -0.059906818 -0.08356369
-0.10470999 -0.0381227 -0.019294273 -0.021714378 -0.18818988 0.0036675292 0.08971995 0.20063639
0.030542584 0.0482212 -0.0025644482 0.1419239 0.11518899 0.14838389 0.16679157 -0.031589862
-0.010188773 -0.10749929 0.006179578 -0.1190441 -0.10520545 -0.048051145 -0.06154685 -0.050320663
0.14527425 -0.014622354 0.14042209 0.13956292 0.02314627 0.11155839 -0.010738661 -0.015676148
0.09419556 0.011083784 0.1520089 -0.024242554 0.16205461 0.011755698 -0.014044686 0.014427104
0.025182974 0.058927346 -0.012940513 0.021100655 0.054609388 0.1716576 0.100304924 0.1610919
0.12021609 0.008771844 -0.0043956623 -0.0039850334 0.0837388 0.09144946 0.010341073 0.08841019
0.031889483 0.07994943 -0.033159282 -0.023413453 0.0125721535 -0.058987103 -0.005418721 -0.046923608
00000000: 23d0 fd3d c7d8 3a3e dd9a d53a 5429 6c3d
00000010: 6444 40bc 6563 98bb 09c2 0a3e ed4c ac3c
00000020: d2ef cfbd 462d 28bd f785 013e 5444 5fbd
00000030: d77d 51bd e340 ef3d 5201 ecbc 5bfe 24bd
00000040: a035 383d 7446 8f3d e406 6b3d a851 9a3d
00000050: 0a16 69bd 9d05 583e 472c 783d 8df0 023e
00000060: b2c9 88bb cd70 4abb 2c5d 973d 6175 803c
00000070: a486 d63d 0985 78bd e23b c93d 6828 ca3d
00000080: 10c2 9ebd 76d6 9a3d 928d 26be 1da8 fdbd
00000090: 77ce bfbc 6124 ecbd b9bb bd3d 9077 383d
000000a0: 2b98 a2bd 5445 91bc dda5 9a3c 6337 74b8
000000b0: 26fb 033e 7994 c6bd ddda 8d3c 0900 bc3d
000000c0: a7d7 56be 0b8a 9bbd 5e1d e73d ed23 99bc
000000d0: 2ce5 173d 6fd5 613d 338e 583d b74a 0c3e
000000e0: 8885 e13d ea33 a23d 33d3 a2bd 7d10 0e3e
000000f0: 5ec5 f43c 56d8 8dbd a2e1 93bd f53d 333c
00000100: c372 2fbd d189 143e 2fb2 0b3d 8882 0bbe
00000110: f0bf 55bd 56a2 17bd 43d7 363e f777 be3d
00000120: 6d6e dc3d eb2b 4c3e 6c3a cd3d b7b2 06bb
00000130: e053 1f3d e6be ea3c 8f17 fe3d ba51 8b3d
00000140: d220 893d 9a46 223e 5ad8 47bc bd0f 8f3c
00000150: 96f4 4e3c d279 613e 118c 053e 4ac4 fd3d
00000160: 1ee3 a23d 100a 843d e2e6 0a3e 0b0d 2cbc
00000170: 3483 afbc a729 263e b365 153e 4881 9c3b
00000180: eb04 3d3e d3c2 063e 20ea b53d cf12 e33c
00000190: 52b5 163e cdcb b23d 4cea e13c 4d5c 203d
000001a0: beaa b8bb 56bd 903d ab1c df3b 0ff8 c1bc
000001b0: 9d07 39bc 1cde 1fbe af1f 3cbc a1aa 19bd
000001c0: b5b4 1cbe c71f 2e3c 2f53 073d 24fd 633b
000001d0: d4ab ff3d 4a03 f8bc a9b0 94bd 13c1 8abd
000001e0: 9c1f d4bd 94e3 35be 5612 55bd 4d9e cfbd
000001f0: 78a6 c3bd 8262 783c 3d31 503c 45e5 2b3e
00000200: e380 2b3d f45c ed3d dadb 0c3e 9773 183e
00000210: 7228 123e b1be 243d 1c5f d33c 2ae8 df3d
00000220: a15d ebbd 50e3 4dbd 7946 27bb ccde f2bd
00000230: d923 58bd 96e2 223d 7acc eabd 36eb 073c
00000240: 94c2 cabc ea28 dd3c efb5 5b3e c903 af3b
00000250: 550d 94bb 92ed f03d 61ce a63d 4724 ac3d
00000260: fae5 b83d cc08 debc af86 133d 0eb4 203d
00000270: 5dfe da3d b2c4 493e 3547 153e 0657 613d
00000280: 2a5c 22bd 09bb 283e 5e1c 67bd d243 773c
00000290: cbe7 f63d 1218 d23d ca2a d43d c6cc 5e3d
000002a0: 4137 993d 5de1 073e 067c bc3d f7eb febd
000002b0: d4e9 183b 9e16 953c 4d64 f33d 8a76 823c
000002c0: 8fad dd3d 9583 a13d dcbe 3b3d ed03 30bd
000002d0: 1f94 e43d 0970 06be 1d81 ddbc 7b0d 0ebd
000002e0: 125f 45bc 4f9d 55bc 9c33 4c3d b1c9 303d
000002f0: ccd6 783d 09b7 773d da60 75bd 7123 abbd
00000300: 3172 d6bd 8c26 1cbd 060f 9ebc 5ae2 b1bc
00000310: d9b4 40be ee5a 703b 18bf b73d a073 4d3e
00000320: 7134 fa3c 9883 453d 4d10 28bb 8054 113e
00000330: 35e8 eb3d f2f1 173e 69cb 2a3e 5f64 01bd
00000340: d0ee 26bc 9628 dcbd 0f7e ca3b 65cd f3bd
00000350: f475 d7bd 47d1 44bd 8d18 7cbd 0a1d 4ebd
00000360: c6c2 143e 9992 6fbc cfca 0f3e 95e9 0e3e
00000370: 3f9d bd3c ba78 e43d 35f1 2fbc 446b 80bc
00000380: 9ae9 c03d c298 353c 39a8 1b3e 5298 c6bc
00000390: a5f1 253e f99a 403c af1b 66bc a95f 6c3c
000003a0: 864c ce3c cd5d 713d 7204 54bc 48db ac3c
000003b0: 18ae 5f3d 03c7 2f3e ab6c cd3d 46f5 243e
000003c0: da33 f63d c8b7 0f3c 7d09 90bb e294 82bb
000003d0: 3f7f ab3d db49 bb3d 9b6d 293c 6710 b53d
000003e0: 8c9e 023d 87bc a33d 07d2 07bd 92cd bfbc
000003f0: 6ffb 4d3c 769c 71bd 878f b1bb f832 40bd

layers.3.conv2.bias f4 [16]
0.09401958 0.10599686 0.10941303 0.0800746 0.08570282 0.0663411 0.07325172 0.11648227
0.08313706 0.072739296 0.103797436 0.14316684 0.11333259 0.109514795 0.070793085 0.1047496
00000000: 568d c03d e214 d93d f013 e03d 27fe a33d
00000010: f684 af3d d8dd 873d ff04 963d 428e ee3d
00000020: c343 aa3d 57f8 943d c093 d43d 549a 123e
00000030: eb1a e83d 4b49 e03d f7fb 903d f586 d63d

layers.3.conv3.weight f4 [16, 16, 3, 3]
-0.01766991 -0.09274704 -0.0788912 -0.06678052 -0.058659066 -0.096005626 0.115351394 0.04960774
0.02468693 -0.030702736 -0.06620143 -0.071216024 -0.022108926 -0.093135804 -0.024998602 0.02221344
-0.079590306 0.021205267 -0.13356057 -0.003267448 -0.039121795 -0.008356701 -0.0060992218 0.103938445
-0.0397107 0.112648346 0.022631858 0.053212315 -0.06608352 0.07429989 -0.10802629 -0.08832358
-0.06268591 0.070638075 0.13000198 0.09921665 0.08771775 0.06663516 0.002579487 0.035007793
0.024457112 0.101210244 0.11533348 0.015023945 0.0032783484 0.13289085 0.054355547 0.09589862
0.08379106 0.023934267 0.040761076 0.071041256 0.0882272 0.07488403 0.100737505 0.19965288
0.13759416 0.16138834 0.081479885 -0.00957822 0.11382801 -0.02566919 0.04170344 -0.049344018
-0.08518115 -0.12347065 -0.05196695 0.014612939 -0.006737196 0.022229983 -0.06989278 -0.0101567125
-0.012704298 -0.04233049 -0.018743396 -0.05479232 -0.08225814 0.14818552 -0.027654346 0.10000017
0.06621333 0.10661082 0.035794444 -0.039470438 0.052026853 0.075536124 -0.0032245603 0.04755567
0.06898591 0.013111443 0.13194343 0.15391015 0.08004338 0.076367974 0.06846361 0.037342384
-0.0064490135 -0.015066828 -0.0857146 0.051230945 0.0934523 0.112742655 0.03344232 -0.0042368216
-0.057835016 -0.011105843 -0.042419564 0.031869113 -0.103789225 0.023568029 -0.03989768 -0.090333074
-0.04643855 -0.036328882 0.03628707 0.0010264243 0.005092018 -0.10593111 -0.0018582349 0.018964713
-0.08347097 -0.11069519 0.039857574 0.02765774 -0.010940425 0.09769489 0.08753001 0.035462864
0.06505539 0.08132114 0.027572082 0.010928164 -0.08115531 -0.11097498 -0.021051606 -0.018813038
-0.11262793 -0.07887922 -0.09274666 -0.03407088 -0.07392695 0.011449369 0.07231135 0.118740335
-0.08960235 0.04057212 0.08686361 -0.03541353 0.12891398 0.051611837 -0.019797148 0.023738448
0.05961074 0.13713625 0.13578741 0.019775989 0.057032414 0.10377743 0.008780628 0.064545974
-0.013676362 -0.0556826 0.045982763 0.18549472 0.108754314 0.16155809 0.08037843 -0.09174729
0.0946725 -0.074498676 -0.02380686 -0.0022221478 0.045185514 -0.04203229 0.04782461 0.10591881
0.0053183376 -0.0051622065 -0.0034776428 -0.07581344 -0.1343255 -0.11250068 -0.026139123 -0.104784645
-0.119189374 -0.047713343 -0.114293665 0.020103212 0.14703305 -0.022955667 -0.1856548 -0.022935359
-0.021257164 -0.055115137 -0.0573675 -0.038596705 -0.045643456 0.03483554 -0.17778477 -0.07541829
-0.0070504635 -0.045809012 -0.086604476 -0.016206393 -0.043005165 0.10528752 0.022457013 0.15374894
0.04518485 0.05432888 0.04488417 0.103514135 -0.0052889828 -0.012217924 0.014960867 -0.033289116
0.12124905 0.09981272 0.14236718 -0.023989543 0.110676594 -0.0809222 -0.09271214 -0.052011825
-0.08107972 -0.026557451 -0.029650243 0.051515326 -0.08938521 -0.065911405 -0.054438435 0.030126011
-0.04623309 0.08188323 -0.13375768 -0.18157932 -0.049430847 -0.045309816 -0.020002523 -0.05272286
-0.01612891 0.09754479 0.12522005 -0.20505624 -0.10370285 -0.14849563 -0.067026146 -0.03724197
0.00329183 0.0662659 0.046235256 0.10867551 0.014325651 0.058561485 -0.020213002 0.07126427
00000000: 7dc0 90bc 29f2 bdbd b691 a1bd 3ac4 88bd
00000010: 7d44 70bd 999e c4bd 5a3d ec3d 7c31 4b3d
00000020: 3f3c ca3c 4e84 fbbc 9e94 87bd b5d9 91bd
00000030: c71d b5bc fcbd bebd dec9 ccbc f6f8 b53c
00000040: 3e00 a3bd abb6 ad3c 1ac4 08be ae22 56bb
00000050: 2d3e 20bd 8bea 08bc fbdb c7bb aedd d43d
00000060: b0a7 22bd 2db4 e63d 7266 b93c 28f5 593d
00000070: cc56 87bd 8a2a 983d e33c ddbd fee2 b4bd
00000080: 7861 80bd b2aa 903d 3d1f 053e 1932 cb3d
00000090: 5da5 b33d 0478 883d 9c0c 293b 5564 0f3d
000000a0: 485a c83c 5147 cf3d f633 ec3d fe26 763c
000000b0: 8fd9 563b 8a14 083e eca3 5e3d 7f66 c43d
000000c0: a69a ab3d cc11 c43c 16f5 263d 147e 913d
000000d0: 76b0 b43d cc5c 993d 774f ce3d ce71 4c3e
000000e0: 7ce5 0c3e fc42 253e edde a63d f7ed 1cbc
000000f0: a91e e93d 3148 d2bc 3ad1 2a3d f41c 4abd
00000100: 7473 aebd 2ede fcbd 4cdb 54bd 1c6b 6f3c
00000110: b2c3 dcbb a71b b63c f223 8fbd 5768 26bc
00000120: b025 50bc bc62 2dbd c08b 99bc e96d 60bd
00000130: f576 a8bd f2bd 173e 5e8b e2bc e4cc cc3d
00000140: db9a 873d c656 da3d 329d 123d c1ab 21bd
00000150: 1c1a 553d afb2 9a3d 2553 53bb bcc9 423d
00000160: 7c48 8d3d 61d1 563c 2e1c 073e 9f9a 1d3e
00000170: c9ed a33d d066 9c3d a636 8c3d 54f4 183d
00000180: 3f52 d3bb dbda 76bc 238b afbd 8ad7 513d
00000190: eb63 bf3d 9fe5 e63d d0fa 083d 09d5 8abb
000001a0: 69e4 6cbd 48f5 35bc 23c0 2dbd 3089 023d
000001b0: 728f d4bd bd11 c13c c06b 23bd 8c00 b9bd
000001c0: 5936 3ebd 98cd 14bd c0a1 143d 1689 863a
000001d0: f1da a63b 69f2 d8bd 0490 f3ba e35b 9b3c
000001e0: d4f2 aabd 29b4 e2bd b241 233d 7c92 e23c
000001f0: 783f 33bc 4214 c83d ef42 b33d 8241 113d
00000200: c33b 853d b38b a63d d9de e13c 0b0c 333c
00000210: c134 a6bd da46 e3bd 6b74 acbc cd1d 9abc
00000220: 79a9 e6bd 6e8b a1bd f6f1 bdbd e88d 0bbd
00000230: 0367 97bd 2296 3b3c f917 943d 222e f33d
00000240: 7081 b7bd f42e 263d 8ce5 b13d c70d 11bd
00000250: 0702 043e ef66 533d a12d a2bc 2277 c23c
00000260: 642a 743d 726d 0c3e db0b 0b3e 4101 a23c
00000270: d29a 693d 4389 d43d a0dc 0f3c ae30 843d
00000280: d212 60bc 7013 64bd 6c58 3c3d 54f2 3d3e
00000290: 95ba de3d 7c6f 253e 729d a43d 01e6 bbbd
000002a0: a8e3 c13d c392 98bd 9b06 c3bc 74a1 11bb
000002b0: 7214 393d 0d2a 2cbd bde3 433d f6eb d83d
000002c0: 7345 ae3b ba27 a9bb 2ae9 63bb 1444 9bbd
000002d0: a08c 09be c266 e6bd b721 d6bc 5599 d6bd
000002e0: 8f19 f4bd 116f 43bd cc12 eabd 7eaf a43c
000002f0: d58f 163e 860d bcbc 4b1c 3ebe efe2 bbbc
00000300: 8123 aebc 69c0 61bd 2ffa 6abd 9417 1ebd
00000310: a2f4 3abd b6af 0e3d 360d 36be e874 9abd
00000320: 9307 e7bb 3ba2 3bbd b05d b1bd 45c3 84bc
00000330: 2f26 30bd fca0 d73d c5f7 b73c 5d70 1d3e
00000340: c013 393d f687 5e3d 77d8 373d 38ff d33d
00000350: 344f adbb b02d 48bc 6d1e 753c 2b5a 08bd
00000360: 6c51 f83d 9d6a cc3d b4c8 113e b885 c4bc
00000370: 69aa e23d 8aba a5bd dddf bdbd 5a0a 55bd
00000380: 200d a6bd 038f d9bc 11e5 f2bc bc01 533d
00000390: 980f b7bd 8ffc 86bd d6fa 5ebd d3ca f63c
000003a0: e95e 3dbd 65b2 a73d c6f7 08be eeef 39be
000003b0: 0078 4abd c996 39bd 55dc a3bc edf3 57bd
000003c0: c720 84bc 90c5 c73d af39 003e 43fa 51be
000003d0: 2962 d4bd 3d0f 18be 0145 89bd 098b 18bd
000003e0: bebb 573b 6bb6 873d 2e61 3d3d 4491 de3d
000003f0: 23b6 6a3c 2bde 6f3d bd95 a5bc 00f3 913d

layers.3.conv3.bias f4 [16]
-0.00019671237 -0.00023178037 -3.881816e-05 -2.8511979e-05 -5.0790833e-05 6.218149e-05 -0.00021819168 -8.685142e-05
3.4898176e-06 -0.00026359066 1.5819456e-05 -0.00017551341 -5.5806235e-05 -0.0005429622 -6.154811e-05 4.1902265e-05
00000000: 9344 4eb9 120a 73b9 afd0 22b8 022d efb7
00000010: 3e08 55b8 6f67 8238 62ca 64b9 0024 b6b8
00000020: 9c32 6a36 8a32 8ab9 06b4 8437 060a 38b9
00000030: 7d11 6ab8 9455 0eba 6413 81b8 37c0 2f38

layers.3.batch_norm.weight f4 [16]
1.0491096 1.0465089 1.1249206 1.1224787 1.0653108 0.9884387 1.0699803 1.0430306
0.9685495 1.0987583 0.96839666 1.1149709 1.0671035 1.0531576 0.97807974 1.0796623
00000000: 3949 863f 01f4 853f 66fd 8f3f 62ad 8f3f
00000010: 1b5c 883f 520a 7d3f 1df5 883f 0782 853f
00000020: dcf2 773f 1da4 8c3f d8e8 773f 5eb7 8e3f
00000030: d996 883f decd 863f 6f63 7a3f 6032 8a3f

layers.3.batch_norm.bias f4 [16]
0.04135753 0.053929746 0.0752154 0.069221415 -0.003518218 0.0024004462 0.07201806 0.041446712
-0.028625142 0.0585091 -0.030290222 0.10901937 0.064471506 0.04965253 -0.02011409 0.0820451
00000000: 8366 293d 70e5 5c3d 880a 9a3d f5c3 8d3d
00000010: e791 66bb ce50 1d3b 347e 933d 07c4 293d
00000020: 467f eabc 3da7 6f3d 3323 f8bc 8c45 df3d
00000030: a309 843d 7460 4b3d 4ec6 a4bc 4307 a83d

layers.3.batch_norm.running_mean f4 [16]
-0.484631 -0.25135368 -0.14893195 -0.16667709 -0.050097663 -0.3908686 -0.79628676 -0.41460383
0.60862166 -0.2868237 0.26564878 -0.7059578 -0.053799707 -0.2802282 0.20307526 0.3244008
00000000: 8e21 f8be 6eb1 80be 9e81 18be 66ad 2abe
00000010: 3533 4dbd ee1f c8be 73d9 4bbf f446 d4be
00000020: a1ce 1b3f 8eda 92be 1e03 883e a6b9 34bf
00000030: 155d 5cbd 127a 8fbe f6f2 4f3e dd17 a63e

layers.3.batch_norm.running_var f4 [16]
0.16965742 0.7395276 0.7416285 0.39394733 0.3351597 1.2648311 0.2105147 1.3123676
0.6903453 0.43662795 0.63992155 0.4356529 0.53769577 0.7858244 0.4156527 0.687407
00000000: adba 2d3e ae51 3d3f 5edb 3d3f 77b3 c93e
00000010: 0d9a ab3e fce5 a13f 2a91 573e a9fb a73f
00000020: 78ba 303f b38d df3e e6d1 233f e60d df3e
00000030: 6ea6 093f ca2b 493f 6ed0 d43e e8f9 2f3f

conv1.weight f4 [1, 16, 1, 1]
-0.25365037 0.14532413 0.08917818 0.071546674 -0.2737469 0.21147346 -0.31758112 0.19549319
-0.11094053 0.21311904 -0.082720034 -0.31224963 0.27849323 0.22165114 -0.1738607 -0.25112116
00000000: 76de 81be d9cf 143e 0da3 b63d 1087 923d
00000010: 8e28 8cbe 808c 583e fe99 a2be 5e2f 483e
00000020: ca34 e3bd e13b 5a3e 1f69 a9bd 2fdf 9fbe
00000030: aa96 8e3e 84f8 623e 8a08 32be f492 80be
