nets/gan-not-best-step-0.pth (torch, 36351 bytes, 41 tensors)

layers.0.conv1.weight f4 [2, 1, 1, 1]
0	0x3e4cbea0	0.19994593
1	0xbf4cd426	-0.8001121

layers.0.conv1.bias f4 [2]
0	0x00000000	0.0
1	0x00000000	0.0

layers.0.conv2.weight f4 [2, 1, 3, 3]
0	0xbe6bf396	-0.2304214
1	0xbe9bdba0	-0.30440998
2	0xbe4bfc68	-0.19920504
3	0x3d7f5f58	0.062346786
4	0x3e057fb8	0.13037002
5	0xbdbb1936	-0.09135668
6	0x3e8053a1	0.25063804
7	0x3db07cdc	0.08617565
8	0xbe4ff166	-0.2030693
9	0xbe34e50e	-0.17665502
10	0x3e4797b6	0.19491467
11	0xbe9683ff	-0.2939758
12	0xbe2a2613	-0.16616087
13	0x3dbe497c	0.0929136
14	0xbe8ae0ab	-0.27124533
15	0x3c09ce60	0.00841102
16	0xbe5bd78b	-0.21468942
17	0xbd5678e0	-0.05236137

layers.0.conv2.bias f4 [2]
0	0x00000000	0.0
1	0x00000000	0.0

layers.0.conv3.weight f4 [2, 2, 3, 3]
0	0x3c3c1030	0.011478469
1	0xbd6b2df4	-0.05741687
2	0xbe26cf7e	-0.1629009
3	0xbe161de8	-0.14659846
4	0xbd9ab27c	-0.075535744
5	0x3e5f81db	0.2182688
6	0xbe2c30e8	-0.16815531
7	0xbe0d2618	-0.13784063
8	0x3deb4c2e	0.114891395
9	0xbe306939	-0.1722764
10	0x3d43e634	0.04782696
11	0x3e42e871	0.19033982
12	0x3e404677	0.1877688
13	0x3d0ec0cc	0.034851834
14	0x3e49f631	0.19722821
15	0xbe343bfc	-0.17601007
16	0xbe1e5fcf	-0.15466236
17	0xbd24d0ec	-0.040238306
18	0x3d90a9ce	0.07063638
19	0xbdd70a6e	-0.10500036
20	0xbcac9050	-0.021064907
21	0x3e2e0767	0.16995011
22	0x3e5c874b	0.21535985
23	0xbe58b001	-0.2116089
24	0x3d1925ec	0.03738968
25	0xbd761168	-0.060075194
26	0x3ca52568	0.020159438
27	0xbe52c81a	-0.20584145
28	0xbe3e46ac	-0.18581647
29	0x3e4e5e95	0.20153268
30	0x3d7557ac	0.059898064
31	0xbcb0a550	-0.021563202
32	0x3df8467e	0.1212282
33	0x3d450e04	0.04810907
34	0xbdbb832e	-0.0915588
35	0xbe1f707c	-0.15570253

layers.0.conv3.bias f4 [2]
0	0x00000000	0.0
1	0x00000000	0.0

layers.0.batch_norm.weight f4 [2]
0	0x3f800000	1.0
1	0x3f800000	1.0

layers.0.batch_norm.bias f4 [2]
0	0x00000000	0.0
1	0x00000000	0.0

layers.0.batch_norm.running_mean f4 [2]
0	0x00000000	0.0
1	0x00000000	0.0

layers.0.batch_norm.running_var f4 [2]
0	0x3f800000	1.0
1	0x3f800000	1.0

layers.1.conv1.weight f4 [4, 2, 1, 1]
0	0xbe329558	-0.17439783
1	0xbf03913a	-0.51393473
2	0xbea0796c	-0.31342638
3	0x3f194cb5	0.5988267
4	0x3efec26e	0.49757713
5	0xbd9e2290	-0.07721436
6	0x3f2c3a1f	0.67276186
7	0x3e1e4d14	0.1545909

layers.1.conv1.bias f4 [4]
0	0x00000000	0.0
1	0x00000000	0.0
2	0x00000000	0.0
3	0x00000000	0.0

layers.1.conv2.weight f4 [4, 2, 3, 3]
0	0x3e647d79	0.22313489
1	0x3dfe5da6	0.12420206
2	0xbd3061a0	-0.043061852
3	0x3d3c3e0c	0.04595761
4	0xbe10ea80	-0.14151955
5	0xbe6c8d80	-0.23100853
6	0xbe0f70d0	-0.14007878
7	0x3e0f0a69	0.13968815
8	0x3d03e0bc	0.032196745
9	0xbd85b244	-0.06528142
10	0x3cf788e8	0.03021665
11	0xbd311e04	-0.043241516
12	0x3e2bf419	0.16792335
13	0xbe2ddd82	-0.1697903
14	0xbd9a2fd2	-0.07528652
15	0x3ca650f8	0.02030228
16	0xbd5db858	-0.054130882
17	0x3e1c5d83	0.15270047
18	0x3e0a475f	0.13503788
19	0xbcb08fa0	-0.02155286
20	0xbe1133e2	-0.14179948
21	0x3d5cb9d4	0.053888157
22	0x3e3a5603	0.18196873
23	0x3e4edeb5	0.20202143
24	0x3daa3122	0.083101526
25	0x3e6ae923	0.22940497
26	0xbe265c50	-0.16246152
27	0x3e034a59	0.1282133
28	0xbdb170f4	-0.08664122
29	0xbe6d5000	-0.23175049
30	0xbdbb5d5e	-0.09148668
31	0xbd415600	-0.047201157
32	0x3e3c4db3	0.18389015
33	0xbde7098d	-0.112811185
34	0x3c661200	0.0140423775
35	0xbd8845c0	-0.06653929
36	0xbe17a59a	-0.14809266
37	0xbe03375c	-0.12814087
38	0xbe1b1bec	-0.1514737
39	0xbe174da0	-0.14775705
40	0xbdb4a588	-0.08820635
41	0x3e5c98e9	0.21542706
42	0x3e06a5d3	0.13149194
43	0x3e6a2c79	0.22868527
44	0x3e1290e5	0.14313085
45	0xbe24575e	-0.16048953
46	0xbe04b947	-0.12961303
47	0x3d80953a	0.06278463
48	0xbe6f3ab6	-0.2336224
49	0x3de51762	0.111861005
50	0x3e282131	0.16418912
51	0x3d604b74	0.054759458
52	0x3e2f79eb	0.17136352
53	0xbe59f350	-0.21284223
54	0x3d87c48e	0.06629287
55	0xbd3fd828	-0.046837002
56	0x3e276bcd	0.16349716
57	0x3e29486b	0.16531532
58	0xbe2c8e82	-0.16851237
59	0xbe2ecb00	-0.17069626
60	0x3e38e445	0.18055828
61	0x3dd6413e	0.10461663
62	0xbe4d1200	-0.20026398
63	0x3dee8eae	0.11648308
64	0x3d9a9a46	0.075489566
65	0xbe1d3d67	-0.15355454
66	0x3d845f3e	0.064634785
67	0x3e33895d	0.17532869
68	0xbe2986d8	-0.16555345
69	0x3e60def1	0.21960045
70	0x3df1446e	0.1178063
71	0xbdb553c0	-0.08853865

layers.1.conv2.bias f4 [4]
0	0x00000000	0.0
1	0x00000000	0.0
2	0x00000000	0.0
3	0x00000000	0.0

layers.1.conv3.weight f4 [4, 4, 3, 3]
0	0xbdd65596	-0.10465543
1	0x3dfd789e	0.123765215
2	0x3da71ba8	0.08159572
3	0x3c8bd878	0.017070994
4	0xbe167c7a	-0.14695922
5	0x3db8f2c6	0.0903068
6	0xbd9a7da8	-0.07543498
7	0x3cd7c408	0.026338592
8	0x3e26a153	0.16272478
9	0x3d660aa4	0.05616249
10	0xbdc0a7ce	-0.09407006
11	0x3de1d742	0.11027385
12	0xbda590fb	-0.080842935
13	0x3d2f7374	0.042834714
14	0x3d34e33c	0.04416202
15	0x3e183b39	0.14866342
16	0xbd2b2f46	-0.04179313
17	0x3e2622c3	0.16224198
18	0x3d639e5c	0.055570945
19	0x3c198af0	0.009371504
20	0xbd94a330	-0.07257688
21	0x3d6d40c0	0.05792308
22	0xbdfad44e	-0.12247525
23	0xbb2c0d00	-0.0026252866
24	0xbd8c41eb	-0.0684851
25	0xbe2a4c17	-0.16630588
26	0x3d388900	0.04505253
27	0x3d4276a4	0.047476426
28	0x3e1db135	0.1539963
29	0x3c0f8670	0.00876008
30	0x3a709300	0.0009177178
31	0x3e204e75	0.15654929
32	0x3e14d7e5	0.14535482
33	0xbde2e76b	-0.11079296
34	0xbdd9bcbb	-0.106317006
35	0x3e217a03	0.157692
36	0xbd78bad6	-0.060725056
37	0x3da0176a	0.07816966
38	0xbe25d82a	-0.16195741
39	0xbc3e2680	-0.011605859
40	0xbd8f6618	-0.07001895
41	0x3cf3d640	0.029765248
42	0x3e1940ed	0.14966173
43	0xbd225564	-0.039632216
44	0xbdccd213	-0.10001006
45	0x3e0f1acb	0.13975064
46	0x3df2662e	0.118358955
47	0xbd7ba4bc	-0.0614364
48	0xbd219654	-0.039450005
49	0xbd0f992c	-0.035058185
50	0xbc6f7510	-0.014615312
51	0xbd3cfd20	-0.046139836
52	0xbdded060	-0.10879588
53	0xbd3f360c	-0.046682402
54	0xbcd62920	-0.026142657
55	0xbe10e8b3	-0.14151268
56	0xbda9f7cb	-0.08299216
57	0x3e14cae9	0.14530529
58	0xbd7a8d46	-0.061169885
59	0x3dff245e	0.12458108
60	0x3df8ebda	0.1215436
61	0x3d6ca164	0.0577711
62	0xbe28ded2	-0.16491249
63	0xbcf3e868	-0.029773906
64	0xbd3a20d6	-0.04544147
65	0x3e1cc83d	0.1531076
66	0xbd62e370	-0.055392683
67	0xbbd65680	-0.0065410733
68	0xbb459f00	-0.0030154586
69	0x3e243ea7	0.16039525
70	0x3dfbf98e	0.12303458
71	0x3dd07fe2	0.10180642
72	0x3e1f493d	0.15555282
73	0x3d9ae9ce	0.07564126
74	0xbe16c543	-0.14723687
75	0x3e24cac5	0.16092975
76	0xbd4aae76	-0.049482785
77	0xbdc6cfcb	-0.09707602
78	0x3db4fb16	0.08836953
79	0xbd922538	-0.07136005
80	0xbcec0348	-0.028810158
81	0x3e0a0647	0.13478957
82	0x3e1763a1	0.14784099
83	0xbd1dca64	-0.038523093
84	0xbb3dd4c0	-0.002896592
85	0xbb85e780	-0.004086435
86	0xbdaa2cf3	-0.08309355
87	0xbe191f63	-0.1495338
88	0xbe15a0af	-0.14612077
89	0x3e278dd9	0.16362704
90	0x3c5af740	0.013364613
91	0xbe0dc7e0	-0.13845778
92	0xbd9e68a8	-0.07734805
93	0xbde6cbe6	-0.11269359
94	0x3de7abe6	0.11312084
95	0xbe2a4047	-0.16626082
96	0x3d9d537e	0.076819405
97	0xbcd3a1c0	-0.025833964
98	0x3df6e8a2	0.1205609
99	0x3dc4a122	0.09601046
100	0x3db6262a	0.08893998
101	0xbd709ef6	-0.058745347
102	0xbc7e2290	-0.01551117
103	0xbd7240bc	-0.059143767
104	0xbd8165eb	-0.063182674
105	0xbd17d234	-0.0370657
106	0xbd9acff8	-0.07559198
107	0xbe2a8d1e	-0.16655394
108	0x3dff644a	0.124703005
109	0x3d01dcdc	0.03170477
110	0xbc393100	-0.011303186
111	0x3ccbe040	0.024887204
112	0x3df3f396	0.11911695
113	0x3d3fdcc0	0.046841383
114	0x3ddf0ca6	0.108910844
115	0xbe06a417	-0.13148533
116	0xbc628f80	-0.013828158
117	0x3d292100	0.041291237
118	0xbd5c5f96	-0.053802095
119	0x3e117339	0.1420411
120	0x3d22137c	0.039569363
121	0xbde916fe	-0.113813385
122	0x3d48377c	0.04888104
123	0xbdf4022e	-0.11914478
124	0xbdf1faf6	-0.11815445
125	0x3da6ad68	0.08138543
126	0xbce2faa0	-0.027707398
127	0xbc6b0610	-0.014344707
128	0x3d2a4b14	0.041575506
129	0xbbe33ce0	-0.006934747
130	0xbe211cf0	-0.15733695
131	0x3d4aaa80	0.049479008
132	0xbe00eef2	-0.1259115
133	0x3dde2606	0.10847096
134	0x3dec595a	0.1154048
135	0xbe10b062	-0.14129785
136	0x3da63df0	0.081172824
137	0xbc8527f8	-0.01625441
138	0xbc44a190	-0.01200141
139	0xbd730d10	-0.05933863
140	0x3dd70a06	0.10499959
141	0x3dc28ca2	0.0949948
142	0x3e210ccf	0.15727542
143	0xbe0133a2	-0.12617353

layers.1.conv3.bias f4 [4]
0	0x00000000	0.0
1	0x00000000	0.0
2	0x00000000	0.0
3	0x00000000	0.0

layers.1.batch_norm.weight f4 [4]
0	0x3f800000	1.0
1	0x3f800000	1.0
2	0x3f800000	1.0
3	0x3f800000	1.0

layers.1.batch_norm.bias f4 [4]
0	0x00000000	0.0
1	0x00000000	0.0
2	0x00000000	0.0
3	0x00000000	0.0

layers.1.batch_norm.running_mean f4 [4]
0	0x00000000	0.0
1	0x00000000	0.0
2	0x00000000	0.0
3	0x00000000	0.0

layers.1.batch_norm.running_var f4 [4]
0	0x3f800000	1.0
1	0x3f800000	1.0
2	0x3f800000	1.0
3	0x3f800000	1.0

layers.2.conv1.weight f4 [8, 4, 1, 1]
0	0x3efcf320	0.4940424
1	0xbed95e12	-0.42454582
2	0xbdfea490	-0.124337316
3	0x3ef52792	0.47881752
4	0xbe88d0b4	-0.26721728
5	0xbea90dc6	-0.3301832
6	0x3cfbafa0	0.030723393
7	0x3ee3aede	0.4446935
8	0xbec3b7e2	-0.3822623
9	0x3ee07022	0.4383555
10	0x3e9bfdba	0.30467016
11	0xbe600600	-0.21877289
12	0x3e5d78b8	0.21628082
13	0xbe52ad68	-0.20573962
14	0xbd8110c8	-0.06302029
15	0xbe87afa8	-0.26501203
16	0x3e6cec00	0.23136902
17	0x3d07c230	0.033144176
18	0xbee3f0bc	-0.44519603
19	0xbe818c18	-0.25302196
20	0x3d4d9be0	0.050197482
21	0x3edab1b0	0.4271369
22	0xbea2d92a	-0.31806308
23	0x3e9b2d60	0.30308056
24	0x3ed70124	0.41993058
25	0xbe72703c	-0.23675627
26	0xbeb83e40	-0.35984993
27	0xbda97e28	-0.082760155
28	0xbd627fb0	-0.055297554
29	0x3dfc5528	0.1232093
30	0xbe9671d0	-0.29383707
31	0xbe09b18c	-0.13446635

layers.2.conv1.bias f4 [8]
0	0x00000000	0.0
1	0x00000000	0.0
2	0x00000000	0.0
3	0x00000000	0.0
4	0x00000000	0.0
5	0x00000000	0.0
6	0x00000000	0.0
7	0x00000000	0.0

layers.2.conv2.weight f4 [8, 4, 3, 3]
0	0xbe1f1730	-0.15536189
1	0xbe0cb4e0	-0.13740873
2	0x3da290e6	0.079377934
3	0xbdf50e18	-0.11965579
4	0x3d9144c2	0.07093193
5	0x3d3fa74c	0.046790406
6	0x3d0cbf74	0.03436227
7	0x3e15a23d	0.1461267
8	0x3d19cf24	0.03755106
9	0x3d603080	0.054733753
10	0xbe253817	-0.16134678
11	0x3cb8eae0	0.022572935
12	0x3e265191	0.16242053
13	0x3dd39b9a	0.10332413
14	0x3d3185cc	0.04334049
15	0x3d25b1b0	0.04045266
16	0xbaf60680	-0.0018770248
17	0xbcf6e958	-0.030140564
18	0xbe045a48	-0.12925065
19	0x3e0b864d	0.1362545
20	0x3e197405	0.14985664
21	0xbe207f74	-0.1567362
22	0xbdad6d08	-0.08468062
23	0x3c648240	0.01394707
24	0xbd8a06a6	-0.06739549
25	0x3e1212e9	0.14265026
26	0x3e0a72a5	0.13520296
27	0xbe13755a	-0.14400235
28	0x3dd162de	0.102239355
29	0xbdcff463	-0.10154035
30	0xbd2d0340	-0.042239428
31	0xbde79b83	-0.113089584
32	0xbd8df9e8	-0.069324315
33	0x3dc6fffa	0.097167924
34	0xbe1fe617	-0.15615116
35	0x3e0bd8e9	0.13656963
36	0x3d6c3064	0.057663336
37	0x3e1efe85	0.15526779
38	0x3e0d4f9f	0.13799904
39	0xbd03efc0	-0.032211065
40	0x3e156717	0.14590107
41	0x3d105fac	0.03524749
42	0xbe14238c	-0.14466685
43	0xbcd2f420	-0.025751173
44	0x3e12b369	0.14326252
45	0x3ce6a7c8	0.028156176
46	0x3bb49700	0.0055111647
47	0xbdb88c0b	-0.09011086
48	0x3dd86bba	0.10567422
49	0xbd6db4c6	-0.058033727
50	0xbdb8db53	-0.09026208
51	0x3da09a86	0.07841973
52	0x3e21a1bd	0.15784355
53	0x3da06daa	0.07833417
54	0x3dda7af2	0.10667981
55	0xbe27bb3a	-0.16380015
56	0x3d860af8	0.06545061
57	0xbd3fa8f0	-0.04679197
58	0xbc3e6370	-0.011620387
59	0xbdcfda26	-0.101490304
60	0x3e1221eb	0.14270751
61	0x3d780530	0.060551822
62	0xbe0aecab	-0.13566844
63	0xbe1d3d24	-0.15355355
64	0x3e214333	0.1574829
65	0x3b2be440	0.0026228577
66	0xbe1f38e2	-0.15549043
67	0x3d1fbbfc	0.038997635
68	0xbdde6a00	-0.10860062
69	0xbda8c5db	-0.08240863
70	0xbd6de25c	-0.0580772
71	0xbd86e2a0	-0.06586194
72	0x3df3c40a	0.11902626
73	0xbd76af90	-0.060226023
74	0xbd97b4c0	-0.07407522
75	0x3d584d0c	0.052807853
76	0x3e2a2263	0.1661468
77	0x3c867c00	0.01641655
78	0xbdbf4c86	-0.093407676
79	0x3e248b6d	0.16068812
80	0xbe199258	-0.14997232
81	0x3e29cfdf	0.16583203
82	0x3c8ddf08	0.017318264
83	0xbd9f48db	-0.07777568
84	0x3cc6b3c0	0.024255633
85	0xbd7fbfa0	-0.062438607
86	0xbe14a8b8	-0.14517486
87	0xbda8ff96	-0.08251874
88	0xbe2631a2	-0.16229871
89	0xbe138d88	-0.14409459
90	0xbdbbcc66	-0.09169845
91	0x3d6f9b6c	0.05849783
92	0x3d67b240	0.056566477
93	0x3ca07068	0.01958485
94	0xbd4dabcc	-0.050212666
95	0xbd57e830	-0.052711666
96	0x3dd8c322	0.10584094
97	0xbe0e8100	-0.13916397
98	0x3dca2082	0.098694816
99	0xbe20d2c6	-0.15705404
100	0x3daed7f2	0.08537282
101	0x3e26f743	0.1630526
102	0x3d523564	0.05132045
103	0x3c0f7ab0	0.008757278
104	0xbb830c20	-0.003999248
105	0xbdc6fad8	-0.097158134
106	0xbce30138	-0.027710542
107	0x3e03445d	0.12819047
108	0x3dbddb1a	0.09270306
109	0x3e0b6281	0.13611795
110	0xbd881048	-0.066437304
111	0xbd030e80	-0.03199625
112	0xbbda80a0	-0.0066681653
113	0xbd9e97f0	-0.077438235
114	0x3da881ba	0.082278684
115	0x3e0a73c3	0.13520722
116	0x3d8cfdfe	0.06884383
117	0x3d6be8cc	0.05759506
118	0xbdb3d2b8	-0.08780426
119	0xbdfced2e	-0.12349926
120	0x3db1e742	0.08686687
121	0xbdd552ae	-0.104161605
122	0x3d134d20	0.035962224
123	0x3e0fe817	0.14053379
124	0xbd8d9f46	-0.069151446
125	0x3da373f8	0.07981104
126	0x3dced742	0.10099651
127	0x3d940996	0.07228391
128	0xbe298683	-0.16555218
129	0xbdb50583	-0.08838942
130	0xbe0cab8e	-0.13737318
131	0x3e02f941	0.12790395
132	0x3d63bc74	0.055599645
133	0x3dd4ac56	0.10384433
134	0x3d0d6f90	0.034530222
135	0xbdee93a8	-0.11649257
136	0x3ddd896a	0.10817225
137	0x3e06ac19	0.13151588
138	0xbe0d22b7	-0.13782774
139	0xbdc74300	-0.09729576
140	0x3d65c350	0.056094468
141	0x3e14eff5	0.14544661
142	0x3e1abab9	0.15110292
143	0xbdde3333	-0.10849609
144	0xbdd4a736	-0.103834555
145	0xbd8202b0	-0.06348169
146	0xbb7c9240	-0.003853932
147	0x3dc53e8e	0.09631072
148	0xbdc41dab	-0.09575971
149	0xbe16c60e	-0.1472399
150	0xbd84d10e	-0.064851865
151	0xbddcd720	-0.10783219
152	0xbd4a3cec	-0.049374506
153	0xbd878db6	-0.06618826
154	0x3d43be2c	0.047788784
155	0x3decfdaa	0.1157182
156	0xbe25bbee	-0.1618497
157	0x3aab9f80	0.0013093799
158	0x3d21e71c	0.039527044
159	0xbdb9806b	-0.09057697
160	0x3c3b4e40	0.0114322305
161	0xbdfc05d3	-0.123057984
162	0x3dd799b2	0.10527362
163	0x3ddb38d2	0.10704197
164	0xbdea9683	-0.11454489
165	0x3d36c840	0.044624567
166	0xbd80561e	-0.062664255
167	0xbdac46d0	-0.08411944
168	0x3e13d277	0.14435755
169	0xbd31d9c6	-0.043420576
170	0xbd87353e	-0.06601952
171	0xbddb2ea6	-0.10702257
172	0x3def6722	0.11689593
173	0xbe0b4ec7	-0.1360427
174	0x3e08e7b7	0.13369642
175	0xbe102c57	-0.14079414
176	0x3d4f9330	0.05067748
177	0x3dd55526	0.104166314
178	0xbe24deeb	-0.16100661
179	0xbe2221fb	-0.15833275
180	0x3c959788	0.018260732
181	0xbba304e0	-0.0049749464
182	0xbafe6280	-0.0019408017
183	0xbe0d321a	-0.13788643
184	0xbde0d483	-0.109780334
185	0xbd6b3ed6	-0.057432972
186	0x3e0d2a71	0.13785721
187	0x3e24e9ad	0.16104765
188	0x3dd9a54e	0.106272325
189	0x3e0441b3	0.12915687
190	0x3da9a636	0.08283655
191	0xbe00f317	-0.12592731
192	0xbc5af8b0	-0.013364956
193	0x3c0faa30	0.008768603
194	0x3db78462	0.08960797
195	0xbd563a76	-0.052301846
196	0x3dd61612	0.10453428
197	0xba7f3900	-0.00097359717
198	0x3e1f9f0f	0.1558802
199	0xbe2117f4	-0.15731794
200	0x3ddf8122	0.10913302
201	0x3c3f06d0	0.011659339
202	0xbcb510f8	-0.022102818
203	0x3e035669	0.12825932
204	0xbd67d18c	-0.056596324
205	0xbe16f3ac	-0.14741391
206	0x3d91f35e	0.07126497
207	0xbdecde9e	-0.11565898
208	0x3da3200e	0.07965098
209	0xbdc93626	-0.09824781
210	0xbd5d94fc	-0.05409716
211	0xbcc8f3e8	-0.024530366
212	0x3e0f02df	0.13965939
213	0x3db37682	0.08762838
214	0xba633300	-0.00086669624
215	0x3d9fd2b0	0.07803857
216	0x3dca86ba	0.09888978
217	0x3d238094	0.039917544
218	0x3da847ca	0.08216818
219	0xbe102432	-0.14076307
220	0x3d8f979e	0.070113406
221	0x3b6d9200	0.0036250353
222	0xbe118c5c	-0.14213699
223	0xbd808713	-0.06275763
224	0x3d227690	0.03966385
225	0x3d522c64	0.051311865
226	0x3e10b769	0.14132465
227	0xbdbe6bc3	-0.09297898
228	0xbe00eef0	-0.12591147
229	0xbdfde3ae	-0.12396942
230	0x3e073f8d	0.13207836
231	0x3ddb5b6a	0.10710795
232	0xbda56f5e	-0.08077882
233	0xbdb0e7a3	-0.08637931
234	0xbe0bf412	-0.13667324
235	0x3e199963	0.14999919
236	0xbdab8d36	-0.08376543
237	0x3e076491	0.13221957
238	0x3ceb0f80	0.028693914
239	0xbded9026	-0.1159976
240	0x3dac45a2	0.08411719
241	0x3df54f3a	0.11978002
242	0x3d9369a0	0.07197881
243	0xbdb8de16	-0.090267345
244	0x3e161b81	0.1465893
245	0x3de79432	0.11307563
246	0x3d6b1c50	0.057400048
247	0x3c89c708	0.016818538
248	0xbe0ba283	-0.13636212
249	0x3cafa9c0	0.021443248
250	0xbe1df36b	-0.15424888
251	0xbe159e0f	-0.14611076
252	0xbd243220	-0.040086865
253	0x3d2407e0	0.040046573
254	0x3d66910c	0.05629067
255	0x3cf97200	0.030449867

layers.2.conv2.bias f4 [8]
0	0x00000000	0.0
1	0x00000000	0.0
2	0x00000000	0.0
3	0x00000000	0.0
4	0x00000000	0.0
5	0x00000000	0.0
6	0x00000000	0.0
7	0x00000000	0.0

layers.2.conv3.weight f4 [8, 8, 3, 3]
0	0xbdb582b2	-0.08862819
1	0x3cf5d1b4	0.03000722
2	0xbcd0d8b4	-0.025493957
3	0x3dd98a5b	0.10622092
4	0x3ca67db4	0.020323612
5	0xba697480	-0.00089056045
6	0x3cb32f84	0.021873243
7	0xbcc9e370	-0.024644583
8	0xbd97ad66	-0.0740612
9	0x3d8839db	0.0665166
10	0x3de08a1f	0.109638445
11	0x3d4ec63e	0.050482027
12	0x3d0167d6	0.031593166
13	0xbb2c7f80	-0.0026321113
14	0xbdbf1e1c	-0.09331915
15	0xbbaf67c0	-0.005352944
16	0xbd7ea2f0	-0.062167108
17	0x3dd33ea9	0.10314686
18	0xbd482e7e	-0.048872463
19	0xbc7fcac0	-0.015612304
20	0x3cecc6cc	0.028903387
21	0x3d81c2d3	0.06335988
22	0xbd76fffe	-0.060302727
23	0xbc90cc18	-0.017675444
24	0x3d883195	0.06650082
25	0xbc3edda8	-0.011649527
26	0x3d50d6aa	0.05098597
27	0xbda89570	-0.08231628
28	0xbd87d90d	-0.06633196
29	0xbd286a12	-0.04111678
30	0xba812480	-0.0009852797
31	0x3da043c5	0.07825426
32	0xbd3a7596	-0.045522295
33	0xbd5e6a72	-0.054300733
34	0xbd064ee0	-0.032790065
35	0x3d176f16	0.036971174
36	0xbdba6285	-0.09100822
37	0x3cecb654	0.028895535
38	0xbd7ff436	-0.062488757
39	0xbdc5213f	-0.09625482
40	0xbd9d4baa	-0.076804474
41	0xbdef2833	-0.11677589
42	0x3cd9e32c	0.026597582
43	0x3d8a9247	0.067661814
44	0xbcc6224c	-0.024186276
45	0x3ce6aff4	0.028160073
46	0x3ce3bd2c	0.027800165
47	0x3daaf995	0.08348385
48	0x3c94921c	0.018136077
49	0x3d829c65	0.06377486
50	0xbcc88b04	-0.02448035
51	0x3d9e9c01	0.07744599
52	0xbcc5ae18	-0.024130866
53	0x3ddd54fb	0.10807224
54	0xbdb47913	-0.088121556
55	0xbddc34b2	-0.10752238
56	0x3cc811f4	0.024422623
57	0xbd382cb4	-0.044964507
58	0x3d548f8e	0.051894717
59	0x3de75361	0.112952
60	0xbdeb9c8a	-0.11504467
61	0x3bee06d0	0.0072639957
62	0x3d79fc02	0.06103135
63	0xbdd45c67	-0.10369187
64	0x3b945340	0.0045265257
65	0xbdcddee6	-0.1005228
66	0xbde54ca7	-0.11196261
67	0x3df04b89	0.11733157
68	0x3d7f791a	0.06237135
69	0x3d6671e2	0.05626095
70	0x3cbb12dc	0.022836141
71	0xbcc75400	-0.024332047
72	0xbdd3e090	-0.10345566
73	0x3dbd5eb9	0.092465825
74	0x3db6cd1d	0.08925841
75	0x3dd9f005	0.10641483
76	0xbd55115c	-0.05201851
77	0x3d858cc9	0.06520993
78	0x3cf23994	0.029568471
79	0x3d8cea9b	0.06880685
80	0xbde4f086	-0.11178689
81	0x3cb03254	0.021508373
82	0xbdc86c4f	-0.09786283
83	0x3d3d0776	0.046149693
84	0xbd8eb6eb	-0.069684826
85	0x3dd2d7af	0.10295045
86	0x3d7f8586	0.062383197
87	0x3db032e9	0.0860346
88	0xbdb5201a	-0.088440135
89	0xbd53f786	-0.05174973
90	0x3ddabc9d	0.106805064
91	0xbd946694	-0.07246128
92	0x3d7187aa	0.05896727
93	0xbd5a9a36	-0.053369723
94	0x3d17f192	0.037095614
95	0x3d1af46a	0.037830748
96	0x3de1467b	0.10999771
97	0x3de888a1	0.11354185
98	0xbd30a44a	-0.04312543
99	0xbdcacf95	-0.099028744
100	0x3dd38401	0.10327912
101	0x3d79131a	0.060809232
102	0x3db234e1	0.08701492
103	0x3db4e28b	0.08832272
104	0x3dd17f07	0.10229307
105	0xbc418a38	-0.011812739
106	0xbb4966e0	-0.0030731484
107	0x3dd5d97d	0.10441873
108	0x3ddf6b57	0.10909145
109	0x3d85589f	0.06511044
110	0x3d3da7de	0.04630267
111	0xbd54a508	-0.0519152
112	0x3dae57e3	0.08512857
113	0xbdc8e75a	-0.09809752
114	0x3d4ad96a	0.04952375
115	0xbcc27a08	-0.02373983
116	0xbddf3d7f	-0.10900401
117	0xbdb0fc4c	-0.08641872
118	0x3d5a4fae	0.053298645
119	0xbd38fd1c	-0.04516326
120	0xbddf7253	-0.109104775
121	0xbd4df560	-0.050282836
122	0x3ddca4c3	0.10773613
123	0x3dabb451	0.08384002
124	0x3dd25e27	0.102718644
125	0x3d4aae4a	0.04948262
126	0xbdd71d34	-0.10503617
127	0x3bd6cd00	0.0065551996
128	0xbddf75ef	-0.10911166
129	0x3dbb888d	0.09156904
130	0xbd1dda5c	-0.03853832
131	0xbdce6cf3	-0.10079374
132	0x3c707578	0.014676444
133	0x3d863613	0.065532826
134	0x3d989e95	0.07452122
135	0x3de41503	0.1113682
136	0xbd83169c	-0.06400797
137	0x3d09ad92	0.033612795
138	0xbde5ee53	-0.11227097
139	0xbc0141d0	-0.007889226
140	0xbd1564d4	-0.03647311
141	0xbd85f10f	-0.06540119
142	0x3d6a42d6	0.057192646
143	0xbdde3b2f	-0.10851132
144	0xbc89342c	-0.01674851
145	0x3ded5e3f	0.11590242
146	0x3dd4d98b	0.103930555
147	0xbdf09bda	-0.11748476
148	0xbd25b968	-0.04046002
149	0x3d80e183	0.06293013
150	0xbcae3e18	-0.021269843
151	0xba8a9b00	-0.0010574758
152	0xbde954e6	-0.11393146
153	0xbd9de531	-0.077097304
154	0xbd43cd76	-0.047803365
155	0xbd7d0790	-0.06177479
156	0x3daa3a3d	0.08311889
157	0x3daa3e55	0.0831267
158	0x3c9e3cdc	0.01931613
159	0xbdb8a211	-0.09015287
160	0x3d184bca	0.037181653
161	0xbd87424e	-0.066044435
162	0xbdde2bb3	-0.10848179
163	0x3bf2fed0	0.00741563
164	0x3dee9333	0.1164917
165	0x3d972d79	0.0738172
166	0x3d9dc901	0.07704354
167	0x3d8ad3db	0.067786895
168	0x3d4b16f6	0.049582444
169	0x3d500242	0.050783403
170	0x3dd42f9d	0.10360644
171	0x3dd3fc49	0.10350854
172	0x3cddf4dc	0.027094297
173	0x3d615d86	0.05502083
174	0xbd231076	-0.03981062
175	0x3da3e1ff	0.0800209
176	0xbd081086	-0.033218883
177	0x3c1ba308	0.009499319
178	0xbc3b3dd0	-0.0114283115
179	0xbdd8f372	-0.105933085
180	0x3d481cda	0.04885564
181	0x3d80f4c9	0.06296689
182	0x3d45ee76	0.048323117
183	0xbc4c0e68	-0.012454607
184	0xbd9cf53e	-0.07663964
185	0x3d5d79e2	0.054071315
186	0xbdc5e93c	-0.096636266
187	0x3c7fb168	0.015606262
188	0xbdcd57d8	-0.100265205
189	0x3de5c265	0.112187184
190	0xbdc35ec8	-0.095395625
191	0xbd2cb928	-0.042168766
192	0x3d28d6d2	0.041220494
193	0x3d5cdb06	0.053919815
194	0x3d190762	0.037360556
195	0x3d314ff6	0.043289147
196	0x3db7ac3f	0.089684
197	0x3dc31699	0.095257945
198	0x3d97ade9	0.074062176
199	0xbde15bf5	-0.110038675
200	0x3c0896b8	0.008336715
201	0x3da62b45	0.08113722
202	0xbd8ace90	-0.0677768
203	0x3d648682	0.05579234
204	0xbd94a56c	-0.07258114
205	0x3d92d45f	0.07169413
206	0xbdee40a7	-0.11633425
207	0x3dd450e5	0.10366992
208	0x3da654ed	0.08121667
209	0xbd66aee8	-0.056319147
210	0x3db32905	0.08748058
211	0x3d7ab06a	0.061203398
212	0x3d71d96a	0.059045233
213	0xbcda2700	-0.026629925
214	0x3cda935c	0.026681595
215	0x3caf04ec	0.021364652
216	0xbccf55d4	-0.02530948
217	0x3c5dcc78	0.013537519
218	0x3cf378b4	0.029720642
219	0xbd51cfe4	-0.05122365
220	0xbb8b1b50	-0.0042451993
221	0x3c126af8	0.008936636
222	0x3de17cc1	0.11010123
223	0x3d95631f	0.072942965
224	0xbc2d44b0	-0.010575458
225	0x3d22013a	0.03955195
226	0xbd37f10a	-0.044907607
227	0xbcf7ace0	-0.0302338
228	0x3deeba2f	0.116566055
229	0xbdbc5e90	-0.09197724
230	0x3d945abd	0.072438695
231	0xbde2d360	-0.11075473
232	0xbd25e2ee	-0.04049962
233	0xbd81b39d	-0.06333087
234	0x3c011ab8	0.007879905
235	0x3da7cd61	0.0819347
236	0x3d892423	0.06696346
237	0xbd29a37e	-0.041415684
238	0xbd8c915f	-0.06863665
239	0xbdec8144	-0.11548093
240	0xbdf02dfc	-0.11727521
241	0x3989c800	0.00026279688
242	0xbcd84df8	-0.026404366
243	0xbcf2b224	-0.02962596
244	0x3b9a1a10	0.004702814
245	0x3d5a6f06	0.053328536
246	0xbde075f1	-0.109599955
247	0xbc952dc0	-0.018210292
248	0xbbc34c20	-0.0059600025
249	0x3d6deaea	0.05808536
250	0x3db3f4a3	0.08786895
251	0xbd11a730	-0.035559833
252	0x3d63150a	0.055439986
253	0xbd7e034b	-0.06201486
254	0xbdb78f3b	-0.08962866
255	0x3d89bccd	0.06725464

layers.2.conv3.bias f4 [8]
0	0x00000000	0.0
1	0x00000000	0.0
2	0x00000000	0.0
3	0x00000000	0.0
4	0x00000000	0.0
5	0x00000000	0.0
6	0x00000000	0.0
7	0x00000000	0.0

layers.2.batch_norm.weight f4 [8]
0	0x3f800000	1.0
1	0x3f800000	1.0
2	0x3f800000	1.0
3	0x3f800000	1.0
4	0x3f800000	1.0
5	0x3f800000	1.0
6	0x3f800000	1.0
7	0x3f800000	1.0

layers.2.batch_norm.bias f4 [8]
0	0x00000000	0.0
1	0x00000000	0.0
2	0x00000000	0.0
3	0x00000000	0.0
4	0x00000000	0.0
5	0x00000000	0.0
6	0x00000000	0.0
7	0x00000000	0.0

layers.2.batch_norm.running_mean f4 [8]
0	0x00000000	0.0
1	0x00000000	0.0
2	0x00000000	0.0
3	0x00000000	0.0
4	0x00000000	0.0
5	0x00000000	0.0
6	0x00000000	0.0
7	0x00000000	0.0

layers.2.batch_norm.running_var f4 [8]
0	0x3f800000	1.0
1	0x3f800000	1.0
2	0x3f800000	1.0
3	0x3f800000	1.0
4	0x3f800000	1.0
5	0x3f800000	1.0
6	0x3f800000	1.0
7	0x3f800000	1.0

layers.3.conv1.weight f4 [16, 8, 1, 1]
0	0xbe99d41a	-0.30044633
1	0x3abcba00	0.0014398694
2	0xbe524c6d	-0.20536967
3	0x3dae37c8	0.08506733
4	0x3e4d6642	0.2005854
5	0x3e3d8952	0.18509415
6	0x3e800581	0.250042
7	0x3d7b33e0	0.06132877
8	0x3dfd2ad4	0.123616844
9	0x3e42df26	0.19030437
10	0xbe3f8542	-0.18703178
11	0x3e736eb6	0.23772702
12	0xbde7112c	-0.11282572
13	0x3dfc739c	0.12326738
14	0x3e296f6a	0.16546407
15	0xbe02f44c	-0.12788504
16	0x3eb24fc1	0.34826472
17	0x3c006be0	0.007838219
18	0xbe56f1d0	-0.20990682
19	0x3e25e91e	0.16202208
20	0x3e0b088a	0.13577476
21	0xbe236bf0	-0.15959144
22	0xbddd660e	-0.10810481
23	0x3e18427e	0.14869115
24	0xbe07d9d5	-0.1326669
25	0x3e5cada6	0.21550617
26	0x3e80efdd	0.25183
27	0x3e81b365	0.2533218
28	0x3dc6911c	0.09695646
29	0x3d183000	0.03715515
30	0x3da47c4c	0.0803152
31	0x3da022c8	0.07819134
32	0x3db17f14	0.08666816
33	0xbeafa214	-0.34303343
34	0xbe535011	-0.20636012
35	0x3e800e9b	0.25011143
36	0xbe227fff	-0.15869139
37	0xbdd69e38	-0.104793966
38	0x3e0bb69a	0.13643876
39	0xbe436ead	-0.19085188
40	0xbe061962	-0.1309562
41	0x3e0bcdee	0.13652775
42	0xbe0ab177	-0.1354426
43	0xbe08211e	-0.13293883
44	0x3e632696	0.22182688
45	0xbe8d58a2	-0.27606684
46	0xbe2784ec	-0.163593
47	0x3ce448e0	0.02786678
48	0x3e72841a	0.23683205
49	0x3df595d0	0.11991465
50	0xbe4e0d3a	-0.20122233
51	0xbdfea000	-0.12432861
52	0x3db6d490	0.08927262
53	0x3e31d3a6	0.17365894
54	0xbe768197	-0.24072872
55	0x3ba0fe80	0.0049131513
56	0xbce228b0	-0.027607292
57	0xbd037938	-0.032098025
58	0xbe8a7b0a	-0.27046996
59	0xbe2e3d3f	-0.17015551
60	0x3e56c93a	0.209752
61	0xbc2ef580	-0.010678649
62	0x3d93ea18	0.07222384
63	0x3ea7420f	0.32667586
64	0xbe0ad00f	-0.1355593
65	0xbe264f5d	-0.16241212
66	0x3d518d30	0.051160038
67	0x3da5f508	0.081033766
68	0xbe280e3b	-0.16411678
69	0x3e81fc33	0.25387725
70	0xbea33e88	-0.31883645
71	0x3ead72c5	0.33876625
72	0x3ea0735f	0.3133802
73	0xbe4604c6	-0.19337758
74	0xbe962bdb	-0.29330334
75	0xbe98cec2	-0.29845244
76	0xbdb9e52c	-0.09076914
77	0xbe43d9ea	-0.19126096
78	0xbd8ac4a4	-0.067757875
79	0xbeb16183	-0.34644708
80	0xbe11c009	-0.14233412
81	0x3e82e7c5	0.2556745
82	0x3cf411e0	0.02979368
83	0xbe4c96cd	-0.19979401
84	0xbd728760	-0.059211135
85	0x3e4ac75e	0.19802615
86	0xbea4d9b1	-0.32197335
87	0x3e0bdb50	0.1365788
88	0x3d0c38c0	0.03423381
89	0xbe6c2593	-0.23061208
90	0x3ded5a7c	0.11589524
91	0x3e7a3ee6	0.24438056
92	0x3e2dcbe2	0.16972306
93	0x3e143ee6	0.14477119
94	0x3deb2d90	0.114833
95	0xbdd4ba4a	-0.10387094
96	0xbe3fa48c	-0.18715113
97	0xbe1cd597	-0.15315853
98	0xbe3afc61	-0.18260337
99	0xbd89ab74	-0.06722155
100	0x3e5dc1ba	0.21655932
101	0xbeaeebb8	-0.34164214
102	0x3e891123	0.26770887
103	0x3e939e29	0.28831604
104	0x3e7bb1b2	0.24579504
105	0xbe6c378d	-0.23068066
106	0x3e4f735e	0.20258853
107	0x3eae58c1	0.3405209
108	0x3dddcfc4	0.10830644
109	0xbb5a6180	-0.0033322275
110	0xbe2fcba8	-0.17167532
111	0x3ea09301	0.31362155
112	0x3ea0b397	0.31387016
113	0xbe9a053e	-0.30082124
114	0xbd345c28	-0.0440332
115	0xbd124880	-0.035713673
116	0xbdced508	-0.10099226
117	0xbdd9c72c	-0.10633692
118	0xbe543057	-0.20721565
119	0xbdfb1b30	-0.12261045
120	0xbe37f9bb	-0.17966358
121	0xbea79b22	-0.32735544
122	0xbea87ea2	-0.32909113
123	0xbea7cb94	-0.32772505
124	0xbe6d0d9e	-0.23149726
125	0xbd8be630	-0.06831014
126	0x3cdaccb0	0.02670893
127	0xbc959220	-0.018258154

layers.3.conv1.bias f4 [16]
0	0x00000000	0.0
1	0x00000000	0.0
2	0x00000000	0.0
3	0x00000000	0.0
4	0x00000000	0.0
5	0x00000000	0.0
6	0x00000000	0.0
7	0x00000000	0.0
8	0x00000000	0.0
9	0x00000000	0.0
10	0x00000000	0.0
11	0x00000000	0.0
12	0x00000000	0.0
13	0x00000000	0.0
14	0x00000000	0.0
15	0x00000000	0.0

layers.3.conv2.weight f4 [16, 8, 3, 3]
0	0xbd16ffb0	-0.036864936
1	0xbddeeb13	-0.108846806
2	0x3d33349a	0.043751337
3	0x3deb658b	0.11493977
4	0xbd85a002	-0.0652466
5	0x3db9d6b3	0.09074154
6	0x3dd896c9	0.10575635
7	0x3d331622	0.04372228
8	0x3d84745f	0.064675085
9	0xbaf5e140	-0.0018759146
10	0x3d0ec23a	0.034853198
11	0xbdcb7e64	-0.099362165
12	0xbda6e611	-0.081493504
13	0xbd6ea73c	-0.058264956
14	0x3d73aafe	0.059489243
15	0xbd8995e0	-0.067180395
16	0xbd9685c0	-0.073497295
17	0xbd1a28b4	-0.037636474
18	0xbde755ff	-0.11295699
19	0xbd86ec33	-0.0658802
20	0x3d2498ca	0.040184774
21	0x3dc42a1d	0.09578345
22	0x3c661658	0.014043413
23	0xbdc3649c	-0.09540674
24	0xbd9d1676	-0.076703
25	0xbcbf0c04	-0.02332116
26	0x3d4bebde	0.049785487
27	0x3d6a6fe6	0.05723562
28	0x3dd08f55	0.101835884
29	0x3dd911eb	0.10599121
30	0xbd79fde8	-0.06103316
31	0xbca7cb5c	-0.020482711
32	0x3db49a51	0.08818496
33	0x3d278616	0.04089936
34	0x3d95a459	0.073067375
35	0xbd51b2c8	-0.05119589
36	0x3ca520fc	0.02015733
37	0xbd9c0560	-0.07618213
38	0x3dc5285b	0.09626838
39	0x3cb4a1b4	0.022049762
40	0x3d037e92	0.03210313
41	0x3dbd83b9	0.0925364
42	0xbde26a59	-0.110554405
43	0xbd0864be	-0.0332992
44	0xbd8df426	-0.06931333
45	0xbd035ab6	-0.03206893
46	0x3cdda9fc	0.027058594
47	0x3dee308f	0.116303556
48	0x3dc43197	0.09579771
49	0xbd8b1808	-0.06791693
50	0x3d18fbe2	0.03734959
51	0x3dedf919	0.11619777
52	0x3ce4765c	0.02788847
53	0x3dc63731	0.09678496
54	0xbdecc7cb	-0.11561545
55	0xbdc7b75b	-0.09751769
56	0xbd3a00da	-0.04541097
57	0x3d1ae02e	0.03781145
58	0xbdb4f74f	-0.08836233
59	0x3cdb139c	0.026742749
60	0xbc1bec98	-0.009516858
61	0x3dac95b3	0.0842699
62	0x3dd9454b	0.1060892
63	0xbda2aa92	-0.0794269
64	0x3d9493e7	0.07254773
65	0xbde620da	-0.11236735
66	0xbd0cfed0	-0.034422696
67	0xbdb34fb0	-0.087554336
68	0xbd2288fa	-0.039681412
69	0xbd39441c	-0.04523097
70	0xbda2d3b8	-0.079505384
71	0xbd8fff00	-0.07031059
72	0x3da550f9	0.08072085
73	0xbd89a1a1	-0.067202814
74	0x3d6c9242	0.05775667
75	0x3c223a78	0.009901635
76	0xbda65034	-0.08120766
77	0xbc94da9c	-0.018170647
78	0xbd9317b4	-0.071822554
79	0xbdecf190	-0.11569512
80	0xbc8bba3c	-0.017056577
81	0xbdef93bb	-0.11698099
82	0x3d1845ba	0.03717587
83	0x3c755298	0.014973305
84	0x3dd5bcab	0.10436376
85	0xbb1e4e00	-0.0024155378
86	0xbdaae4d6	-0.08344428
87	0xbde287d1	-0.11061061
88	0xbd2e8cba	-0.042614676
89	0xbd1a0f38	-0.03761217
90	0x3d39d11a	0.04536543
91	0xbc87df94	-0.016586103
92	0x3cbba0cc	0.022903822
93	0x3d2393ce	0.03993588
94	0x3c95cabc	0.018285148
95	0xbc9e4b58	-0.019323036
96	0xbc9760c8	-0.018478766
97	0xbd996804	-0.074905425
98	0x3d56c79a	0.05243645
99	0xbd527db8	-0.051389426
100	0x3da75c2f	0.081718795
101	0xbce96440	-0.028490186
102	0x3c550078	0.0130006
103	0x3dbce319	0.09223003
104	0x3de98d59	0.11403913
105	0x3dea4081	0.114380844
106	0x3ce07754	0.02740065
107	0x3ddd397f	0.10801982
108	0x3d5a0302	0.053225525
109	0x3dd0f3a1	0.102027185
110	0xbdc9821f	-0.09839272
111	0xbd424488	-0.047428638
112	0x3d4dc892	0.050240107
113	0xbdc15076	-0.09439175
114	0x3dca046b	0.09864124
115	0x3debb2c5	0.11508707
116	0xbc20ea70	-0.009821519
117	0xbba00770	-0.004883699
118	0xbdaaca9c	-0.08339426
119	0xbded9a5b	-0.116017066
120	0xbd3e72ca	-0.04649619
121	0xbdb62d7c	-0.08895394
122	0x3cecd4c4	0.028910048
123	0x3def6e8b	0.11691006
124	0x3db1f3ef	0.08689105
125	0x3dc19afb	0.09453388
126	0x3dde9e03	0.10869982
127	0xbd0bd802	-0.034141548
128	0x3db00177	0.085940294
129	0x3dc9eff3	0.0986022
130	0x3db81155	0.08987681
131	0x3d6d382a	0.05791489
132	0xbdd08871	-0.10182274
133	0x3d5e8c32	0.05433292
134	0x3d320cb2	0.04346914
135	0xbd525b66	-0.051356696
136	0xbdaf770c	-0.08567628
137	0x3d146d56	0.036237083
138	0xbd41bb1a	-0.047297575
139	0xbdc50f19	-0.0962202
140	0xbd671141	-0.05641294
141	0x3d890597	0.06690519
142	0xbdaf8ead	-0.08572135
143	0x3c547c88	0.012969144
144	0x3ceb9774	0.028758742
145	0x3ded611f	0.1159079
146	0xbd219880	-0.039452076
147	0x3cf5200c	0.029922508
148	0x3d159002	0.03651429
149	0x3cfa0014	0.030517615
150	0x3d676a82	0.05649806
151	0x3dac380f	0.0840913
152	0x3dda2b7d	0.10652826
153	0x3d2a843e	0.041630022
154	0xbd995c6c	-0.07488331
155	0xbd1c2f50	-0.03813106
156	0x3dcb5ad5	0.09929434
157	0xbc577528	-0.013150491
158	0x3d22ed3a	0.039777018
159	0xbd7d67d1	-0.061866585
160	0x3d1f4416	0.03888329
161	0x3d97faf1	0.0742091
162	0xbd71b0d1	-0.059006516
163	0x3cf18dfc	0.029486649
164	0xbd4a1fce	-0.049346738
165	0xbc997678	-0.018733248
166	0xbd8c0232	-0.06836356
167	0x3db784c7	0.08960872
168	0xbda7c976	-0.081927225
169	0x3dc8d251	0.0980574
170	0xbdc77b20	-0.09740281
171	0xbc9dd5f8	-0.019267067
172	0xbdee4a0b	-0.11635216
173	0x3d5e988a	0.05434469
174	0x3dd710b9	0.105012365
175	0x3c7ec8a8	0.01555077
176	0xbd3f5752	-0.046714135
177	0x3d8389a3	0.064227365
178	0xbcb83b8c	-0.022489332
179	0xb9da4500	-0.0004163161
180	0x3cbcde74	0.023055293
181	0x3dc36609	0.09540946
182	0xbc747960	-0.014921516
183	0x3d963cfd	0.07335851
184	0x3dd594b5	0.10428754
185	0xbd8fbc0e	-0.070182905
186	0xbd939088	-0.072053015
187	0x3db8456d	0.08997617
188	0xbc1fb350	-0.009747341
189	0xbdca7cb8	-0.098870695
190	0x3d854c75	0.06508724
191	0xbda880e3	-0.08227708
192	0xbdbbc8bc	-0.091691464
193	0x3da1e8fb	0.079057656
194	0x3da5552b	0.08072885
195	0xbdaf2aa8	-0.08553058
196	0x3dbef7a5	0.09324578
197	0xbd8d8dbe	-0.06911801
198	0xbd4c3564	-0.049855605
199	0x3d06cbee	0.032909326
200	0xbd92f112	-0.07174887
201	0x3d8b6b67	0.06807595
202	0xbd8993dc	-0.06717655
203	0x3d7b18c6	0.061302923
204	0x3d887641	0.0666318
205	0x3ded3927	0.115831666
206	0x3c7e9798	0.015539072
207	0x3d676572	0.05649323
208	0xbde32ba5	-0.11092309
209	0x3d03667a	0.03208015
210	0x3dd40de9	0.10354216
211	0xbdae48cc	-0.08509979
212	0x3c528238	0.012848429
213	0xbd42aa70	-0.047525823
214	0x3daea121	0.08526827
215	0x3da28aad	0.079366066
216	0xbdc8efad	-0.098113395
217	0xbd96429c	-0.073369235
218	0xbd423c8c	-0.047421023
219	0xbd43428e	-0.047670893
220	0xbde28cbe	-0.11062001
221	0xbde5f55f	-0.112284414
222	0xba61e180	-0.0008616671
223	0xbd78353c	-0.060597643
224	0x3d3d6da2	0.046247132
225	0xbd573b62	-0.052546866
226	0x3d1bf2b2	0.03807325
227	0xbd245b6e	-0.040126257
228	0x3da6c77f	0.081435196
229	0x3d086bc6	0.033305906
230	0xbdacc960	-0.08436847
231	0x3d8ab4bb	0.06772753
232	0x3c2835a8	0.010266699
233	0xbd0559b0	-0.032556236
234	0xbc4c5d78	-0.012473457
235	0x3dbb5ebd	0.09148929
236	0xbc087408	-0.008328445
237	0xbd98cfe9	-0.07461531
238	0xbcfce5d8	-0.030871317
239	0xbce71688	-0.028208986
240	0x3d5027ee	0.05081933
241	0xbd3ddc8c	-0.046352908
242	0xbdd4004d	-0.1035162
243	0xbdd9c9cf	-0.10634195
244	0xbc9af03c	-0.01891338
245	0x3b9515c0	0.004549712
246	0xbd883779	-0.066512056
247	0x3cfd299c	0.03090363
248	0x3d217b56	0.039424263
249	0x3dafa061	0.08575512
250	0x3dc07e1d	0.09399054
251	0xbc20c360	-0.009812206
252	0xbd34ad66	-0.044110678
253	0xbd1e6848	-0.03867367
254	0x3de9536f	0.11392867
255	0xbd887c02	-0.066642776

layers.3.conv2.bias f4 [16]
0	0x00000000	0.0
1	0x00000000	0.0
2	0x00000000	0.0
3	0x00000000	0.0
4	0x00000000	0.0
5	0x00000000	0.0
6	0x00000000	0.0
7	0x00000000	0.0
8	0x00000000	0.0
9	0x00000000	0.0
10	0x00000000	0.0
11	0x00000000	0.0
12	0x00000000	0.0
13	0x00000000	0.0
14	0x00000000	0.0
15	0x00000000	0.0

layers.3.conv3.weight f4 [16, 16, 3, 3]
0	0xbc3d37e8	-0.011548974
1	0x3d36d976	0.04464098
2	0x3c633880	0.013868451
3	0x3d9c9641	0.07645846
4	0x3da30e25	0.07961682
5	0xbc251f60	-0.010078281
6	0xbd44bc7b	-0.04803131
7	0xbbebe8c0	-0.007199377
8	0x3bbbc450	0.0057301894
9	0x3d80b8e1	0.06285263
10	0xbbf86950	-0.0075809136
11	0xbd210420	-0.039310575
12	0xbd81e1b3	-0.06341877
13	0xbcd2a0cc	-0.02571144
14	0xbd19967e	-0.037497036
15	0x3d8a2d5f	0.06746935
16	0xbd3fb4fe	-0.046803467
17	0xbd6cdabb	-0.057825785
18	0xbc62c2b8	-0.01384037
19	0x3d67e8ea	0.05661861
20	0x3d925b95	0.07146374
21	0xbd8661a4	-0.06561592
22	0x3d54ae42	0.051923998
23	0xbcbf8c80	-0.023382425
24	0x3d253ad8	0.04033932
25	0xbc95abd4	-0.01827041
26	0xbc9e9044	-0.0193559
27	0x3cdb6ffc	0.026786797
28	0x3c375680	0.011190057
29	0x3d9bb32d	0.076025344
30	0xbd812927	-0.06306677
31	0x3d604af2	0.054758973
32	0x3cea4224	0.028595991
33	0x3d1ba5fe	0.0380001
34	0xbd08bd46	-0.03338363
35	0xbd93c2ba	-0.072148755
36	0xbd380ad6	-0.04493221
37	0x3d9d6641	0.07685519
38	0x3d6a019a	0.057130434
39	0x3d814093	0.06311145
40	0xbda14abf	-0.07875585
41	0x3d631bd2	0.055446453
42	0xbd4d9d43	-0.050198805
43	0x3c876fc0	0.016532779
44	0xbc441928	-0.011968888
45	0x3d765d3a	0.0601475
46	0xbd615826	-0.055015706
47	0x3d375182	0.044755466
48	0xbda03b1c	-0.07823774
49	0xbcd932f6	-0.026513558
50	0xbd9a2886	-0.075272605
51	0xbcaa9194	-0.02082137
52	0x3cdfd484	0.027323015
53	0x3d0ceaf6	0.034403764
54	0x3d268e96	0.040663324
55	0xbced6496	-0.028978627
56	0xbd85503a	-0.065094426
57	0xbcf0007c	-0.029297106
58	0xbd10bfd8	-0.035339206
59	0x3bd88030	0.006607078
60	0x3c776980	0.015100837
61	0x3d54fd32	0.05199928
62	0x3d2b783a	0.041862704
63	0xbbcb10c0	-0.006197065
64	0x3c298b20	0.010348111
65	0x3c648158	0.013946854
66	0x3cd8a8b4	0.026447631
67	0x3ba12e00	0.0049188137
68	0xbc786f78	-0.015163295
69	0x3cb37654	0.02190701
70	0xbd800217	-0.062503986
71	0x3d496f92	0.049178667
72	0xbd108cd3	-0.03529055
73	0x3d56d2ee	0.052447252
74	0xbbfd4490	-0.0077291206
75	0x3d8036e5	0.0626047
76	0x3aa8ec00	0.0012887716
77	0xbd724426	-0.059147023
78	0xbcab5236	-0.020913225
79	0x3c9a285c	0.018818073
80	0x3c767068	0.015041448
81	0xbc827930	-0.015926927
82	0xbc72cc00	-0.014819145
83	0xbb47a060	-0.0030460581
84	0x3cf3ad70	0.029745787
85	0x3d89963b	0.06718107
86	0x3bab9f90	0.005237527
87	0x3d2f92d2	0.042864628
88	0x3c32f818	0.010923408
89	0x3d6f36ca	0.05840186
90	0xbd616166	-0.055024527
91	0x3be74150	0.0070573464
92	0xbd9b24df	-0.07575392
93	0x3cce17ac	0.025157772
94	0x3d848e63	0.064724706
95	0x3d479e72	0.04873509
96	0xbcc0a8a0	-0.023517907
97	0xbba1fa40	-0.004943162
98	0xbb8b8cd0	-0.0042587295
99	0x3da3e8ef	0.08003413
100	0x3da38f25	0.07986287
101	0xbcb57a0c	-0.022152923
102	0xbc758098	-0.014984272
103	0x3ca988b4	0.020695068
104	0x3d6b3432	0.057422824
105	0x3da3c56d	0.0799664
106	0xbc56b4d8	-0.01310464
107	0x3d68455e	0.05670678
108	0xbb46ff20	-0.0030364469
109	0xbb100300	-0.0021974444
110	0xbd5380e3	-0.051636588
111	0xbc72db98	-0.014822863
112	0xbda8380b	-0.08213814
113	0x3bb1d500	0.005427003
114	0x3d7df29a	0.06199894
115	0xbd202de8	-0.03910628
116	0xbd375560	-0.044759154
117	0xbd90ce1f	-0.070705645
118	0x3b8f5330	0.0043739304
119	0x3d207290	0.039171755
120	0xbb398c60	-0.002831243
121	0x3d3e7552	0.046498604
122	0xbd0e29f6	-0.034707986
123	0x3d70573a	0.058676936
124	0x3da78b8f	0.081809156
125	0xbd28e36e	-0.04123252
126	0xbd2b4706	-0.04181578
127	0xbcc20ae0	-0.023686826
128	0xbd741958	-0.059594482
129	0x3d61a5f6	0.055089913
130	0xbbcdc280	-0.0062792897
131	0x3d2fd8fa	0.042931534
132	0xbcc59726	-0.024119925
133	0xbd44a96b	-0.048013132
134	0xbd428993	-0.047494482
135	0xbd4c6fb3	-0.049911212
136	0xbd5d759e	-0.054067247
137	0x3d8a70f5	0.06759826
138	0x3d8c6a69	0.068562336
139	0x3d63981e	0.055564992
140	0x3cc8f0c4	0.024528868
141	0x3cd2edbc	0.025748126
142	0xbcda2500	-0.026628971
143	0xbc5f7628	-0.0136390105
144	0x3da962a7	0.082707696
145	0xbb75bf00	-0.0037497878
146	0x3d8df2b5	0.06931058
147	0x3d060ef6	0.03272911
148	0xbc789018	-0.015171073
149	0xbc01e488	-0.007928021
150	0x3bdfff50	0.0068358555
151	0xbd1f8a58	-0.038950294
152	0xbd333d98	-0.043759912
153	0x3d66d072	0.056351133
154	0x3d35661a	0.044286825
155	0x3c258880	0.010103345
156	0xbd8ec5ea	-0.06971343
157	0xbd879b34	-0.066213995
158	0xbd22bd90	-0.039731562
159	0x3da40249	0.08008248
160	0xbab36c00	-0.0013688803
161	0xbcdfec9c	-0.027334504
162	0xbd4fe938	-0.050759524
163	0x3d7a3c9a	0.06109295
164	0x3c60e9e0	0.013727635
165	0xbd9364f6	-0.07196991
166	0x3d4b2e06	0.04960444
167	0xbc0e2f40	-0.008678257
168	0x3d7c7dba	0.06164334
169	0x3cf017d0	0.02930823
170	0xbd533406	-0.051563285
171	0x3c7e5988	0.015524276
172	0xbd27dd9e	-0.040982835
173	0xbd96730a	-0.07346161
174	0x3cf959d0	0.030438334
175	0xbd4a0f10	-0.04933077
176	0x3d88ef39	0.06686253
177	0xbd1f493e	-0.03888821
178	0xbd363b38	-0.04449007
179	0x3d865f37	0.065611295
180	0x3d0cfc2e	0.034420185
181	0x3d9e39db	0.07725879
182	0xbd8bf8c7	-0.0683456
183	0x3d5883da	0.05286012
184	0xbda21e06	-0.07915883
185	0xbd8c1718	-0.06840342
186	0x3adebb40	0.0016993061
187	0xbd96f678	-0.07371229
188	0x3cce1154	0.025154747
189	0x3ce05610	0.027384788
190	0x3c8e3f20	0.017364085
191	0x3da82e5b	0.082119666
192	0x3d69daa2	0.05709327
193	0x3d829665	0.06376342
194	0x3b9bbbf0	0.0047526285
195	0xbd9204a6	-0.07129793
196	0xbd75bdd8	-0.059995502
197	0x3da3a0ad	0.07989631
198	0x3c5991a0	0.013279349
199	0xbd432f7b	-0.047652703
200	0xbd38f170	-0.045152128
201	0xbd97c140	-0.074099064
202	0x3da60163	0.08105733
203	0xbcf69466	-0.030100059
204	0xbcb415f6	-0.021983128
205	0x3da812fd	0.08206747
206	0xbc8d75ac	-0.017268024
207	0x3cc73e10	0.024321586
208	0xbcf62cf6	-0.030050736
209	0xbda3819c	-0.079837054
210	0x3d4d5316	0.050128065
211	0x3d7be6ae	0.06149929
212	0x3be90230	0.0071108565
213	0xbd6e07b8	-0.05811283
214	0xbd08ec5e	-0.033428542
215	0x3d3235f6	0.043508492
216	0x3c5f9a88	0.013647683
217	0x3ce09e14	0.027419128
218	0x3d04f218	0.03245744
219	0xbc9a94a0	-0.018869698
220	0x3c80b060	0.015709102
221	0x3bf5ef80	0.0075053573
222	0x3d1f4336	0.038882457
223	0xbd20487e	-0.039131634
224	0x3d2f850a	0.042851485
225	0x3c1e9818	0.009679817
226	0xbda08c94	-0.07839313
227	0x3bab31b0	0.005224429
228	0x3d375f7a	0.044768788
229	0xbca544a0	-0.020174325
230	0x3ce53cd0	0.0279831
231	0xbd940714	-0.072279125
232	0xbd20cc1b	-0.03925715
233	0x3d0c9712	0.03432376
234	0x3c2e7998	0.010649107
235	0x3d8b69ed	0.06807313
236	0x3d4d7096	0.0501562
237	0x3cb98630	0.022646993
238	0x3d8bdd1d	0.068292834
239	0x3b9908b0	0.004670225
240	0xbd3e5cfb	-0.04647539
241	0x3d88ce61	0.06679989
242	0xbcf243b0	-0.029573292
243	0x3c094368	0.008377887
244	0xbd7c6f50	-0.061629593
245	0x3d03c0f8	0.03216645
246	0xbd0e50b8	-0.03474495
247	0x3c221ba0	0.009894282
248	0x3c9687c4	0.018375285
249	0x3d983eab	0.07433828
250	0x3c8cc3b0	0.017183155
251	0xbcabde7c	-0.020980112
252	0x3d0be8fa	0.03415773
253	0x3c34efe0	0.011043519
254	0xbc661660	-0.014043421
255	0x3d8af59d	0.06785128

layers.3.conv3.bias f4 [16]
0	0x00000000	0.0
1	0x00000000	0.0
2	0x00000000	0.0
3	0x00000000	0.0
4	0x00000000	0.0
5	0x00000000	0.0
6	0x00000000	0.0
7	0x00000000	0.0
8	0x00000000	0.0
9	0x00000000	0.0
10	0x00000000	0.0
11	0x00000000	0.0
12	0x00000000	0.0
13	0x00000000	0.0
14	0x00000000	0.0
15	0x00000000	0.0

layers.3.batch_norm.weight f4 [16]
0	0x3f800000	1.0
1	0x3f800000	1.0
2	0x3f800000	1.0
3	0x3f800000	1.0
4	0x3f800000	1.0
5	0x3f800000	1.0
6	0x3f800000	1.0
7	0x3f800000	1.0
8	0x3f800000	1.0
9	0x3f800000	1.0
10	0x3f800000	1.0
11	0x3f800000	1.0
12	0x3f800000	1.0
13	0x3f800000	1.0
14	0x3f800000	1.0
15	0x3f800000	1.0

layers.3.batch_norm.bias f4 [16]
0	0x00000000	0.0
1	0x00000000	0.0
2	0x00000000	0.0
3	0x00000000	0.0
4	0x00000000	0.0
5	0x00000000	0.0
6	0x00000000	0.0
7	0x00000000	0.0
8	0x00000000	0.0
9	0x00000000	0.0
10	0x00000000	0.0
11	0x00000000	0.0
12	0x00000000	0.0
13	0x00000000	0.0
14	0x00000000	0.0
15	0x00000000	0.0

layers.3.batch_norm.running_mean f4 [16]
0	0x00000000	0.0
1	0x00000000	0.0
2	0x00000000	0.0
3	0x00000000	0.0
4	0x00000000	0.0
5	0x00000000	0.0
6	0x00000000	0.0
7	0x00000000	0.0
8	0x00000000	0.0
9	0x00000000	0.0
10	0x00000000	0.0
11	0x00000000	0.0
12	0x00000000	0.0
13	0x00000000	0.0
14	0x00000000	0.0
15	0x00000000	0.0

layers.3.batch_norm.running_var f4 [16]
0	0x3f800000	1.0
1	0x3f800000	1.0
2	0x3f800000	1.0
3	0x3f800000	1.0
4	0x3f800000	1.0
5	0x3f800000	1.0
6	0x3f800000	1.0
7	0x3f800000	1.0
8	0x3f800000	1.0
9	0x3f800000	1.0
10	0x3f800000	1.0
11	0x3f800000	1.0
12	0x3f800000	1.0
13	0x3f800000	1.0
14	0x3f800000	1.0
15	0x3f800000	1.0

conv1.weight f4 [1, 16, 1, 1]
0	0xbe141672	-0.14461687
1	0xbe69a4f4	-0.22816831
2	0xbe612a0c	-0.21988696
3	0xbe1d2066	-0.1534439
4	0x3cd64ae0	0.02615875
5	0x3d01da30	0.03170222
6	0xbe2aeb6c	-0.16691369
7	0xbe66d5ac	-0.22542447
8	0x3dcacfa0	0.099028826
9	0x3e1bfba6	0.15232715
10	0x3cfafd80	0.030638456
11	0xbe0e5342	-0.13898948
12	0xbd105570	-0.03523773
13	0x3e74d57c	0.23909563
14	0x3d8298c8	0.06376797
15	0xbdc086b0	-0.094006896
