nets/net-step-0.pth (torch, 363691 bytes, 54 tensors)

layers.0.conv1.weight f4 [2, 1, 1, 1]
0.6759499 -0.47472543
00000000: 0d0b 2d3f 360f f3be

layers.0.conv1.bias f4 [2]
0.042203076 0.025981849
00000000: 22dd 2c3d e3d7 d43c

layers.0.conv2.bias f4 [2]
0.0345955 -0.019430611
00000000: 03b4 0d3d f22c 9fbc

layers.0.conv2.weight_g f4 [2, 1, 1, 1]
0.53885674 0.5357892
00000000: 84f2 093f 7b29 093f

layers.0.conv2.weight_v f4 [2, 1, 3, 3]
-0.01988129 -0.06634792 -0.26497698 -0.05362964 -0.20459726 -0.12552613 -0.03978152 0.31145883
-0.089271575 -0.15218885 -0.15490195 -0.034332186 0.26263157 0.043654602 0.06825851 0.22955498
0.032133825 0.235622
00000000: 16de a2bc 6be1 87bd 10ab 87be c1aa 5bbd
00000010: f281 51be ec89 00be f2f1 22bd 8877 9f3e
00000020: 04d4 b6bd 65d7 1bbe 9e9e 1ebe e89f 0cbd
00000030: a577 863e 2bcf 323d 1ecb 8b3d 7610 6b3e
00000040: c29e 033d e546 713e

layers.0.conv3.bias f4 [2]
0.049388163 0.023457693
00000000: 3e4b 4a3d 592a c03c

layers.0.conv3.weight_g f4 [2, 1, 1, 1]
0.49366465 0.6768343
00000000: 9dc1 fc3e 0345 2d3f

layers.0.conv3.weight_v f4 [2, 2, 3, 3]
-0.14829236 0.058781695 -0.15243474 -0.07219769 0.011217773 0.018250803 0.123015046 0.21338381
0.15585478 -0.00948851 -0.086988814 -0.14913195 -0.0054787113 -0.0030772465 -0.032925535 -0.047942575
-0.056322403 -0.15340053 0.19665937 0.11331918 0.20553817 -0.14468007 0.17326742 0.015697645
0.0022233403 0.32187173 0.10465131 -0.07160633 -0.07752766 -0.0037395908 -0.14794531 -0.18875326
0.039168872 -0.08021647 -0.19235115 0.04455891
00000000: f4d9 17be 13c5 703d da17 1cbe 62dc 93bd
00000010: c0ca 373c b582 953c 50ef fb3d 4981 5a3e
00000020: 6598 1f3e b275 1bbc 3127 b2bd 0cb6 18be
00000030: c386 b3bb a1ab 49bb eddc 06bd 6f5f 44bd
00000040: 52b2 66bd 0715 1dbe 1361 493e e313 e83d
00000050: 9978 523e 0327 14be 046d 313e 5998 803c
00000060: 76b5 113b 5fcc a43e 6d53 d63d 57a6 92bd
00000070: d2c6 9ebd ec13 75bb fa7e 17be 8948 41be
00000080: 8a6f 203d 8848 a4bd b3f7 44be 6783 363d

layers.1.conv1.weight f4 [4, 2, 1, 1]
0.48722327 0.03894302 0.4551612 -0.6518853 0.46428236 -0.09521994 0.32090497 0.661737
00000000: 5475 f93e b782 1f3d e40a e93e f4e1 26bf
00000010: 6bb6 ed3e ac02 c3bd a84d a43e 9967 293f

layers.1.conv1.bias f4 [4]
0.0005272299 0.0172943 0.028616585 0.021966465
00000000: cd35 0a3a c7ac 8d3c 546d ea3c 04f3 b33c

layers.1.conv2.bias f4 [4]
0.012646171 0.005629263 0.030048996 0.0565742
00000000: e331 4f3c ae75 b83b 5029 f63c 59ba 673d

layers.1.conv2.weight_g f4 [4, 1, 1, 1]
0.6979671 0.5009671 0.6162918 0.7340569
00000000: f9ad 323f 613f 003f 4dc5 1d3f 27eb 3b3f

layers.1.conv2.weight_v f4 [4, 2, 3, 3]
0.12910503 0.0804286 -0.015156962 0.18278708 -0.1355857 0.21380457 0.27326632 -0.14356032
-0.036567297 -0.23380956 -0.11860409 0.10140526 -0.123965494 0.20873694 0.15267546 0.010136495
0.10647288 -0.16100128 0.2416559 -0.036272045 -0.02147186 -0.0067574717 -0.18955962 -0.14899646
0.066732645 0.09417597 -0.10086295 0.09839105 -0.11466371 -0.08909355 -0.0813961 0.03694509
0.13120787 0.061705716 0.1456089 0.096218415 -0.05617848 -0.0038270934 -0.05443594 0.059036937
-0.27196443 -0.0868348 0.03639984 -0.09135389 -0.106962726 -0.075624876 0.26601663 0.048199054
0.050936468 -0.11323673 0.07232399 0.2285422 -0.037619743 0.25845733 -0.06408623 0.117346965
-0.07042499 0.013706891 0.29672176 -0.20007114 -0.039904732 0.24753046 -0.10389201 0.1729822
0.0031090693 0.05028291 -0.10111239 -0.22091293 -0.06029234 0.17938007 -0.01601291 0.23544052
00000000: 1c34 043e c0b7 a43d e854 78bc 892c 3b3e
00000010: fad6 0abe 96ef 5a3e 90e9 8b3e 7a01 13be
00000020: 97c7 15bd c66b 6fbe b3e6 f2bd 90ad cf3d
00000030: 9fe1 fdbd 23bf 553e f556 1c3e 8b13 263c
00000040: 740e da3d 85dd 24be a574 773e ff91 14bd
00000050: c1e5 afbc c86d ddbb eb1b 42be 8792 18be
00000060: 20ab 883d 55df c03d 3c91 cebd 3f81 c93d
00000070: cfd4 eabd ae76 b6bd 00b3 a6bd bc53 173d
00000080: 5b5b 063e 22bf 7c3d 801a 153e 290e c53d
00000090: 681b 66bd f9cf 7abb 38f8 5ebd b7d0 713d
000000a0: ec3e 8bbe 72d6 b1bd 0018 153d c017 bbbd
000000b0: 460f dbbd 37e1 9abd 5533 883e 5f6c 453d
000000c0: c2a2 503d a9e8 e7bd 9a1e 943d f706 6a3e
000000d0: 2917 1abd 8554 843e a43f 83bd 9b53 f03d
000000e0: fa3a 90bd de92 603c eaeb 973e 73df 4cbe
000000f0: 2573 23bd a078 7d3e 56c5 d4bd 3f22 313e
00000100: 87c1 4b3b 74f5 4d3d 0314 cfbd 0037 62be
00000110: 1af5 76bd 69af 373e 822d 83bc 5217 713e

layers.1.conv3.bias f4 [4]
0.0009839487 0.0143225 0.03348381 0.024323463
00000000: d7f7 803a eba8 6a3c 5226 093d 0042 c73c

layers.1.conv3.weight_g f4 [4, 1, 1, 1]
0.65920883 0.66669947 0.6458689 0.6070796
00000000: e9c1 283f d1ac 2a3f aa57 253f 9269 1b3f

layers.1.conv3.weight_v f4 [4, 4, 3, 3]
-0.0073135598 0.07212112 0.226641 -0.019880943 0.029412057 0.24246344 -0.020159058 0.08665696
-0.059081115 -0.0414996 -0.07901669 -0.02924973 -0.020203233 -0.047776513 0.1149042 -0.03687495
0.069401115 0.0017067107 -0.13422799 -0.19497989 0.07897767 -0.08616538 -0.14658621 -0.06676927
0.014322544 -0.12746687 0.08787893 -0.16799343 -0.009636802 -0.055458315 0.027200887 0.05414497
-0.14273627 0.1417681 0.030086737 0.044050347 -0.084199615 -0.048084106 0.11230679 0.009823879
0.09601303 0.15082414 0.056089655 0.06479307 0.15686783 -0.11223885 -0.027397513 -0.05039648
-0.09296138 -0.009255404 0.03149974 -0.12359673 -0.11636724 0.09663852 -0.040122878 -0.113751814
0.13461949 -0.07647897 -0.0853432 -0.09290556 0.037586424 -0.006137027 0.087636136 -0.026208024
0.12417084 -0.09583006 -0.07258759 0.16380885 -0.00773887 0.12777023 0.07451209 0.023918148
0.045882486 0.03392404 -0.005883796 -0.05488345 0.09581461 0.13437408 -0.11398987 0.023733402
0.10409046 -0.025732735 -0.03786003 0.13791718 0.03894731 0.00047795795 0.019704482 -0.02013406
0.046268266 0.101875186 0.08090032 -0.057780597 0.1227114 -0.017746015 -0.08996051 0.068303116
0.050008494 -0.12830535 0.16248505 -0.047602065 0.14479603 0.09152262 0.026293267 0.21709107
-0.14598724 -0.102849044 0.0682728 -0.0050161285 0.04602628 -0.043727685 -0.04421768 -0.05166601
-0.11844452 -0.0155668305 0.11763945 -0.011640431 0.012709276 -0.10722503 0.08830679 0.03981518
-0.09390219 0.038233045 0.07464837 0.037386637 0.04563973 -0.0039836187 0.19121844 0.115908615
-0.012900882 -0.056889042 0.10100972 0.097150326 -0.12308868 -0.069152825 0.10970772 0.055687163
-0.052430145 0.052466806 -0.16385187 0.04088728 0.076301865 -0.05446197 0.06555708 -0.02313627
00000000: 96a6 efbb 3db4 933d 9414 683e 5cdd a2bc
00000010: 8ef1 f03c 5648 783e 9c24 a5bc 3479 b13d
00000020: 0aff 71bd 7cfb 29bd 81d3 a1bd 219d efbc
00000030: 4081 a5bc 4eb1 43bd e552 eb3d 300a 17bd
00000040: 2c22 8e3d b5b3 df3a 1073 09be cfa8 47be
00000050: 0bbf a13d 7a77 b0bd b21a 16be 54be 88bd
00000060: 1ba9 6a3c ad86 02be def9 b33d 7806 2cbe
00000070: ade3 1dbc 4228 63bd 65d4 de3c 1ec7 5d3d
00000080: 7529 12be a82b 113e 7678 f63c 236e 343d
00000090: d970 acbd d7f3 44bd 1a01 e63d 56f4 203c
000000a0: 7ba2 c43d a571 1a3e 44be 653d 3bb2 843d
000000b0: f6a1 203e 7bdd e5bd c070 e0bc 8a6c 4ebd
000000c0: 8962 bebd faa3 17bc df05 013d 4820 fdbd
000000d0: f351 eebd 6bea c53d e357 24bd b6f6 e8bd
000000e0: b1d9 093e 02a1 9cbd 6ac8 aebd 4545 bebd
000000f0: 39f4 193d 1d19 c9bb 937a b33d 36b2 d6bc
00000100: 484d fe3d 8d42 c4bd cda8 94bd 82bd 273e
00000110: 5996 fdbb 33d6 023e cb99 983d feef c33c
00000120: 46ef 3b3d eff3 0a3d dccc c0bb 78cd 60bd
00000130: 733a c43d 5c99 093e 8573 e9bd 8d6c c23c
00000140: 612d d53d 75cd d2bc 1e13 1bbd 293a 0d3e
00000150: 3787 1f3d 6e96 fa39 4b6b a13c 2ff0 a4bc
00000160: cb83 3d3d f0a3 d03d 11af a53d 59ab 6cbd
00000170: 1d50 fb3d 1760 91bc 373d b8bd 81e2 8b3d
00000180: b5d5 4c3d 7a62 03be 7b62 263e 62fa 42bd
00000190: 6945 143e 3670 bb3d fa64 d73c 1f4d 5e3e
000001a0: ae7d 15be 85a2 d2bd 9cd2 8b3d 565e a4bb
000001b0: 0d86 3c3d cd1b 33bd 991d 35bd bd9f 53bd
000001c0: 0a93 f2bd 050c 7fbc f4ec f03d 82b7 3ebc
000001d0: 913a 503c cc98 dbbd 31da b43d 3e15 233d
000001e0: cb4f c0bd 419a 1c3d 3fe1 983d bb22 193d
000001f0: baf0 3a3d 0489 82bb c4ce 433e 7f61 ed3d
00000200: 395e 53bc 7c04 69bd 2fde ce3d c0f6 c63d
00000210: eb15 fcbd ff9f 8dbd 71ae e03d 3918 643d
00000220: fec0 56bd 6fe7 563d c9c8 27be 6c79 273d
00000230: 2744 9c3d 8413 5fbd ca42 863d 4688 bdbc

layers.2.conv1.weight f4 [8, 4, 1, 1]
0.17903712 -0.28494295 -0.24532911 0.44245628 0.40700093 -0.032752577 0.3268219 -0.014003682
-0.36445132 -0.43768755 -0.22413522 0.41705456 0.43725863 -0.13542998 -0.3473343 -0.12781806
-0.33143157 -0.016250614 -0.1308053 0.42170003 0.34902054 0.16507249 -0.37472922 0.032766137
0.19856021 0.31218305 -0.19156393 -0.21126354 0.12241918 -0.07779955 -0.49322608 -0.08792637
00000000: 8255 373e 0be4 91be 8e37 7bbe a189 e23e
00000010: 6d62 d03e 9127 06bd 3355 a73e b36f 65bc
00000020: 5d99 babe 9518 e0be b483 65be 2d88 d53e
00000030: 5de0 df3e 28ae 0abe cdd5 b1be bde2 02be
00000040: 66b1 a9be 0220 85bc d3f1 05be 11e9 d73e
00000050: d2b2 b23e c308 293e 82dc bfbe c935 063d
00000060: 5e53 4b3e 75d6 9f3e 5629 44be 7855 58be
00000070: e8b6 fa3d 5f55 9fbd 2188 fcbe be12 b4bd

layers.2.conv1.bias f4 [8]
0.029002137 0.0146960085 0.009359794 -0.007952931 0.024900578 -0.00992073 0.043229003 -0.009078941
00000000: e495 ed3c 87c7 703c d259 193c 034d 02bc
00000010: 4cfc cb3c 8f8a 22bc e510 313d d7bf 14bc

layers.2.conv2.bias f4 [8]
0.02691785 0.03803405 0.015553065 0.031504016 0.029908272 0.05056815 0.03561346 0.014227984
00000000: d382 dc3c 98c9 1b3d 48d2 7e3c 5b0a 013d
00000010: 3102 f53c 8c20 4f3d 6bdf 113d 7d1c 693c

layers.2.conv2.weight_g f4 [8, 1, 1, 1]
0.6998921 0.6570348 0.6310007 0.7074508 0.67597306 0.7857659 0.7235911 0.5814687
00000000: 212c 333f 6f33 283f 4389 213f 7f1b 353f
00000010: 920c 2d3f f427 493f 443d 393f 22db 143f

layers.2.conv2.weight_v f4 [8, 4, 3, 3]
-0.06013273 0.104089014 0.14042012 0.19118188 0.094678015 0.071144596 0.004700581 0.08082013
0.0020713902 -0.029791117 0.049933035 0.063895226 0.1158843 0.13299066 0.055137146 -0.049514007
0.15524732 -0.0062036673 -0.097468875 -0.047731478 -0.029313603 0.20197275 0.14896938 -0.04525054
-0.10902455 0.24916366 -0.020446356 -0.05703248 0.11773839 -0.06609978 -0.09282694 0.06492275
0.09723537 -0.05243172 0.0091090705 -0.024566507 0.07500111 -0.020769306 -0.10095657 0.20888318
0.045519102 0.024004903 -0.04920341 -0.023626916 0.11677652 0.12211664 -0.029981285 -0.01346852
0.19208032 -0.111556046 -0.0024900553 -0.07252769 -0.11708217 0.083840854 0.13255596 -0.05064968
-0.13677946 -0.010291479 -0.08189399 -0.17446624 0.050294716 -0.019327743 0.15014356 -0.09384332
0.10655259 0.03635792 -0.10566396 0.15827316 0.06776786 0.14995132 0.07624515 0.09019547
0.0031464188 -0.06512523 0.02844515 0.20606366 -0.023716955 -0.016412057 -0.051925283 0.050530776
0.08168143 0.067169935 -0.029188773 -0.07726164 0.21736975 0.07908126 0.049379967 -0.085080326
-0.039191015 0.17504099 0.12284262 0.02622355 -0.108281456 0.20831683 0.06340138 -0.046390913
-0.042400934 -0.028239403 0.04864645 0.037353266 0.044597704 0.08728815 -0.11208023 -0.07787296
0.1264041 0.038862284 0.09854805 -0.020796882 0.014878409 0.13540962 -0.022597881 -0.06319438
0.04852233 0.08295719 0.24408889 -0.035353098 0.19426586 -0.021571385 0.030453308 3.2249052e-05
0.05119818 -0.012943477 -0.07991937 0.0463688 0.08519128 0.16517757 0.15465055 0.09936841
-0.027417995 -0.03554075 -0.041296676 0.06828214 0.19383232 0.012990142 0.22104841 -0.017695347
-0.05914019 0.05183491 0.074006416 -0.11162123 0.14897718 -0.15113401 0.06752358 -0.11081683
-0.058915067 0.20335723 -0.0127030015 0.017337348 0.18302758 0.070942216 0.048266917 0.17139766
0.12874122 0.029742029 0.20832224 -0.08768696 0.048958622 0.13208766 0.0019669102 0.09971708
0.028680831 0.15991126 -0.10444112 0.008682463 -0.0014130276 0.08361372 0.1815422 -0.06201832
0.04805106 0.11004949 0.10745392 -0.01033886 -0.072257854 0.027368827 0.0152984 -0.078999974
0.041698642 -0.01417137 0.04180756 -0.00078149815 -0.023912577 -0.05862935 0.17051944 -0.04568499
0.14840744 0.15110394 -0.14086266 0.2352248 0.073219255 -0.077408284 0.05300424 -0.0058030663
0.11294283 0.13493082 0.05832808 -0.07392404 0.20375143 0.058538895 -0.030224582 -0.05358513
0.09289789 0.1953126 0.011187203 0.1511599 0.073828824 0.24513093 0.17424186 0.08144443
-0.0687134 -0.12244143 -0.0958412 0.05983043 0.12718578 0.073778994 -0.15453184 -0.019013653
-0.16542086 0.002155328 -0.04948282 -0.024028407 0.14348538 0.021625187 -0.058354713 0.067975864
0.13668677 -0.12575759 -0.08224465 0.07808139 -0.12362924 0.09113877 0.1750366 0.06659926
-0.13762417 0.12711193 -0.18237273 -0.046737485 0.091824405 0.0045783054 0.14138767 0.18351997
-0.0072028744 -0.14194511 0.16752136 0.19985431 0.07920714 0.09789756 -0.045937702 0.17302158
0.09547397 0.18860364 -0.113101274 0.08199233 0.014830725 0.11557644 0.09268018 -0.08089864
00000000: bd4d 76bd 9f2c d53d 4bca 0f3e 2fc5 433e
00000010: 8ce6 c13d 42b4 913d 5507 9a3b 0685 a53d
00000020: 29c0 073b 800c f4bc 9586 4c3d 80db 823d
00000030: bf54 ed3d b42e 083e 7dd7 613d 33cf 4abd
00000040: 27f9 1e3e 2248 cbbb c39d c7bd 1582 43bd
00000050: 1523 f0bc f2d1 4e3e 6e8b 183e a158 39bd
00000060: 4348 dfbd c224 7f3e 1e7f a7bc e49a 69bd
00000070: d320 f13d 525f 87bd 0d1c bebd 38f6 843d
00000080: 5623 c73d a5c2 56bd 363e 153c b33f c9bc
00000090: 2f9a 993d 6424 aabc 51c2 cebd 79e5 553e
000000a0: 3d72 3a3d eea5 c43c 8489 49bd 3c8d c1bc
000000b0: 8728 ef3d 4a18 fa3d 509b f5bc 11ab 5cbc
000000c0: b4b0 443e 7f77 e4bd 3230 23bb 6689 94bd
000000d0: c7c8 efbd c1b4 ab3d c0bc 073e 0a76 4fbd
000000e0: ea0f 0cbe 979d 28bc 09b8 a7bd 47a7 32be
000000f0: d501 4e3d 3755 9ebc 3cbf 193e ed30 c0bd
00000100: 3f38 da3d 0bec 143d 5966 d8bd 5c12 223e
00000110: e0c9 8a3d d78c 193e 6b26 9c3d 67b8 b83d
00000120: 2634 4e3b 6060 85bd ce05 e93c 5a02 533e
00000130: 0f4a c2bc 9472 86bc 9baf 54bd 5cf9 4e3d
00000140: 9848 a73d 6490 893d 4b1d efbc 5a3b 9ebd
00000150: 2d96 5e3e 5bf5 a13d a642 4a3d 983e aebd
00000160: c286 20bd f23d 333e e994 fb3d c5d2 d63c
00000170: abc2 ddbd 0251 553e 95d8 813d 6604 3ebd
00000180: 9aac 2dbd 5256 e7bc 8041 473d bdff 183d
00000190: 15ac 363d 21c4 b23d 528a e5bd dc7b 9fbd
000001a0: 1470 013e 0f2e 1f3d 8fd3 c93d 395e aabc
000001b0: 92c4 733c d2a8 0a3e 311f b9bc 0e6c 81bd
000001c0: 5abf 463d 76e5 a93d 70f2 793e 69ce 10bd
000001d0: a1ed 463e 79b6 b0bc 3779 f93c 2843 0738
000001e0: 2fb5 513d e110 54bc c4ac a3bd 36ed 3d3d
000001f0: c478 ae3d 4f24 293e b75c 1e3e aa81 cb3d
00000200: b49b e0bc 2d93 11bd b426 29bd 82d7 8b3d
00000210: fb7b 463e 9bd4 543c 845a 623e d5f5 90bc
00000220: fc3c 72bd d850 543d ad90 973d ac99 e4bd
00000230: 798d 183e e0c2 1abe cd49 8a3d eff3 e2bd
00000240: ed50 71bd e13c 503e 4020 50bc 0e07 8e3c
00000250: 956b 3b3e 274a 913d 88b3 453d de82 2f3e
00000260: bdd4 033e 8ea5 f33c 6d52 553e 3995 b3bd
00000270: d688 483d fd41 073e 47e7 003b 7838 cc3d
00000280: 10f4 ea3c c7bf 233e 3ae5 d5bd e440 0e3c
00000290: 5735 b9ba ac3d ab3d 33e6 393e ec06 7ebd
000002a0: 30d1 443d a161 e13d cd10 dc3d 5264 29bc
000002b0: edfb 93bd 9734 e03c 24a6 7a3c bdca a1bd
000002c0: 32cc 2a3d 092f 68bc 673e 2b3d 74dd 4cba
000002d0: 4fe4 c3bc 5425 70bd a69c 2e3e 2f20 3bbd
000002e0: 1ff8 173e feba 1a3e 4d3e 10be c5de 703e
000002f0: faf3 953d 3c88 9ebd f91a 593d a627 bebb
00000300: 924e e73d 4e2b 0a3e 6de9 6e3d 7d65 97bd
00000310: 37a4 503e 7bc6 6f3d 8b99 f7bc 157c 5bbd
00000320: 4041 be3d 0700 483e 884a 373c a9c9 1a3e
00000330: 9133 973d 9a03 7b3e 756c 323e 56cc a63d
00000340: 9cb9 8cbd 93c2 fabd 6448 c4bd c110 753d
00000350: fd3c 023e 7119 973d 983d 1ebe 85c2 9bbc
00000360: 1664 29be 6740 0d3b 7fae 4abd 39d7 c4bc
00000370: d5ed 123e 4e27 b13c 5a05 6fbd ee36 8b3d
00000380: 9ef7 0b3e 99c6 00be e26f a8bd 23e9 9f3d
00000390: 5431 fdbd f7a6 ba3d cb3c 333e 3165 883d
000003a0: 5aed 0cbe a129 023e ebbf 3abe ce6f 3fbd
000003b0: 6f0e bc3d 9c05 963b eec7 103e a9ec 3b3e
000003c0: 1706 ecbb 0f5a 11be b88a 2b3e 9ca6 4c3e
000003d0: 5a37 a23d 847e c83d 2c29 3cbd 922c 313e
000003e0: db87 c33d 5021 413e a4a1 e7bd 98eb a73d
000003f0: 92fc 723c 57b3 ec3d 1bcf bd3d 30ae a5bd

layers.2.conv3.bias f4 [8]
0.027940586 0.022642396 0.015978912 -0.005153964 0.031947948 -0.0025803205 0.043178946 -0.0020659415
00000000: a8e3 e43c 8c7c b93c 35e6 823c 95e2 a8bb
00000010: dadb 023d 981a 29bb 68dc 303d bf64 07bb

layers.2.conv3.weight_g f4 [8, 1, 1, 1]
0.65879595 0.6825765 0.7273767 0.52386475 0.6624771 0.6017801 0.68916744 0.57833123
00000000: daa6 283f 55bd 2e3f 5c35 3a3f 001c 063f
00000010: 1998 293f 430e 1a3f 476d 303f 840d 143f

layers.2.conv3.weight_v f4 [8, 8, 3, 3]
-0.061883617 0.06654086 -0.07999671 -0.053535353 0.099502936 0.036452983 -0.018042777 0.08006281
0.0656576 0.0483827 -0.059916515 -0.13593687 0.10206417 -0.0032211107 0.037519548 0.101501055
0.04941237 0.1098541 0.049394693 0.046235975 -0.10024564 0.065391414 -0.014745699 -0.052835844
0.10949517 0.12431134 0.086661056 0.14646484 -0.10067413 0.022673625 0.15677312 -0.10654118
0.014946117 0.009238469 -0.13073172 0.1266477 0.121449366 -0.06724075 0.028737394 0.030166347
-0.021937659 0.03464768 0.034807425 0.039715014 -0.051430978 0.069378845 0.07705656 -0.05694973
-0.062476 -0.07469059 -0.052038316 -0.06267287 0.11472445 -0.020316469 0.08309754 -0.019201577
0.04950721 0.05498161 0.040692586 0.07094237 0.019839263 0.030482842 0.04042232 -0.022689603
-0.018190714 -0.073189475 0.0021570723 0.027751567 -0.014765796 -0.084606946 0.05274185 0.020143509
-0.029933788 0.07059499 0.03674545 0.020793369 0.012720444 -0.12324057 -0.012397501 -0.05013136
-0.05768981 -0.017137589 -0.10318148 0.033984803 0.031534947 -0.024519043 0.13376792 -0.10478661
-0.044756938 0.10879474 -0.05122042 -0.06758601 -0.0027026462 -0.054115962 -0.015401751 0.04338225
-0.12029496 0.04579054 0.08584081 -0.091343135 -0.08194327 -0.038498357 -0.08129918 0.008284063
0.023715386 -0.015813053 -0.007558701 -0.113904886 -0.076634936 0.030079205 -0.03393917 -0.10181491
0.089675955 -0.029231237 -0.050188877 -0.0063674115 -0.09048961 -0.00062594103 0.014374922 -0.042623
0.076507956 -0.0435023 -0.14369781 0.06023203 -0.0962082 -0.078684576 0.14085913 0.08693143
-0.011030157 -0.008263286 -0.01800829 -0.10163528 0.028458511 -0.027169362 -0.07826788 -0.0291744
-0.015520047 -0.11055287 0.019439721 0.048746634 -0.08217788 0.03532701 -0.03366191 -0.07946012
-0.043656446 -0.087887965 -0.056836672 0.042431857 -0.053341806 -0.028755615 0.16759774 0.08714613
0.07840945 -0.022636773 0.052590154 -0.013485205 0.022894122 -0.10490578 -0.048816003 0.05528875
0.12925774 0.025229217 -0.038119193 -0.05155205 0.0782733 -0.08788699 -0.047401898 -0.013990451
0.15982956 0.07457085 0.010761538 -0.10519564 -0.112456895 0.0070236707 0.042354427 0.13794881
0.051881958 -0.027840734 -0.10858751 0.064261176 -0.0897538 -0.0712809 -0.05043769 0.11331546
0.07898532 -0.038590774 0.18046142 0.07593752 -0.028916718 -0.013370884 -0.09649627 -0.11025406
0.055440683 0.046163086 -0.07993755 0.015944911 0.16641028 0.0033592486 -0.046740424 -0.06311207
0.034119908 0.059663348 -0.052689403 0.03709884 0.08277609 0.108074896 -0.07350321 -0.03437762
-0.03954798 -0.06603615 0.053827994 0.08196692 0.035866134 -0.03291115 0.0046946625 -0.065574765
-0.021630941 -0.07568432 -0.0339287 -0.010827447 -0.07227588 -0.045543473 -0.030723337 -0.06938074
0.04059549 0.08823085 -0.06644348 -0.019004604 0.03429854 -0.11364399 -0.045278694 0.0374462
-0.024556555 -0.07899353 0.07140851 0.02170555 -0.04176369 0.09341085 0.025832558 -0.08896354
-0.011566064 0.039248016 -0.07242968 -0.0773473 -0.057976276 0.022591535 -0.010917281 0.06872963
0.039722294 -0.0952541 -0.082952805 -0.039691873 -0.11635229 0.05803131 -0.017028036 -0.017890966
00000000: ad79 7dbd 9346 883d 51d5 a3bd e347 5bbd
00000010: 32c8 cb3d b94f 153d 72ce 93bc f8f7 a33d
00000020: 7e77 863d f02c 463d 056b 75bd 0933 0bbe
00000030: 0507 d13d 4519 53bb 19ae 193d c9df cf3d
00000040: a064 4a3d 30fb e03d 1752 4a3d ef61 3d3d
00000050: 964d cdbd efeb 853d f297 71bc 666a 58bd
00000060: 013f e03d f296 fe3d 5a7b b13d e1fa 153e
00000070: 3d2e cebd 0abe b93c 2289 203e 4332 dabd
00000080: 8fe0 743c f35c 173c 89de 05be efaf 013e
00000090: 72ba f83d 85b5 89bd af6a eb3c 6a1f f73c
000000a0: 9bb6 b3bc baea 0d3d 3b92 0e3d 36ac 223d
000000b0: 4aa9 52bd 7f16 8e3d d4cf 9d3d 1f44 69bd
000000c0: d6e6 7fbd 61f7 98bd 2126 55bd a25a 80bd
000000d0: a7f4 ea3d b96e a6bc 0b2f aa3d a04c 9dbc
000000e0: 12c8 4a3d 6634 613d 45ad 263d 3c4a 913d
000000f0: f385 a23c 27b7 f93c e091 253d 8cdf b9bc
00000100: b104 95bc 5de4 95bd ab5d 0d3b 4157 e33c
00000110: 3dec 71bc 6846 adbd d707 583d 0004 a53c
00000120: b437 f5bc 1b94 903d 6682 163d db56 aa3c
00000130: 6969 503c 8d65 fcbd e31e 4bbc 8a56 4dbd
00000140: 264c 6cbd 2164 8cbc d050 d3bd a633 0b3d
00000150: ca2a 013d 29dc c8bc 75fa 083e 5d9a d6bd
00000160: 0d53 37bd c7cf de3d 81cc 51bd 896a 8abd
00000170: e11e 31bb b3a8 5dbd a057 7cbc 96b1 313d
00000180: 345d f6bd dc8e 3b3d 4ecd af3d 1c12 bbbd
00000190: e0d1 a7bd 74b0 1dbd 2f80 a6bd e1b9 073c
000001a0: c546 c23c 608a 81bc fbae f7bb f746 e9bd
000001b0: c7f2 9cbd aa68 f63c cd03 0bbd 5684 d0bd
000001c0: 07a8 b73d 5976 efbc da92 4dbd b8a5 d0bb
000001d0: 9e52 b9bd 3116 24ba cb84 6b3c 7495 2ebd
000001e0: 34b0 9c3d 782f 32bd 8525 13be dcb5 763d
000001f0: ce08 c5bd 6125 a1bd 603d 103e 1b09 b23d
00000200: d5b7 34bc bc62 07bc 1f86 93bc 2826 d0bd
00000210: d321 e93c 4892 debc e94a a0bd 27ff eebc
00000220: cc47 7ebc 8b69 e2bd 0d40 9f3c 8daa 473d
00000230: e04c a8bd 0eb3 103d 12e1 09bd fdbb a2bd
00000240: 1ad1 32bd 9bfe b3bd 92cd 68bd 07cd 2d3d
00000250: f07c 5abd e590 ebbc be9e 2b3e ac79 b23d
00000260: 2295 a03d c170 b9bc c668 573d 0df1 5cbc
00000270: 748c bb3c d7d8 d6bd 4af3 47bd 7576 623d
00000280: 245c 043e 81ad ce3c df22 1cbd 3e28 53bd
00000290: c04d a03d 18fe b3bd 7e28 42bd 3438 65bc
000002a0: 5caa 233e 9ab8 983d 2951 303c d070 d7bd
000002b0: cd4f e6bd d226 e63b d67b 2d3d 7442 0d3e
000002c0: 2d82 543d 4012 e4bc 2163 debd 5d9b 833d
000002d0: d7d0 b7bd b8fb 91bd c097 4ebd f011 e83d
000002e0: 0ec3 a13d 5c11 1ebd e1ca 383e 2185 9b3d
000002f0: c1e2 ecbc 8d11 5bbc d69f c5bd e1cc e1bd
00000300: c515 633d 8115 3d3d 4cb6 a3bd e79e 823c
00000310: 7567 2a3e d726 5c3b e372 3fbd e740 81bd
00000320: 51c1 0b3d 8e61 743d d8d0 57bd f4f4 173d
00000330: 8386 a93d 5f56 dd3d da88 96bd 8ccf 0cbd
00000340: 10fd 21bd f63d 87bd be7a 5c3d 46de a73d
00000350: 5ee8 123d d8cd 06bd afd5 993b 104c 86bd
00000360: 5f33 b1bc 6100 9bbd d2f8 0abd 9b65 31bc
00000370: 6005 94bd cb8b 3abd 82af fbbc 7d17 8ebd
00000380: 7547 263d 60b2 b43d 8513 88bd 8baf 9bbc
00000390: a07c 0c3d 2ebe e8bd 2776 39bd 3061 193d
000003a0: d42a c9bc 5cc7 a1bd a03e 923d d6cf b13c
000003b0: 6710 2bbd 304e bf3d cd9e d33c 8432 b6bd
000003c0: 977f 3dbc 87c2 203d 0356 94bd 4368 9ebd
000003d0: 8878 6dbd e211 b93c 65de 32bc 1fc2 8c3d
000003e0: d8b3 223d 9514 c3bd 29e3 a9bd f293 22bd
000003f0: 1c4a eebd 3db2 6d3d 617e 8bbc 1390 92bc

layers.3.conv1.weight f4 [16, 8, 1, 1]
0.33450922 -0.15105231 -0.17554964 -0.12848555 0.28985134 0.08878871 -0.22543481 -0.14298546
-0.33115792 -0.20283492 0.02680749 0.25116438 0.115481615 0.1991196 -0.10041432 -0.15459894
-0.23933409 0.35907513 0.23620045 0.07862635 0.19628498 -0.17707008 0.017778223 -0.021672772
0.2411764 -0.13083549 0.3704862 0.24361953 0.119510375 0.31291246 0.11218195 -0.28673494
-0.27528217 -0.2477043 0.34384042 0.058317862 -0.1058768 0.29160345 0.22185265 -0.08192802
0.33744273 -0.07230883 -0.17794952 -0.16518137 0.12525551 -0.23124878 -0.123543456 -0.2854072
0.17994396 -0.32625344 0.03217702 0.23598221 -0.26451457 0.047276415 -0.22463691 0.27687803
-0.35560408 0.30335337 0.30090097 0.03985741 -0.012384728 0.29138687 0.20184802 0.24551281
-0.32741368 0.29008886 -0.17432411 0.09186488 -0.052622832 0.05355995 0.14551322 0.04047284
0.012319001 0.24319501 0.29247668 0.16636477 -0.19200376 -0.11869525 0.18882658 0.21968843
0.20642628 0.14367846 0.2945896 0.23214181 0.13945088 -0.11468574 -0.058189485 -0.052298445
-0.34853145 0.018695273 0.19925803 -0.2973026 0.06805037 -0.24426186 -0.21714716 0.005757083
-0.3414909 -0.2945961 0.23941514 -0.043075427 0.12349329 -0.21861437 -0.0025474073 0.10929421
-0.25491747 -0.26760563 -0.045908142 -0.073358834 -0.30251792 -0.13786227 0.04492137 0.31600747
-0.16589269 0.120389186 -0.034744166 0.2802901 0.17549303 -0.12691548 0.02255644 -0.32600206
-0.23434135 -0.21451695 0.35599774 0.12295928 0.31655115 0.12602012 0.13138497 0.036044173
00000000: cb44 ab3e 75ad 1abe 49c3 33be b791 03be
00000010: 6567 943e dbd6 b53d 62d8 66be c86a 12be
00000020: 888d a9be f5b3 4fbe 629b db3c 9e98 803e
00000030: a081 ec3d 02e6 4b3e 06a6 cdbd 2f4f 1ebe
00000040: ff13 75be b2d8 b73e 88de 713e da06 a13d
00000050: eefe 483e dc51 35be a3a3 913c 198b b1bc
00000060: f2f6 763e bdf9 05be 5eb0 bd3e 6677 793e
00000070: dbc1 f43d 1036 a03e a6bf e53d ecce 92be
00000080: c9f1 8cbe 32a6 7dbe da0b b03e b6de 6e3d
00000090: f0d5 d8bd 0c4d 953e 572d 633e e1c9 a7bd
000000a0: 4bc5 ac3e a716 94bd 6638 36be 4e25 29be
000000b0: fb42 003e 7bcc 6cbe 5a04 fdbd e420 92be
000000c0: 3b43 383e b10a a7be 0dcc 033d 52a5 713e
000000d0: 746e 87be eaa4 413d 3807 66be f5c2 8d3e
000000e0: bd11 b6be 2251 9b3e b10f 9a3e 8641 233d
000000f0: 50e9 4abc a930 953e 3fb1 4e3e b667 7b3e
00000100: c4a2 a7be 8786 943e 0582 32be a723 bc3d
00000110: 0a8b 57bd ae61 5b3d 6b01 153e d9c6 253d
00000120: a3d5 493c 1d08 793e 81bf 953e 875b 2a3e
00000130: a29c 44be 7f16 f3bd c15b 413e 01f6 603e
00000140: 6961 533e 7220 133e 73d4 963e 95b6 6d3e
00000150: 36cc 0e3e 5be0 eabd 1958 6ebd e536 56bd
00000160: b772 b2be d426 993c 4c0a 4c3e 0c38 98be
00000170: fe5d 8b3d c81f 7abe d35b 5ebe eaa5 bc3b
00000180: e5d7 aebe 4dd5 96be 3e29 753e dc6f 30bd
00000190: 0dea fc3d 72dc 5fbe 67f2 26bb a5d5 df3d
000001a0: 8b84 82be 9b03 89be 2d0a 3cbd 283d 96bd
000001b0: a1e3 9abe c42b 0dbe 78ff 373d bbcb a13e
000001c0: c6df 29be 9b8e f63d e64f 0ebd 2f82 8f3e
000001d0: 72b4 333e 22f6 01be 49c8 b83c bee9 a6be
000001e0: 2ef7 6fbe 55aa 5bbe 5645 b63e 13d2 fb3d
000001f0: fe12 a23e 6b0b 013e c889 063e 0ea3 133d

layers.3.conv1.bias f4 [16]
0.01790919 0.0 0.008967491 0.0115874745 -0.00038436442 0.026766654 -0.001374499 0.010652187
0.02597638 0.005843376 0.004974153 0.0 -0.0051975306 0.0033120546 0.010488953 0.010688017
00000000: 4bb6 923c 0000 0000 62ec 123c 64d9 3d3c
00000010: 8584 c9b9 be45 db3c 8928 b4ba 8386 2e3c
00000020: 6bcc d43c ca79 bf3b 38fe a23b 0000 0000
00000030: 0c50 aabb 0e0f 593b dcd9 2b3c cb1c 2f3c

layers.3.conv2.bias f4 [16]
0.043685257 0.022943966 0.025660058 0.035629325 0.007452384 0.038358957 0.022330008 0.021721309
0.048720475 0.03686986 0.01842321 0.049009856 -0.021296332 0.0134201255 0.02001747 -0.00438399
00000000: 50ef 323d fcf4 bb3c 0b35 d23c 0ef0 113d
00000010: 2133 f43b 481e 1d3d 6ced b63c e3f0 b13c
00000020: 1f8f 473d da04 173d 46ec 963c 8fbe 483d
00000030: a575 aebc 16e0 5b3c adfb a33c 93a7 8fbb

layers.3.conv2.weight_g f4 [16, 1, 1, 1]
0.7335565 0.6375608 0.70788234 0.61860615 0.65214145 0.62539583 0.5958347 0.619959
0.7062714 0.7005233 0.6565018 0.65739024 0.60366815 0.6929815 0.6166761 0.56577843
00000000: 5cca 3b3f 2f37 233f c737 353f f95c 1e3f
00000010: bef2 263f f119 203f 9f88 183f a2b5 1e3f
00000020: 34ce 343f 7f55 333f 8110 283f ba4a 283f
00000030: ff89 1a3f 3c67 313f 7cde 1d3f dbd6 103f

layers.3.conv2.weight_v f4 [16, 8, 3, 3]
0.009672077 0.010557904 -0.1007592 0.10741684 0.10220928 -0.14047562 0.040938765 0.077540964
-0.0030021772 0.029728997 0.023218095 0.023926314 0.042902846 0.06284994 0.20191656 0.063643984
-0.03388071 0.08287323 -0.031711247 0.0035053296 -0.14169721 0.007632669 -0.04618145 -0.10341066
-0.051164888 0.02490631 -0.06443778 1.7252007e-05 -0.0005756226 -0.003635478 -0.0003399177 0.0020704078
-0.0031445448 0.00015496976 0.0012147519 1.7627897e-05 0.10616123 -0.02919822 -0.13726074 0.05469762
0.09598374 -0.12941238 0.09508722 -0.0097419135 0.0639808 0.0064516175 0.01914337 0.03008034
-0.0026573234 -0.024835136 0.0012548978 0.016400576 -0.007845007 0.025493853 0.015079503 0.013256397
0.08386554 -0.009747986 0.011533871 0.1107294 0.011244068 -0.018613076 0.021068905 -0.0012666088
-0.00014935427 0.000437873 0.0070948433 0.0031671796 -0.003608652 0.0016912675 0.0005057455 0.0010390737
0.010046862 0.16519976 -0.013033865 0.04641088 0.11276522 0.047493577 0.08687146 -0.07150321
0.06329443 -0.02180029 -0.12442588 0.062001307 0.122436136 -0.030028572 0.0017136539 0.0686584
-0.026222158 0.075574435 0.114063546 0.12259326 -0.005404714 0.0498765 0.05239955 0.090077974
-0.071695946 0.15365084 -0.022777563 0.068594754 -0.0012246656 0.00097263505 0.036394432 -0.06288604
-0.07321911 0.0009859238 -0.06572081 0.049595024 0.052265354 0.14019258 -0.021943945 9.029168e-05
0.13440077 0.11060129 0.032710887 0.03499884 -0.071288325 -0.03691625 -0.033417843 0.026747609
0.030268924 0.041096397 0.017137457 0.08502313 -0.03271094 0.022690115 -0.0629311 -0.05879901
-0.083958425 -0.052510392 -0.060697712 -0.07830147 -0.053000044 -0.034285977 0.03587417 0.0036588
0.07072823 0.0004803552 0.030322589 0.024146138 0.026470723 0.05319682 0.03300093 0.06492994
0.1106648 0.033997767 -0.03620752 -0.09128732 -0.0017247652 0.05919735 0.13196301 0.068131335
-0.10544485 0.024766712 -0.060890116 0.18095893 0.2037003 0.02638123 0.033455227 -0.038553864
-0.019611593 0.16031173 0.025051514 -0.015421997 -0.09417254 -0.04971674 0.068672225 0.017973224
0.10068504 -0.0044508176 -0.053581152 -0.0017118364 0.00014751409 -0.0056699584 0.0019220149 0.0006293124
0.013929604 -0.0057900003 -0.0013108718 0.0128578115 -0.009660943 -0.0007752135 0.022820821 -0.045839436
0.01685531 -0.12195609 -0.015643189 0.09180536 0.0055641555 0.013545008 0.01055018 0.023658436
0.05821482 0.029844502 0.062110048 0.019207755 -0.034581684 0.06629359 0.009264342 0.010929112
0.02364545 0.052720893 -0.014964829 0.05325025 0.014523508 -0.01627589 0.1423593 -0.0014740902
7.8923615e-05 0.017338673 -0.0012227767 0.006976357 0.00016761814 4.0491227e-06 -6.17585e-05 0.0002495472
0.050855506 0.14496689 -0.09970389 -0.05619256 0.023217674 -0.070126794 0.107844695 0.05741586
-0.02190766 0.024703933 -0.059489723 0.079098456 0.12923798 -0.073766105 0.13285848 -0.020458244
-0.055103052 0.14398652 -0.037658345 0.119013 -0.06971275 -0.042715415 0.06757017 -0.032858204
0.10963385 -0.014760044 -0.055863164 0.00012771151 0.00043078308 -4.7263864e-05 0.0004938024 -0.023003329
6.285195e-05 0.00047441298 -9.50936e-05 -0.011475904 0.072438665 0.04724195 -0.004592771 -0.06610338
00000000: a277 1e3c 0ffb 2c3c d75a cebd 5cfd db3d
00000010: 1953 d13d d7d8 0fbe 68af 273d cccd 9e3d
00000020: 2dc0 44bb 3a8a f33c e033 be3c 1e01 c43c
00000030: e5ba 2f3d 78b7 803d 37c3 4e3e c757 823d
00000040: 80c6 0abd 71b9 a93d a7e3 01bd acb9 653b
00000050: 1319 11be 781b fa3b c328 3dbd f8c8 d3bd
00000060: 4692 51bd 5108 cc3c f4f7 83bd 67b8 9037
00000070: 61e5 16ba 3341 6ebb fb36 b2b9 aeaf 073b
00000080: b514 4ebb 617f 2239 4f38 9f3a 9fdf 9337
00000090: 0f6b d93d 1b31 efbc 148e 0cbe 9d0a 603d
000000a0: 2093 c43d ae84 04be 17bd c23d 8c9c 1fbc
000000b0: 5e08 833d 1768 d33b 8fd2 9c3c 0c6b f63c
000000c0: 7d26 2ebb 0e73 cbbc 627b a43a 805a 863c
000000d0: 5888 00bc 7cd8 d03c 0510 773c 5c31 593c
000000e0: b2c1 ab3d 04b6 1fbc 90f8 3c3c 18c6 e23d
000000f0: 0a39 383c 737a 98bc b298 ac3c 5704 a6ba
00000100: fb9b 1cb9 5292 e539 dc7b e83b 7590 4f3b
00000110: 227f 6cbb 85ad dd3a 0294 043a 8731 883a
00000120: 989b 243c 202a 293e fe8b 55bc 5619 3e3d
00000130: 74f1 e63d a088 423d aae9 b13d 4670 92bd
00000140: 83a0 813d 8696 b2bc ffd2 febd 15f5 7d3d
00000150: ccbf fa3d 7bfe f5bc af9c e03a c69c 8c3d
00000160: dacf d6bc c5c6 9a3d 269a e93d 2d12 fb3d
00000170: 071a b1bb 4d4b 4c3d e9a0 563d cd7a b83d
00000180: 53d5 92bd a556 1d3e 0398 babc 687b 8c3d
00000190: f584 a0ba 6ff8 7e3a 5412 153d 65ca 80bd
000001a0: e7f3 95bd 1d3a 813a a298 86bd 2724 4b3d
000001b0: 3214 563d a58e 0f3e cac3 b3bc fa5a bd38
000001c0: 5ba0 093e ee82 e23d dafb 053d f25a 0f3d
000001d0: 9dff 91bd 7e35 17bd 26e1 08bd cd1d db3c
000001e0: 89f6 f73c b254 283d da63 8c3c 9b20 ae3d
000001f0: e8fb 05bd 9fe0 b93c 05e2 80bd 3bd7 70bd
00000200: 65f2 abbd 2315 57bd 2a9e 78bd 855c a0bd
00000210: 9316 59bd 746f 0cbd cbf0 123d 7ac8 6f3b
00000220: f6d9 903d 2fd8 fb39 1467 f83c 1fce c53c
00000230: 21d9 d83c e9e4 593d fc2b 073d fdf9 843d
00000240: 3aa4 e23d 3e41 0b3d 564e 14bd d9f4 babd
00000250: 8411 e2ba ec78 723d 5021 073e 7188 8b3d
00000260: 78f3 d7bd 8fe3 ca3c ea67 79bd 4c4d 393e
00000270: d096 503e 731d d83c 5908 093d a8ea 1dbd
00000280: 7ea8 a0bc c228 243e d538 cd3c 8bac 7cbc
00000290: 88dd c0bd c8a3 4bbd 06a4 8c3d 953c 933c
000002a0: f533 ce3d 2ad8 91bb e977 5bbd b35f e0ba
000002b0: 03ae 1a39 0fcb b9bb 1eec fb3a 71f8 243a
000002c0: fe38 643c 0bba bdbb 8fd1 abba 92a9 523c
000002d0: ef48 1ebc b337 4bba bbf2 ba3c 22c2 3bbd
000002e0: 2614 8a3c 1dc4 f9bd 2526 80bc 7304 bc3d
000002f0: 8553 b63b e2eb 5d3c aada 2c3c 56cf c13c
00000300: aa72 6e3d 757c f43c 1b67 7e3d 9559 9d3c
00000310: 86a5 0dbd efc4 873d 77c9 173c 0510 333c
00000320: 1ab4 c13c ddf1 573d 0b2f 75bc ef1c 5a3d
00000330: 02f4 6d3c 0455 85bc a3c6 113e 4236 c1ba
00000340: cb83 a538 d509 8e3c 9445 a0ba ed99 e43b
00000350: a7c2 2f39 b3dd 8736 5884 81b8 a9d5 8239
00000360: dd4d 503d 3372 143e 8e31 ccbd 2b2a 66bd
00000370: fe32 be3c a39e 8fbd aedd dc3d e52c 6b3d
00000380: b177 b3bc e75f ca3c 7fab 73bd 5ffe a13d
00000390: f656 043e af12 97bd 0e0c 083e 0c98 a7bc
000003a0: bdb3 61bd 3471 133e a33f 1abd 16bd f33d
000003b0: 8fc5 8ebd 5cf6 2ebd 3b62 8a3d 5396 06bd
000003c0: b687 e03d 1dd4 71bc c6d0 64bd 4cea 0539
000003d0: bada e139 303d 46b8 8572 013a 7a71 bcbc
000003e0: 62cf 8338 a2ba f839 fd6c c7b8 6e05 3cbc
000003f0: b95a 943d c680 413d f57e 96bb 3561 87bd

layers.3.conv3.bias f4 [16]
-0.018819815 0.0 -0.017584879 -0.012590797 -0.0015199181 -0.027222801 -0.004664139 -0.024285693
-0.024049448 -0.0042268406 -0.010320215 0.0 0.0039890893 0.0057191206 -0.006346087 -0.012056373
00000000: 032c 9abc 0000 0000 2a0e 90bc a149 4ebc
00000010: fd37 c7ba 5a02 dfbc a2d5 98bb caf2 c6bc
00000020: 5903 c5bc 4f81 8abb 1e16 29bc 0000 0000
00000030: e8b6 823b 7667 bb3b d6f2 cfbb 1888 45bc

layers.3.conv3.weight_g f4 [16, 1, 1, 1]
0.60227174 0.54698163 0.66440225 0.6781875 0.579988 0.6538351 0.5998641 0.63335776
0.6301827 0.59715676 0.66227263 0.55124784 0.60724473 0.57072353 0.6346232 0.6274358
00000000: 7b2e 1a3f fd06 0c3f 4416 2a3f b29d 2d3f
00000010: 187a 143f bd61 273f b290 193f bc23 223f
00000020: a753 213f 44df 183f b38a 293f 941e 0d3f
00000030: 6474 1b3f f01a 123f ab76 223f a29f 203f

layers.3.conv3.weight_v f4 [16, 16, 3, 3]
0.014480559 0.075585574 -0.0149371745 0.028717728 0.07595971 -0.02418375 -0.018085038 0.038612872
-0.010939739 -0.05301804 -0.016448503 -0.11225651 -0.073557734 -0.054482777 -0.020847818 -0.061017025
0.028289342 -0.03994334 0.031833697 0.054346193 -0.006049328 -0.022890603 0.04844267 0.020405026
-0.0067319423 0.03151309 -0.06248961 -0.019546269 0.03347381 -0.000103080514 -0.018557528 0.023894886
0.0076956647 -0.065784454 0.07143264 -0.112999804 0.012818044 -0.025065778 -0.015146092 0.00081470096
0.028194122 -0.004770224 -0.033045605 -0.003111591 0.04261354 0.012790974 0.030980805 -0.01859229
0.04487138 0.046067182 -0.025758239 -0.0073482073 0.02366323 -0.024149152 -0.021954628 0.024261035
-0.1392076 -0.05493038 0.0010507806 -0.07675423 -0.035027783 0.050166324 -0.050409697 -0.0153291365
0.017022664 0.011903103 0.019674739 -0.11815947 0.0064195264 0.021658951 -0.007842005 0.011979152
0.021377688 0.01702175 0.07995414 0.039216485 0.011962392 0.06937215 0.018732578 -0.002362583
0.01497709 -0.01138212 -0.027660947 -0.058787175 0.024056753 0.05231298 0.023913868 -0.006282908
0.05708691 -0.055379298 -0.025775649 -0.09445672 -0.053848285 -0.026135352 -0.12146609 -0.07983744
-0.008702086 -0.019723438 0.009083622 0.024742724 0.055079658 -0.07313533 -0.032894712 0.034023996
0.024599718 -0.10371878 0.0012551281 0.0029349641 0.00019173796 0.009594267 -0.01301436 -0.0008630298
-0.0007826968 -0.007009276 -1.1543378e-05 -0.027608858 0.013809223 -0.005230892 -0.0018416046 1.1752597e-05
0.0065691713 -0.00577338 -0.02719837 -0.03522241 0.005328722 0.0075686737 0.040148675 -0.06895124
-0.12681337 -0.05682659 -0.049848434 -0.15124032 -0.07129559 0.046766978 -0.06303766 -0.04174051
0.028086167 -0.016414773 -0.0075081685 -0.016855298 -0.0015278647 -0.00081609155 0.00015632826 -0.0010168554
0.07474975 0.062754996 0.006235508 0.022500653 -0.0062313005 0.0047924663 0.07835247 0.044174194
-0.0076481802 0.006073907 0.04113363 -0.033492547 -0.032410968 -0.010381429 -0.0056252526 -0.072294466
-0.06270438 -0.015736971 0.08020975 -0.004169294 0.04609025 0.020753458 -0.035387438 -0.033615246
-0.02572275 0.038763974 0.009059873 0.032792516 -0.039461516 0.037999965 -0.08148499 -0.012080459
0.08042606 -0.011096214 -0.0144137535 -0.0017455398 0.020695688 0.04149803 -0.032071933 0.019470815
0.027316889 0.0009518258 0.013977937 0.034086827 -0.052582625 -0.048658933 0.057064697 -0.05799357
0.08035699 -0.0759776 -0.04892512 0.040621147 0.06547791 -0.056735095 0.06539095 0.04227672
0.035068393 0.00141534 -0.011441616 0.031855095 0.050778832 -0.07743819 -0.0198415 -0.018343005
-0.018285057 -0.05894349 -0.052376878 0.03719489 -0.025993709 -0.06320979 0.07246401 0.00506019
0.019588785 -0.04215925 -0.018562036 -0.0037080816 0.018990349 -0.03454497 -0.0047705285 0.055623267
-0.049307976 0.006882429 0.06626965 0.012381608 0.06665759 0.039657936 0.03222908 -0.07326271
0.04929448 0.046291888 -0.06618256 0.0633172 -0.07783207 0.037164405 -0.044371273 -0.05813042
0.046969015 0.0366741 0.045741707 0.0009880961 -0.07950038 0.05966784 0.037405778 -0.0572368
0.05740139 0.038232286 -0.0006300178 -0.064281166 0.034769394 -0.06656692 0.07139279 -0.008375814
00000000: de3f 6d3c 9ccc 9a3d 0dbb 74bc 7141 eb3c
00000010: c490 9b3d 001d c6bc 1327 94bc 8828 1e3d
00000020: 973c 33bc 7229 59bd 03bf 86bc bee6 e5bd
00000030: 70a5 96bd 5529 5fbd 0bc9 aabc fdec 79bd
00000040: 0dbf e73c a19b 23bd 0d64 023d 1d9a 5e3d
00000050: 7139 c6bb 1385 bbbc d26b 463d 7128 a73c
00000060: a097 dcbb df13 013d 1bf5 7fbd 7f1f a0bc
00000070: d51b 093d ee2c d8b8 f505 98bc 35bf c33c
00000080: ea2b fc3b 00ba 86bd 474b 923d 716c e7bd
00000090: c602 523c bf56 cdbc 5027 78bc a891 553a
000000a0: 5cf7 e63c 8a4f 9cbb d45a 07bd d6eb 4bbb
000000b0: 898b 2e3d 3c91 513c 75cb fd3c dc4e 98bc
000000c0: 0dcb 373d f1b0 3c3d f102 d3bc 3bc9 f0bb
000000d0: 64d9 c13c 71d4 c5bc 31da b3bc 14bf c63c
000000e0: 708c 0ebe aefe 60bd 59ba 893a 5231 9dbd
000000f0: 4b79 0fbd 347b 4d3d 667a 4ebd 0f27 7bbc
00000100: 1d73 8b3c 3c05 433c eb2c a13c 98fd f1bd
00000110: e45a d23b 1d6e b13c c17b 00bc 3544 443c
00000120: 4320 af3c 3271 8b3c ffbe a33d 77a1 203d
00000130: e9fd 433c fc12 8e3d 1075 993c 91d5 1abb
00000140: 7862 753c 127c 3abc 3699 e2bc d2ca 70bd
00000150: ab12 c53c 2346 563d 04e7 c33c dae0 cdbb
00000160: f7d3 693d 67d5 62bd 7427 d3bc 8672 c1bd
00000170: 0590 5cbd ce19 d6bc 37c3 f8bd d081 a3bd
00000180: 3293 0ebc 0c93 a1bc 79d3 143c 41b1 ca3c
00000190: 359b 613d fac7 95bd 9bbc 06bd bf5c 0b3d
000001a0: 5985 c93c 836a d4bd 1c83 a43a 8758 403b
000001b0: 440d 4939 4631 1d3c 2f3a 55bc f33c 62ba
000001c0: e52d 4dba 12ae e5bb 6eaa 41b7 f92b e2bc
000001d0: 1440 623c e767 abbb ff61 f1ba 052d 4537
000001e0: 3442 d73b 9f2e bdbb 1ecf debc 6045 10bd
000001f0: 8f9c ae3b a302 f83b f072 243d 4f36 8dbd
00000200: 5ddb 01be 00c3 68bd df2d 4cbd bede 1abe
00000210: 6c03 92bd bb8e 3f3d e419 81bd 19f8 2abd
00000220: f614 e63c 4678 86bc 1507 f6bb 1f14 8abc
00000230: a242 c8ba faee 55ba 0cec 2339 0148 85ba
00000240: 6616 993d b185 803d 3b53 cc3b 4a53 b83c
00000250: f02f ccbb 1f0a 9d3b 4377 a03d 00f0 343d
00000260: 969d fabb a007 c73b bd7b 283d 7b2f 09bd
00000270: 5dc1 04bd df16 2abc 0a54 b8bb 1f0f 94bd
00000280: 276b 80bd d2ea 80bc 0245 a43d 939e 88bb
00000290: 21c9 3c3d 2803 aa3c 6bf2 10bd 24b0 09bd
000002a0: 84b8 d2bc f9c6 1e3d dd6f 143c 7251 063d
000002b0: 66a2 21bd daa5 1b3d 9ae1 a6bd 1eed 45bc
000002c0: 6bb6 a43d e5cc 35bc aa27 6cbc 99ca e4ba
000002d0: 018a a93c d7f9 293d dc5d 03bd 4281 9f3c
000002e0: abc7 df3c f383 793a b803 653c a19e 0b3d
000002f0: e160 57bd 974e 47bd acbc 693d aa8a 6dbd
00000300: 3592 a43d 259a 9bbd b565 48bd 5c62 263d
00000310: 4819 863d 0f63 68bd b1eb 853d 5b2a 2d3d
00000320: e0a3 0f3d ee82 b93a 9e75 3bbc 7d7a 023d
00000330: 77fd 4f3d ea97 9ebd a48a a2bc 1244 96bc
00000340: 8bca 95bc bb6e 71bd 2389 56bd ab59 183d
00000350: c2f0 d4bc 2274 81bd 0368 943d f3cf a53b
00000360: a978 a03c 2daf 2cbd 690f 98bc 4903 73bb
00000370: a691 9b3c 077f 0dbd 1852 9cbb 39d5 633d
00000380: 29f7 49bd 0086 e13b 62b8 873d 3adc 4a3c
00000390: c683 883d 5c70 223d a402 043d c20a 96bd
000003a0: 02e9 493d 909c 3d3d b98a 87bd 73ac 813d
000003b0: 6c66 9fbd b439 183d a7be 35bd 2a1a 6ebd
000003c0: 9562 403d 9537 163d a85b 3b3d 0183 813a
000003d0: 18d1 a2bd 4466 743d cd36 193d 2371 6abd
000003e0: b81d 6b3d 7599 1c3d c727 25ba d8a5 83bd
000003f0: 5a6a 0e3d 3d54 88bd 6236 923d b63a 09bc

layers.4.conv1.weight f4 [32, 16, 1, 1]
0.22218715 -0.23530938 0.17230958 0.15855384 0.13562718 0.22935656 -0.17354834 0.047060706
0.09730768 0.21745501 0.118405335 0.06294069 -0.17708771 0.22731204 -0.11661021 0.18901151
0.2420524 -0.24595219 -0.10157614 -0.19628024 0.2215052 0.22181757 -0.0051250113 0.009203188
-0.045097895 0.10223615 -0.10175903 -0.0050360817 -0.2217266 -0.21279794 0.1549617 -0.0952219
-0.23261079 0.13631663 -0.23178835 -0.22887133 -0.14117853 -0.14827847 -0.19605307 -0.11561318
-0.16052382 0.19811386 -0.17148525 0.03520333 -0.055761557 0.19640577 0.19168948 -0.07252932
0.096683666 -0.16477972 0.20820642 -0.12596697 0.10390431 -0.16891228 -0.0963168 -0.2456812
0.08819506 0.20137775 -0.05971567 0.24155927 0.23383 0.17666453 0.06566261 0.16449484
-0.22463757 0.20470229 -0.033733144 0.2615069 -0.17219603 -0.21218914 -0.15653552 0.08545168
0.25422117 0.09576554 0.19068162 0.044044405 -0.14427407 0.118702196 0.08043084 0.00059527025
-0.06188533 -0.1533606 0.16035654 -0.020614933 0.10821415 -0.03583037 -0.12238121 0.26639864
0.019417863 -0.18927632 0.106657214 -0.1597306 0.10764769 -0.046679117 -0.21352226 -0.05513165
0.052202206 0.22466843 0.18345632 0.038354542 -0.22468287 -0.24838252 -0.17250617 -0.1726975
0.0011253243 0.11609066 -0.13402371 -0.18123737 0.09727448 -0.23399118 -0.048605815 0.11238693
-0.10592081 0.0063693253 -0.15099375 -0.22416292 -0.089837104 0.08930483 -0.02973046 -0.24020267
-0.1199055 -0.08489131 -0.19544344 -0.073017776 -0.051780842 -0.2287054 -0.09118825 0.1801092
-0.090736695 -0.050376937 -0.10941714 0.07679912 0.062766984 0.09629808 0.18921329 -0.08005518
0.10620649 -0.22045425 -0.20736001 0.12227947 -0.066091605 0.09064117 -0.1365146 0.067410275
-0.014750589 0.08328425 -0.133892 0.07462935 -0.2249749 0.10413312 0.093221046 0.09860511
-0.1882841 0.06259007 -0.105891295 -0.21825393 -0.23311421 0.0003676412 -0.1890666 0.021326303
-0.23229945 0.07070875 -0.04823496 -0.0009867706 -0.0073650293 0.007859093 0.0661102 0.04440329
-0.13153653 0.1131905 0.043422695 -0.079226434 0.043046337 0.20913701 -0.012798137 -0.097384706
0.23944822 0.04515583 0.10584437 0.01049424 -0.18765612 0.18150035 -0.057386674 0.1799687
0.2050335 0.17506799 -0.051484704 -0.12732977 -0.09734043 -0.09979556 -0.07249399 -0.011334038
0.04296674 0.047505293 -0.19118632 -0.0804682 -0.24073781 0.12395573 0.15743884 -0.22075443
-0.1949566 0.2586522 0.20623602 0.22936228 -0.08762626 0.09190681 -0.20126721 -0.019351529
-0.07115294 0.08548537 -0.15974645 0.07335767 -0.06300695 -0.14997014 -0.12719059 -0.13176218
0.050402027 -0.1586924 -0.17968398 0.17676198 -0.09916022 0.08660013 0.1524683 -0.12402155
0.117791496 -0.17697245 0.07173345 0.079908006 -0.08272229 -0.06594789 0.15074104 -0.049960963
0.21645285 0.041029695 -0.019337736 0.13549012 -0.078715876 0.106127605 0.15974168 0.1181566
0.22788937 0.07171658 -0.0022735149 -0.21993798 0.21573025 0.21818796 0.054896474 -0.008392114
-0.069096155 -0.034778915 -0.089471206 0.05771195 0.11116972 0.038964067 -0.24927993 -0.21648341
00000000: 0785 633e f1f4 70be ec71 303e f05b 223e
00000010: dae1 0a3e 72dc 6a3e a8b6 31be bac2 403d
00000020: 4049 c73d 87ac 5e3e 7f7e f23d 0ce7 803d
00000030: 7b56 35be 7dc4 683e 55d1 eebd 3c8c 413e
00000040: 96dc 773e e4da 7bbe 2707 d0bd b0fd 48be
00000050: 42d2 623e 2524 633e b6ef a7bb f8c8 163c
00000060: 92b8 38bd 3061 d13d 0a67 d0bd b705 a5bb
00000070: 4c0c 63be b4e7 59be 48ae 1e3e b303 c3bd
00000080: 8631 6ebe 9696 0b3e ed59 6dbe 3f5d 6abe
00000090: 1b91 10be 50d6 17be 23c2 48be 9ac6 ecbd
000000a0: 5b60 24be 5cde 4a3e d499 2fbe 5e31 103d
000000b0: 3b66 64bd 981e 493e 3f4a 443e 418a 94bd
000000c0: 1602 c63d 04bc 28be 1034 553e 7cfd 00be
000000d0: c8cb d43d 57f7 2cbe be41 c5bd da93 7bbe
000000e0: 9d9f b43d f835 4e3e 6b98 74bd 505b 773e
000000f0: 2271 6f3e 8ce7 343e 1e7a 863d 5671 283e
00000100: 6407 66be 7a9d 513e c42b 0abd 3be4 853e
00000110: 2854 30be 1c48 59be d94a 20be 4a01 af3d
00000120: 4729 823e b920 c43d 0b42 433e e867 343d
00000130: 95bc 13be 231a f33d edb8 a43d e90b 1c3a
00000140: 797b 7dbd 900a 1dbe 8134 243e a6e0 a8bc
00000150: 619f dd3d dec2 12bd 00a3 fabd 6765 883e
00000160: 3612 9f3c a7d1 41be 196f da3d 6b90 23be
00000170: 6476 dc3d 9a32 3fbd 94a5 5abe bad1 61bd
00000180: fbd1 553d 7b0f 663e f9db 3b3e a719 1d3d
00000190: 4413 66be fd57 7ebe 75a5 30be 9dd7 30be
000001a0: 9e7f 933a f1c0 ed3d 833d 09be 4a96 39be
000001b0: d837 c73d 629b 6fbe e416 47bd 1e2b e63d
000001c0: 02ed d8bd c6b5 d03b 1b9e 1abe f78a 65be
000001d0: 84fc b7bd 73e5 b63d 4b8d f3bc b0f7 75be
000001e0: 0491 f5bd 7fdb adbd 5322 48be 588a 95bd
000001f0: 2618 54bd c031 6abe e8c0 babd 8c6e 383e
00000200: 29d4 b9bd 0c58 4ebd 1816 e0bd db48 9d3d
00000210: fa8b 803d ee37 c53d 21c1 413e f8f3 a3bd
00000220: ca82 d93d c2be 61be 2f56 54be a96d fa3d
00000230: 095b 87bd 14a2 b93d 7cca 0bbe 660e 8a3d
00000240: 74ac 71bc ef90 aa3d fc1a 09be 46d7 983d
00000250: d25f 66be bf43 d53d adea be3d 7af1 c93d
00000260: 8ccd 40be 392f 803d 89dd d8bd f57d 5fbe
00000270: 7eb5 6ebe f7bf c039 ad9a 41be 80b4 ae3c
00000280: e8df 6dbe c0cf 903d 0592 45bd 8756 81ba
00000290: 5856 f1bb 6dc3 003c c964 873d 39e0 353d
000002a0: 83b1 06be 6cd0 e73d ffdb 313d 7841 a2bd
000002b0: 5b51 303d 0328 563e 47af 51bc a271 c7bd
000002c0: ea31 753e 52f5 383d efc4 d83d 08f0 2b3c
000002d0: ed28 40be 3adb 393e 4a0e 6bbd b749 383e
000002e0: 4df4 513e 0645 333e a0e1 52bd bc62 02be
000002f0: 6b5a c7bd 9d61 ccbd bb77 94bd 67b2 39bc
00000300: e4fd 2f3d e994 423d 59c6 43be 83cc a4bd
00000310: f983 76be 80dc fd3d a637 213e 730d 62be
00000320: b4a2 47be 106e 843e 892f 533e f2dd 6a3e
00000330: 6675 b3bd a339 bc3d fe18 4ebe 1987 9ebc
00000340: a2b8 91bd f412 af3d 9394 23be 8c3c 963d
00000350: ca09 81bd c691 19be 403e 02be aaec 06be
00000360: 5b72 4e3d 4380 22be 14ff 37be 1801 353e
00000370: 8314 cbbd 695b b13d a620 1c3e 03ff fdbd
00000380: ab3c f13d 4438 35be fde8 923d cfa6 a33d
00000390: 4e6a a9bd b00f 87bd dc5b 1a3e dea3 4cbd
000003a0: d1a5 5d3e c10e 283d 2c6a 9ebc ecbd 0a3e
000003b0: ca35 a1bd 6e59 d93d 5393 233e 16fc f13d
000003c0: d55b 693e 24e0 923d 40ff 14bb 6c37 61be
000003d0: 64e8 5c3e aa6c 5f3e 20db 603d 147f 09bc
000003e0: 4982 8dbd 5674 0ebd ae3c b7bd 5e63 6c3d
000003f0: f3ac e33d c998 1f3d 3d43 7fbe d4ad 5dbe

layers.4.conv1.bias f4 [32]
0.015759518 0.0037921048 0.00061967276 -0.0034924492 0.00696993 0.013912681 -0.0070730145 0.0
-0.0051333955 -0.010771311 -0.005498787 0.012179428 0.018153254 0.030408235 0.005425048 -0.015913868
-0.0026762513 -0.00459241 0.0014946545 0.027114324 0.0023707387 -0.007993698 0.0 0.011228979
-0.015160027 -0.006370642 -0.0015147147 0.0020514005 0.018756362 -0.005526357 0.0103900805 0.0033652228
00000000: 1b1a 813c f684 783b 8971 223a 93e1 64bb
00000010: 0364 e43b 03f2 633c bfc4 e7bb 0000 0000
00000020: 0b36 a8bb 277a 30bc 2b2f b4bb 398c 473c
00000030: 22b6 943c b11a f93c 9ac4 b13b cd5d 82bc
00000040: 0c64 2fbb ed7b 96bb 48e8 c33a dc1e de3c
00000050: 655e 1b3b 00f8 02bc 0000 0000 c0f9 373c
00000060: c361 78bc d2c0 d0bb 6489 c6ba ca70 063b
00000070: f1a6 993c 7116 b5bb 283b 2a3c 128b 5c3b

layers.4.conv2.bias f4 [32]
-0.0034342853 0.040637624 -0.015994888 0.016622819 -0.009368535 0.0041832356 0.0046835635 0.014977743
-0.0063815345 -0.0047394363 0.0 -0.007695763 0.0 0.013641037 0.014986351 0.028104521
8.1775266e-05 0.01241707 0.006604626 0.016133692 0.0073057082 0.013550857 0.0083510205 0.017204454
-0.004301139 0.0155795 0.003115096 0.0014318461 0.010426967 0.03613615 0.0024653277 -0.0020771693
00000000: bf11 61bb a373 263d b607 83bc 942c 883c
00000010: 7c7e 19bc 8613 893b 9478 993b 3565 753c
00000020: 311c d1bb 464d 9bbb 0000 0000 bd2c fcbb
00000030: 0000 0000 a87e 5f3c 5089 753c 743b e63c
00000040: c37e ab38 f770 4b3c 9e6b d83b ce2a 843c
00000050: b964 ef3b 6a04 5e3c b8d2 083c 5bf0 8c3c
00000060: 92f0 8cbb 2941 7f3c a326 4c3b c8ac bb3a
00000070: dfd5 2a3c 8003 143d 5691 213b 1e21 08bb

layers.4.conv2.weight_g f4 [32, 1, 1, 1]
0.58687365 0.7334108 0.57702935 0.6362723 0.63939494 0.58949786 0.56873554 0.6805896
0.5678082 0.5872869 0.5951271 0.60928506 0.57988745 0.63877463 0.72496885 0.74176246
0.61726296 0.69059145 0.59188867 0.70928466 0.60762507 0.6782298 0.59599435 0.6917739
0.56232643 0.5827663 0.59706825 0.62047684 0.6010911 0.6975806 0.57919323 0.61497056
00000000: 5a3d 163f cfc0 3b3f 32b8 133f bee2 223f
00000010: 63af 233f 55e9 163f a798 113f 1f3b 2e3f
00000020: e15b 113f 6f58 163f 405a 183f 1bfa 1b3f
00000030: 8173 143f bc86 233f 8f97 393f 25e4 3d3f
00000040: f204 1e3f 9aca 303f 0486 173f ae93 353f
00000050: 518d 1b3f 78a0 2d3f 1693 183f 1818 313f
00000060: a0f4 0f3f 2c30 153f 77d9 183f 92d7 1e3f
00000070: 1be1 193f a494 323f 0246 143f b66e 1d3f
