nets/net-best-valid-loss.pth (torch, 364249 bytes, 54 tensors)

layers.0.conv1.weight f4 [2, 1, 1, 1]
0.86520743 0.6002805
00000000: 3c7e 5d3f fcab 193f

layers.0.conv1.bias f4 [2]
0.16213281 0.133096
00000000: 2506 263e 514a 083e

layers.0.conv2.bias f4 [2]
0.2210349 0.0016826342
00000000: f956 623e d68b dc3a

layers.0.conv2.weight_g f4 [2, 1, 1, 1]
0.659871 0.69885755
00000000: 4eed 283f 54e8 323f

layers.0.conv2.weight_v f4 [2, 1, 3, 3]
-0.056966767 0.11309788 0.23743753 -0.118885934 0.08807223 0.015133069 -0.12064556 0.22366929
0.2768736 0.26388413 -0.3627204 -0.28878495 0.28864187 0.053525925 0.12593809 0.1383975
-0.061388463 0.102547035
00000000: fc55 69bd dc9f e73d d322 733e 787a f3bd
00000010: 375f b43d b1f0 773c 0515 f7bd 9009 653e
00000020: 60c2 8d3e d21b 873e 7db6 b9be 9fdb 93be
00000030: dec8 933e 003e 5b3d eaf5 003e 13b8 0d3e
00000040: 7872 7bbd 2e04 d23d

layers.0.conv3.bias f4 [2]
0.16670325 0.15784335
00000000: 42b4 2a3e b0a1 213e

layers.0.conv3.weight_g f4 [2, 1, 1, 1]
0.81238425 0.7651332
00000000: 6af8 4f3f c5df 433f

layers.0.conv3.weight_v f4 [2, 2, 3, 3]
0.10723466 0.23360832 -0.1393005 0.33466598 0.29984498 -0.07640946 0.46141544 -0.0032486117
-0.06571159 -0.054706622 -0.055751994 0.063603334 -0.058668643 0.0056153415 0.029749203 0.003110844
0.039591376 0.21390243 0.29196525 0.28923574 0.019952975 0.31752732 0.062104486 -0.010624741
-0.016515832 0.30707797 0.0806942 0.074966624 0.09291765 0.02498793 -0.004720302 -0.05701796
0.21923994 0.016784023 0.13806678 0.14456709
00000000: d89d db3d 0537 6f3e caa4 0ebe 5759 ab3e
00000010: 4885 993e 907c 9cbd a53e ec3e a9e6 54bb
00000020: cc93 86bd 0d14 60bd 345c 64bd 7742 823d
00000030: 884e 70bd e600 b83b 9ab4 f33c 4ddf 4b3b
00000040: 912a 223d 3d09 5b3e 787c 953e b516 943e
00000050: 6c74 a33c f192 a23e 4661 7e3d 6513 2ebc
00000060: 364c 87bc 5339 9d3e 0043 a53d 1a88 993d
00000070: 9c4b be3d 7db3 cc3c c3ac 9abb aa8b 69bd
00000080: 6f80 603e a67e 893c 6161 0d3e 6509 143e

layers.1.conv1.weight f4 [4, 2, 1, 1]
-0.15512183 0.2593873 -0.09607328 -0.48369 0.18533646 0.2902547 0.45525166 0.07090735
00000000: 42d8 1ebe 6ace 843e 11c2 c4bd 37a6 f7be
00000010: d7c8 3d3e 449c 943e bf16 e93e df37 913d

layers.1.conv1.bias f4 [4]
0.016201427 -0.00693146 0.012269443 0.020117844
00000000: dbb8 843c 4d21 e3bb c605 493c 2dce a43c

layers.1.conv2.bias f4 [4]
0.030522363 -0.0005551129 0.11023742 0.099256925
00000000: 090a fa3c ff84 11ba 28c4 e13d 3747 cb3d

layers.1.conv2.weight_g f4 [4, 1, 1, 1]
0.6837867 0.6913597 0.7679015 0.6484439
00000000: a50c 2f3f f3fc 303f 3195 443f 6b00 263f

layers.1.conv2.weight_v f4 [4, 2, 3, 3]
0.040903058 -0.054640576 0.14258485 -0.02087617 0.15870997 0.14501008 0.057224028 0.2911348
0.20028733 0.032387603 0.062000636 0.06355397 0.040479492 0.0628216 0.11542373 0.09585567
0.103273615 0.12726755 0.01649782 -0.12690377 0.15302305 0.059293427 0.20691043 -0.0779733
0.09414377 -0.023907293 0.13747552 0.09209069 -0.09901526 0.12941068 -0.12791789 0.13031562
-0.19625981 0.26422423 -0.08608422 -0.1176776 0.051291414 0.20349452 0.13022222 0.12355167
0.24784239 0.078834526 0.091397725 0.18584493 0.18640998 0.03604097 0.10055745 -0.027781332
0.13215543 0.20864354 -0.004962603 0.081162214 0.18158533 0.12871486 0.024316598 0.051021993
0.21506108 0.02476186 0.15004914 0.24638398 -0.07731488 0.18439074 0.06155292 0.017655097
-0.059870105 0.10229693 -0.025990821 0.047907516 0.21913426 0.04842142 0.084776744 0.08004604
00000000: f789 273d ccce 5fbd c301 123e 8004 abbc
00000010: de84 223e 867d 143e be63 6a3d 9f0f 953e
00000020: 1f18 4d3e dda8 043d 61f4 7d3d 9528 823d
00000030: d3cd 253d 9ca8 803d 4763 ec3d fa4f c43d
00000040: 1e81 d33d 6d52 023e 7026 873c 10f3 01be
00000050: 13b2 1c3e aadd 723d 54e0 533e 77b0 9fbd
00000060: 73ce c03d 3ad9 c3bc 62c6 0c3e 0b9a bc3d
00000070: 83c8 cabd 3c84 043e e8fc 02be 7571 053e
00000080: 55f8 48be 6648 873e ec4c b0bd f400 f1bd
00000090: f216 523d de60 503e f958 053e a808 fd3d
000000a0: 65ca 7d3e ff73 a13d bb2e bb3d 224e 3e3e
000000b0: 42e2 3e3e b29f 133d 10f1 cd3d ad95 e3bc
000000c0: c153 073e a7a6 553e 559d a2bb 6038 a63d
000000d0: 81f1 393e d4cd 033e 9a33 c73c 70fc 503d
000000e0: f938 5c3e 62d9 ca3c 7ba6 193e 154c 7c3e
000000f0: 4457 9ebd edd0 3c3e ea1e 7c3d 6ca1 903c
00000100: 5b3a 75bd 0e81 d13d b4ea d4bc ac3a 443d
00000110: bb64 603e 8a55 463d 6e9f ad3d 2eef a33d

layers.1.conv3.bias f4 [4]
-0.012270027 0.020116068 -0.023416607 -0.021528278
00000000: 3908 49bc 74ca a43c 2fd4 bfbc 125c b0bc

layers.1.conv3.weight_g f4 [4, 1, 1, 1]
0.66077775 0.6052559 0.7543199 0.83514524
00000000: bb28 293f 0df2 1a3f 1c1b 413f 14cc 553f

layers.1.conv3.weight_v f4 [4, 4, 3, 3]
0.12982066 0.1092591 -0.0101870885 0.102049135 0.050571248 0.023800898 -0.07156757 -0.09181981
-0.09249346 0.034564354 -0.013374909 0.029495144 0.056776684 0.00221161 0.069490366 0.0032013096
-0.018867953 -0.014202316 -0.010471026 0.051220935 0.1531296 0.10140562 0.107472874 -0.004993481
-0.12922 0.12615424 -0.15783711 0.04222268 0.016555183 -0.022872766 0.02668247 0.024043899
0.119035155 -0.13443553 -0.06185761 0.19571671 0.13804103 -0.0033265639 -0.13926592 -0.15081972
-0.050447475 -0.0007935033 0.10205364 -0.08015152 0.120410435 0.084448665 0.15929653 -0.14718424
0.101390466 -0.11053351 0.13849401 0.15063111 -0.018151835 0.04209649 0.025669174 0.10042204
0.16406819 0.08913037 0.09693066 0.1611485 0.0022986806 0.016111081 0.14519076 0.07421273
0.17085952 -0.0694688 -0.10776883 -0.07052857 0.06107859 0.11239417 0.037892897 -0.07687739
-0.057731714 -0.05280653 -0.024111524 -0.28557518 -0.07193964 0.010864587 -0.27253208 -0.05210259
0.11780001 0.031937666 -0.09264825 -0.05302803 -0.04343821 -0.043155078 -0.08968106 0.005515901
-0.08672285 -0.02328293 0.03527338 -0.08206211 -0.11905853 -0.16033572 -0.082881734 0.029123234
-0.09651838 -0.021726323 0.0014274636 -0.066897474 0.07211408 0.017253794 0.0009127628 0.11726916
-0.08834102 -0.1497273 -0.0073051527 -0.100909725 -0.113434196 -0.060355093 -0.011385797 -0.2838308
-0.04774428 0.05053463 -0.12766793 -0.055228055 0.08145977 0.029801056 -0.075320564 -0.037890397
-0.042005267 -0.02965437 -0.07055743 0.0070052394 -0.07820396 -0.009730547 0.030441318 -0.164404
-0.016626643 -0.3023734 -0.15762548 0.09644018 -0.25316337 -0.19457431 0.00756123 -0.07939318
0.03608685 -0.011085015 -0.12772791 0.031834073 0.03429087 -0.10982642 -0.012176076 0.045190755
00000000: b5ef 043e 3cc3 df3d bfe7 26bc 23ff d03d
00000010: cc23 4f3d 1afa c23c 0592 92bd 060c bcbd
00000020: 366d bdbd 5a93 0d3d 6f22 5bbc cd9f f13c
00000030: ab8e 683d a9f0 103b f750 8e3d 10cd 513b
00000040: f790 9abc d5b0 68bc ab8e 2bbc 0bcd 513d
00000050: 02ce 1c3e c0ad cf3d bd1a dc3d 5ba0 a3bb
00000060: 3f52 04be 942e 013e 0da0 21be b0f1 2c3d
00000070: bc9e 873c ab5f bbbc 3295 da3c b6f7 c43c
00000080: b4c8 f33d 78a9 09be 685e 7dbd f669 483e
00000090: a15a 0d3e 7b02 5abb ba9b 0ebe 7c70 1abe
000000a0: 03a2 4ebd 1b03 50ba 8001 d13d 7b26 a4bd
000000b0: bf99 f63d 6cf3 ac3d a11e 233e 77b7 16be
000000c0: cea5 cf3d 655f e2bd 60d1 0d3e 0b3f 1a3e
000000d0: 28b3 94bc 5e6d 2c3d 2948 d23c 12aa cd3d
000000e0: 7e01 283e fc89 b63d 9583 c63d 1d04 253e
000000f0: 76a5 163b 63fb 833c e3ac 143e d8fc 973d
00000100: ccf5 2e3e a945 8ebd e8b5 dcbd 4871 90bd
00000110: 8b2d 7a3d ea2e e63d 9535 1b3d e571 9dbd
00000120: 1778 6cbd a94b 58bd 8885 c5bc e936 92be
00000130: 1755 93bd 6101 323c 5389 8bbe 8769 55bd
00000140: 2241 f13d 12d1 023d 5ebe bdbd eb33 59bd
00000150: 44ec 31bd 61c3 30bd b4aa b7bd bbbe b43b
00000160: c09b b1bd d8bb bebc d27a 103d 2e10 a8bd
00000170: f5d4 f3bd 0c2f 24be e6bd a9bd d993 ee3c
00000180: 6eab c5bd 67fb b1bc bb19 bb3a 8b01 89bd
00000190: 8cb0 933d d457 8d3c 7a46 6f3a d02a f03d
000001a0: 23ec b4bd 1d52 19be 1060 efbb c2a9 cebd
000001b0: 3050 e8bd e736 77bd 7e8b 3abc 4552 91be
000001c0: 828f 43bd 66fd 4e3d 62bb 02be d036 62bd
000001d0: 61d4 a63d 5821 f43c ab41 9abd f632 1bbd
000001e0: b70d 2cbd b9ed f2bc 6a80 90bd 358c e53b
000001f0: 6629 a0bd df6c 1fbc 1260 f93c 8659 28be
00000200: 9934 88bc b0d0 9abe 9368 21be 6e82 c53d
00000210: a19e 81be 7d3e 47be 32c4 f73b e498 a2bd
00000220: cecf 133d ec9d 35bc 1bcb 02be 7264 023d
00000230: 9574 0c3d adec e0bd 2a7e 47bc f119 393d

layers.2.conv1.weight f4 [8, 4, 1, 1]
-0.45796853 -0.11699841 -0.21169433 -0.23555459 0.21105003 -0.20935397 -0.41269875 0.18127699
-0.363132 -0.24195984 0.021931639 -0.49219775 -0.1809655 -0.004657895 0.44163242 0.6295063
-0.40693343 -0.24608293 0.37051675 -0.3108017 0.13610688 0.021433251 0.025298702 0.43812352
-0.34299552 -0.049383573 -0.041525867 0.45004678 0.00032675834 0.35736278 -0.4429991 -0.17650685
00000000: da7a eabe dd9c efbd 66c6 58be 3935 71be
00000010: 801d 583e e360 56be 404d d3be ada0 393e
00000020: 70ec b9be 52c4 77be fba9 b33c 5801 fcbe
00000030: 054f 39be 41a1 98bb a51d e23e 5327 213f
00000040: 9459 d0be 2afd 7bbe 5fb4 bd3e 6721 9fbe
00000050: 9a5f 0b3e c994 af3c 393f cf3c ba51 e03e
00000060: 1c9d afbe 6e46 4abd 0717 2abd 886c e63e
00000070: c350 ab39 41f8 b63e c7d0 e2be 36be 34be

layers.2.conv1.bias f4 [8]
-0.0009279491 -0.013506829 0.015332862 0.00794586 -0.021159396 0.0138123585 0.022502873 -0.0059397044
00000000: 9c41 73ba bf4b 5dbc af36 7b3c 5a2f 023c
00000010: 7856 adbc 3b4d 623c f257 b83c daa1 c2bb

layers.2.conv2.bias f4 [8]
-0.040743664 0.14138828 0.024882454 0.031257454 0.030211449 0.047899738 0.076849245 -0.031967588
00000000: d4e2 26bd 17c8 103e 4ad6 cb3c d107 003d
00000010: 007e f73c 8432 443d 2363 9d3d 72f0 02bd

layers.2.conv2.weight_g f4 [8, 1, 1, 1]
0.5875235 0.77814275 0.7010718 0.6939339 0.61491656 0.6794424 0.7741558 0.53872895
00000000: f167 163f 5d34 473f 7179 333f a7a5 313f
00000010: 2c6b 1d3f f0ef 2d3f 132f 463f 24ea 093f

layers.2.conv2.weight_v f4 [8, 4, 3, 3]
-0.06417118 0.13527179 -0.1252362 0.018304022 0.15971202 -0.1354907 -0.068608455 0.030442797
-0.110093914 -0.133652 0.07089144 0.108948685 -0.08073135 -0.11096544 -0.13230172 -0.13599339
0.09947144 0.14688873 -0.059513934 -0.037593205 0.07746103 0.094739676 0.064598076 -0.14400509
-0.1715854 0.09526309 -0.123333775 -0.081787564 -0.14643416 -0.07132037 0.010457877 -0.09562368
-0.039908856 -0.02563196 -0.09226491 0.10325794 0.009776389 -0.0050686053 -0.010557998 0.0035903251
-0.00362538 0.00021179943 0.0035400272 -0.0005608025 -0.0012093241 -0.0009835279 -0.0011130759 -0.0013787504
0.001164686 0.0032119032 -0.001396034 0.00072772463 -0.0014231458 0.00050581864 -0.0048889047 0.08662734
-0.011663398 0.040578842 0.25863454 0.09369203 0.07139343 0.11824562 -0.058387544 -0.05215162
0.24890804 -0.037621297 -0.018973295 0.31476656 -0.005922781 0.06340487 0.21406873 -0.114977546
0.029385902 -0.00081723573 0.026005065 0.04756934 0.0017769048 0.0053346897 0.009134512 -0.031490292
0.015714142 -0.0018400417 -0.0004685643 -0.0016159298 -0.007102691 0.021266926 -0.030254688 0.03694109
0.0015021148 0.002729816 0.06441861 -0.049670063 0.105109006 0.21739356 0.09832763 -0.051333494
-0.018021176 0.03479525 0.09529489 0.18051048 -0.03847407 -0.03111628 0.27857018 0.057068642
0.07538526 0.20362645 -0.14922231 0.16713157 -0.0122395195 -0.008012792 -0.0047612926 0.00046228673
0.06624799 -0.0349932 -0.048581883 -0.025275523 0.062990405 -0.07223537 0.0011656526 -0.01103116
-0.0013909824 4.034679e-05 -0.00041349157 0.014551479 0.028364653 -0.017318733 0.11529122 -0.02085403
-0.029959114 0.03293692 -0.018918552 0.025932174 -0.05789029 0.088838674 0.13942814 0.12729198
-0.07906158 -0.022440488 0.34032068 0.034284912 -0.118180364 0.09833233 0.04999308 -0.029774694
0.08088776 0.029140137 -0.016046356 0.0032821046 0.028841287 0.044265 0.01866231 0.018772857
0.022929365 0.0383865 0.0007717684 0.049761552 -0.07040845 -0.015130706 0.08098937 0.06697244
-0.00018639043 0.0003120754 0.026705502 0.06727878 0.052117243 0.064288616 0.13094307 -0.10992735
0.1784298 0.1764005 0.038852904 -0.07833491 0.0009016805 0.068525575 0.22178909 0.003344949
-0.022554738 0.012393774 0.1507532 0.019756034 -0.0037759813 -0.0068572136 -0.00074040785 -0.011119395
-0.0026917288 -0.00932119 0.019383674 0.01701375 0.062544525 -0.045728248 0.0021858804 -0.035599824
0.0035556406 0.015380307 -0.001379365 0.003747809 0.0023790912 0.025077661 -0.061122395 -0.1045599
-0.1093242 -0.0034043067 -0.074319094 -0.013484745 0.10361388 0.14475232 -0.108051255 -0.030040137
0.019050397 -0.026053444 0.21316825 -0.009371803 0.0014634288 0.25590414 0.053952087 0.04437551
-0.0066258386 0.0072798277 -0.00059823855 -0.019467358 0.0068469 -0.0024571426 0.0066579445 0.0009910944
0.00084276515 -0.0013375347 -0.016127903 0.018098183 -0.009537227 0.005690631 0.0057821716 -0.014513884
0.0037166374 0.0006604235 0.03645658 -0.10746604 0.12683062 0.1623238 -0.061425813 0.17666972
0.049648542 0.002502716 0.1584945 0.16413696 -0.031107482 0.16776326 0.15769675 -0.049148213
0.18164623 0.108644925 0.021457823 0.17990279 -0.13658978 0.16671377 -0.009111867 -0.10661102
00000000: 2e6c 83bd b084 0a3e eb3d 00be 51f2 953c
00000010: 8c8b 233e 13be 0abe 9782 8cbd 2c63 f93c
00000020: eb78 e1bd 12dc 08be 882f 913d 7d20 df3d
00000030: 7a56 a5bd d941 e3bd 1a7a 07be da41 0bbe
00000040: afb7 cb3d 006a 163e e2c4 73bd 55fb 19bd
00000050: e3a3 9e3d e006 c23d ff4b 843d 1276 13be
00000060: 15b4 2fbe 4c19 c33d 6b96 fcbd 3d80 a7bd
00000070: d6f2 15be 6a10 92bd 8457 2b3c 59d6 c3bd
00000080: 7877 23bd 1efa d1bc 63f5 bcbd e678 d33d
00000090: 262d 203c 8b16 a6bb 74fb 2cbc a94b 6b3b
000000a0: c997 6dbb 7a16 5e39 cdff 673b d202 13ba
000000b0: 2f82 9eba b8e9 80ba a1e4 91ba 30b7 b4ba
000000c0: 61a8 983a cb7e 523b 21fb b6ba c6c4 3e3a
000000d0: d988 baba ea98 043a 1b33 a0bb ad69 b13d
000000e0: d617 3fbc 0036 263d bf6b 843e 9be1 bf3d
000000f0: b836 923d c22a f23d c727 6fbd f09c 55bd
00000100: c0e1 7e3e ca18 1abd e26d 9bbc 1529 a13e
00000110: e313 c2bb 6ada 813d d534 5b3e 5979 ebbd
00000120: b4ba f03c c33b 56ba 9308 d53c 11d8 423d
00000130: 08e7 e83a 9fce ae3b eca8 153c f7fb 00bd
00000140: f2ba 803c 8e2d f1ba a3a9 f5b9 9bcd d3ba
00000150: b1bd e8bb fa37 ae3c aed8 f7bc 8a4f 173d
00000160: 9ce2 c43a b6e6 323b e7ed 833d d672 4bbd
00000170: 6443 d73d 6b9c 5e3e ff5f c93d 1243 52bd
00000180: 25a1 93bc 7785 0e3d f829 c33d bdd7 383e
00000190: fd96 1dbd 92e7 febc c0a0 8e3e cfc0 693d
000001a0: 9663 9a3d 7483 503e bccd 18be 8a24 2b3e
000001b0: 4488 48bc 1648 03bc 9e04 9cbb 135f f239
000001c0: 07ad 873d 0855 0fbd ccfd 46bd 9d0e cfbc
000001d0: 1d01 813d 23f0 93bd d0c8 983a 0abc 34bc
000001e0: a051 b6ba 093a 2938 e6c9 d8b9 5469 6e3c
000001f0: fd5c e83c 04e0 8dbc ce1d ec3d 12d6 aabc
00000200: d16c f5bc dde8 063d 14fb 9abc b66f d43c
00000210: 5e1e 6dbd 0df1 b53d 40c6 0e3e d458 023e
00000220: 0aeb a1bd 1dd5 b7bc 833e ae3e 566e 0c3d
00000230: 8c08 f2bd 7662 c93d 8bc5 4c3d 0fea f3bc
00000240: 7ba8 a53d 4cb7 ee3c a673 83bc 9418 573b
00000250: 9044 ec3c 374f 353d b3e1 983c 89c9 993c
00000260: 5dd6 bb3c 2a3b 1d3d 8050 4a3a c5d2 4b3d
00000270: 4e32 90bd c8e6 77bc c1dd a53d d928 893d
00000280: cd71 43b9 0d9e a339 7fc5 da3c 75c9 893d
00000290: e478 553d c0a9 833d f115 063e 9721 e1bd
000002a0: 4db6 363e 55a2 343e 3924 1f3d 0e6e a0bd
000002b0: c15e 6c3a 2357 8c3d ae1c 633e ef36 5b3b
000002c0: b7c4 b8bc 420f 4b3c 0c5f 1a3e 68d7 a13c
000002d0: 7476 77bb 7ab2 e0bb ee17 42ba 1f2e 36bc
000002e0: b767 30bb e8b7 18bc 83ca 9e3c 6b60 8b3c
000002f0: 5817 803d 8b4d 3bbd fd40 0f3b 1fd1 11bd
00000300: c005 693b affd 7b3c cfcb b4ba cd9d 753b
00000310: 87ea 1b3b ab6f cd3c 7a5b 7abd 8023 d6bd
00000320: 5ee5 dfbd ca1a 5fbb 9c34 98bd 1fef 5cbc
00000330: 8433 d43d f439 143e fa49 ddbd bc16 f6bc
00000340: 940f 9c3c 086e d5bc c748 5a3e 318c 19bc
00000350: 86d0 bf3a de05 833e ddfc 5c3d 18c3 353d
00000360: 901d d9bb 9f8b ee3b 1cd3 1cba 027a 9fbc
00000370: f65b e03b 0308 21bb e32a da3b 9ce7 813a
00000380: 03ed 5c3a 3850 afba aa1e 84bc a442 943c
00000390: 0842 1cbc 7978 ba3b 5f78 bd3b a4cb 6dbc
000003a0: d492 733b 4520 2d3a 7f53 153d 2817 dcbd
000003b0: e3df 013e 3638 263e a299 7bbd e8e8 343e
000003c0: 455c 4b3d 9b04 243b 624c 223e 8513 283e
000003d0: 1ed5 febc 22ca 2b3e 427b 213e a34f 49bd
000003e0: 7801 3a3e 3b81 de3d 51c8 af3c 7038 383e
000003f0: 31de 0bbe 04b7 2a3e f149 15bc e156 dabd

layers.2.conv3.bias f4 [8]
-0.0047883643 0.00980424 -0.0020537474 -0.012227088 0.021841832 -0.016146516 -0.018609826 -0.003636782
00000000: b6e7 9cbb f7a1 203c 2a98 06bb 2054 48bc
00000010: a4ed b23c b345 84bc a273 98bc 1457 6ebb

layers.2.conv3.weight_g f4 [8, 1, 1, 1]
0.5864477 0.5673695 0.56309104 0.7092442 0.57626635 0.74015117 0.73232985 0.6278929
00000000: 7021 163f 213f 113f bc26 103f 0791 353f
00000010: 3186 133f 8c7a 3d3f f879 3b3f 97bd 203f

layers.2.conv3.weight_v f4 [8, 8, 3, 3]
0.07653483 0.08700451 -0.07088504 0.039132494 0.059993945 0.0936115 0.072067454 -0.085577406
0.08360483 -0.0658032 -0.015801774 -0.038310237 -0.102739014 0.103386834 0.03507925 0.05763095
-0.029136233 0.08959479 -0.00037864607 -0.036145564 0.024117278 0.014107762 -0.018976217 0.10590408
0.043964487 0.081497416 0.08238761 0.011280436 -0.07505522 -0.02229289 -0.048820168 -0.09178396
0.055331744 -0.10960206 0.0011517807 -0.021309914 0.071381114 -0.09358517 0.0076891887 -0.0885068
0.055260494 0.012204825 -0.08974266 0.105438836 -0.06382766 -0.039915357 -0.011939857 0.056759924
0.032876905 -0.08412705 -0.071757115 -0.12665574 0.047785252 -0.082597874 0.09743232 0.106639035
0.01722045 -0.114892766 0.032310188 -0.00014020718 -0.038900804 0.026224528 -0.09047974 0.0054195323
0.077002674 0.029438395 -0.034280524 -0.07747375 -0.05789193 0.03548641 -0.018611845 0.102345206
-0.07325206 -0.00945403 0.102223545 0.043479107 0.1068122 0.039267592 -0.10306611 0.0349016
-0.054084156 0.112586014 0.11699481 -0.046859883 -0.02849687 -0.0037494537 0.08118119 -0.03647483
0.10838384 -0.04320118 -0.06052867 0.06734223 0.0642962 0.056451146 0.11336452 0.030360518
0.034576833 0.038162064 0.10074291 0.018539848 -0.0627098 -0.09109718 0.08159277 -0.07605969
0.08009414 0.059878152 -0.027076125 0.0034915984 -0.041835032 -0.032064684 -0.10691779 -0.05417097
0.022350417 0.05408794 -0.08839262 0.10916695 -0.10432529 -0.07125767 0.055127244 -0.007694145
-0.08633901 -0.097939834 0.0059457263 -0.07444065 0.01604357 -0.023948532 0.045335617 0.07265189
0.1208933 0.073377535 -0.10099909 0.026249593 -0.06398677 0.12147588 0.019505017 0.0036375865
-0.07610467 -0.015046129 0.07541957 -0.014877024 0.01670816 0.017063651 0.088162445 -0.016488625
0.035460066 0.08734752 -0.06258153 0.03637316 0.0049433946 -0.06619509 0.031051518 -0.0026971097
-0.10913179 0.06350353 -0.068391874 -0.0076018116 0.082511686 0.0113093415 -0.0772877 0.058281336
0.0371391 -0.07244346 0.06409769 0.07352422 0.025545157 -0.012910067 -0.14131784 -0.04633778
-0.0076492196 -0.012830456 0.007412467 0.035105705 -0.027375842 -0.1288538 0.0334728 0.06349336
-0.009508967 0.02905987 0.06841588 -0.10753216 0.076119475 -0.12118737 0.09304419 0.048431683
-0.023800958 0.10665362 -0.10378554 0.060823422 -0.015340357 -0.05606668 0.015360224 0.027580505
0.07093555 -0.04819931 0.06468976 -0.07160238 -0.012435216 -0.036583755 -0.08007877 -0.08182997
0.027120842 -0.052583117 -0.031731803 0.12002286 0.05296766 -0.07538583 0.028753906 0.10350154
-0.008291017 0.07251966 -0.105945356 0.096673004 -0.06671347 0.003528778 -0.026347362 0.049840573
0.0008395997 0.00075273524 -0.00034481892 -0.0023261928 -0.0009708718 0.0012001499 -0.0011811376 0.00048603944
-0.00072598085 0.023925928 -0.09261936 0.10979195 -0.003856902 -0.25619975 0.067319945 -0.07982214
-0.0866177 0.08052653 -0.059298683 0.007857585 -0.028301582 -0.10209913 0.02095771 -0.12372734
-0.002780701 -0.057814185 -0.07222025 -0.03903334 -0.012438035 -0.036627006 -0.04814704 -0.058255877
-0.08388638 0.018112961 -0.053967293 -0.067782335 -0.03970596 -0.04512113 -0.038562592 -0.06593992
00000000: 4bbe 9c3d 6c2f b23d 2d2c 91bd 6549 203d
00000010: 36bc 753d 63b7 bf3d 1a98 933d 3543 afbd
00000020: 0239 ab3d d4c3 86bd b972 81bc 32eb 1cbd
00000030: d568 d2bd 7abc d33d 42af 0f3d 6e0e 6c3d
00000040: 1caf eebc 797d b73d 0485 c6b9 5f0d 14bd
00000050: 9991 c53c 3e24 673c 0374 9bbc 3de4 d83d
00000060: 1b14 343d 1ee8 a63d d6ba a83d 94d1 383c
00000070: 8db6 99bd 949f b6bc a8f7 47bd 3bf9 bbbd
00000080: 8aa3 623d 0b77 e0bd 59f7 963a 2192 aebc
00000090: 4330 923d 95a9 bfbd 97f5 fb3b 0e43 b5bd
000000a0: d458 623d bff6 473c 00cb b7bd 51f0 d73d
000000b0: 14b8 82bd 497e 23bd 649f 43bc 187d 683d
000000c0: efa9 063d ce4a acbd 65f5 92bd 0bb2 01be
000000d0: 78ba 433d 1329 a9bd 998a c73d 9165 da3d
000000e0: e711 8d3c e64c ebbd b057 043d 9404 13b9
000000f0: 7356 1fbd d2d4 d63c 714d b9bd 5596 b13b
00000100: 94b3 9d3d ca28 f13c bc69 0cbd 8faa 9ebd
00000110: 1720 6dbd 335a 113d de77 98bc 5d9a d13d
00000120: 2d05 96bd 13e5 1abc 945a d13d 2617 323d
00000130: 5bc0 da3d 0ed7 203d 5314 d3bd fbf4 0e3d
00000140: 5987 5dbd 7f93 e63d fa9a ef3d 26f0 3fbd
00000150: 4572 e9bc 65b9 75bb 5342 a63d a266 15bd
00000160: 59f8 dd3d b8f3 30bd e9ec 77bd b9ea 893d
00000170: baad 833d 5139 673d a82b e83d 9fb6 f83c
00000180: 70a0 0d3d d34f 1c3d 4c52 ce3d e1e0 973c
00000190: ff6d 80bd 2991 babd 1c1a a73d 2fc5 9bbd
000001a0: 6508 a43d cb42 753d c0ce ddbc 4dd3 643b
000001b0: 365b 2bbd 4256 03bd b7f7 dabd 61e2 5dbd
000001c0: 3918 b73c 518b 5d3d 3107 b5bd ec92 df3d
000001d0: 7fa8 d5bd 8bef 91bd 1bcd 613d 2b1f fcbb
000001e0: 82d2 b0bd ae94 c8bd 5ed4 c23b 5774 98bd
000001f0: ce6d 833c b62f c4bc d7b1 393d 84ca 943d
00000200: e896 f73d f646 963d 9cd8 cebd 6309 d73c
00000210: 7f0b 83bd 59c8 f83d fcc8 9f3c 9364 6e3b
00000220: c4dc 9bbd 0a84 76bc 9375 9a3d c3be 73bc
00000230: 8ddf 883c 12c9 8b3c 838e b43d 2713 87bc
00000240: 933e 113d 42e3 b23d bf2a 80bd 06fc 143d
00000250: 33fc a13b 4b91 87bd c15f fe3c fec1 30bb
00000260: 7d80 dfbd 240e 823d 0a11 8cbd 9e18 f9bb
00000270: e3fb a83d d14a 393c 0349 9ebd 69b8 6e3d
00000280: 2b1f 183d 3d5d 94bd a645 833d de93 963d
00000290: 1444 d13c bf84 53bc a0b5 10be afcc 3dbd
000002a0: 4ea6 fabb d536 52bc 48e4 f23b 00cb 0f3d
000002b0: 4d43 e0bc 40f2 03be c61a 093d cf08 823d
000002c0: 80cb 1bbc f70e ee3c a01d 8c3d d239 dcbd
000002d0: 87e4 9b3d 1531 f8bd f48d be3d 4d60 463d
000002e0: 3afa c2bc 376d da3d 838d d4bd fb21 793d
000002f0: 1f56 7bbc 2da6 65bd 73a9 7b3c 83f0 e13c
00000300: a846 913d a46c 45bd 117c 843d 45a4 92bd
00000310: 14bd 4bbc d9d8 15bd 5700 a4bd 7996 a7bd
00000320: 872c de3c 6561 57bd 35f9 01bd 8cce f53d
00000330: 9ef4 583d e363 9abd 508d eb3c 9ef8 d33d
00000340: 0cd7 07bc 3085 943d e1f9 d8bd 7ffc c53d
00000350: 12a1 88bd 1243 673b 6cd6 d7bc a125 4c3d
00000360: 9518 5c3a 3553 453a d0c8 b4b9 0a73 18bb
00000370: 1b82 7eba 594e 9d3a 67d0 9aba 1cd3 fe39
00000380: c04f 3eba 4f00 c43c 38af bdbd 9ada e03d
00000390: 14c4 7cbb 9d2c 83be 0adf 893d ca79 a3bd
000003a0: 9f64 b1bd 18eb a43d 2de3 72bd 1abd 003c
000003b0: b8d8 e7bc 5919 d1bd 81af ab3c c264 fdbd
000003c0: 6c3c 36bb 91ce 6cbd 36e8 93bd 6ce1 1fbd
000003d0: e6c8 4bbc 3306 16bd d535 45bd b79d 6ebd
000003e0: 9fcc abbd a261 943c cf0c 5dbd 77d1 8abd
000003f0: b7a2 22bd efd0 38bd cff3 1dbd 820b 87bd

layers.3.conv1.weight f4 [16, 8, 1, 1]
0.09550794 0.13261046 -0.1444749 -0.09031463 -0.34791237 -0.073546745 -0.05798534 -0.11537702
-0.31320077 -0.23197773 0.034265075 0.4020719 0.21032023 0.3516724 -0.03558448 0.30886236
-0.069718085 0.18203095 0.15006 0.33288023 0.27594253 0.20875514 0.28794318 0.33603072
-0.22004788 0.2730289 0.01589463 -0.2517821 -0.16638027 -0.13712573 -0.076470815 0.022574259
0.29387295 -0.32249078 0.1655943 -0.02044725 -0.28402174 0.33794826 -0.054542806 0.39892268
0.2828276 -0.16875084 0.28737816 -0.11970313 0.2567008 0.055975504 0.33633947 0.20073177
0.2270052 -0.30246612 0.062382966 -0.267001 -0.106140874 0.106927 -0.054315925 -0.35345745
0.11638982 -0.0053971433 -0.11885189 -0.30367732 -0.050917506 0.29872426 -0.12592982 -0.29027432
0.19352536 -0.056979295 -0.14513263 0.4275425 0.070891954 0.086995035 -0.15349092 0.2963311
0.3269175 0.17399344 -0.292223 -0.15020454 0.32406345 -0.16134493 0.27399528 0.042761102
0.22693665 -0.30908057 0.24870521 -0.00013197096 -0.34206787 -0.14998946 0.3079809 0.18180715
0.26303193 0.28080842 -0.3282323 0.40330988 0.24635579 0.124411635 0.3058222 -0.04947603
0.27222884 0.05545678 0.272537 -0.06853899 0.066062234 0.024712324 -0.3449231 -0.3115752
-0.031858537 0.2098946 -0.06860442 -0.1242929 -0.06791494 -0.119649775 0.15640599 0.16983783
0.105177484 -0.010625106 -0.086938664 0.37192023 0.09351594 0.46132845 0.50160044 0.41100746
0.31316596 0.30416587 0.11932683 0.25414032 0.24678665 -0.08283026 -0.018196536 0.21690585
00000000: ab99 c33d 09cb 073e 3af1 13be e0f6 b8bd
00000010: 9221 b2be ad9f 96bd 0982 6dbd c94a ecbd
00000020: da5b a0be 928b 6dbe 8959 0c3d 5edc cd3e
00000030: 305e 573e 680e b43e 08c1 11bd 3523 9e3e
00000040: 5bc8 8ebd 5266 3a3e 54a9 193e 476f aa3e
00000050: 5748 8d3e e8c3 553e 4a6d 933e 380c ac3e
00000060: 3b54 61be 72ca 8b3e 7535 823c 95e9 80be
00000070: 975f 2abe b06a 0cbe bb9c 9cbd a7ed b83c
00000080: 8476 963e 831d a5be 8d91 293e fe80 a7bc
00000090: 4c6b 91be 8e07 ad3e 4768 5fbd 983f cc3e
000000a0: c7ce 903e 05cd 2cbe 3b23 933e ea26 f5bd
000000b0: 4a6e 833e 9246 653d b034 ac3e a18c 4d3e
000000c0: 0d74 683e d7dc 9abe 4885 7f3d 5bb4 88be
000000d0: 6360 d9bd 8bfc da3d 607a 5ebd 60f8 b4be
000000e0: c95d ee3d 85da b0bb 9f68 f3bd 987b 9bbe
000000f0: e08e 50bd 63f2 983e bff3 00be d69e 94be
00000100: 832b 463e 1f63 69bd a69d 14be dae6 da3e
00000110: cd2f 913d 742a b23d b92c 1dbe b6b8 973e
00000120: bb61 a73e 562b 323e 419e 95be 38cf 19be
00000130: a5eb a53e 9b37 25be 1c49 8c3e 4426 2f3d
00000140: 1562 683e cf3f 9ebe 94ac 7e3e af61 0ab9
00000150: 8523 afbe d696 19be acaf 9d3e a72b 3a3e
00000160: 1fac 863e 1fc6 8f3e 100e a8be a27e ce3e
00000170: b144 7c3e 87cb fe3d ba94 9c3e 61a7 4abd
00000180: 9461 8b3e a626 633d f889 8b3e 2c5e 8cbd
00000190: a34b 873d 8071 ca3c c399 b0be c986 9fbe
000001a0: 197e 02bd 9cee 563e 7980 8cbd 478d febd
000001b0: fd16 8bbd f10a f5bd e428 203e f8e9 2d3e
000001c0: 4b67 d73d ed14 2ebc e60c b2bd 546c be3e
000001d0: 4985 bf3d 3e33 ec3e e368 003f 926f d23e
000001e0: 4a57 a03e a1bb 9b3e a061 f43d ae1e 823e
000001f0: a4b5 7c3e e9a2 a9bd e710 95bc 911c 5e3e

layers.3.conv1.bias f4 [16]
-0.019568678 -0.00909704 0.05104688 -0.020025117 0.000579271 0.014284485 0.05086162 -0.0012718886
-0.008829731 -0.01626186 -0.027199576 -0.014961239 -0.0028058842 -0.011884931 0.036406025 0.038441423
00000000: 7e4e a0bc c00b 15bc 8916 513d b70b a4bc
00000010: 38da 173a 7909 6a3c 4654 503d 80b5 a6ba
00000020: 93aa 10bc 9837 85bc a5d1 debc fc1f 75bc
00000030: ede2 37bb 03b9 42bc 7c1e 153d c174 1d3d

layers.3.conv2.bias f4 [16]
0.0005524491 0.0634681 0.024168491 0.09502756 -0.014373497 0.045957174 0.08898958 0.0971076
0.075887315 -0.00272871 0.08897479 0.014420031 -0.013437361 0.06557747 -0.009376297 0.066210195
00000000: 3bd2 103a 90fb 813d 00fd c53c cf9d c23d
00000010: d17e 6bbc 973d 3c3d 2b40 b63d 59e0 c63d
00000020: cf6a 9b3d 28d4 32bb 6a38 b63d fe41 6c3c
00000030: 6128 5cbc 7b4d 863d 0a9f 19bc 3699 873d

layers.3.conv2.weight_g f4 [16, 1, 1, 1]
0.72067547 0.8099381 0.81410986 0.7493517 0.72132885 0.7001926 0.7298346 0.7476496
0.78027034 0.6994862 0.7322328 0.77883923 0.73067707 0.7772233 0.6609986 0.8032448
00000000: 307e 383f 1a58 4f3f 8169 503f 83d5 3f3f
00000010: 02a9 383f d23f 333f 71d6 3a3f f765 3f3f
00000020: ccbf 473f 8711 333f 9c73 3b3f 0262 473f
00000030: a70d 3b3f 1bf8 463f 3437 293f 74a1 4d3f

layers.3.conv2.weight_v f4 [16, 8, 3, 3]
0.023790369 0.0047154007 0.0018994695 0.005464496 -0.0009429931 0.006623398 0.009467234 0.007812662
-0.0030627565 -0.00023654499 0.00048538126 -0.00030884123 0.003429049 -0.00040530693 -0.015989875 0.014247622
0.0010372497 0.0022987977 -0.0039903233 -0.0014248383 0.00468972 -0.0008032322 -0.0035907698 -0.006218137
0.0145436535 0.0012832421 0.012158452 0.18064183 -0.1313451 -0.04678912 0.052029893 -0.030750388
-0.037965372 -0.050070617 -0.063515514 -0.035272416 0.00041225902 0.0013875715 0.01607107 -0.0018154784
0.024329629 0.0004197707 0.005192448 -0.0030964417 -0.008474719 -0.013634051 -0.048640978 -0.0014842943
0.11725227 0.02398379 0.0022657926 0.12333629 -0.020704258 -0.0791692 0.07104803 -0.06779441
-0.06907667 -0.043672018 0.07817617 -0.04841469 0.085357495 -0.024775622 0.036603674 0.03253213
-0.04020666 -0.012587452 0.024598302 -0.02273706 -0.023782028 0.010160229 -0.027173478 -0.027909175
0.0010960882 -0.0011969559 -0.010374045 0.00034411083 0.0032528813 -0.0075290226 -0.0064828317 -0.0030923856
0.0017088375 0.00051548175 0.00076564524 0.00030305854 -0.0007901812 0.00033650812 0.00016401253 0.00083634077
-0.00017309905 0.00014091787 0.007586677 0.0003331179 0.011170419 0.008624438 0.008283575 0.006703151
0.0068428186 0.006906582 -0.005940253 -0.09275371 -0.106135935 0.027145673 0.09054577 -0.056939177
0.2035229 0.16721249 -0.069253735 0.11825962 -0.0004067 -0.00052840007 -0.00090417557 -0.00075101573
2.033332e-05 -0.0006711731 -0.0018050655 -9.760557e-07 -0.000556958 -0.05025006 -0.04880806 -0.011299326
0.036427975 -0.016870514 0.09502198 0.06256673 -0.0030622606 0.09326595 -0.039266553 -0.048367437
-0.006698457 0.025293307 -0.021259924 0.099317744 0.07188079 0.006201124 0.1045053 -0.016927809
0.022186665 0.03737325 -0.009375744 0.019694641 0.03537897 -0.0037979442 0.01786177 -0.002642929
0.0064939302 0.0016185242 -0.0026720914 0.0051188245 -0.0032035275 -0.0067620245 -0.014156599 -0.004242106
0.010440641 -2.386546e-05 0.00017695126 -0.004332719 -0.0008452334 -0.0018591257 0.00040878265 0.005396633
0.00019138622 -0.00095802324 0.016265005 0.011433872 0.02482756 0.012648646 0.024265327 0.002555387
0.013563865 0.008661799 -0.013972311 -0.031536326 -0.06251598 0.036178548 0.084891245 -0.02151538
0.19163838 0.19241829 0.07936289 0.15559947 0.00014205811 0.00024262593 -0.00046746244 0.0018399254
-0.0004924108 -0.0033502944 0.00039851293 -0.00016080013 -0.00025957462 0.031127088 -0.07721557 -0.031195965
0.06284687 0.016626 0.110258095 0.13483785 0.028254256 0.08911124 -0.014918613 -0.06127755
0.0043743113 0.046678424 0.014544477 0.09432215 0.098263904 0.05687894 0.08683837 -0.01894818
-0.0012600081 0.03191547 0.0022972536 0.00022896541 0.032807335 0.023623832 -0.015319181 -0.03259156
0.0019708467 0.0007367357 -0.0052150614 0.004032971 0.005156227 -0.006137548 -0.005639044 0.002739025
0.0038002846 0.0020041005 0.0016743365 0.00017005346 0.0016927735 0.000956687 0.0012293197 -0.00013135976
-0.0008646135 -5.5932116e-05 0.01559197 -0.0016216494 0.012269664 0.017064525 -0.0007621957 0.0040252046
0.01934176 -0.0011883179 -0.009110401 -0.16178173 0.007069545 0.031493425 -0.06392999 -0.036568858
0.12386507 0.10923507 0.11705553 0.024220958 -0.0011043175 -0.00013994037 -0.0019014552 -1.5222712e-05
00000000: 05e4 c23c a683 9a3b 9ff7 f83a 840f b33b
00000010: 3233 77ba 1709 d93b 751c 1b3c ae00 003c
00000020: 87b8 48bb 1009 78b9 c57a fe39 f8eb a1b9
00000030: e5b9 603b 607f d4b9 33fd 82bc dc6e 693c
00000040: 53f4 873a 6da7 163b 42c1 82bb a4c1 baba
00000050: 39ac 993b 0090 52ba 1f53 6bbb 84c1 cbbb
00000060: 8148 6e3c 7632 a83a 3e34 473c 2cfa 383e
00000070: 547f 06be f3a5 3fbd 4c1d 553d 3de8 fbbc
00000080: 9481 1bbd d916 4dbd 6c14 82bd cf79 10bd
00000090: 7824 d839 2cdf b53a 7aa7 833c 59f5 edba
000000a0: ee4e c73c ab14 dc39 6925 aa3b aced 4abb
000000b0: 8cd9 0abc 5b61 5fbc c33b 47bd a78c c2ba
000000c0: f521 f03d a779 c43c b17d 143b bd97 fc3d
000000d0: fa9b a9bc 7623 a2bd a181 913d ccd7 8abd
000000e0: 1278 8dbd 6ee1 32bd d41a a03d 7b4e 46bd
000000f0: e9cf ae3d 3ff6 cabc bced 153d 6940 053d
00000100: bdaf 24bd 9a3b 4ebc 6182 c93c 1243 babc
00000110: 87d2 c2bc 1777 263c ea9a debc c8a1 e4bc
00000120: 9eaa 8f3a 2de3 9cba e6f7 29bc c669 b439
00000130: 4b2e 553b 05b6 f6bb ef6d d4bb 9fa9 4abb
00000140: 12fb df3a 6521 073a 95b5 483a d4e3 9e39
00000150: 2a24 4fba 5b6d b039 c7fa 2b39 e13d 5b3a
00000160: ec81 35b9 5ac3 1339 a999 f83b 54a6 ae39
00000170: 2204 373c 844d 0d3c d5b7 073c 1ba6 db3b
00000180: b939 e03b 9c50 e23b 74a6 c2bb a8f5 bdbd
00000190: cc5d d9bd 9a60 de3c 1070 b93d 0e39 69bd
000001a0: 4f68 503e c039 2b3e e7d4 8dbd 1a32 f23d
000001b0: 5a3a d5b9 5484 0aba 3206 6dba d0df 44ba
000001c0: 7991 aa37 aaf1 2fba f397 ecba 0501 83b5
000001d0: d200 12ba 02d3 4dbd f6ea 47bd cf20 39bc
000001e0: 8035 153d 0834 8abc e29a c23d fc22 803d
000001f0: 35b0 48bb 3802 bf3d f7d5 20bd ef1c 46bd
00000200: bb7e dbbb e933 cf3c 4b29 aebc 1a67 cb3d
00000210: 3c36 933d cc32 cb3b e006 d63d 30ac 8abc
00000220: cfc0 b53c b114 193d b89c 19bc a856 a13c
00000230: 8ae9 103d eee6 78bb d952 923c fe34 2dbb
00000240: 09cb d43b a924 d43a 411e 2fbb d0bb a73b
00000250: 46f2 51bb f993 ddbb 14f1 67bc 5d01 8bbb
00000260: 390f 2b3c af32 c8b7 fe8b 3939 7bf9 8dbb
00000270: a792 5dba e8ad f3ba e151 d639 3dd6 b03b
00000280: d9ae 4839 da23 7bba 303e 853c 2355 3b3c
00000290: 2b63 cb3c 443c 4f3c 14c8 c63c 4878 273b
000002a0: f93a 5e3c 38ea 0d3c 1fec 64bc 3c2c 01bd
000002b0: 6108 80bd f52f 143d 76db ad3d 0641 b0bc
000002c0: da3c 443e 4d09 453e 0389 a23d 7855 1f3e
000002d0: 6ff5 1439 6769 7e39 bf15 f5b9 a729 f13a
000002e0: 2115 01ba 9d90 5bbb 80ef d039 759c 28b9
000002f0: 8417 88b9 3cfe fe3c 3223 9ebd ae8e ffbc
00000300: dcb5 803d 4033 883c ffce e13d ef12 0a3e
00000310: 7875 e73c f47f b63d 336d 74bc 2bfe 7abd
00000320: 6256 8f3b e031 3f3d f54b 6e3c f92b c13d
00000330: 963e c93d e4f9 683d 51d8 b13d 3739 9bbc
00000340: db26 a5ba ccb9 023d 858d 163b 6f16 7039
00000350: fc60 063d c486 c13c 4dfd 7abc ba7e 05bd
00000360: 5229 013b 7f21 413a 1be3 aabb 0327 843b
00000370: 91f5 a83b 7c1d c9bb bbc7 b8bb 3781 333b
00000380: 320e 793b 3a57 033b 6975 db3a 6150 3239
00000390: 0ee0 dd3a 2eca 7a3a 2021 a13a 9ebd 09b9
000003a0: 3ba7 62ba a798 6ab8 7675 7f3c 868d d4ba
000003b0: b306 493c e7ca 8b3c 16ce 47ba dde5 833b
000003c0: 9c72 9e3c 55c1 9bba cb43 15bc 1caa 25be
000003d0: a4a7 e73b 40ff 003d baed 82bd 3ac9 15bd
000003e0: f8ac fd3d a3b6 df3d cfba ef3d 086b c63c
000003f0: bfbe 90ba f5bc 12b9 403a f9ba 0d65 7fb7

layers.3.conv3.bias f4 [16]
0.01685604 0.0041868365 -0.05829589 0.020161962 -0.0018162087 -0.014751412 -0.04863219 0.00038624063
0.0011617978 0.026290376 0.02632836 0.015200877 0.0028690358 0.013014024 -0.037060093 -0.03778855
00000000: ae15 8a3c bb31 893b acc7 6ebd b32a a53c
00000010: da0d eeba e8af 71bc 8c32 47bd 5780 ca39
00000020: 7747 983a ea5e d73c 93ae d73c 190d 793c
00000030: 6f06 3c3b c638 553c 53cc 17bd 2bc8 1abd

layers.3.conv3.weight_g f4 [16, 1, 1, 1]
0.5974843 0.69703686 0.70867157 0.56228757 0.6291536 0.7085029 0.58795106 0.5930203
0.67769057 0.59975463 0.60904545 0.68966776 0.54277134 0.5483152 0.7547461 0.6563055
00000000: bbf4 183f 0271 323f 806b 353f 14f2 0f3f
00000010: 3610 213f 7260 353f f683 163f 2ed0 173f
00000020: 217d 2d3f 8589 193f 67ea 1b3f 118e 303f
00000030: 10f3 0a3f 635e 0c3f 0a37 413f a303 283f

layers.3.conv3.weight_v f4 [16, 16, 3, 3]
-0.0015729754 0.08423737 0.09223131 0.083240055 0.04674732 0.07382071 0.074679606 0.01210058
0.052246112 -0.040366665 0.07004321 0.058083814 0.03855387 0.049025413 0.09301476 -0.0009972727
-0.043839466 0.0791089 0.04071817 -0.02398619 0.049020693 -0.004195453 0.08534572 0.08080802
-0.055383254 -0.04890882 0.04159973 0.0056827604 -0.03721219 0.078231886 0.028299334 0.07786704
0.07355057 0.08141389 -0.05025465 0.09019978 0.059136104 0.027257973 -0.024934387 0.014455964
0.07586505 0.05094155 0.007281487 0.051935688 -0.05814972 0.0063643577 -0.06756808 0.01585796
-0.020991154 -0.007920538 0.023328857 -0.04488826 -0.03988299 -0.06411699 0.028675452 -0.051154844
-0.019322643 0.01985942 0.05570166 0.089255445 0.044923496 0.0009456758 -0.052405138 -0.039680034
0.093529046 -0.038778957 -0.04814102 -0.010811359 -0.04557415 0.035833705 0.024456188 0.042607926
0.06839419 0.0908377 0.013384834 -0.010339789 -0.0683166 0.093500696 0.07951508 0.015752438
-0.043224618 -0.02446355 0.062103435 0.0042813797 0.061738964 0.07661596 0.03259722 -0.032635704
-0.04614784 0.08343343 0.0064806356 -0.04590878 -0.006461095 0.072986454 -0.031149471 0.06599247
-0.05892687 0.045940142 -0.053178243 -0.031303592 -0.06435306 0.06127136 0.029445928 -0.02141684
0.0819659 -0.058357008 0.05340015 0.046902616 0.0633675 -0.085995 0.013592615 -0.024519399
0.06386898 -0.03672927 0.0057478645 -0.019713875 -0.044253387 -0.075376235 -0.05166781 -0.047521606
-0.01620639 -0.025387691 -0.06926467 0.08173464 0.07468656 0.08261929 0.049899176 0.009800069
-0.026906444 -0.0308902 -0.045934588 -0.059855882 0.030304119 -0.026428424 -0.017696023 0.0367057
-0.05487026 0.0936106 0.042426262 -0.028715318 0.08731413 -0.030033847 -0.06034016 0.04153965
-0.01626539 0.006181786 0.016620805 -0.0019741352 -0.00065062655 0.0055337055 0.006402538 -0.009920956
-0.027735911 -0.15223889 -0.00838179 -0.06927287 -0.05565141 -0.0049828487 0.0037497263 0.0019492393
0.036805555 0.087801106 -0.19031806 -0.029021483 -0.060329758 -0.099972 -0.0008953469 -0.043418404
-0.040840548 0.056498617 0.008766306 -0.031959902 -0.0234429 -0.025788832 -0.051631667 0.001838489
0.05786491 0.03606394 -0.007473475 0.08394636 0.013512163 0.026479477 0.029532833 -0.015475421
-0.013485536 -0.038924687 -0.06547069 -0.08235191 -0.15403259 0.046580713 -0.08629113 -0.050393227
0.04161569 -0.016895173 -0.05063677 0.0605673 -0.0139917005 -0.013789144 -0.023298793 -0.002462647
0.08611926 -0.036678024 -0.05306266 0.006504576 -0.10011832 -0.037133954 0.012132735 -0.07664769
0.061906595 0.08004514 -0.012193555 0.0006517396 0.03499699 -0.008739707 0.03317894 0.053955223
0.019825837 0.0058390438 -0.1333592 -0.022449361 0.016220912 -0.013699123 0.013793266 0.060474847
0.057667825 -0.016515825 -0.04536416 0.017486116 -0.019465175 -0.06858526 -0.078249104 -0.05768583
-0.05076193 -0.119542375 0.008964639 -0.103693135 -0.045356352 0.061298456 -0.012404458 0.04075063
0.083482794 0.048102688 0.02111513 -0.014449263 -0.029656678 -0.11724904 -0.10436431 -0.04454377
-0.032504477 -0.033063952 0.022011269 0.030344594 -0.024976693 -0.09998891 0.01921844 -0.06307198
00000000: 4c2c ceba a484 ac3d c5e3 bc3d c379 aa3d
00000010: 1e7a 3f3d 502f 973d 9ff1 983d 8341 463c
00000020: 0500 563d 8457 25bd d172 8f3d 4be9 6d3d
00000030: aaea 1d3d dfce 483d 867e be3d ebb6 82ba
00000040: 0391 33bd d903 a23d 19c8 263d b07e c4bc
00000050: ecc9 483d 037a 89bb bdc9 ae3d ad7e a53d
00000060: 8dd9 62bd 9d54 48bd 7a64 2a3d 7336 ba3b
00000070: cf6b 18bd 0a38 a03d 01d4 e73c c178 9f3d
00000080: aea1 963d 53bc a63d d2d7 4dbd aaba b83d
00000090: b338 723d 1d4c df3c 3343 ccbc b5d8 6c3c
000000a0: 235f 9b3d 16a8 503d 8a99 ee3b 84ba 543d
000000b0: 672e 6ebd 1a8c d03b 2261 8abd 8de8 813c
000000c0: a4f5 abbc 25c5 01bc 291c bf3c c1dc 37bd
000000d0: 595c 23bd c54f 83bd c8e8 ea3c be87 51bd
000000e0: 854a 9ebc 39b0 a23c 6d27 643d 8fcb b63d
000000f0: b301 383d 3be7 773a c5a6 56bd 8887 22bd
00000100: 288c bf3d afd6 1ebd 852f 45bd 2022 31bc
00000110: f6ab 3abd 5dc6 123d 5858 c83c a685 2e3d
00000120: 4112 8c3d 1e09 ba3d 104c 5b3c 3868 29bc
00000130: 93e9 8bbd 4b7d bf3d cdd8 a23d 420b 813c
00000140: 4c0c 31bd c867 c8bc 2c60 7e3d d14a 8c3b
00000150: ffe1 7c3d d4e8 9c3d aa84 053d 04ad 05bd
00000160: 8405 3dbd 25df aa3d 835b d43b d80a 3cbd
00000170: 98b7 d3bb ec79 953d 2d2d ffbc 0f27 873d
00000180: 4d5d 71bd bb2b 3c3d 6ed1 59bd 3238 00bd
00000190: 8acb 83bd adf7 7a3d 9638 f13c 5e72 afbc
000001a0: bddd a73d c207 6fbd 1eba 5a3d f51c 403d
000001b0: d2c6 813d 261e b0bd 8fb3 5e3c e8dc c8bc
000001c0: bdcd 823d 6e71 16bd 9558 bc3b fe7e a1bc
000001d0: 0a43 35bd db5e 9abd a0a1 53bd 04a6 42bd
000001e0: 43c3 84bc d9f9 cfbc a3da 8dbd 7e64 a73d
000001f0: 44f5 983d 4d34 a93d 1463 4c3d 7890 203c
00000200: e76a dcbc 720d fdbc e825 3cbd 712b 75bd
00000210: 5840 f83c 6c80 d8bc 40f7 90bc b758 163d
00000220: a3bf 60bd eab6 bf3d 29c7 2d3d 633c ebbc
00000230: c0d1 b23d 8b09 f6bc 3e27 77bd 7b25 2a3d
00000240: ff3e 85bc 9490 ca3b 5b28 883c 7e60 01bb
00000250: cf8e 2aba 1654 b53b 62cc d13b 818b 22bc
00000260: 6c36 e3bc 83e4 1bbe c653 09bc efde 8dbd
00000270: bcf2 63bd 2a47 a3bb f8bd 753b 9e7d ff3a
00000280: 6cc1 163d 11d1 b33d bde2 42be 76be edbc
00000290: 561c 77bd 1fbe ccbd b7b5 6aba 7fd7 31bd
000002a0: 6b48 27bd 186b 673d 8da0 0f3c 63e8 02bd
000002b0: 530b c0bc 1a43 d3bc ba7b 53bd 74f9 f03a
000002c0: c203 6d3d c8b7 133d 0de4 f4bb 12ec ab3d
000002d0: 1f62 5d3c 7deb d83c d7ee f13c 9f8c 7dbc
000002e0: 70f2 5cbc 7e6f 1fbd 7f15 86bd 1ea8 a8bd
000002f0: b8ba 1dbe 6bcb 3e3d 67b9 b0bd 2169 4ebd
00000300: 3775 2a3d bf67 8abc 8068 4fbd 6b15 783d
00000310: 723d 65bc ddeb 61bc 1cdd bebc 5c64 21bb
00000320: 4b5f b03d b23b 16bd 3b58 59bd 5724 d53b
00000330: d50a cdbd c619 18bd 61c8 463c 77f9 9cbd
00000340: c591 7d3d b5ee a33d 7ac7 47bc 81d9 2a3a
00000350: 0159 0f3d fd30 0fbc a4e6 073d 2700 5d3d
00000360: cb69 a23c 7355 bf3b 508f 08be b9e7 b7bc
00000370: b8e1 843c 4972 60bc 27fd 613c 79b4 773d
00000380: 1935 6c3d 324c 87bc c5cf 39bd 0b3f 8f3c
00000390: 6e75 9fbc 6e76 8cbd 1141 a0bd fa47 6cbd
000003a0: beeb 4fbd a2d2 f4bd 6ce0 123c 115d d4bd
000003b0: 95c7 39bd 1714 7b3d 113c 4bbc 22ea 263d
000003c0: 07f9 aa3d 5307 453d a3f9 ac3c 9abc 6cbc
000003d0: 90f2 f2bc 4420 f0bd f5bc d5bd 8773 36bd
000003e0: 6a23 05bd 116e 07bd fa50 b43c 3a95 f83c
000003f0: ec9b ccbc fcc6 ccbd fd6f 9d3c e22b 81bd

layers.4.conv1.weight f4 [32, 16, 1, 1]
0.17678055 0.09352718 -0.13668583 0.14763653 0.09979014 -0.0814036 0.21546026 0.06955681
0.023799969 -0.11946864 -0.03365849 -0.08940421 0.120946266 0.14639945 -0.18371417 0.1374028
0.20911933 -0.18518436 -0.25179008 -0.061164163 0.16846508 -0.0016271931 -0.20353293 -0.011618857
-0.044003554 0.20320915 -0.24451019 0.043184903 -0.11972458 -0.013303107 -0.21594544 0.18271278
-0.053124648 0.09073639 -0.19305325 -0.18290111 -0.17489557 -0.2410585 0.020031072 -0.21347071
0.19242342 0.029857898 0.19226944 0.09670003 0.021772506 -0.21367519 -0.16785724 0.06289827
-0.14334004 -0.16394028 0.104151584 -0.1421459 -0.1615023 0.16714785 0.18172881 -0.08676341
-0.07362092 0.2406723 -0.2204712 -0.10402762 0.14421809 -0.08726858 0.025486862 0.23800783
0.21140778 -0.18537614 0.05777526 -0.01726916 0.06785168 -0.10066594 -0.016298048 -0.045977477
-0.12797177 0.14575648 -0.23667963 -0.13724819 0.081465095 -0.21740934 -0.0658521 0.09969978
-0.075804986 -0.078348204 -0.20576267 0.13647538 -0.17185904 -0.19077998 -0.019595355 -0.14955468
0.010141665 0.14750321 0.021603964 0.019425903 0.13160686 0.22824304 -0.04859947 -0.01762997
0.06888022 -0.007026651 -0.12603769 0.24039331 -0.22879437 -0.23045212 0.17161687 -0.10115455
0.19470473 0.114927456 0.1080679 -0.09598546 0.07028515 0.18177429 0.05569534 0.14285438
-0.03803571 -0.113207474 -0.12048762 0.24076799 0.11445015 -0.015212027 0.019377226 0.23275818
0.013705578 0.08684842 -0.08124519 -0.0453145 -0.23250851 0.06611212 0.021281507 -0.20996676
0.16828145 -0.11417784 0.044858843 -0.03821131 0.097535364 0.15038426 0.14710376 -0.11899525
-0.047862083 -0.2400316 -0.10664252 -0.23728469 0.2203794 0.12669477 0.023600506 0.10122748
-0.005544697 -0.19526413 0.23622477 0.22500801 -0.19070613 -0.12139307 -0.03726192 -0.1139616
-0.16070208 -0.06893703 0.04920191 -0.13387042 -0.10440885 0.23610014 0.0051350533 -0.14865434
0.0655638 0.02347347 0.17872114 0.18998893 0.16456047 0.23691064 -0.107486896 0.054734156
0.06531011 0.09237618 0.106126055 0.12176634 0.045187764 -0.14033362 -0.0930195 0.020735797
-0.043066584 -0.022942906 0.1803263 0.0956105 0.18820463 -0.12112922 -0.058860295 0.2421092
0.10791355 0.1327652 -0.2294436 0.08214026 -0.041922364 0.11411573 0.087012276 0.06849039
0.25369853 0.2346007 0.2799997 -0.032799907 -0.17368907 0.015456193 -0.017541917 0.074388616
0.20504454 -0.194689 -0.19216858 0.25454402 -0.2075897 0.1448925 0.002104187 -0.022365743
-0.16047472 -0.10429288 -0.2260693 -0.13055822 0.16331679 0.18076572 -0.08951991 -0.19905594
-0.19294639 0.15709923 0.10467888 -0.22901621 0.078447916 -0.059632722 -0.15735443 0.23522158
-0.017628565 -0.15303499 0.000493106 -0.032759763 0.008585152 -0.07912899 0.19505005 0.18808633
0.1391873 -0.039625727 -0.13392264 -0.18548813 0.029104548 0.16649789 0.12004198 0.22330722
-0.15749411 0.32064143 -0.117489316 0.09946943 0.061092705 -0.121134095 -0.05223887 -0.090712994
0.2568187 0.08836419 0.11613905 0.12905999 0.07941824 -0.16483477 0.07107152 0.11441383
00000000: f605 353e 2e8b bf3d 5ff7 0bbe 082e 173e
00000010: c65e cc3d eeb6 a6bd 9da1 5c3e cd73 8e3d
00000020: 27f8 c23c f9ab f4bd 7cdd 09bd 8e19 b7bd
00000030: adb2 f73d bde9 153e 911f 3cbe 52b3 0c3e
00000040: 6123 563e f8a0 3dbe a1ea 80be 4687 7abd
00000050: 1c82 2c3e 8a47 d5ba f06a 50be 055d 3ebc
00000060: 123d 34bd 0f16 503e e160 7abe a7e2 303d
00000070: 2932 f5bd 46f5 59bc cd20 5dbe 0f19 3b3e
00000080: 3b99 59bd 00d4 b93d c0af 45be 6e4a 3bbe
00000090: d317 33be 0ad8 76be 3418 a43c 1198 5abe
000000a0: a50a 453e 8d98 f43c 48e2 443e aa0a c63d
000000b0: 415c b23c abcd 5abe c5e2 2bbe cfd0 803d
000000c0: bbc7 12be f6df 27be 6d4d d53d b28e 11be
000000d0: dc60 25be ce28 2b3e 1e17 3a3e 04b1 b1bd
000000e0: 91c6 96bd cd72 763e 34c3 61be 6f0c d5bd
000000f0: e8ad 133e dfb9 b2bd d3c9 d03c 53b8 733e
00000100: 487b 583e 3ed3 3dbe c0a5 6c3d 0e78 8dbc
00000110: d2f5 8a3d f229 cebd 7c83 85bc e152 3cbd
00000120: 080b 03be 3041 153e 255c 72be ca8a 0cbe
00000130: 2cd7 a63d 8ea0 5ebe 77dd 86bd 662f cc3d
00000140: a53f 9bbd 0675 a0bd 73b3 52be 34c0 0b3e
00000150: d1fb 2fbe d45b 43be 7086 a0bc dd24 19be
00000160: 3a29 263c 150b 173e ccfa b03c 1223 9f3c
00000170: f3c3 063e 8bb8 693e 3d10 47bd ba6c 90bc
00000180: 1311 8d3d d23f e6bb 0610 01be aa29 763e
00000190: 1249 6abe a4fb 6bbe 55bc 2f3e 1e2a cfbd
000001a0: ad60 473e 165f eb3d b452 dd3d 0694 c4bd
000001b0: a9f1 8f3d 0a23 3a3e cc20 643d 6b48 123e
000001c0: 55cb 1bbd 52d9 e7bd 37c2 f6bd e28b 763e
000001d0: d764 ea3d de3b 79bc fdbc 9e3c 2958 6e3e
000001e0: 5c8d 603c 96dd b13d e163 a6bd b29b 39bd
000001f0: b616 6ebe cb65 873d 8e56 ae3c 8701 57be
00000200: f951 2c3e 12d6 e9bd e8bd 373d 7683 1cbd
00000210: 9fc0 c73d 55fe 193e 5ea2 163e c8b3 f3bd
00000220: 080b 44bd d8ca 75be 6567 dabd c2fa 72be
00000230: 23ab 613e 46bc 013e d955 c13c 5a50 cf3d
00000240: 4ab0 b5bb 52f3 47be e8e4 713e 8068 663e
00000250: 7848 43be ee9c f8bd f49f 18bd b364 e9bd
00000260: 168f 24be dc2e 8dbd f187 493d 5415 09be
00000270: 4fd4 d5bd 3cc4 713e f343 a83b d838 18be
00000280: 5046 863d 6f4b c03c ad02 373e 758c 423e
00000290: 8a82 283e b498 723e 1722 dcbd ec30 603d
000002a0: 4fc1 853d b92f bd3d 9e58 d93d a260 f93d
000002b0: ce16 393d 9eb3 0fbe 0281 bebd 1ede a93c
000002c0: 9666 30bd c3f2 bbbc 75a7 383e 70cf c33d
000002d0: b7b8 403e 9912 f8bd 7e17 71bd 79eb 773e
000002e0: c801 dd3d 9af3 073e 43f3 6abe 2739 a83d
000002f0: c9b6 2bbd 82b5 e93d 7e33 b23d b144 8c3d
00000300: c6e4 813e 2a3b 703e 1f5c 8f3e 3259 06bd
00000310: 8cdb 31be f93b 7d3c 11b4 8fbc 0f59 983d
00000320: 32f7 513e 8e5c 47be d7c7 44be 9853 823e
00000330: 6592 54be b35e 143e 66e6 093b 5d38 b7bc
00000340: 7c53 24be 8197 d5bd b67e 67be 0eb1 05be
00000350: 843c 273e a61a 393e 3756 b7bd 52d5 4bbe
00000360: bd93 45be 9fde 203e e161 d63d 3a83 6abe
00000370: 4da9 a03d 7141 74bd 8521 21be eddd 703e
00000380: c869 90bc 34b5 1cbe c943 013a 1a2f 06bd
00000390: bda8 0c3c 610e a2bd 33bb 473e b499 403e
000003a0: 1e87 0e3e 964e 22bd 0423 09be 9af0 3dbe
000003b0: a96c ee3c 6c7e 2a3e 92d8 f53d a6aa 643e
000003c0: 2346 21be 1d2b a43e 3d9e f0bd a1b6 cb3d
000003d0: 583c 7a3d 2715 f8bd 6df8 55bd bcc7 b9bd
000003e0: be7d 833e 49f8 b43d 4fda ed3d 4d28 043e
000003f0: 08a6 a23d 72ca 28be f28d 913d cc51 ea3d

layers.4.conv1.bias f4 [32]
-0.0074731526 -0.009245959 -0.00860495 0.06137626 0.005451255 -0.018293211 -0.0060738227 0.005013372
0.0032258297 -0.005398532 -0.0003574035 0.05239761 0.04130008 -0.00025165427 0.0125279315 0.04025616
-0.009169242 -0.0063153007 -0.008282034 -0.0061443993 0.0063697686 0.036971606 0.039610427 0.043570377
-0.0059575257 -0.017217686 0.014501991 -0.012670948 0.040032495 0.022532655 -0.015062783 0.0019384981
00000000: 59e1 f4bb 5d7c 17bc c7fb 0cbc ac65 7b3d
00000010: 71a0 b23b a5db 95bc eb06 c7bb 3647 a43b
00000020: 7168 533b 2be6 b0bb e361 bbb9 e09e 563d
00000030: 462a 293d 77f0 83b9 f441 4d3c a5e3 243d
00000040: 973a 16bc 95f0 cebb 5eb1 07bc f556 c9bb
00000050: 7eb9 d03b 8a6f 173d 8b3e 223d da76 323d
00000060: 5937 c3bb 1b0c 8dbc c299 6d3c cf99 4fbc
00000070: 1df9 233d 6796 b83c e4c9 76bc 3415 fe3a

layers.4.conv2.bias f4 [32]
-0.0016625201 -0.020682348 0.033200063 -0.029534023 -0.016742269 -0.0013825847 -0.018947918 0.050914764
-0.023056962 0.025620375 -0.010542904 0.082891 0.053784717 -0.016995788 0.0756686 -0.031968568
0.11782109 -0.03267463 0.08558531 -0.029442541 0.10205996 0.056317165 0.087465145 0.055487193
-0.013892596 -0.016395483 0.021872567 0.016816271 0.028768629 0.0018004203 0.06593715 0.078018986
00000000: ebe8 d9ba 076e a9bc cafc 073d 56f1 f1bc
00000010: 1527 89bc d837 b5ba aa38 9bbc 008c 503d
00000020: f4e1 bcbc d2e1 d13c 25bc 2cbc c2c2 a93d
00000030: 5d4d 5c3d c03a 8bbc 24f8 9a3d 79f1 02bd
00000040: 2f4c f13d d5d5 05bd 5a47 af3d 7c31 f1bc
00000050: d004 d13d d4ac 663d ed20 b33d 8a46 633d
00000060: c59d 63bc d24f 86bc 192e b33c 47c2 893c
00000070: 30ac eb3c 15fc eb3a 0e0a 873d 6bc8 9f3d

layers.4.conv2.weight_g f4 [32, 1, 1, 1]
0.5884577 0.67596525 0.74698174 0.65916747 0.75182104 0.7331629 0.7380803 0.75984365
0.6926641 0.63620836 0.6307002 0.69522864 0.76461047 0.70864993 0.77447873 0.68459076
0.77112174 0.70250404 0.76128584 0.5983839 0.74391925 0.73277247 0.74066204 0.6917728
0.73542935 0.5589386 0.7462858 0.76316065 0.75273633 0.7427418 0.7771593 0.69814616
00000000: 2aa5 163f 0f0c 2d3f 323a 3f3f 33bf 283f
00000010: 5877 403f 90b0 3b3f d5f2 3c3f 1d85 423f
00000020: 6f52 313f 8dde 223f 9175 213f 81fa 313f
00000030: 83bd 433f 156a 353f 3d44 463f 5741 2f3f
00000040: 3c68 453f 4ed7 333f a1e3 423f b02f 193f
00000050: 7e71 3e3f fa96 3b3f 079c 3d3f 0618 313f
00000060: 1945 3c3f 9a16 0f3f 960c 3f3f 7f5e 433f
00000070: 54b3 403f 5424 3e3f e9f3 463f b5b9 323f
